Allen_Cahn4D/dataset/Dim4_5/Allen_CahenC16000_B3200.npz (npz, 769050 bytes, 4 tensors)

XTrain_Col f8 [16000, 4]
00000000: bd6b e5aa a734 da3f fc3a 5459 3740 9d3f
00000010: 61af f3cb 86ec e63f dfa9 64f6 a293 e73f
00000020: 5f54 c580 62ce ec3f 3eb5 b956 938b d53f
00000030: 134d 769b 0a1f ba3f 34cb f359 d543 e93f
00000040: 0bda fb21 2565 d83f 461d f94c 2d07 e83f
00000050: b4ca 229d 121d d53f d4bc c19a 3ad0 c63f
00000060: ae41 e54a 8be7 e73f 1db7 38b6 d5b3 dc3f
00000070: 5690 1ab7 2445 ef3f 67ab 3eec e7c2 af3f
00000080: 5d0b 9dd8 c7b8 a33f 5911 5e8f faf5 e93f
00000090: 7f06 e106 fbec dc3f d292 3e72 90fb c43f
000000a0: 5cfe 6157 7d94 c73f 9885 b49e f6ae e73f
000000b0: 262a de20 0dd8 e43f 2333 426b 6d35 c63f
000000c0: c1f2 8fdb 21f0 d13f 0cab 92b8 47bb b83f
000000d0: 9b25 2eac 03c6 e73f 8146 28fb 439f ed3f
000000e0: 4ba5 c141 35ee e13f 5324 8365 ace5 d53f
000000f0: 9667 868d 3102 e63f d2ef 66fc 1c71 c93f
00000100: 7ac7 5603 e34c c63f d491 48c3 6ca2 ae3f
00000110: 03fc 5c81 9767 ec3f 7143 fd5d 58f2 e33f
00000120: a4f0 482e 015a ce3f 8596 933f 4402 db3f
00000130: 236b db23 41b6 ab3f cea8 331a 074c c13f
00000140: 9c2d 17db b6fa cc3f 9fdd c5bb c78f e13f
00000150: 6203 2f3e 44a9 e43f cad7 6949 d489 e83f
00000160: daab e444 bc3e bd3f b1df db7b 6284 de3f
00000170: e3bb cc40 d3a1 e33f 7961 f7eb f4f9 da3f
00000180: 75b1 8d34 c4ae d83f c8dc f263 31d9 d03f
00000190: 7352 1eac 49f5 c63f dc74 560a a512 e93f
000001a0: 2fd3 7e14 4e1c eb3f 1859 e97a 2261 d83f
000001b0: 0081 2b23 cb4d e83f 6d57 e289 5f61 ef3f
000001c0: fac1 5f45 f45f d53f 0ac9 3c87 e25d d23f
000001d0: 7c80 4685 098c b33f cded 6bbb c737 e73f
000001e0: dda8 2fea 0373 d53f d85b 2a88 c6a1 d73f
000001f0: 3e94 5565 ad57 b93f 110e 54b6 cc4a cc3f
00000200: 58e8 f87b 722d e63f 59b6 7e4d 57b6 d73f
00000210: d8e6 4bba 44d8 e03f 299f 3f87 5d6a d33f
00000220: 8cc4 5bfa 9f0d de3f 022f 7242 1309 ef3f
00000230: f24f 395a 5bac d03f b83e c711 0fde ea3f
00000240: 5358 bc55 c6a0 dc3f ecdd 01ac 2cf0 eb3f
00000250: 5ab8 7e0a 599b cc3f 6d23 853e 438a c83f
00000260: 670b 62d4 c1f5 e43f da42 e14b b9d5 e63f
00000270: 1081 6cf4 af65 e23f 2079 af0b c712 d13f
00000280: 2f18 98d0 63da ef3f 45e4 ddc8 bc47 e83f
00000290: 981b e888 363f ef3f 828b 2b83 9932 d03f
000002a0: 476e eff5 04ac e93f eff8 5c40 ced5 c73f
000002b0: 5eb8 e297 5725 ed3f 85cf a5e1 122e e03f
000002c0: bf38 e81f 1792 ee3f 451f b4b4 db78 e93f
000002d0: cfd0 f14b 32c9 d53f 99f9 a473 0d19 ed3f
000002e0: 7c06 15e7 87e3 dc3f 5622 e390 e9cc e73f
000002f0: a818 c8b3 2eae d73f 7875 fcd6 154f cf3f
00000300: bed8 8d9c d836 ec3f a131 1b75 4b44 cf3f
00000310: 19bc 47a2 57da d83f d33b b7b2 3957 ef3f
00000320: 99f4 f126 5920 ee3f 3233 bd85 932b cc3f
00000330: 002a eec4 bb00 d03f cea1 7831 f322 eb3f
00000340: 071f 5c77 7480 da3f d8f2 3b86 8564 d53f
00000350: da8c 2d45 fd31 923f d18f 29bb 2909 ea3f
00000360: 358c 6da3 96e9 e23f 64ec 02fc 0df0 e33f
00000370: 50a8 ac01 2ef5 e33f 3428 8fdf d827 e93f
00000380: 2f98 578c 4bb0 e33f 16bb 5af9 4637 ef3f
00000390: 1bb8 b227 b22d d63f ae0e 2f8b b7bc e93f
000003a0: ef05 da58 0318 cc3f 42fb 4b5d 18f8 d73f
000003b0: 8076 69c0 a1ca e83f 84ab 4b14 ffa5 e03f
000003c0: f07f 7aea 1fa4 ef3f 45c0 61c4 e40b dc3f
000003d0: 2341 258a a88c dc3f b85c 965b 44f5 e13f
000003e0: e291 309f 1a3a ef3f a71c b86e 5436 e93f
000003f0: 792e 4cfb e9a1 e43f 5e9d 14f3 d45e d63f
00000400: 613a 3141 b20a e03f 3956 1df0 2faa ed3f
00000410: 3682 cf3e 540e df3f ae96 3686 879e d53f
00000420: 0b56 67b3 19e6 e63f 5a81 d525 2a11 b93f
00000430: 6df9 f610 06ab 783f 0762 be68 3959 ce3f
00000440: 6379 d3bf 7682 ec3f 4487 b964 da94 dd3f
00000450: b8f9 3abc 9d8b e83f 3871 7556 a97a e13f
00000460: 3876 6642 402d e93f d1c3 7d08 5f23 ca3f
00000470: cc6c d0a2 a1c4 e53f e813 9899 f817 e53f
00000480: 4fab 8c59 fffa dd3f 81a6 6572 e394 b43f
00000490: 3aa9 7301 e94b e73f 4da4 af45 d717 e43f
000004a0: a8c3 0634 4009 e73f a270 29c0 dd4d d33f
000004b0: aade d98c 8d69 e43f 19a9 1f50 d378 c03f
000004c0: 688d 6792 7959 ba3f a5e2 dc66 b982 ec3f
000004d0: 3dab 91b5 67e5 c23f 8642 fdfd 6801 e53f
000004e0: 5bbe 5751 90b5 643f 1efe 28b3 f361 e93f
000004f0: 0526 9a74 bbfe ba3f 931d bb37 5fc7 da3f
00000500: 67a0 0207 af5d ed3f be92 e338 65d0 ea3f
00000510: 6356 b2f7 470b d43f aa4a 5ac8 4722 d23f
00000520: 2f74 9a67 731f e73f 223b 3484 b564 e53f
00000530: 0108 16a9 50af e93f da25 8fd0 feec df3f
00000540: b2bb 9a66 2295 d53f 08ae 57ca f326 e13f
00000550: 1304 8993 4506 ef3f 4155 ef5e c00d ee3f
00000560: facc 70ff 5234 e43f 0bc6 68c0 1f0e e03f
00000570: 6f4e 5f05 498d b03f 395d b7e6 f32c ea3f
00000580: f1f7 f9e6 f355 a83f 7541 23aa a938 e43f
00000590: 9f96 356a 488f e13f 14b2 7515 fc63 eb3f
000005a0: 7422 4e2a 282e de3f a1d5 ee16 d922 e73f
000005b0: 1618 0500 7d76 ee3f 5357 2be9 9172 ed3f
000005c0: caf3 2b0e 32bc df3f 6251 4d32 05a1 b83f
000005d0: da7b 4862 be22 e03f ca3f 36d2 73a4 d03f
000005e0: fc1e f2e0 cf5d d13f dc8c d1cd 3f08 ef3f
000005f0: b320 f9d9 f0a1 d23f 1278 6d48 66ab d83f
00000600: 5deb ceac b980 d83f 567c be9e 462f e53f
00000610: 412e 786c 8fba ea3f 6506 ace9 2a6b e73f
00000620: bce8 11f4 80d8 a13f 22d0 fd12 8798 e33f
00000630: fdd6 bd38 5ff3 d33f 0b49 856e a3c7 e33f
00000640: 8613 cbe6 921a a03f 5b73 93a8 895f de3f
00000650: 6993 69de 5415 d93f 2c9c 0427 e049 eb3f
00000660: 4436 c69a c6a5 c33f 2cce b571 5502 e53f
00000670: 3b1e 0cbf fe32 c83f e369 3498 5fb7 df3f
00000680: 05dc e214 bc01 e73f d52a ffbd 4f4f cc3f
00000690: 4efc 9a68 23e7 d73f a352 19a3 aa3f ee3f
000006a0: 277f 9b6d 5b6c ad3f 422e e966 8fcf b53f
000006b0: c462 d4fd 3db8 d63f 5363 74b6 7bc1 e83f
000006c0: 4ff8 3e94 cf7d e93f 1406 a38a 5efd c83f
000006d0: 149c de29 9a8a e03f 5b8d e381 d815 ee3f
000006e0: b755 f80a 61d6 d93f 0fcc 3f30 737f ce3f
000006f0: 70d2 5676 e3db dd3f 59ba aae3 0795 e73f
00000700: 3a6b 6540 f110 e23f b129 1c83 2df3 d03f
00000710: e123 29f3 c200 c53f e74e 4689 5864 be3f
00000720: a05a 644c 8da9 c43f ff3b 7c3c 1f08 d93f
00000730: 4924 596c b23c ef3f 370f 6fd5 a36a e13f
00000740: d1c7 b212 88e6 d73f 574b 175b 288e d13f
00000750: 69bf 1540 d3af da3f e4c2 e3d0 b69b e03f
00000760: 6e2e 2280 8770 e03f 7a81 1404 18b8 e73f
00000770: 6044 fc74 8915 ce3f a15f a989 6a59 d33f
00000780: ff67 6fb7 5e7d ee3f 361b 4752 1e05 e53f
00000790: 019c 4062 7085 ed3f 4a42 a56a ccc1 dd3f
000007a0: 3860 d3f2 0f9b e93f 43a5 5a5c ef36 ea3f
000007b0: 5713 233e 555e ee3f 7276 8b11 1f82 d53f
000007c0: 71d9 af77 f13a ba3f c403 57a8 76e3 ea3f
000007d0: 6a19 2bd5 4410 b83f 6ac8 253f d4df cd3f
000007e0: e2a7 3a04 ba7c c43f 52f1 1d85 7423 d53f
000007f0: ae14 ac25 eac2 d13f 1e90 84ce 82e8 c43f
0.40946380318717585 0.02856527788849926 0.7163728698192068 0.7367720425002594 0.9001934542708446 0.33664401501922103 0.10203615470372922 0.7895304448014486
0.381173403918553 0.7508760932331959 0.3298994574098899 0.17822964245303885 0.7470146620562923 0.4484762458331362 0.9771903587575348 0.062033889378048816
0.038519139473030185 0.8112767028947402 0.4519641463449275 0.16392713144627763 0.18421904341447515 0.7401078319273209 0.6513734476041619 0.17350547539936043
0.2802815097964349 0.09660766845869889 0.7429216730972031 0.9256915955940742 0.5603281292252772 0.3421431533175269 0.6877677692566404 0.19876444172211777
0.17422139800106234 0.05983295329886898 0.8876454855561636 0.6233331523636548 0.23712172279363586 0.422013341986123 0.05412486612995895 0.13513268260368821
0.226401192643931 0.5488012950362878 0.6456624235653232 0.7668248590332436 0.11423851663555187 0.47683012099832484 0.6135040536518058 0.42150614780032175
0.3856668961732546 0.2632564045010892 0.17936058906765914 0.7835259630116087 0.8472052002240157 0.3809286308582087 0.759496277514728 0.980636376671766
0.333981578586673 0.2869802780798102 0.07635554794114968 0.7255591068819115 0.33514497632735446 0.36924899384888255 0.09899409984571236 0.2210327043795677
0.6930477544149296 0.3705042130266967 0.5263999594310134 0.3033670254503585 0.46958159874982 0.9698578164838809 0.26051982699323084 0.8396067950470387
0.44731291172627613 0.87306817622351 0.22349083912326045 0.19171944191682702 0.6549996517281728 0.7135893327741443 0.5749130033400736 0.2667710889926571
0.995408923540486 0.7587570117167465 0.9764664339025897 0.2530883580167754 0.8022484591887825 0.18621233122571065 0.9108083693042877 0.5056242377454373
0.9553332923112733 0.7960032014243345 0.3404050580641184 0.9093081721000998 0.45138738218893315 0.7437637166813811 0.3700062518768257 0.24460099217769105
0.8816950853058854 0.24427169054105227 0.38832655761410845 0.9793976297895547 0.9414487610480534 0.22007984190204294 0.25004476767995243 0.8480163542017694
0.41409026771769714 0.3342603503113373 0.017768819186483188 0.813618531753031 0.5910142127944541 0.6230535432909048 0.6236791641906709 0.7861141554251447
0.6152703991945198 0.9754977102473699 0.346539057510087 0.8042867392000141 0.21948282087764379 0.3745175276853169 0.7747353323026829 0.5202632328413164
0.9887847499521722 0.43822592904962604 0.4460851048543352 0.5611898220839953 0.9758427724050842 0.787882057426846 0.6447648914485874 0.34953807581265106
0.501305701569276 0.9270248117197247 0.4852495778450562 0.33780086619149585 0.7155884269693059 0.0979181616180588 0.006022475906716768 0.2370979081577078
0.8909257647135685 0.4622102721824499 0.7670429874777289 0.5462233246467241 0.7867738053207125 0.20420444407093766 0.6802528552974763 0.6591761588939535
0.4684446691996315 0.0803968576707579 0.7280163791995513 0.6279102669769913 0.7198792472973894 0.3016275765019235 0.6378848792073388 0.12868729984558838
0.10292777847603463 0.8909575470962251 0.14762588849711192 0.6564221344688839 0.002527982588382644 0.7932070254536858 0.10544940563899992 0.41841869776222856
0.9176859986228124 0.8379388915169199 0.31318854512333 0.28334230962461027 0.7225892089369433 0.6685435850248249 0.802650766607485 0.4988400494299562
0.3372274400707581 0.5360049201967181 0.9695155984446749 0.939178643626896 0.6313872326922187 0.5017241247171013 0.06465584164771497 0.8179873949219775
0.047530767388693 0.6319168398859306 0.5487405847931831 0.8559551638732636 0.47156719333046415 0.723003907004273 0.9519639015568397 0.9202355913246073
0.49586154350236866 0.09620697477413878 0.5042411727516722 0.2600373795366947 0.2713508316742119 0.969756986607901 0.2911340836185545 0.3854613978672897
0.38285676837738497 0.6620209789724736 0.8352734678787287 0.7318319858461108 0.034854917329498275 0.6123690958907029 0.311729245578462 0.6181199225050319
0.03145274226475352 0.47458116018770163 0.3919269725795887 0.8527680170126408 0.15349657590233978 0.6565348835851572 0.18905624702914445 0.49556722511047563
0.7189617546017649 0.22117039467987945 0.3734825631654005 0.9452717957998015 0.05746732438069407 0.08519836676094264 0.3549952486805916 0.7736185611312102
0.7966077704838969 0.19523221749663888 0.516919214035513 0.9401667153255561 0.4037096602563354 0.2382644639579614 0.46654593044812653 0.7369422384852654
0.5645681627023358 0.2648423939105227 0.16408573983269917 0.11871865607673336 0.16142431478575237 0.3911207285572686 0.9761592975784278 0.5442675751332676
0.37344552827846395 0.2743016137657625 0.41698151834770286 0.5190080718876655 0.5137364866836387 0.7412223891915766 0.23503225528887395 0.3023325294830049
0.9528039534300204 0.6568748099315147 0.9225389403335386 0.46495352186778816 0.8001785032929609 0.8192059329786975 0.9490152562726547 0.3360669776282982
0.10246190235179654 0.8402665412796684 0.09399824337297039 0.2333932216966475 0.16005635458469586 0.33028901099875896 0.27752164534497126 0.1633456714999974

FTrain_PDE f8 [16000, 1]
00000000: 5ae3 8476 6e3b d940 5182 5195 b693 bcc0
00000010: a95a 4bd4 2578 d7c0 8578 1314 1833 c040
00000020: 41ff f98c 7f14 c7c0 7047 b082 1ff3 77c0
00000030: 7389 04cc 07b1 b540 9916 492b 83b3 d2c0
00000040: ca7c d6ed a6d7 d840 fbb3 3b7c 5ac9 c340
00000050: ba6b f62d e9c3 c4c0 08e7 6197 8f60 d040
00000060: 8039 bb0e 6109 d240 f532 ad8a 9490 d2c0
00000070: 55c5 e786 b0aa c0c0 82c6 ae98 c448 d0c0
00000080: e786 81c8 ca7a 7e40 ea0b ed55 2532 c440
00000090: e2c4 266d 335f bb40 dfce 5ce6 33e7 b0c0
000000a0: e81b e913 e5ce d440 ee4b b4b5 9ef6 cbc0
000000b0: ede4 1fea e37a c1c0 d19d 6a28 80a4 d640
000000c0: 5e40 4e1f 59eb c840 5792 64aa ffa4 c940
000000d0: 6d21 8267 0899 d9c0 ee5d 8c5b 05b2 c140
000000e0: fab9 89b1 515c 76c0 0751 335a 985a ac40
000000f0: 426a b8aa ba42 e1c0 912f d37a c591 c340
00000100: 0621 1c4a f5f7 c0c0 23cb b299 8939 c7c0
00000110: ecc4 43eb 037d c0c0 a31b 5ce6 5ce1 b040
00000120: dc93 1805 eb25 dfc0 c5b9 a366 01f2 c3c0
00000130: e4c9 0870 8a48 ddc0 8c76 d4d7 7d47 dec0
00000140: 19e1 b985 0dbf d3c0 9bbd 6104 ab66 cd40
00000150: 4b55 8fd3 a058 b9c0 3467 866a 6b48 d640
00000160: 5c73 4390 ce86 ddc0 bf02 e000 97d3 a040
00000170: baac d5c1 75e6 bf40 15b8 cc45 0f8d d040
00000180: d285 4bd2 5df2 c640 4072 eb07 a91b d740
00000190: 0b9b 7538 cd21 d8c0 4a30 1aa0 efd0 cac0
000001a0: 10ee 6d59 783d bb40 6264 7e7a fb96 d840
000001b0: 2d47 e41b 795b c240 b14d 0f8b fe62 bf40
000001c0: 7ce5 c0fe 1bc6 d7c0 a14c 7ff2 acf5 b940
000001d0: 4bc8 0f8c 5051 c2c0 9900 5305 5d3d d440
000001e0: aa7b bea3 bdfd c540 a406 544d 8a8d d6c0
000001f0: e4c5 1cc6 b63e a7c0 81df 0446 ff7d c640
00000200: 25d1 7650 3a26 c140 d5f3 fb61 a160 c9c0
00000210: c0a4 7ed2 9b42 d4c0 28e6 90ee 01b4 d1c0
00000220: 7053 2bb6 8100 7e40 c524 e631 3140 cac0
00000230: 4c3d 4056 aa2d 5640 58c1 f967 8150 ca40
00000240: 29db d1bc 87ea da40 1ac2 8736 aac2 d140
00000250: 5306 dfbe 5b22 aec0 5f4a b291 79b2 d740
00000260: b9d9 c848 05f7 a140 6188 856f 7820 d4c0
00000270: 1fc2 c749 ab68 cc40 0f21 245f 28d7 d540
00000280: c8ea a08c 7fae da40 033f c298 02f7 d1c0
00000290: 8772 68ff 2870 cc40 c173 fbf7 efe7 c2c0
000002a0: cc42 7404 06d4 93c0 b666 4cd0 cfe7 cbc0
000002b0: 8ee1 0b20 4872 b340 b2c9 8b7e d554 dfc0
000002c0: 7f0d f74b bdcb c4c0 2faa d80b 5bdb abc0
000002d0: 64f7 d93c 0bc5 cd40 e28c c3a8 4b4c d740
000002e0: 1381 dd93 5f72 dfc0 ba4a d321 22c6 b440
000002f0: 4776 1f69 7057 d5c0 546d 31c9 f88c db40
00000300: 26c9 0b5d 1786 c840 bfb8 770f 224a dc40
00000310: 84f4 6543 610a d7c0 0d2c f332 8772 b7c0
00000320: d3c1 1c62 1e21 c1c0 56de 4212 ae76 c540
00000330: c70d 6f98 4637 a640 a19b 11f1 73cc d040
00000340: 0694 0501 eb6a d140 ae18 8075 6393 cdc0
00000350: 151a 1ac6 8844 a7c0 1941 a41c 8078 b140
00000360: e561 6b79 a13e d340 a69b 32a6 d381 9bc0
00000370: 6f71 dc37 63c5 d1c0 7036 5bd5 3007 c4c0
00000380: 118d 8236 36de d0c0 1dca 0a60 99cb d7c0
00000390: 0d91 d1d4 285b d340 5a52 5132 4f31 cdc0
000003a0: b28f 5b01 9989 c1c0 03e9 1efd 3863 b440
000003b0: b8cb aff9 0d28 d7c0 c9d2 791f cc09 d9c0
000003c0: 1e4c c80e 6b94 d840 bedf b9ee e53f d1c0
000003d0: cd54 7388 d98b d8c0 4989 b04a 4271 cdc0
000003e0: bd3c 0274 685e d0c0 e315 3494 c1e5 b140
000003f0: 85f8 e339 234b dec0 cd49 7778 1126 cfc0
00000400: 6fb0 6ca5 6b6a a740 e81a 85ec f733 d4c0
00000410: 832d e5cc 261f da40 149e 744e 6947 b540
00000420: c8d5 4b85 713a d140 40c9 40e4 1cc3 d7c0
00000430: 9902 c131 7725 cf40 64c3 a776 7b33 d4c0
00000440: e42b ead0 e6f8 a5c0 9850 9e78 3a4b dc40
00000450: d045 3355 c467 d7c0 179d bb1e 290c 9cc0
00000460: 969b 5204 d0f4 ce40 1d25 aa2b 4dbb ddc0
00000470: 42b1 3306 c3e4 c6c0 bef4 ea55 91fc d7c0
00000480: f471 dc43 8289 d540 fc37 9d2a 28ad c8c0
00000490: 15d5 b212 0a78 c740 ed71 fd4b c49e d440
000004a0: aa61 8863 bae1 cdc0 ffcc 5e60 12d2 d540
000004b0: b602 fd7e 19f9 92c0 0434 83f9 f4e9 9640
000004c0: acce 50f4 2a76 cb40 fa9b ec69 3a83 dbc0
000004d0: ab7b 2ccf 3001 dbc0 197d b1fe 7621 ba40
000004e0: ab5b 92db b96a da40 a660 8c41 051e bcc0
000004f0: c5a5 9164 a25c a340 22f2 0444 0cdd d2c0
00000500: 976d d7c1 04cd d9c0 58ba b981 8476 e0c0
00000510: b88f 104f 2d6a c340 0149 3e4e b5e8 c5c0
00000520: 7c32 585f 31bc 8dc0 825b 6aef 44da b040
00000530: 646f e5c0 ea0b b040 9b76 f9ae b8bd c5c0
00000540: afb0 1971 d8c3 ce40 617d 24f5 be66 ccc0
00000550: 4b73 a829 573c d8c0 3a92 8198 a9bb b7c0
00000560: 1254 ebe1 5af8 d1c0 f1ad 3cbc 6e43 e040
00000570: 8315 9336 899f d940 2a64 2a93 26bf a940
00000580: 822f 4eda 65c7 b2c0 c1bd e7dc 0c1f c640
00000590: e714 e636 da1d ddc0 f8eb 8730 1e14 b640
000005a0: f8ac 1d31 8ef6 db40 001b c19d 2771 9340
000005b0: 5ef4 2611 ddfe d4c0 c43a ed3b e416 cd40
000005c0: 3f16 a44c 7432 c7c0 0080 b7a8 ad82 cec0
000005d0: d761 8470 5c80 c2c0 5da3 ee1e 5344 d740
000005e0: b1db f185 4179 cec0 b863 bf28 c2ec cfc0
000005f0: 8c13 e5ba d6d4 dcc0 2c95 3bff 1cbc a940
00000600: cdbb 1d02 33e9 d3c0 a4dc 57df 5ac4 de40
00000610: 882d 377d 1a8c d640 3db0 9998 873e 8dc0
00000620: f141 152c 877a a740 8628 bd0f 22ad b7c0
00000630: 0a5f 0eb0 70b4 c4c0 5137 9efd 3187 a840
00000640: 40e4 a92d b041 de40 a539 5700 72b5 c9c0
00000650: ba1d 30fb 2694 6640 9081 fe47 7891 d1c0
00000660: 2ebf 86cb 0d1d d840 a1e9 cf4e 3f82 d940
00000670: e7de 325e a6c9 d740 f374 2e8d 53d2 cc40
00000680: aca7 05e4 1740 c8c0 d8a1 4140 ebc2 a840
00000690: dfac 290a a0dc da40 f810 05e2 b0b3 a3c0
000006a0: a32a 2fd8 3df4 e040 e50a 8265 d525 9cc0
000006b0: 72db f562 94bc d0c0 bb23 db00 3510 b0c0
000006c0: 9b00 1f70 e6e1 d4c0 ee7f ce9a 7bf6 bb40
000006d0: 540d 90da 2f10 d4c0 aeac 4fff 5092 d7c0
000006e0: e39c 51a1 8738 d840 f747 d244 aeee de40
000006f0: 1a83 e0b5 af77 b6c0 d488 100c 72f2 c140
00000700: 718f 2a6d b915 c4c0 7e20 71ed 95a6 bbc0
00000710: f25d b1de fdf0 dd40 9626 221b 5e74 c9c0
00000720: b3fc e1ea 6803 dec0 4f05 956a ee7a c540
00000730: 5ae4 dcc0 14a5 cbc0 e95c c172 daf4 b340
00000740: 10fe c9d9 cb9f d6c0 82a5 eaf1 8325 c8c0
00000750: 7fe5 3c5c 9d00 de40 b996 3fe6 ff85 cdc0
00000760: f19b d2f4 4ac9 a8c0 91eb 7997 7591 b0c0
00000770: e3a5 72d2 407a c5c0 5fd8 fff0 4f13 d6c0
00000780: 7535 d2a1 38cd ca40 72b2 ce96 da99 ce40
00000790: ca65 f7e5 2d09 cd40 8acd e956 6ba1 bec0
000007a0: 04a2 2656 be57 df40 be02 7d1b 4a67 e0c0
000007b0: f004 6ac2 131b 9d40 8ed9 4745 4bd7 d0c0
000007c0: 8fa9 bc4d f506 c940 0bd8 643d 69af d840
000007d0: 9b1c 4ae3 5697 b940 d3de 5fb3 5a8a 8d40
000007e0: bf58 902d 8e8e 9340 8df6 d3f3 a59d e040
000007f0: 3b2f 682d 4998 db40 16d6 da04 a00e d540
25837.725983831428 -7315.713215917888 -24032.591082418952 8294.18811267266 -11816.996489762912 -383.1951929937268 5553.03045681339 -19150.04951693732
25438.608266469826 10130.706916296846 -10631.821715166665 16770.24361465036 18469.516524130013 -19010.320964145434 -8533.379116984705 -16675.071819013458
487.6745076236388 10340.29168475229 7007.200884268825 -4327.202733803278 21307.579340245487 -14317.23992017467 -8949.780582415371 23186.002466825597
12758.69626787322 13129.997387477355 -26212.13131764664 9060.04185633265 -357.7699447040501 3629.297563174859 -35349.83333988908 10019.542810819841
-8687.91632415402 -11891.0750030033 -8442.03061720958 4321.362890011546 -31895.672186035532 -10212.010944810589 -29986.163088032874 -31005.966298213738
-20220.211286992857 15053.336071221906 -6488.628228147815 22817.678376770767 -30235.22755514398 2153.79492855104 8166.459988932294 16948.23863523461
11748.732980194418 23662.641108380863 -24711.20657100812 -13729.872073434428 6973.470114584561 25179.929351423292 9398.946163687471 8034.994309383838
-24344.43742391978 6645.675575214585 -9378.629274342346 20725.45344996508 11259.481559572585 -23094.160969740376 -2975.3569802276197 11515.994324311383
8780.455580570337 -12993.260802740153 -20746.43472257699 -18128.030185913813 480.03166787075224 -13440.384335296587 88.71352154038794 13473.010985583693
27562.120899642967 18186.659578265717 -3857.179190606615 24265.899517605427 2299.510320927217 -20609.881806739028 14545.338189096246 22364.6308069537
27321.992958287505 -18396.04057365564 14560.320294433519 -9679.87475531723 -1269.0058763662119 -14287.623544263985 4978.281738989417 -32083.335848757713
-10647.478880769339 -3565.6778247554535 15242.087794538304 23857.18217552908 -32201.493399978684 5318.133328634018 -21853.756416192537 28211.887279850736
12556.182527039735 28968.532194071213 -23593.519738663468 -6002.528121183638 -8770.237369150773 10989.359932287753 2843.6378817276304 17201.811588670713
17835.671937365107 -15142.777023326922 -2978.267136398014 4472.500437036412 19706.523035855866 -1760.456688681364 -18197.550284491324 -10254.381511117535
-17272.84707702423 -24366.39648694742 19820.637989417697 -14946.618723073207 -8979.195353932537 5219.222612316024 -23712.218364666885 -25639.1894211348
25169.672777246793 -17663.592695683 -25135.398953278363 -15074.517904345545 -16761.63208061153 4581.756167655319 -31020.550408356376 -15948.136488829647
2997.210246464288 -20687.873811031604 26748.606255812116 5447.411353386491 17641.773760756274 -24332.451431461843 15946.93120586993 -20685.929117146312
-2812.4508126429155 28972.913611963944 -23967.067700212647 -1795.040156299079 15849.625131917925 -30445.20579007744 -11721.523626767685 -24562.270869006163
22054.035391913683 -12634.31380048021 12016.078695634884 21115.06713806272 -15299.456162498176 22344.287131977264 -1214.274898484507 1466.489233064699
14060.335580922045 -28172.912715103455 -27652.762644882936 6689.464823811571 27050.904026593704 -7198.020531438442 2478.317173530088 -19316.191651569803
-26420.074331147214 -33716.14083563228 9940.353975362945 -11217.416450296065 -951.5241076364905 4314.269278189984 4107.917005862899 -11131.442839796937
15751.690951548835 -14541.49185615656 -24817.361917603102 -6075.662483308983 -18401.42003901682 33307.46047815297 26238.143955966003 3295.5753415343543
-4807.397862326239 11326.100491492894 -29815.409600754178 5652.117928023443 28634.221747797885 1244.2886877224664 -21499.454171885147 14893.783078817076
-11876.90858889662 -15621.35671132803 -9472.722183749936 23825.298762950453 -15602.511900169631 -16345.516868518534 -29523.35515715512 3294.0566347713084
-20388.797004159354 31505.419881787748 23088.413892549957 -935.8162090308102 3005.2640082018847 -6061.133052656549 -10600.880372806936 3139.597638077023
30982.752787087345 -13162.890635398051 180.62975844762497 -17989.879394175077 24692.21554726286 26120.989185312417 24358.59949943321 14756.652746016602
-12416.186646181937 3169.459474612242 27506.500620287723 -2521.845474394151 34721.93263967826 -1801.458395034709 -17138.31854006224 -4112.207044311736
-21383.60059332904 7158.482830911858 -20544.74771500875 -24137.265582960732 24802.119221118173 31674.72295052555 -5751.686368972785 9188.890993182002
-10283.4486439896 -7078.585654325898 30659.96671709227 -13032.735203045693 -30733.639336106087 10997.862627627937 -14154.162135707378 5108.853313527282
-23167.185167787655 -12363.030820208372 30722.458754753225 -15115.99921412334 -3172.6463990989073 -4241.4593425941575 -10996.506422358512 -22605.24908443575
13722.442438388922 15667.707727276927 14866.358580517484 -7841.419294941597 32094.974008234232 -33594.31585550819 1862.76929631858 -17245.176103556114
12813.916434843819 25277.644372187595 6551.339405662521 945.2942874421955 1251.6388456873099 34029.186014157814 28257.14339642155 21562.50029631526

XTrain_Boundary f8 [3200, 4]
00000000: 0000 0000 0000 0000 e4a6 9704 cba5 c73f
00000010: a9c6 8592 bd53 dc3f 033c 3620 a542 ed3f
00000020: 0000 0000 0000 0000 a480 e3db 05d4 ee3f
00000030: 41e7 f3a3 4f91 e43f cf1a 9c63 58b4 e23f
00000040: 0000 0000 0000 0000 dc95 fd50 1616 ef3f
00000050: 18e2 c8cd 0faa ed3f 5f0e d9ec c436 ee3f
00000060: 0000 0000 0000 0000 570c aec8 9ee3 eb3f
00000070: c645 0927 8224 da3f 6177 7a2f 09c0 ed3f
00000080: 0000 0000 0000 0000 0410 9f80 90fa ea3f
00000090: c37f aa64 dfaf e83f 8ce9 b55e b2f6 ea3f
000000a0: 0000 0000 0000 0000 26cd e5a8 6cb2 e73f
000000b0: ee6e a45a 9abc d33f 2324 8452 3830 dd3f
000000c0: 0000 0000 0000 0000 d424 1f0c 1437 e13f
000000d0: e597 b2dd 9569 d73f 175a bc81 127b d23f
000000e0: 0000 0000 0000 0000 2360 6305 c30b db3f
000000f0: 7f08 4e52 67ec a93f 3a61 16eb 9718 b73f
00000100: 0000 0000 0000 0000 604a b1b8 cbb2 ba3f
00000110: dfc7 1aa5 3d4c ec3f 6998 546c 7e42 e73f
00000120: 0000 0000 0000 0000 2c72 9278 943e d03f
00000130: 5f22 983a ec51 dd3f 9aeb 662f 3c12 eb3f
00000140: 0000 0000 0000 0000 ad39 d7c0 2e95 e03f
00000150: 4ee3 f02d da89 e33f 2ddd a8bd d0af d93f
00000160: 0000 0000 0000 0000 1b5c d40b f0b8 d83f
00000170: b289 9164 10eb d23f f44f b7eb c7b8 c93f
00000180: 0000 0000 0000 0000 0f8b 68dd 8f5e b33f
00000190: 1714 d2e4 d2b6 db3f 4cd8 a347 5a83 ca3f
000001a0: 0000 0000 0000 0000 2007 ad7c cbfa d43f
000001b0: c300 a678 f5b0 c53f 9bb6 dd8e 0810 c53f
000001c0: 0000 0000 0000 0000 f420 f250 430c ea3f
000001d0: 882a fdc7 fce6 ea3f e4cb b462 84dd e23f
000001e0: 0000 0000 0000 0000 2336 7eb3 7068 ed3f
000001f0: 8d26 b3ec 107d ea3f 8e22 3fc1 daa5 e43f
00000200: 0000 0000 0000 0000 ad9f 0744 b036 ec3f
00000210: a524 caba 722e d03f 28cd ed34 b752 d73f
00000220: 0000 0000 0000 0000 7bc1 9938 7e1f d83f
00000230: 1756 6845 7540 e53f 3115 3e38 f31b b33f
00000240: 0000 0000 0000 0000 4eb6 fe63 e1b5 d63f
00000250: 60ed 4452 5c94 c03f cc2a 31ac 9e25 e23f
00000260: 0000 0000 0000 0000 0cee de00 a95b b23f
00000270: f3fb 2607 333b ef3f fc81 1f79 afa6 df3f
00000280: 0000 0000 0000 0000 c923 6c52 0171 9e3f
00000290: cacb cf18 9475 da3f 36e5 abfa 62b6 e83f
000002a0: 0000 0000 0000 0000 d4d3 12f6 05d2 e03f
000002b0: e8aa d9d0 0678 b23f 8456 1b5e 4d82 c43f
000002c0: 0000 0000 0000 0000 12d6 ee87 8849 e53f
000002d0: a4db 662f 8cf5 c73f 64c1 91f5 e576 e53f
000002e0: 0000 0000 0000 0000 1625 a42e cf37 e63f
000002f0: 1b49 51b0 93b4 eb3f a37d 3999 2e87 cc3f
00000300: 0000 0000 0000 0000 045d 9787 7aba ae3f
00000310: 8f93 78ba ccad de3f f77f 3ec3 8909 a73f
00000320: 0000 0000 0000 0000 00bd a5e1 f6ee 543f
00000330: dcad 3d39 49e7 e83f 8cfb fc9f 02c7 c83f
00000340: 0000 0000 0000 0000 1168 fe07 2254 e73f
00000350: df20 8165 5377 e53f b74f d156 82f2 e73f
00000360: 0000 0000 0000 0000 d12f 97b4 3754 e83f
00000370: 68db 5533 a81c e83f 912d e641 81e3 dc3f
00000380: 0000 0000 0000 0000 2671 9007 d2a1 c03f
00000390: f701 06fd 4510 d03f 145e 2fb1 d831 ef3f
000003a0: 0000 0000 0000 0000 5282 1926 946e ec3f
000003b0: 7f8c b3d1 19d3 d63f e14a 9b68 0285 de3f
000003c0: 0000 0000 0000 0000 14a7 f721 1e46 c53f
000003d0: 3a70 cb2d 0b78 d83f 8df7 b42b ae3a ae3f
000003e0: 0000 0000 0000 0000 5ba9 068d bbab b03f
000003f0: f6c8 3576 79e9 c23f 5d04 5d3c f237 d13f
00000400: 0000 0000 0000 0000 96f4 f7e6 78ec de3f
00000410: c6ea f6c9 5593 db3f 3465 5f46 db23 e73f
00000420: 0000 0000 0000 0000 7be2 6160 3212 e53f
00000430: 2819 492a 9c55 e03f fc25 447e 6268 e33f
00000440: 0000 0000 0000 0000 4e67 d50b a16c cb3f
00000450: 269a 91d9 8461 e33f 1607 6082 a6ae e73f
00000460: 0000 0000 0000 0000 cfef 8857 9ed6 ca3f
00000470: 97db b79e cc6a ea3f 4a3d 7e04 7889 e03f
00000480: 0000 0000 0000 0000 1697 c66d f21b d13f
00000490: 8841 2d7f b46d ef3f c0b7 7971 b256 df3f
000004a0: 0000 0000 0000 0000 71cc 348d cf39 c23f
000004b0: 6013 3d06 6f05 ef3f e000 a4c6 f075 ef3f
000004c0: 0000 0000 0000 0000 2de7 e16b a3b0 e23f
000004d0: d177 2f93 0941 d83f c178 8e4f c560 ee3f
000004e0: 0000 0000 0000 0000 0a0f ac60 9b90 df3f
000004f0: b7f4 1ab6 b22f e53f f184 f1b0 c641 e23f
00000500: 0000 0000 0000 0000 ec65 6e6e 246f da3f
00000510: fa0f 2910 3634 a93f 6e35 6eb6 7cb5 ef3f
00000520: 0000 0000 0000 0000 031b 28bf ea04 c33f
00000530: d808 a1b6 cc84 e23f 7c31 9370 066b d63f
00000540: 0000 0000 0000 0000 8837 07d6 5e2c a93f
00000550: b2e5 8f7b 77f4 cd3f a80a 03e8 f830 e93f
00000560: 0000 0000 0000 0000 eaca 4da3 0283 ee3f
00000570: 01f9 02b5 61eb eb3f a042 bf0f 8ac8 de3f
00000580: 0000 0000 0000 0000 5234 1b31 6083 ea3f
00000590: 0e25 18ad 38c5 bb3f 910a f6ac 338f e73f
000005a0: 0000 0000 0000 0000 ecd4 deda 9ed5 e33f
000005b0: bcb1 8024 ffd6 b83f 97bc b6d3 4376 ee3f
000005c0: 0000 0000 0000 0000 1332 6190 e7fa c53f
000005d0: b254 cabf 7f01 eb3f 5813 9442 4547 c73f
000005e0: 0000 0000 0000 0000 fd49 5a92 c038 ef3f
000005f0: e960 4987 6725 ef3f cf59 cdd6 7b2f eb3f
00000600: 0000 0000 0000 0000 4d16 b31c 6b23 d13f
00000610: 9c84 f2c1 423a e03f 2007 43a4 c74f ee3f
00000620: 0000 0000 0000 0000 67e9 7bba 462a e13f
00000630: cd92 3449 7c72 e93f 29e1 ea4a 3490 ee3f
00000640: 0000 0000 0000 0000 28b6 5cba 3c03 e63f
00000650: 3117 f456 30b8 d63f 5e26 851c 8db8 a13f
00000660: 0000 0000 0000 0000 c417 cbf3 7281 e23f
00000670: a83d d770 682d d63f a991 8cad 0ad1 ea3f
00000680: 0000 0000 0000 0000 5de6 7fc7 045a d93f
00000690: 1344 2af4 3caa e63f 2595 a6b7 e603 ea3f
000006a0: 0000 0000 0000 0000 36a9 bcb7 f1d1 eb3f
000006b0: a2fb bad0 7728 e03f 869c ca1a 0eea d93f
000006c0: 0000 0000 0000 0000 44c9 7e98 b096 e83f
000006d0: 26e5 c4b8 1824 933f d28d 8896 6e50 eb3f
000006e0: 0000 0000 0000 0000 5feb 7089 d7d0 ef3f
000006f0: 48c3 7f84 2fb4 bd3f 52ad 4dd0 d3d5 ec3f
00000700: 0000 0000 0000 0000 846c 0c2d 0c36 e43f
00000710: 5bbf ef1f 0261 d93f 8688 f786 5db1 d03f
00000720: 0000 0000 0000 0000 25c7 a9ac 8fa5 e63f
00000730: 7b1b 4e31 d9a7 e03f 96b1 11e0 a180 d53f
00000740: 0000 0000 0000 0000 cc84 8003 19b2 ef3f
00000750: 036f 0a1d af8b de3f a075 2e60 8663 e93f
00000760: 0000 0000 0000 0000 6459 5b69 f69a ee3f
00000770: 255e a4fa 09e9 e53f da6f e1c9 de8c b43f
00000780: 0000 0000 0000 0000 4995 68cf 7969 de3f
00000790: a809 31a7 66e6 ca3f 8401 acaf 57e8 db3f
000007a0: 0000 0000 0000 0000 3823 d9b0 5af7 ce3f
000007b0: a3d6 4eec 4de2 e93f b73a e1b5 be40 db3f
000007c0: 0000 0000 0000 0000 e3ab 0b7a 4459 eb3f
000007d0: 235f 51c5 dd60 e53f b33d 3b8c e10e d53f
000007e0: 0000 0000 0000 0000 4158 3afa 11b8 ec3f
000007f0: c15c 5add 8f5c d63f 89fe 65a6 3be4 ec3f
0.0 0.1847471020149022 0.4426111155399704 0.9143853787553556 0.0 0.9633817000103773 0.6427381708337877 0.584514803457603
0.0 0.9714461881491689 0.9270094889862461 0.9441856981215543 0.0 0.8715356750038933 0.40847829639559696 0.9296918799698056
0.0 0.8430864822516928 0.7714688268788382 0.8426143503013903 0.0 0.740530328634496 0.3083864102534183 0.45606811578960754
0.0 0.5379734265090073 0.3658194222465439 0.2887617365790062 0.0 0.42259288335981376 0.05063174133012271 0.09021901597441664
0.0 0.10429070719809763 0.8843067383479556 0.7268669238881219 0.0 0.25381957792868337 0.4581251690110885 0.8459759641476581
0.0 0.5182107702656161 0.6105776688847102 0.40135592004249326 0.0 0.3862877002260931 0.2955971700777368 0.20095156678746628
0.0 0.07566165118673161 0.4330336794449194 0.20713356493041812 0.0 0.32780730414752846 0.16946285620725207 0.16455180145151335
0.0 0.8139969426129299 0.840696707347278 0.5895406654220747 0.0 0.9189990525935098 0.8277668593447786 0.6452459120128695
0.0 0.8816758469301839 0.2528349708669089 0.3644235627063659 0.0 0.37692218329814126 0.6641184192291715 0.07464523432834792
0.0 0.35485110058912006 0.12952760712674216 0.5670922625662 0.0 0.07171112319240808 0.9759764804547316 0.49454867199349883
0.0 0.029727955489793154 0.41342642233865645 0.7722639938284945 0.0 0.5256376081584855 0.07214396094211006 0.16022650809343386
0.0 0.6652262358608729 0.18718101801434017 0.6707639499928004 0.0 0.694312659355236 0.8657930797292325 0.2228754280249464
0.0 0.060016469051044324 0.47935789308604 0.04499464519835777 0.0 0.0012776766730800415 0.7782331579195971 0.19357331096577146
0.0 0.7290201336029459 0.6708161337383237 0.74835316616599 0.0 0.7602804686698567 0.753498173012173 0.4513857978388041
0.0 0.12993836755129812 0.2509932490284252 0.9748347721715072 0.0 0.8884983772405326 0.3566345737328404 0.47686825004090677
0.0 0.16620232256473655 0.3823268840039905 0.05904144557506106 0.0 0.06512043183343989 0.1477500750730269 0.2690396871076411
0.0 0.4831831222107409 0.43086762164209025 0.7231270193543993 0.0 0.6584712870090493 0.5104504419221358 0.6064922777306374
0.0 0.2142525966435706 0.6056541680707752 0.7400696321858244 0.0 0.20967463754811752 0.8255370235409484 0.5167808616405776
0.0 0.2673307487515201 0.9821417316361911 0.4896665676268377 0.0 0.14238924403034361 0.9694132921073155 0.9831470374774902
0.0 0.584062300403479 0.3789695680005681 0.9493128351057508 0.0 0.493201107412674 0.6620725208992074 0.5705293136526547
0.0 0.41303358825970693 0.049226464722352106 0.9909041941734082 0.0 0.14858755430051226 0.5787108962033711 0.35028229707383907
0.0 0.04916664469384019 0.23402303250604245 0.7872280627710397 0.0 0.9534924687889916 0.8724831138022467 0.4809899476795554
0.0 0.8285370787722377 0.10847810960708079 0.7362306955477199 0.0 0.6198267245114528 0.09703058854274266 0.9519366393123104
0.0 0.17171949910915937 0.8439329858689659 0.18186250449084684 0.0 0.9756777628375058 0.9733159677807893 0.8495463557581447
0.0 0.2677867679852611 0.5071119106325059 0.9472387512434786 0.0 0.5364106790796485 0.7952252797882352 0.9551030600769411
0.0 0.6878951682935552 0.3549919938235347 0.03461113904138523 0.0 0.5783018838490013 0.34652148265464655 0.8380177869444668
0.0 0.3961193035353057 0.7082810181474336 0.8129762255599969 0.0 0.8693779553043786 0.5049399449124972 0.4049105893740904
0.0 0.7683947542593974 0.018692384984409526 0.8535683574777357 0.0 0.994243400992996 0.11603066429939901 0.9011019771982467
0.0 0.6315976028303258 0.3965459167366043 0.2608255212818523 0.0 0.7077101108863856 0.5204893076887481 0.33597609407186135
0.0 0.9904904430769874 0.4772756370164048 0.7933990362686707 0.0 0.9564163263083114 0.6846971412041439 0.0802745097038832
0.0 0.4751877332185655 0.21015628017091825 0.4360560622735863 0.0 0.24192365298429208 0.8088750472440619 0.4258267189187949
0.0 0.8546469100668869 0.6680744985451138 0.32903326696847585 0.0 0.8974695098174906 0.3493995343828367 0.9028604745835348

YTrain_Boundary f8 [3200, 1]
00000000: 1496 3123 b5eb f3bf 7495 aae7 b2cf eebf
00000010: 93a9 3147 e7fd e6bf 936d 5ff1 e414 f53f
00000020: b9e0 3fcb 9939 f4bf 377e 8663 b1f3 febf
00000030: 324d bebf e0bb f53f 42da 6c56 ed8f 0540
00000040: 90de 4f5a b52f c4bf 7264 9ebc 049e 07c0
00000050: 42a7 06b1 afce f93f 8ab1 5c19 f66f 0340
00000060: 10e4 2cbc c09b e13f 0c27 9eed c758 0540
00000070: a9bf 1f4f 19fe 01c0 f993 2037 311b e8bf
00000080: b929 2fe1 ec50 f83f fc8c dea0 c7c9 eebf
00000090: b36b 1f39 44e2 e33f 62dc d84e 9abd f73f
000000a0: ac7f 883a 146f 02c0 1404 cb8c dcbc e03f
000000b0: 18d4 b43a 6981 01c0 b404 0e9f 47f4 f93f
000000c0: 9900 cbea 51d8 f7bf fe8c 0086 b833 e8bf
000000d0: 3ff3 6f88 46f1 c43f 084b 7f81 5021 c73f
000000e0: 10e9 6c80 4714 ea3f 06e7 33b0 9429 e13f
000000f0: 2bd8 3805 60f6 f0bf a613 0c33 c33d 0240
00000100: 82b2 b369 9882 06c0 b6b0 bc2d bc7e e13f
00000110: 705b 70c3 a020 bd3f 7c30 426e c3e3 d6bf
00000120: 4c75 136f 2c58 0440 30bd 18aa a20f f4bf
00000130: 091c 500e 275a 0040 5095 577a 12b0 ec3f
00000140: 5baf 2e6e b68a e7bf 6107 44e1 a18a ef3f
00000150: 96ca caae d68d e5bf 8e7c ac93 0a3c 0440
00000160: 66b1 52f9 71ad 03c0 983e ee3b 82ff d2bf
00000170: ea14 c863 a878 db3f 72a7 f067 38ca f6bf
00000180: 1609 09fb c55e e4bf 8896 dc1b fbd5 b43f
00000190: 5ae0 cebb 5d8a c13f 2843 4c91 6684 fbbf
000001a0: 9a48 8904 89de dfbf 5401 d09b d636 f23f
000001b0: 222b ac5c 1767 02c0 e71d 428e 4748 eb3f
000001c0: 44c0 272b 51d4 ec3f 40ab 27f0 ae8c ef3f
000001d0: a22d 40ec a8fc f2bf 3b7c bdb4 f48d ed3f
000001e0: 7d19 89e4 d27a f1bf 0159 53e6 5ae7 f33f
000001f0: dcef 88ce 646c e03f 24c8 813f 91b8 e8bf
00000200: 222a 5f40 6790 d6bf e906 2c5d 72a3 ef3f
00000210: c896 5844 5842 fb3f 0879 0745 73e2 c2bf
00000220: 966a 3608 9ec6 f23f 075b 5ddf d849 d33f
00000230: c464 1e2c 01a7 b4bf 80cd 75f2 fd75 a5bf
00000240: 0917 56f7 ab23 fb3f 5176 9f5c 6a02 ec3f
00000250: 9e38 de30 e874 f03f 5697 ef38 eff3 d83f
00000260: c0d8 f5a5 c908 c53f 9ae8 cbcd 2838 f0bf
00000270: 368e 6a0b 649d f2bf 9c1d c80f bfee e83f
00000280: 654e f51f c947 e63f 54d2 0d6f dacc f5bf
00000290: 6384 0c5a 0ee2 f5bf 8c62 2cd1 5364 0340
000002a0: 2645 e8a9 e24f 0940 4612 aff2 a320 d43f
000002b0: ce21 8737 8db4 f83f b465 531f 1644 f8bf
000002c0: 58d1 8715 5332 f13f 5e4f 4be6 85d0 f73f
000002d0: afe4 fdde 628e dabf 40f9 0385 75d3 fdbf
000002e0: 0d2a 21fb 8cbc 01c0 6024 2e98 ac9f fbbf
000002f0: 8a25 5608 1e33 03c0 aea1 3235 2b1d f0bf
00000300: b0f2 e1ed 10c4 e3bf 65b2 8896 3e6f ea3f
00000310: 329a b344 b474 eb3f ce43 15f6 8d71 fdbf
00000320: f81f d1b4 9e04 e2bf 9079 ed6a b7d7 d63f
00000330: d83a 0770 66c8 d23f 0a83 cc9f a185 febf
00000340: 0827 1d5d 6e6e 07c0 d048 2e10 8b80 0040
00000350: 539f e4f6 b423 04c0 d146 29a9 d09c 01c0
00000360: 40dc 64ca 9e10 d43f b512 a5a8 82d1 f1bf
00000370: 1473 4af2 659b dcbf 4995 1096 4e87 dc3f
00000380: 743a 6ece 7ccb d3bf 7c93 68ce 5b73 f3bf
00000390: 84ce 1bc0 15bd edbf f622 40a5 25f6 f8bf
000003a0: b1c3 ca31 c455 ddbf 419a 2ea0 6359 e8bf
000003b0: f8f6 17d6 8aeb e6bf 24bd e94c a10c f9bf
000003c0: e91b 7ee1 7f42 f83f 34b7 aa74 d389 fcbf
000003d0: 98d1 4ea3 fcdc f33f 3f05 3e4b 17d7 fd3f
000003e0: deb1 96a0 f6af f5bf 2120 b233 39fc fd3f
000003f0: 8d1d a778 a0b3 0240 5958 9fe3 f031 e63f
00000400: 3a0d 10ca 27e7 c3bf 2c4f e635 ab0c d33f
00000410: 945b d7b9 87fb ea3f 123a 01a8 6bef f63f
00000420: 6a54 d0d2 3ea8 f13f 0437 0f4d 8840 e53f
00000430: d09d 548c 542d 9abf 9e71 d759 86e8 03c0
00000440: 3231 39b7 3bd8 f23f 8a09 21be 92a7 f63f
00000450: 3b6a 6b7b ee12 cb3f 5cc1 95cc db0c d7bf
00000460: d5a8 1644 5b02 eb3f 22bc 2e75 2c77 f6bf
00000470: 8b53 bb43 e3f2 e4bf 544e c7a8 126e eebf
00000480: 6edb b2ae e70c 03c0 3840 cc88 c6e0 f03f
00000490: eaff 12a8 f3a4 fc3f 1ada b558 431b f1bf
000004a0: cd5c f15c 2123 07c0 fc4e b129 8f35 f6bf
000004b0: fc7f 5b87 fe92 d23f 3eca cd02 5948 0640
000004c0: 64b9 d76c 5c38 e63f 9a2a 5a14 3180 f6bf
000004d0: 294c 9c9b c4e1 f93f a600 a07a e3cf e23f
000004e0: 448c 2d48 6a7e e4bf e01d 55f3 d211 0540
000004f0: d42e 3da7 b01f d93f 02f4 6439 97ab f73f
00000500: db6b f408 133b 0040 1673 170b 6a49 d13f
00000510: 98e5 c91d e315 ff3f 941c 6354 209a e03f
00000520: 2098 ce9f a9cb d93f d05c efc5 3fd7 0740
00000530: 1a44 cf6d 1492 f1bf d8ab df2b f503 f8bf
00000540: ee64 93cf 6c29 09c0 f85f 862c 0dfe a7bf
00000550: 2b13 c6bf 9d31 e5bf f656 2c2a 22d5 e13f
00000560: c504 b794 ffc9 efbf 54be 658f 7ce3 0c40
00000570: 6611 b64d fcb7 d8bf 82ad 8fc9 d7d1 02c0
00000580: 5cbb c993 4e0f e43f fbbb c5ba b3e6 e43f
00000590: 5046 ccf2 ffa9 dc3f 4aab df8d b141 ed3f
000005a0: c4bc ab6e f42c e4bf f718 5f89 578a 03c0
000005b0: 4667 66e6 f03b fabf bed0 b711 33aa ffbf
000005c0: 3a9e 1a37 2b27 ebbf 4070 6460 b009 b63f
000005d0: 2a42 95cd d9d3 e2bf 7aa2 22d9 643e f03f
000005e0: 78ba da5c f984 ea3f 3aea 2ba6 5434 fe3f
000005f0: 2d99 8630 975a f83f d1cb 8f1d eb51 f6bf
00000600: c870 1ae1 d9da b2bf 8031 0b72 08a2 923f
00000610: 88d1 7e93 a7cb 0740 77b0 be17 adfa dd3f
00000620: b2a8 6849 4298 f5bf ce66 8bb8 25d6 f0bf
00000630: 38be dbe9 618a f43f fccf d398 c155 db3f
00000640: c4bf e14a 0651 fd3f 70c0 391b bb06 d93f
00000650: 8e23 8a4c cc2a ec3f 08e7 fa33 7ee8 0340
00000660: 805a fca3 e478 d33f b232 3300 904e 0540
00000670: d12b 4ac8 391d e0bf 9026 3c0c 41d1 933f
00000680: e6e1 1f5f ba28 d5bf f010 49f7 3773 fd3f
00000690: c7cc 64ac 613f e23f 44ca df9b 262c f13f
000006a0: 2361 ab75 ef70 02c0 8460 6032 791d f5bf
000006b0: c144 08a0 799f f1bf e398 a2eb 23a0 d1bf
000006c0: 40a9 8cdf 0372 0340 7a34 6df8 635a 03c0
000006d0: 3695 c155 b32c ef3f 415c eb9c 0e1f e43f
000006e0: 7e0a c438 1e56 f83f 53f6 8f75 d62d 0340
000006f0: a820 b212 4e15 df3f 7cf2 cb96 0bfd b2bf
00000700: bd97 ae52 8727 fcbf 8146 c422 6a66 f23f
00000710: b617 5d92 fe4a f6bf 0856 9570 0102 febf
00000720: 8608 6793 ef78 fbbf 0c39 e1f9 0e4a f83f
00000730: 9e34 cd63 9e87 e23f d6b5 55e4 e256 c63f
00000740: 5ec4 39c5 b39a b93f 0c78 520a 0eb4 da3f
00000750: b3ec f4e3 d660 e8bf e235 efac cf81 ecbf
00000760: 4c0a 398c 5257 ccbf 87c1 4610 c2be eebf
00000770: bb86 dcb4 cfa2 ff3f dc55 9443 256b f93f
00000780: ca35 eacf 039f e53f e06a fcab b678 abbf
00000790: 6604 1677 070e febf 9453 87ec fd8d d83f
000007a0: 989a e0e1 ba5b f13f 1c61 fed2 d504 08c0
000007b0: 81cd 0f10 ede9 dfbf 31cc 5647 3f81 f8bf
000007c0: 6cf6 1b54 f3fc fd3f 2392 b339 a621 cfbf
000007d0: b05f 6502 b213 c33f 250e 1e8d 165b ecbf
000007e0: 50bd 3901 a9fc a7bf 8d8e 2678 3ef8 ed3f
000007f0: 7011 c600 7f4d f73f 61a7 d2bb a0f8 f13f
-1.2450457930330048 -0.9628538632138501 -0.718494071055192 1.317601149427763 -1.2640626849588854 -1.9344953429898746 1.358368634221574 2.6952769042939346
-0.1577059451080811 -2.952157472213508 1.612960521228573 2.429668615475923 0.5502628016757871 2.6683500827683755 -2.2490717107356955 -0.7533193661407714
1.5197571560153007 -0.9621313230494759 0.621370421951147 1.4837897376981108 -2.3042378018289664 0.5230543851722609 -2.1881889902529217 1.6221386159016165
-1.4903124972916315 -0.7563135735730666 0.16361314451196482 0.1807041771231399 0.814975500899239 0.5363257829151002 -1.0601501659380215 2.2801574695644886
-2.81376726703303 0.5467205899526764 0.11377911349732783 -0.3576515747779536 2.543053500920598 -1.2538172382736086 2.0440198057363017 0.8964931859488079
-0.7356826927184373 0.9856728934976041 -0.6735642827901127 2.529317048741695 -2.4596900442467584 -0.29684501507379357 0.4292393660001169 -1.4243701992185973
-0.6365690138848403 0.08139008932320213 0.13703509970014488 -1.7198243785571297 -0.49795747225756204 1.138388260500581 -2.300337528232732 0.8525731829149067
0.9009176104427827 0.9859232607389927 -1.1866845348875832 0.9235785989839153 -1.0924862792176946 1.2439831730931135 0.5132316621670685 -0.7725301971788707
-0.35256367956449897 0.9887019939198726 1.7036974591987235 -0.14753571386877007 1.1734905548861767 0.3013822728438957 -0.08067328765027343 -0.0419158323737987
1.6962089215825833 0.8752948578873633 1.028541746989084 0.389888578034847 0.16433067897350462 -1.013710788624428 -1.1634254880854207 0.7791438396679271
0.6962628959831362 -1.3625130022093304 -1.3676894681487048 2.42398799339964 3.1640065454490864 0.3144922132453626 1.5440799874360098 -1.5166226600325503
1.0747862664257664 1.4884089465967558 -0.41494056488552195 -1.8641257472914532 -2.2170657748695306 -1.726482958273003 -2.3999596263208263 -1.0071212842977775
-0.6176838537354197 0.8260796489826815 0.8579961149051256 -1.8402232754344712 -0.5630639583187067 0.356916288777847 0.2934814542794988 -1.9076248399871383
-2.9289214396020533 2.0627652420163045 -2.5174350060005195 -2.201569863865054 0.31351442112958594 -1.1136499965370323 -0.4469847551461481 0.44575848250163524
-0.3092948928760173 -1.2156637251693772 -0.9293316604730113 -1.5600944953059162 -0.4583597646952127 -0.7609117630534642 -0.7162527257457603 -1.5655835155883517
1.5162352379136286 -1.7836489255236758 1.2414518717970164 1.8650124491835667 -1.3554598114961816 1.8740779895179076 2.337708418464621 0.6935963102103059
-0.15549180380194533 0.29764824164998305 0.8432043676101437 1.4334522783934784 1.1035755381501766 0.6641274933878951 -0.02556354624280549 -2.4885375040887103
1.1777913243450482 1.4159114291111075 0.2115152456888881 -0.3601598260784351 0.8440376596311362 -1.404095132583969 -0.6546493838201156 -0.9509366318183745
-2.3813012741406316 1.0548768371263701 1.7902714314841384 -1.0691560235260398 -2.892153478732871 -1.388075983869327 0.2902218171930142 2.785326024918759
0.6943800092538308 -1.4062968058594039 1.6176191404854399 0.587877025129292 -0.640431538555625 2.6337031374311977 0.392559207267124 1.4793922655073861
2.0288449000922646 0.27010584910549207 1.9428435481662287 0.5188142440973871 0.403055578290493 2.980102106444612 -1.0981640138090882 -1.5009662355248476
-3.1452270714622648 -0.04686013382450932 -0.6623066659527458 0.5572672675795889 -0.9934080032909597 3.611077423374619 -0.38622958744988123 -2.352462362954328
0.6268685232624693 0.6531618736170225 0.44787596426713083 0.9142692347498749 -0.6304876481571218 -2.4425497753282985 -1.639634037017872 -1.979052609644938
-0.8485313488244579 0.08608534196213302 -0.5883606925290839 1.0152328950736362 0.8287321866572048 1.8877760401798143 1.5221168418443753 -1.3949996142152836
-0.07365190263448362 0.01819623180453922 2.974440719897931 0.4684250575908275 -1.349672590974063 -1.052282067181682 1.283784783849013 0.4271091453986171
1.832281391627462 0.391035820567601 0.8802243704713975 2.4885219632095676 0.30425373090967156 2.6633605971931837 -0.5035675918492136 0.019352928516161827
-0.33061084069734503 1.8406295451723587 0.5702370040002273 1.0732790078005943 -2.30514423302897 -1.3196956603842702 -1.1014343501340564 -0.2753991891025988
2.4306714501191493 -2.41913599093692 0.9742066073346567 0.6287911476928302 1.5210249154485207 2.3973817047652033 0.48567535234225057 -0.07417366439399048
-1.759650538422178 1.1500035627435923 -1.3933091847734267 -1.8754896543299555 -1.7170253522786267 1.5180806885651377 0.5790550183534326 0.1745265593448681
0.10001681866721543 0.4172396755983534 -0.7618212177543654 -0.890846097719699 -0.22141486975495395 -0.9607858961008312 1.9772488655948297 1.588658584577721
0.6756609974706234 -0.053655346388230774 -1.8784250881001525 0.38366649721620516 1.0848950217565854 -3.0023609622841274 -0.49865271156814833 -1.5315544878656164
1.874255493690181 -0.24321439568952127 0.14903855435363544 -0.8861191517066273 -0.04684951915703073 0.9365532252017644 1.456419947645454 1.1232001625853274
