Allen_Cahn4D/dataset/Dim4_5/Allen_CahenC8000_B1600.npz (npz, 385050 bytes, 4 tensors)

XTrain_Col f8 [8000, 4]
00000000: 92c5 76b9 0240 e43f e3b6 f8be 40a9 ea3f
00000010: e2b3 4a43 4910 d43f 8e35 4f4c e550 d93f
00000020: aefe a38b 66f9 e53f 5da5 3e62 4f14 d03f
00000030: 5d4d 644a b4cf d63f 1bef 2800 64fd d03f
00000040: 1933 a539 ca12 e43f 597d aebf 3b75 bb3f
00000050: 4421 4f9a b2ce e73f d3e7 8897 dcb6 b53f
00000060: af9f 56f0 2838 ee3f 7d73 a9fb a04f ee3f
00000070: 7dce 3652 df2b e03f 9ecb e359 be8f eb3f
00000080: 82b5 bfb2 d9ba e83f 3dd0 4827 0d7b d13f
00000090: ae1d 3edb cf63 c73f 8fa5 090e 9b4c ec3f
000000a0: 2904 0e55 1f00 de3f c256 ab51 29f5 e73f
000000b0: 8044 43b9 0766 bb3f 8012 e5a6 2706 e53f
000000c0: d82e 87cf 5a84 eb3f dc5b 42a4 eeb4 c13f
000000d0: bbfd 5d4b 63d7 e53f 871e 3d83 8e06 e83f
000000e0: f6d6 0ece e030 e13f fe67 de0f 7cf8 d13f
000000f0: acc0 276d 61ab ce3f 7199 716b 317f e03f
00000100: 6771 1792 b397 ba3f 20ba 346b 1b9c e33f
00000110: 7b6b 167f 740e c13f 7bee d8f8 294a dc3f
00000120: 5b35 50a0 6c5b ba3f 033f b8a9 9d98 e43f
00000130: ddf9 26e9 0ea8 ef3f acde 65a5 a3ca eb3f
00000140: 9ac3 ea85 c1cf e53f 5fb6 55c5 c14d e23f
00000150: fd25 23ad 81d2 e13f dc00 0368 b465 cb3f
00000160: 8161 4a63 5d37 e33f 9ba8 f970 de81 b03f
00000170: cd28 2283 bac3 d23f 11b8 8f8f 79c1 e13f
00000180: a847 f2e7 b412 c13f 17af 3c76 5e02 ea3f
00000190: 22ef 167a e2ff b83f 8ee8 6cb6 1d78 ef3f
000001a0: 3b7c 8d6a 2553 c23f 9f40 6359 dbb9 e63f
000001b0: 3331 783b 2b10 e43f 56b9 1ab9 85c4 ab3f
000001c0: 9c21 7ff1 9158 c03f bece 1023 242a e63f
000001d0: 61ac 758f 4ccf ec3f e15d cb0c ac2e a13f
000001e0: 6750 05ea 5b8f e03f 71ad d3f5 a03d c83f
000001f0: 668e 4a07 1d3d ee3f 3625 0252 aa90 a43f
00000200: 4622 b5af d79c e53f f938 ea4d 951e a73f
00000210: b828 3a64 5ac4 e43f 709c 33b6 0e49 db3f
00000220: f989 2311 9513 e03f ed4f f635 ad2c 773f
00000230: eece 31f6 8a2e e23f 06c8 e07c da86 e53f
00000240: acc8 f2bc c5ac e63f 3a72 f41f 95fc e13f
00000250: e709 8a0b ff55 cd3f e947 6423 4830 e43f
00000260: a4a1 8701 eb1f ee3f 2ec9 25cd 2484 e23f
00000270: 656a 9b10 ba5d e73f f52f 5e7a 6845 ef3f
00000280: 6f61 b145 aed2 d33f 2afd 97b3 4886 b63f
00000290: 9bf7 745b 6ba8 ed3f 30b8 3b29 5f44 c33f
000002a0: d5cf 5e9b 7190 b33f 4d73 7632 5541 e23f
000002b0: 6055 f86f ed89 853f 879e 0212 ad41 e03f
000002c0: 8bf8 68ae b7dc c33f 2600 223f 2114 ea3f
000002d0: a3d5 7e7a 426e ef3f 1abd e5f4 06f5 8b3f
000002e0: 54cf 6a94 c5fe db3f a19b 0ac1 c169 e73f
000002f0: bcc7 e95c 6222 e63f 712f c104 bdf9 e73f
00000300: 6ea1 64b8 4419 ec3f 1216 b046 d80d eb3f
00000310: 30d8 62cc 7d0c c53f 27c5 604e 556f de3f
00000320: 6093 e640 305f d43f f5a3 68d6 bbe6 ec3f
00000330: 113e 9160 8115 ee3f f6ed 8b45 3797 d13f
00000340: c283 b9e3 e56e da3f 6517 0d2e 978e eb3f
00000350: 4f69 ddb1 0c61 a83f 05c5 e483 be7f eb3f
00000360: ce9c 7595 5b3a d43f 42a7 ac08 f5b5 e13f
00000370: a36c e42c 3a89 ef3f 9901 314b 5064 eb3f
00000380: a678 65b6 6ae8 bb3f 88f8 218b 54c8 e83f
00000390: ddc2 0fad 80da 983f 3427 7113 e3c3 b23f
000003a0: d103 c1f0 eab2 ed3f 5b30 2cc2 5ccd d13f
000003b0: 9cb1 6c9b 9e71 e63f ed82 24dd 746d ed3f
000003c0: ec6e 7516 9c40 e63f badc 29bb be5b e43f
000003d0: abc9 5ce6 f511 e43f 678a 83a4 be93 ec3f
000003e0: d632 192d a751 eb3f db13 7c11 6e9b e93f
000003f0: 201e 0f57 2f35 e23f bd2a 33ea 6059 ee3f
00000400: 344a dd23 8d3d b83f 3f86 6d5e 59b9 c23f
00000410: 18fb 99c5 7f4d c23f 3867 9430 0994 dc3f
00000420: a1aa 9e55 b1e5 c33f ef16 d8e5 ca69 cf3f
00000430: ccfc 8ee1 104f be3f a169 6101 f3fa e83f
00000440: d548 381c 909a 7c3f d7f5 2bb7 3b09 e03f
00000450: f398 56bf a4d6 c43f bc8e 6b6e 336a cc3f
00000460: 6ca4 b535 1529 e23f a54e 7ec4 d67e e23f
00000470: 3bf5 d06c 995a ec3f 775c 93a1 e77c e03f
00000480: f332 fa1e 5dfa ec3f 44f5 ec2a ce30 e83f
00000490: 7af1 dcab d33a e53f 34f6 0475 2166 ee3f
000004a0: 1707 1925 22e2 e13f d3e6 ee7f 47de bb3f
000004b0: 0a15 23a0 898a ea3f abe1 70e2 d5d9 d13f
000004c0: 9884 0278 7ef6 e23f 8132 e557 5f3e e23f
000004d0: 4c80 f115 fbd0 d33f ef53 439b ef1a d83f
000004e0: 4c2d 76b4 73b9 ea3f b677 6ac2 4013 cf3f
000004f0: 02a5 e513 2e7d ae3f ef88 ef79 2690 d23f
00000500: 6389 b0f7 c024 e13f c87a 75ba 1842 e03f
00000510: a6d6 e545 6aed e13f 4ab4 f6b8 0bf2 c23f
00000520: 236c 39e5 e864 ef3f 191e d51a c12e 7e3f
00000530: 8858 aaf2 7e40 b83f 8364 39b0 4aac dc3f
00000540: 3b85 1691 8b37 ce3f 6419 c56a 2078 ba3f
00000550: c5f2 9ff1 48fe b93f 92af 31ed eba7 ec3f
00000560: dfb4 2563 9b98 aa3f 3d18 e6f1 a606 ca3f
00000570: a549 ed1d 2ff9 e73f cba8 43c1 7f6d c03f
00000580: 8a25 e749 fc3a d23f 1d79 03e0 ec36 ed3f
00000590: 06dd 92df 227e e63f 3b2f de50 0106 c03f
000005a0: 10e4 cafa ef71 bc3f 9a91 b247 903b d63f
000005b0: 1cdf 8fe3 9ca1 db3f 78b6 0f47 2580 d03f
000005c0: 7099 5a6a c4c6 d63f 9cf8 9ccf e138 ea3f
000005d0: 2b44 8f0d 5901 e13f 54cb 3797 9398 e23f
000005e0: 97bb 68ac 4918 e93f 54e2 030a 990f c03f
000005f0: bfd7 4320 fd9a d93f 0820 a785 d591 e83f
00000600: 6200 0857 0d72 e83f 4828 bd4d 86ad e03f
00000610: 753b 3f7a dd4c d83f e9d9 3232 992c e43f
00000620: 61fa c36c 21ca c33f 0c3d 7466 6c12 c33f
00000630: 3f1c 25b3 9b94 d03f 5b4e 1345 9d18 d53f
00000640: f428 bcb0 b52b d23f 7576 1e2d 9ae1 e33f
00000650: fc89 086b 8fa9 ec3f 0708 c578 4c11 ed3f
00000660: 1b2c a8f0 7e45 e63f 66ae d7c4 c947 e03f
00000670: 5628 1569 5d4f e73f be52 7a52 e80f b93f
00000680: e508 4ca0 05e3 d13f c224 71eb 6507 ec3f
00000690: bd1d 09d5 b060 d73f dc99 4569 4e38 ae3f
000006a0: 7a31 56cb 8d17 e83f 718c 21a3 9bf3 dd3f
000006b0: c55b 8149 5a04 ef3f 70c8 e6a2 0345 e83f
000006c0: b9c2 6f10 3b4b e73f ccd0 3c64 7d75 e83f
000006d0: 2479 1c48 0a22 d73f 6851 05ae 4090 e53f
000006e0: c7b1 c1fb a2d8 a83f 0712 021a 7a80 dc3f
000006f0: aa59 8e87 9657 ea3f 1aa2 dd41 0f40 d23f
00000700: db96 f52b a503 9c3f 7f0f 3fcf 4f60 e33f
00000710: ff18 fdcd b15b 453f be61 bfb2 172a e93f
00000720: 2775 6866 2445 e73f 2305 fc6a b2a4 ee3f
00000730: ddfa f6f8 3bc2 de3f 9ab8 dd71 2904 c63f
00000740: 25af 5bfd 01d3 df3f c356 b7a8 f8c7 d43f
00000750: b9cb 83c4 c847 e83f a12c b930 e283 b13f
00000760: 2dd8 0913 ea8a db3f 027b 91d4 b838 e83f
00000770: e699 d676 4847 e63f 72fd bf07 a010 ad3f
00000780: 8c4f c6de 0c50 df3f ae12 307c be35 d03f
00000790: a596 3ad4 8ea0 e13f 5489 5362 e28b ec3f
000007a0: cefa 1849 ad80 d43f 069b 115c e66c ed3f
000007b0: ddca d112 8710 c63f 717c fd9b 37a9 e93f
000007c0: 20d6 1640 5742 e93f e7e0 2ab8 eb49 ec3f
000007d0: 8aa2 f91d 92a3 d23f 3546 098d 9f2b ca3f
000007e0: 3b29 5707 0470 a03f 9d7c 077a 626e 633f
000007f0: 14fd 0438 d2be ca3f c1c9 714e a381 d93f
0.6328137991278473 0.8331607561028388 0.31349402972665363 0.3955624814232913 0.686694405303532 0.251239629690266 0.3564272619707561 0.2654657365380772
0.6272936941037158 0.10725758962370459 0.7439816488122593 0.08482149791316766 0.9443554586514348 0.9472203173896642 0.505355511259452 0.8612968211804064
0.7728088847340333 0.27313546024675245 0.18273351865012216 0.8843512796567427 0.4687574701893618 0.748676929006898 0.10702560685173701 0.6570013293899848
0.8599065831453698 0.1383341123625702 0.6825424644484238 0.7508003772026804 0.5372165703363112 0.2807912974327563 0.23960511998985135 0.5155264948378272
0.10387728039444753 0.6128060430399422 0.13325363355110284 0.4420266084814341 0.10295752443217536 0.6436298670614352 0.9892649225001225 0.8684862356594372
0.6816108336989715 0.5719918111987673 0.5569466001117572 0.2140412814969811 0.6005083979862748 0.06448164232429791 0.29319632345199126 0.5548675350125923
0.1333833820868311 0.8127891835515325 0.09765449028685372 0.9834126055714181 0.14316241934554505 0.7101876016477212 0.6269737397683798 0.054233721585989755
0.12770294467760557 0.6926441845775668 0.9003050615259661 0.03355920463735252 0.5174998827665264 0.18938076022400765 0.944960130921072 0.04016620875433789
0.6753958160198372 0.04515520645246513 0.648968883281916 0.42633407395482603 0.5023904165976197 0.005657841305396244 0.568181496475942 0.6727116049789863
0.7085903826139393 0.5620828270071521 0.2291868978828255 0.6308937731976104 0.9413962392691713 0.5786308295048792 0.7301912617070455 0.9772226705549644
0.3097339325518282 0.08798651108371716 0.9268090044276848 0.1505240393957492 0.07642278712484026 0.5704751954650448 0.010516982059054214 0.5080170966875394
0.1551732637034927 0.8149572594702519 0.9822094337929922 0.01365094599597554 0.4374250363718961 0.7316597719517298 0.6916972937308326 0.7492356388915892
0.8780845261981491 0.8454400425550281 0.16444370727339352 0.4755452409181821 0.3183098443790211 0.9031657397910055 0.9401251684266204 0.2748544863859189
0.41301867712723717 0.8611560725628179 0.047615429603598096 0.8593437744185911 0.3160618743481337 0.5534615678236394 0.9855013729860683 0.8559953182776098
0.10901514962231093 0.7744543759761351 0.02427102142604808 0.07330149864824592 0.9280905439592236 0.27815932237786506 0.7013695750843456 0.9196113890830852
0.6953869284293126 0.6361993461167892 0.6271924494997639 0.8930352414284471 0.8537174111202954 0.800223383092653 0.5689923000690591 0.948410470410941
0.09468919873806031 0.14628140555127975 0.14299008511076106 0.4465353941355832 0.15544716530469763 0.24541603300911372 0.11839395052719509 0.7806334521258586
0.006983340197182571 0.5011271073887497 0.16280040114106206 0.22199099437340475 0.5675149964346367 0.5779832685243106 0.8860594868962502 0.5152471690916077
0.9055619816805048 0.755957683409783 0.6634310108852752 0.9499671254668045 0.5588541721883499 0.10886046288842559 0.8294113280941542 0.27892062295316106
0.592589601892672 0.570113822622787 0.30963017599970466 0.3766440407028417 0.8351381802216706 0.24277505391085946 0.059548797539557455 0.29004823596746027
0.5357365453422002 0.5080684320235713 0.5602313389960798 0.14801165133886435 0.9810680844342453 0.007368807140046418 0.09473412918518609 0.4480158539714198
0.23607010444997364 0.1033954868954417 0.1015363302139561 0.89549824072809 0.0519455488709839 0.20332800685372546 0.7491679749021399 0.12834164559109804
0.2848501893718881 0.9129547477021195 0.7028974882768189 0.12518326233509378 0.1111135470663529 0.3473854732676728 0.4317390653882158 0.2578213876684923
0.3558817900287954 0.8194436125702569 0.5314145340763664 0.58112506422763 0.7842148177495457 0.12547600735685427 0.4000847640121456 0.7678020105749974
0.7639223766164032 0.5211822050416766 0.37969147623237315 0.6304441433374538 0.1546060353357062 0.14899973871840932 0.2590703248465082 0.3296273397984117
0.2839178300788625 0.6212893372755405 0.8956982698912834 0.9083616598875331 0.6959833813028838 0.5087632031040357 0.7284380962748951 0.09789897931689048
0.27948132184987023 0.8759030912853165 0.3652765350747947 0.05902333293015591 0.7528752299709105 0.4679936497761395 0.969281333508541 0.7584245855016558
0.727933437445322 0.7643420179142821 0.3614526466571013 0.6738589667170745 0.04852780650330462 0.44534161128856947 0.82319189525406 0.2851598876209508
0.027357655342163816 0.6055068061618697 0.0006517999827131692 0.7863882533229611 0.7271902084500298 0.9576046075382333 0.48060511887517327 0.17200201091640538
0.4972538923454855 0.3247052810305428 0.7587627256565305 0.06841863336119271 0.43035365924095254 0.756924071476391 0.6962015458164472 0.05676746458629624
0.489260880998011 0.253280278470167 0.5508493561835236 0.8920757217822861 0.32035381449160816 0.9195434377878378 0.17237938326760274 0.8019063994105534
0.7893482448332101 0.8840235325833675 0.29123356749782003 0.20445627581152484 0.03210461225133306 0.002371971452006584 0.20894839988066194 0.3985374704417631

FTrain_PDE f8 [8000, 1]
00000000: a430 d8cb 9743 c240 1a6f 4cb1 636e dac0
00000010: d794 7594 b2c0 dd40 78e6 c97c 2873 d640
00000020: 6d24 0e83 2f0d d540 6b5a 9fa0 2493 e040
00000030: ffb1 b16f 5e0d afc0 071b 419d dfa3 db40
00000040: 44cc 3133 8ed5 d9c0 d860 118d bb58 d640
00000050: c57a 0b19 563e ae40 44fb 91c6 52ff ccc0
00000060: 9d3c f9c9 d18b e040 98de 3b44 d021 a040
00000070: 1a92 e162 ff06 b140 fdae 5e40 8e25 dd40
00000080: 70bd da37 14be d0c0 bcc7 1528 0330 d740
00000090: daa9 8b2d 37c6 b140 fbdd 28f0 d4f3 db40
000000a0: e79e e3e9 6b63 c1c0 f5c4 9e6f f40a e140
000000b0: 090f 5fae 5c14 c840 1ebd dd28 b891 d340
000000c0: ab2e 28e4 147a d1c0 01f2 1601 7093 d5c0
000000d0: f24e ffdb 4235 8440 4f53 6fae 9cab 81c0
000000e0: 3d74 d191 c02d d5c0 b848 be4f 6937 e140
000000f0: c74d 7723 f939 d440 5ece 5810 80a4 c640
00000100: 1199 8571 c8e7 d6c0 d7c6 3f16 419b adc0
00000110: c3ac d2bf 2dca 73c0 ef4b 4fce c07b d3c0
00000120: 76bf 8627 de68 acc0 4a9c 3251 3e70 b440
00000130: 6bfc ec5a 2886 c6c0 4d12 de0c a904 d040
00000140: 836b aa0f df65 d9c0 6322 1b78 87bc d440
00000150: 0d06 f1a0 9968 b4c0 5fd0 f4ba 6115 9d40
00000160: add8 d4c6 9658 c0c0 319c 6a6a ae53 c840
00000170: b7b5 6921 175b d6c0 bbf2 de67 b7d8 d840
00000180: dbff 09cd fc69 d2c0 037a 113b 1763 b9c0
00000190: 95e7 8520 1503 da40 978f b64e ccbd c640
000001a0: 0d64 cffc 14b3 b340 d59f 9d33 1daa ccc0
000001b0: 132f e0b5 c1d3 d4c0 a680 b12b e04a c7c0
000001c0: df24 3a87 3dde dec0 a7bc ac34 a563 c840
000001d0: bfbb 583c e70f d5c0 9c44 7045 f9da 91c0
000001e0: 4578 22e4 945d ca40 8108 2569 570a a3c0
000001f0: 770d d909 32a8 b2c0 3b8c 0a5e 1cb7 d3c0
00000200: 384e af7d 157e dc40 823f 36cc b95f cdc0
00000210: 2e22 df07 b23e cf40 c52a 4e11 b88f 9dc0
00000220: db72 bce2 2745 3ac0 50b5 4e6d cd47 bfc0
00000230: 244c 4377 b7bc dfc0 3e0c 8283 b234 d7c0
00000240: 29cb 7d4c 2952 d440 8b10 ea75 22ec ae40
00000250: 31e8 3ad6 e4b5 d8c0 bc77 7000 b576 b840
00000260: 3db7 8130 14cb db40 e3ab eb28 716b b2c0
00000270: a4e4 4459 25e1 8740 a965 564c 4f92 c540
00000280: 8c73 d0a7 e789 d0c0 93ea 1942 9108 c4c0
00000290: d35f cddb e468 da40 c281 7de4 9724 cbc0
000002a0: 9289 45d8 0416 b740 59e6 c7cf 45ad a5c0
000002b0: 99c2 312e 99a8 d4c0 a8ef ff39 1c96 b740
000002c0: 821e e14b 20fa d240 ce92 771a cfde b640
000002d0: 763a d525 f8a3 c240 3f79 1fe3 c94f e0c0
000002e0: a237 f194 c930 d040 3ce3 e005 4130 a340
000002f0: 888b bda2 fba2 d4c0 d2e8 46dd 59f9 d840
00000300: 7af9 ae9e dcfe d5c0 b527 6ce4 f78f c140
00000310: fb11 5841 73c1 d740 d36e 5f92 8d34 ca40
00000320: 6a59 fcbf df8d b3c0 0f9b 9ab0 acdc dcc0
00000330: ba40 33d2 d9d3 ab40 ab70 e8b1 0846 8bc0
00000340: f634 73aa df26 d2c0 e69c 6320 03af da40
00000350: d8af 9a07 daf8 c9c0 79a9 ffa3 fb6a b4c0
00000360: a7b0 dc08 39ef d2c0 60e4 4264 a55f c3c0
00000370: e3d9 51b1 83ff dc40 d45a 0d9b cc50 dec0
00000380: 530e 510a cb02 d0c0 9946 952e fa76 cfc0
00000390: dfdf c120 cb9d a2c0 f4d4 434a e60d cf40
000003a0: a453 a6bf 6df2 d8c0 4672 0870 6c5d db40
000003b0: 8a01 8c61 60d9 b840 5a26 53ad 6b68 b740
000003c0: 523d 65ec dab9 b7c0 cb82 e847 afc2 e0c0
000003d0: 606e 1b9f b648 d640 df04 3024 c94b ccc0
000003e0: 29b2 298e 185d db40 4a27 6415 b83a c3c0
000003f0: e5a7 364f cc43 c340 6b82 191b 7361 cec0
00000400: 5203 17bd 763f d040 aad5 3e21 f5a7 d3c0
00000410: c6da a080 51f6 d5c0 b013 daff 6656 d8c0
00000420: 59b8 fcd2 baa8 c7c0 6d4b 617c 824b aac0
00000430: f12b 3228 4fb2 dac0 ecb0 0d9c 275b c840
00000440: 307a e87c 8f85 c840 8fdd 57d2 e9fb d4c0
00000450: f2e7 2ca6 9a93 a2c0 401e 0078 7f4e dec0
00000460: 643d 7682 72c3 d640 3bb8 84a2 6b87 dd40
00000470: 14a9 4862 3d86 e040 5947 7655 1919 e040
00000480: 3550 ca72 0ef3 d5c0 12df a42e 9fef d8c0
00000490: 02ab 131e 7560 d0c0 9937 166d 858d cac0
000004a0: 3f4e 1e23 1312 dec0 6bfd e6ed 81c3 b840
000004b0: c38b 7bb2 3c9c 9340 d1e2 d47f 1aac d0c0
000004c0: 41c7 308b 71e0 b040 0808 2183 d0e4 d740
000004d0: d6f1 13bc bcbd c440 6ff0 6c8e e519 bf40
000004e0: 42b8 b3ff ac82 c040 732d 0737 8712 b940
000004f0: 8e5b 3679 9db4 dd40 bf2a 3bad e6ab dc40
00000500: feb4 7283 87b1 dfc0 9661 7ea5 ba9c b3c0
00000510: 8d96 146d bcde bdc0 8ebb d7c0 9317 d440
00000520: ca88 3a70 9f18 d840 8a90 42da 2f25 ccc0
00000530: ade4 d0bf 1278 d2c0 2b3c 1bb8 bcaa d740
00000540: b375 fccf 76d8 ccc0 e20f af1e 8e11 ccc0
00000550: 9212 23cd 16fd acc0 ffa3 8b34 a5bf d940
00000560: a80c daaa f566 d940 a864 24d4 fe94 ab40
00000570: d6fb bd98 4d18 d440 56e1 fb95 08d4 d640
00000580: d3da 3164 ac1a ccc0 138e eb51 fc1f dd40
00000590: bd4c 1e92 20ee dbc0 70fc 837a 0841 c040
000005a0: 7625 b007 c531 cb40 4263 78e5 c08a ca40
000005b0: b59c 60c6 56b0 a740 71ec 302c a129 d340
000005c0: 908c f23d cf25 d5c0 eb67 11a5 45de c4c0
000005d0: 566c 5c97 d890 c240 ce2e 1738 adf1 70c0
000005e0: 00e8 a347 2ff9 b840 0c57 1c6a 2f06 c8c0
000005f0: 1c13 f1c9 3c73 d4c0 5c20 5909 d943 7b40
00000600: 2129 3b8c 0d48 dec0 fa50 590a 8a04 a540
00000610: 83fa 980e 9ba7 d3c0 2bbc 7cdb 11cb d040
00000620: b19d 016e 361c c040 3854 08e3 5c0e 9340
00000630: b17c b1ba 506b b4c0 b72f 5576 a72d e0c0
00000640: 7e45 3c70 ff0a d340 4af9 8a74 f668 cec0
00000650: d1de 0eba 6933 bbc0 9ca1 6e6f f318 b340
00000660: b6c2 142e 7e45 c940 e6fe 56cc d674 c840
00000670: da9e 41aa aa0e e1c0 791b 45ee fb7c cac0
00000680: bbc4 08a8 d116 c940 9311 9b11 40a5 a2c0
00000690: e17d e59e 472d c940 3861 2fbe 875b c240
000006a0: 3b1b a571 5990 d5c0 bc8f ad24 f8f9 da40
000006b0: 400f c37d d6a1 bac0 3f7f bcea 6f4e c7c0
000006c0: 3ce9 0cd4 ccb0 bac0 cbdc 5fd7 6455 a840
000006d0: 0a85 ea27 186e c3c0 ac3a 2c4a 3058 d840
000006e0: df5f c922 b303 d840 91a2 33c1 ac48 cdc0
000006f0: 1a9d c7fb b10c b4c0 6b5a 1d8e bfa7 cfc0
00000700: 2797 a561 9976 75c0 6c22 534d 11f8 c240
00000710: 18ff b6d7 84e6 9c40 8333 da2e 2f1f b3c0
00000720: c4af ad65 cbf8 dfc0 22b0 f14a 60c5 af40
00000730: 31d6 d286 75f1 dc40 8556 ce2e 7a97 ba40
00000740: b16a bdfc e106 e0c0 d3b2 08b3 e966 dbc0
00000750: 707f f4c4 4756 c1c0 ef11 fee2 ad7a b3c0
00000760: f1dd a4a7 69c9 d040 3a83 5440 38b8 bb40
00000770: a954 fed4 f9d3 bb40 d62b 1b34 4a27 cfc0
00000780: 0ac9 2ebb 7388 bac0 cb3c 6b3f 165c c0c0
00000790: 64fc 37f7 f5ef b240 94bd 9adc d434 c7c0
000007a0: 3855 494c 0b7b b440 f616 a568 7596 a640
000007b0: 6c4c c1c5 9ad3 d740 c8b6 5e08 53cd a740
000007c0: a476 390c d7c0 d740 93fd 648f 1824 c740
000007d0: 4307 8d97 a5c4 d640 66a9 894b 1b22 c840
000007e0: ee48 a6cf f4f8 45c0 17d2 eb12 d744 c0c0
000007f0: 2239 de1f d7d6 a440 b237 d17d 7067 b940
9351.185908340216 -27065.55769644594 30466.790311236717 22988.63261649615 21556.742373977253 33945.144607235525 -3974.6844459085255 28303.49397304191
-26454.221874665716 22882.93048510034 3871.168159826981 -14846.64668488282 33886.555904978166 2064.9067705830785 4358.99760255639 29846.222678824317
-17144.31590908527 23744.049321599057 4550.2155387201 28623.32715818098 -8902.843075230207 34903.63862551182 12328.724071390478 20038.877494272885
-17896.32642559583 -22093.75006650575 646.6576461740462 -565.4515045831012 -21687.008900035395 35259.2909842892 20711.892789674715 11593.000498867765
-23455.13192882488 -3789.627122872374 -316.6361692647444 -19951.012592147974 -3636.433895312187 5232.243426478535 -11532.315274832965 16402.641410367843
-26007.48533115863 21234.116705688077 -5224.600112022378 1861.3454397442035 -8369.177942853736 12455.362622572198 -22892.361414363342 25442.86571477608
-18855.950014591082 -6499.090745060242 26636.33011005035 11643.596152134049 5043.0819825763 -14676.22813768677 -21327.026725812884 -11925.75133341581
-31608.96137860871 12487.290670005908 -21567.613058265062 -1142.743428949535 13499.163212116933 -2437.1707240651017 -4776.1954627664445 -20188.443239819473
29176.33579619063 -15039.451544552812 15997.390865222635 -1891.9297535146336 -26.270139857299778 -8007.802449149385 -32498.86665422855 -23762.789276611285
20808.645293663405 3958.0673058648295 -25303.57557556796 6262.707037953598 28460.31546061415 -4715.4420306486745 764.1432366735721 11044.619517135276
-16935.61961756977 -10257.13482974962 27043.57591566427 -13897.186660469397 5910.018925043189 -2774.636350867146 -21154.39344448093 6038.11026000596
19432.50463130931 5854.808997605649 9543.938654569192 -33406.30897496873 16579.149715713815 2456.1269979741464 -21131.931807886373 25573.404130675663
-22523.447185271863 8991.936658400906 24325.800863282737 13417.106029442895 -5005.8740232199 -29554.69827904837 3561.925431825305 -872.7542455825218
-18587.494778444023 27324.048851874562 -13297.703357063161 -5226.98297117126 -19388.891165897858 -9919.292122231971 29694.057697737484 -31043.19696363325
-16395.172504676808 -16109.954546603652 -2382.8967342935352 15899.799141386968 -25545.714822370224 28021.694337951274 6361.376488447548 5992.420613476623
-6073.855169608565 -34325.47752786203 22818.85346112994 -14487.571416857127 28020.383676933274 -9845.438152808365 9863.596167404155 -15554.899264515572
16637.85529113125 -20127.8301541411 -22489.27347585072 -24921.60936595843 -12113.45956381799 -3365.754855194528 -27337.236828368103 12470.309449874294
12555.12099939314 -21487.65346333157 -2377.8020490677964 -31033.991699246923 23309.78921276088 30237.681794338143 33841.91824753783 32968.79168237624
-22476.225756243064 -25534.487221925585 -16769.829960743904 -13595.04239156451 -30792.2990184559 6339.50753635108 1255.0592746070913 -17072.41405222082
4320.443530129095 24467.25800348076 10619.474489682278 7961.896704491329 8453.351553406686 6418.528183411213 30418.460523213776 29359.604323188538
-32454.11739795375 -5020.729087733102 -7646.7360394351535 20574.30864518467 24674.491224893172 -14410.37384826715 -18912.29295751888 24234.948736962087
-14768.92822223422 -14371.110311396365 -3710.544533821122 26366.58133212104 26011.8385529636 3530.497712266242 20577.212447639402 23376.134154291205
-14389.346807700966 29823.94250000834 -28600.508918356838 8322.066238878499 13923.539297121326 13589.507002876726 3032.1694822493832 19622.51832221117
-21655.238155972736 -10684.54409997534 9505.692119172 -271.1047898202495 6393.184686893597 -12300.370425741676 -20940.94982554308 436.2404874307156
-31008.211684026875 2690.269610205779 -20126.42276596512 17196.279021438368 8248.425232126234 1219.5907098103908 -5227.31534871382 -33133.23319491691
19499.991225307334 -15569.925431606029 -6963.412995271109 4888.9509190697245 12938.985781283449 12521.678110956633 -34933.333283243424 -13561.968208921828
12845.637940498409 -2386.625134321113 12890.559536634888 9399.060491487951 -22081.397561337082 27623.877238645902 -6817.837856475089 -11932.874351083881
-6832.800110632841 3114.6969556767485 -9948.188718142472 24928.754527146622 24590.798998206734 -14993.349646047953 -5132.695248103957 -16207.496524495267
-343.41244663890615 9712.135172263916 1849.6297291367719 -4895.184308660103 -32739.17808096089 4066.6880717780596 29637.83635397832 6807.477276702998
-32823.0621020397 -28059.65155236686 -8876.560698091722 -4986.679244880083 17189.65085717844 7096.219731599844 7123.9759062725725 -15950.579715153126
-6792.452074932176 -8376.173810391125 4847.960803507918 -11881.662982313697 5243.044132788949 2891.2293140020874 24398.41832001174 3046.662173232853
24323.360121122227 11848.19187605268 23314.587374932376 12356.213242728914 -43.94497104281787 -8329.68026492842 2667.420165008997 6503.439419818971

XTrain_Boundary f8 [1600, 4]
00000000: 0000 0000 0000 0000 456e 51f0 955c ed3f
00000010: 990d 5f4b 24dc c33f d106 fe3b 9110 de3f
00000020: 0000 0000 0000 0000 61ef e9dd 7a61 d83f
00000030: 6ff3 454e 9365 dd3f a8f8 02fd 6f38 e63f
00000040: 0000 0000 0000 0000 3c30 c275 5ccc c83f
00000050: 9429 f079 d6e4 e93f b86e f5df b416 a63f
00000060: 0000 0000 0000 0000 efa5 9bf1 5d7d e83f
00000070: 943f 0940 efac ed3f e07c d551 de54 ee3f
00000080: 0000 0000 0000 0000 0d05 48c9 1d62 b23f
00000090: e1a1 3fd1 bdee e13f 70a2 0911 8621 c23f
000000a0: 0000 0000 0000 0000 4181 50c3 3540 e53f
000000b0: d98e 357f cd61 e23f 8084 db40 8f72 ea3f
000000c0: 0000 0000 0000 0000 0f0e e05f b824 aa3f
000000d0: 4380 1dbf b038 e33f fe57 e39a 1f08 e13f
000000e0: 0000 0000 0000 0000 e0d0 9bc0 9db0 df3f
000000f0: 2d4b 1f78 1ba6 9a3f 712f d166 48f1 e03f
00000100: 0000 0000 0000 0000 e532 01d0 89b8 d83f
00000110: 4edb 76b6 1f37 d03f f19c f13d 18a1 e03f
00000120: 0000 0000 0000 0000 f868 fdbe 4edd e43f
00000130: 7771 d2e8 dd2c e73f 3138 1b76 8c3a bd3f
00000140: 0000 0000 0000 0000 5358 40e5 dc37 c83f
00000150: 1fdf 5327 bc78 c63f dc11 5bf2 0dc4 d53f
00000160: 0000 0000 0000 0000 7c12 cc52 a657 eb3f
00000170: 694c 1af1 0361 ee3f 487b 5d1d 5fc8 d33f
00000180: 0000 0000 0000 0000 311f 0318 a8e7 e53f
00000190: a1a3 c8ef a7b7 a83f 4a52 f8e8 68f0 e53f
000001a0: 0000 0000 0000 0000 9cb0 df6d 9ca1 ec3f
000001b0: 7a7e c158 2f50 e63f 2160 dfe9 f46d e53f
000001c0: 0000 0000 0000 0000 30cc 90dc 071a e13f
000001d0: 0dbc 11da c97d c13f bfac dc8d 6e4a ed3f
000001e0: 0000 0000 0000 0000 9aa2 e183 df46 e63f
000001f0: cefb 206a 0d43 d53f 03a2 8e46 428d d03f
00000200: 0000 0000 0000 0000 8d22 b900 2ba7 d23f
00000210: 9336 8fa9 dd53 eb3f 573b 2a30 1dcf e63f
00000220: 0000 0000 0000 0000 bf7e 7edc a359 bf3f
00000230: caee 3471 57ba e73f b6f0 51f6 2b2e c43f
00000240: 0000 0000 0000 0000 3880 7207 56d0 933f
00000250: 249c 8f1b 1b38 e63f af43 2a36 539c e43f
00000260: 0000 0000 0000 0000 26a2 257e 39e5 eb3f
00000270: 8a7f e797 2121 ef3f 919d f4d5 471e 933f
00000280: 0000 0000 0000 0000 0172 2462 1e07 de3f
00000290: 1fe5 c985 9b20 e53f a3a1 a983 ab57 e13f
000002a0: 0000 0000 0000 0000 340a cc9d bace ce3f
000002b0: fddf 38c6 6ba0 e13f ddb9 5cff ebfe d63f
000002c0: 0000 0000 0000 0000 ac29 973a 081d cc3f
000002d0: ef42 dfdf 96f2 ef3f c198 2f09 ddff d03f
000002e0: 0000 0000 0000 0000 652f c418 90ec db3f
000002f0: 40ad a168 2ecf d43f fd69 e372 f4ae ca3f
00000300: 0000 0000 0000 0000 4c83 7157 beb7 ea3f
00000310: 7d83 4ce4 8595 cc3f 7afe 7931 4f7e d13f
00000320: 0000 0000 0000 0000 7bd4 a3c3 782d b93f
00000330: b6c3 77cb e54f a13f 44f1 8fb5 6ee7 e43f
00000340: 0000 0000 0000 0000 337d 3163 718b ee3f
00000350: ed15 f45d c6bf ec3f 5be4 bcec b123 ec3f
00000360: 0000 0000 0000 0000 9298 a278 b165 d43f
00000370: 9463 6d83 f216 ed3f 4cfd f4af b2e5 e53f
00000380: 0000 0000 0000 0000 9175 406f 9e38 e83f
00000390: 8eaa b0b7 d47d e83f d3ef e771 6613 e03f
000003a0: 0000 0000 0000 0000 f411 6d21 538f d53f
000003b0: 92f6 c2ef c11b c93f 77ac 456a d204 e53f
000003c0: 0000 0000 0000 0000 a3d5 26a0 ec77 e33f
000003d0: a052 4ccc bd0f c63f 20ec 6699 ff69 d73f
000003e0: 0000 0000 0000 0000 a6bb d38a d0f3 dc3f
000003f0: 34be 5806 4340 ec3f 1a25 179b 96f6 d73f
00000400: 0000 0000 0000 0000 afdd 77c5 c710 b43f
00000410: afa8 3094 0253 ec3f a00c ec4c 5bcd ee3f
00000420: 0000 0000 0000 0000 a6b3 b776 11e1 823f
00000430: 1f63 96e6 7f08 d33f d443 b5b2 6ff2 e63f
00000440: 0000 0000 0000 0000 bbb6 c31d 00f4 e93f
00000450: c330 8808 eb69 e13f 53af e6d2 8ded eb3f
00000460: 0000 0000 0000 0000 54ae c430 9f09 c43f
00000470: 24a8 059b 2cb2 833f 8579 2911 58e1 b23f
00000480: 0000 0000 0000 0000 5202 1b34 7fba e83f
00000490: 6cd9 0c31 9235 c23f bbe8 8a63 bda4 d83f
000004a0: 0000 0000 0000 0000 2827 c5b0 6280 bd3f
000004b0: 571a 1c66 bf07 af3f 7b03 9d4f e1fb ec3f
000004c0: 0000 0000 0000 0000 6180 20a5 eddd e73f
000004d0: 0a15 a6ce 3968 b43f d1eb 4f43 63dc d23f
000004e0: 0000 0000 0000 0000 d3f7 3d6e 3301 cd3f
000004f0: 84c3 52ad 6c91 c03f 3846 f8dd 7a5d de3f
00000500: 0000 0000 0000 0000 09b0 db25 a70e e53f
00000510: fe6f eca4 7ba6 c03f 6008 dd16 1023 e93f
00000520: 0000 0000 0000 0000 5ffb c21d f131 ed3f
00000530: 084f 3e35 cced 933f fa61 4436 47f7 e73f
00000540: 0000 0000 0000 0000 c36b a0b5 efc1 ec3f
00000550: ae8f 0ad5 a1ae e93f 8d11 a0bc 41a6 e93f
00000560: 0000 0000 0000 0000 12fd d6ba 5e21 ea3f
00000570: aced 2935 8556 853f b411 024f b37e dc3f
00000580: 0000 0000 0000 0000 5faf 4662 e6b9 dd3f
00000590: 7fb3 17c2 d0a4 e53f 0e8e ddb0 232b d53f
000005a0: 0000 0000 0000 0000 5aae 7784 d9a8 ee3f
000005b0: e1fe b660 3e98 c73f e440 7be9 cb9a a33f
000005c0: 0000 0000 0000 0000 c8b1 80fe 5ab4 e43f
000005d0: c478 2ba5 1908 dc3f 138c a67f fc59 e93f
000005e0: 0000 0000 0000 0000 3f0c b2dc ea60 ee3f
000005f0: c565 5448 daa2 ee3f b0be 8064 7a4e e23f
00000600: 0000 0000 0000 0000 5f6c 4423 99fa d43f
00000610: 8c4f 088c 6470 e43f 064c c5eb f1f0 db3f
00000620: 0000 0000 0000 0000 8aae 35d9 e0a5 ed3f
00000630: d4a7 2b54 a786 eb3f 11a2 4398 2ff7 c63f
00000640: 0000 0000 0000 0000 ac84 3fd7 40fb d03f
00000650: 2a57 51a9 4c84 d63f 6c88 a85f 4f35 ea3f
00000660: 0000 0000 0000 0000 6a31 31e8 9b23 de3f
00000670: 5168 06f9 c0ab da3f cf76 88cd a971 dc3f
00000680: 0000 0000 0000 0000 a09b ac32 5c9c d93f
00000690: 14e0 2beb 7c2d ed3f db4c 1914 dfe5 df3f
000006a0: 0000 0000 0000 0000 0ea5 eba0 9f3c e23f
000006b0: 6f58 a6d4 1acf d23f 8c10 d636 8b9b ef3f
000006c0: 0000 0000 0000 0000 7ac3 2e71 409f eb3f
000006d0: 4f6c 441d 04ba e23f d2d5 ed3a b672 d83f
000006e0: 0000 0000 0000 0000 5c11 3e34 0dcb a13f
000006f0: 818e bf32 f5e0 c83f e156 ae26 6dea cd3f
00000700: 0000 0000 0000 0000 45c6 97ab fbc1 e93f
00000710: c39d 4f0a 9929 df3f c57f 20a2 a4af b73f
00000720: 0000 0000 0000 0000 e083 4b15 a8f4 ef3f
00000730: f40c 4477 4271 bf3f 8dda 2242 9a47 d63f
00000740: 0000 0000 0000 0000 e9c9 7fb2 450a ad3f
00000750: bcaa 5dc7 426f db3f c18e 0831 008e e53f
00000760: 0000 0000 0000 0000 12ad ad7c 45c7 e03f
00000770: 0aa8 7e84 7d81 d83f 5dcb beff 9324 d43f
00000780: 0000 0000 0000 0000 455d 3d3a 3621 eb3f
00000790: 93c4 4046 b186 bc3f f377 39da deab e13f
000007a0: 0000 0000 0000 0000 a6f9 5812 d554 ea3f
000007b0: df3d 0751 9ba4 e83f 60cc 0d28 b457 b13f
000007c0: 0000 0000 0000 0000 fcc1 ef7d ccac ce3f
000007d0: bc3b b4ed 8a40 ca3f 54f9 73b0 5cc3 943f
000007e0: 0000 0000 0000 0000 284a fd14 bcc2 c13f
000007f0: 32a3 9a26 bfef ec3f 9ae2 97f6 0a11 e43f
0.0 0.9175519651138947 0.155155693819421 0.4697611890661451 0.0 0.3809497038962402 0.4593246712100187 0.6943893376954025
0.0 0.19373660802773596 0.8091843015293301 0.04314198716994383 0.0 0.7653035849481834 0.9273601771073907 0.9478599165267063
0.0 0.07180963672728442 0.5603932463537228 0.14164806205669178 0.0 0.6640881361709391 0.5744388088755513 0.8264843241451132
0.0 0.05106140299178829 0.6006702168197154 0.5322416329534005 0.0 0.4951547985977083 0.026024274069480647 0.5294534690997194
0.0 0.38626332581479367 0.25336449450280873 0.5196648797836173 0.0 0.6520150881072189 0.7242269084268135 0.1141746319146655
0.0 0.18920479959405387 0.17555953903478724 0.34009121577790125 0.0 0.8544494263774847 0.9493426999128022 0.3091047083634533
0.0 0.6845283955562761 0.048276184101559545 0.685596900004904 0.0 0.894727911565059 0.6972882016670632 0.669672447950692
0.0 0.5344275768205815 0.13665125987924434 0.9153359194509888 0.0 0.6961515022095057 0.3322175537504649 0.25862175836894624
0.0 0.29145312376616844 0.8539875327785061 0.7127824726793318 0.0 0.12246154912144912 0.7414967738218021 0.15765904929492586
0.0 0.019349426464600777 0.6943488634395902 0.6440826471244828 0.0 0.8717315162476253 0.9727943388825093 0.01867019885426441
0.0 0.4691844900533227 0.6602304089603058 0.5419519015822981 0.0 0.2406838675015749 0.550832640793487 0.3593091958781807
0.0 0.21963599072325957 0.9983629581930397 0.2656166639047904 0.0 0.4363136522158498 0.32514534204411305 0.20846419915945083
0.0 0.8349296291236015 0.22331308028608624 0.27333431083386694 0.0 0.09835009361616358 0.03381269558656845 0.6532510324609935
0.0 0.954521840798327 0.8984100184467799 0.8793573020731275 0.0 0.31870686321998065 0.9090511862697093 0.6842893063220941
0.0 0.7569114849936104 0.7653602206895174 0.502368185494101 0.0 0.3368728472162552 0.1961595936499419 0.6568386150005513
0.0 0.6083891990626181 0.172355389361333 0.3658446310107042 0.0 0.4523812633259986 0.8828444599111607 0.37442555566356506
0.0 0.07838104792596455 0.8851330656373387 0.9625679495224126 0.0 0.009218346057389425 0.2973937751608435 0.7170942774192732
0.0 0.8110352116907146 0.544179455436755 0.8727482909357412 0.0 0.15654363518966596 0.009617184143923714 0.07375097674364468
0.0 0.7727657334981564 0.14225985903767524 0.38505491944273346 0.0 0.11524025741269084 0.06060598489243734 0.9057470850894868
0.0 0.7458408570419232 0.07971535964141566 0.29470140050369503 0.0 0.22659914858735294 0.12943800414134554 0.474455563323406
0.0 0.6580386866967284 0.13008065750989312 0.7855301329184492 0.0 0.9123464185030165 0.01946181368801006 0.7489353237061203
0.0 0.8986738726992985 0.8025674019777307 0.8015450176322233 0.0 0.8165734910216165 0.010418930706910988 0.4452331801951701
0.0 0.46447143170620636 0.6763690749045138 0.3307580210878037 0.0 0.9581115329032841 0.18433360788730282 0.03829037881007638
0.0 0.6470160456424816 0.4379943955408516 0.7922346585440913 0.0 0.9493307409724209 0.9573794758500119 0.5720798457095579
0.0 0.32779529995031526 0.6387198195466097 0.4365811159561307 0.0 0.9264988176705213 0.8601872104602486 0.1794185155370234
0.0 0.2653352834732441 0.3518249181264418 0.8190075748755254 0.0 0.47092340159431123 0.4167330200085689 0.44443745681369945
0.0 0.40016846607835 0.9118027299109621 0.4984052368428828 0.0 0.5699003355959193 0.29389067427235366 0.9877372809428535
0.0 0.8631899080847767 0.5852070399881856 0.38200145487584536 0.0 0.0347522856018567 0.19436516740744383 0.23371662510606142
0.0 0.8049295760558343 0.48691392905172054 0.0925238509958027 0.0 0.9986153045575712 0.12282195483935593 0.34812027414901864
0.0 0.056718996085596114 0.42866582364392136 0.6735840757068773 0.0 0.5243251261830741 0.38290346087399085 0.3147325513374904
0.0 0.8478041779989459 0.11143024411355133 0.5522302877614024 0.0 0.8228555067396897 0.7700935919364688 0.06774450281027233
0.0 0.23964840077634608 0.20509468657152563 0.02027649714454445 0.0 0.13875533127664252 0.9042659524903682 0.6270804229998987

YTrain_Boundary f8 [1600, 1]
00000000: f20a 8009 3356 e63f b035 913c 4212 f6bf
00000010: ec37 6d17 cb81 febf 1a15 c3d8 4bd8 e4bf
00000020: 255d 3a31 b949 eb3f 80c3 026b 0287 ef3f
00000030: b523 2e67 9e19 edbf e2a5 4c08 bac5 dabf
00000040: 64f2 06b5 723c 05c0 e65b aeb3 0d4a f6bf
00000050: 527a 697b b198 f53f 64bb 6117 fec3 f2bf
00000060: 90ec 0be5 5a5a ecbf 9cec d7c6 db20 c4bf
00000070: 6eaf 7079 b8b0 edbf 4299 a283 221a f03f
00000080: b4fe 8a28 1a33 e1bf b055 1d3b 2137 b2bf
00000090: d942 8a10 5298 01c0 1031 4d79 b325 b0bf
000000a0: e320 3461 fd56 ef3f a000 02ab 1014 abbf
000000b0: eae6 4eb4 5c68 0540 d6a3 3e5b 27c8 f03f
000000c0: 5e59 bc85 d742 0040 6a00 d9cd 80f2 f7bf
000000d0: a07e bed9 be2f f4bf e811 b7fa 7163 fc3f
000000e0: db30 460b 3a85 cfbf 9e8e d8a3 6b6e fcbf
000000f0: b0bf e110 bf8d c4bf 2478 e2af df38 acbf
00000100: 2229 5af6 6052 f3bf e60b 9c63 3060 07c0
00000110: 3a85 64fa 7d15 fb3f fbf4 f6a3 3594 0840
00000120: af78 3e4e bd5c fcbf 25a3 b4a7 41aa e0bf
00000130: 4080 92c5 9aab b6bf 79b4 0de7 2544 f13f
00000140: 1159 e3f2 f9f5 08c0 dc0d dbc0 803e c8bf
00000150: 4065 5366 6009 eebf 5d1b b2ba 4f7b f5bf
00000160: c140 ea54 36d0 f93f a4a3 437a 357b f83f
00000170: f8cf 0e37 6609 cfbf e416 f3cf f364 02c0
00000180: c83a 9cdc 17f8 f13f fca8 fa0f 0abd edbf
00000190: ca81 9354 e584 d8bf f060 fc28 ca74 fabf
000001a0: 45d8 dc73 7184 0040 f4b4 615f 17bd e13f
000001b0: a4a0 d40f 3de3 e83f ea9f be55 bf51 f83f
000001c0: ac37 35c7 c860 f53f 8e72 e649 d1c0 f23f
000001d0: a226 a596 5b7a d13f 60fd 0458 3810 79bf
000001e0: 902a 8244 767a b13f 55c1 9d23 24c0 f9bf
000001f0: 9e5f 452e ab61 fa3f 31ed 45fa 70b4 e73f
00000200: 9eca 63e4 5eb8 f53f 56eb ec38 de0b 0140
00000210: b6a3 9ab4 16ac e23f 2a97 0ae0 f39a fb3f
00000220: f2d6 6969 dfb5 e13f 869b c8d1 6fa7 fdbf
00000230: 14c5 849f 46d4 d9bf 9409 06b9 0ef9 eb3f
00000240: 14dd 51ed 894b c4bf e42a 6065 199a f13f
00000250: f1a2 5ddd f5f2 f7bf 214e af97 1585 e4bf
00000260: 2cf0 7a74 7f14 ed3f 781f 1014 0324 c33f
00000270: 79e6 7635 1b8a 03c0 404c fb79 1e27 94bf
00000280: c092 00cf aa19 99bf c44f 6e07 d75b f73f
00000290: 14de 2aa1 a2a4 e03f 84c5 97a8 11a7 e9bf
000002a0: c8b7 e147 1ede d23f a06d 24d7 b44a e13f
000002b0: 4a21 62c7 5fb2 eb3f 3ebb 056a dfc0 e3bf
000002c0: c4cb c2fe 077a e0bf 2aac 0c49 8720 eabf
000002d0: f6bd 8e60 3256 c53f c457 ba86 2776 d63f
000002e0: 7912 7f0c d47b f53f ba7e 4e5d c02c 0440
000002f0: 15df cb8b fbea f1bf 8278 83b6 c0ca f5bf
00000300: 97e9 752b fbcf ed3f acf3 e254 1f0b debf
00000310: 55e2 0101 37a8 e33f 736e fd17 c735 f43f
00000320: 00ff 479e 8bc1 813f 4e9c 9d30 9f36 e53f
00000330: fe9d 9f7b a4b0 0540 b089 50d6 c744 dbbf
00000340: 3f1d 67d6 b838 f13f 0867 9866 8afb fc3f
00000350: 1fc7 f6b5 f465 f43f 37c3 07a9 de11 ff3f
00000360: de01 497c 08fe dbbf 383e d1bc bd02 03c0
00000370: bc4a 9611 cdb6 f6bf b8bb 0234 05ad 07c0
00000380: 74ae 58ec 3b2e d83f 6446 9188 b2aa e73f
00000390: 9c71 5769 a0d6 c23f 00fc bb72 bcb0 f13f
000003a0: d637 2ac5 e6cd f3bf d49a 3d7f 7ade 0040
000003b0: 748f 5df1 eb35 f9bf 5a87 1fd5 3a5c d5bf
000003c0: d417 24e2 689e ca3f cdd1 f112 804c fc3f
000003d0: 4e43 9080 f3a2 06c0 d30e 9cfa e06c f2bf
000003e0: 16ef e240 2e0d dfbf de4d 1ab5 4561 e73f
000003f0: 005c d009 e88d 01c0 2c3a 8b59 d3d6 c1bf
00000400: 38b2 1099 ec6f f73f 5777 6502 a99d eabf
00000410: 2229 c542 d227 e23f 4e71 562b 5e15 fe3f
00000420: c58c f3da ec22 c53f 80d4 7e5d 121d b33f
00000430: 7ac1 0724 fc5e e63f 46b8 e18a da8e 0340
00000440: 4edf c9ab 57e9 f63f b40e 7e21 f56d c93f
00000450: b6e9 83f0 517b e33f 429b 2200 48e0 f1bf
00000460: 88ff 9b42 7007 c73f b0ee 9864 887b bd3f
00000470: c0f1 d166 81e4 dfbf 04ca 7053 addf dbbf
00000480: 932d 08c9 164f 03c0 4a87 45c4 4a45 d13f
00000490: c2af a6ec 04ae 0ec0 28f0 4e75 f599 d23f
000004a0: 2456 d53c dcda 05c0 8cf5 1799 9ae9 f33f
000004b0: 904b 8bbc 07a9 d13f 463e 47ff ee9d e73f
000004c0: ff30 8a1a d859 f3bf ee4e da82 197b 09c0
000004d0: d055 3e0e d120 0340 d289 ec9c 2c0b ff3f
000004e0: 7c77 c2e2 8ab0 d1bf 8256 1c94 10b7 04c0
000004f0: 7df5 44a0 125a 0340 d0c3 ff11 c79f b3bf
00000500: 14a8 0584 f610 03c0 7ea1 de25 77a9 bbbf
00000510: 90dd cbfd ea44 d73f e6c7 7dde fd7b ff3f
00000520: b045 5b88 7550 c43f 2881 cfac 9e8c bbbf
00000530: 5a3f 28d6 0869 fe3f d640 ce98 0a99 e23f
00000540: 80c5 6508 2ec4 76bf 2ede 0229 233b d4bf
00000550: a670 f294 9a74 f23f a849 df58 e53a ef3f
00000560: 321d e687 607d ebbf 53c8 b888 c740 d8bf
00000570: 63b1 af3f 0dd0 07c0 003b b99b 28f1 9b3f
00000580: f903 4a54 8116 fc3f d336 7d31 d7d8 fd3f
00000590: 7f07 12f2 c0a9 e9bf abee 4cdb 7819 0340
000005a0: 5855 bde2 b756 cbbf af8b 355d 6b76 eabf
000005b0: b841 bd15 6bea cc3f b9c4 bb65 3597 fdbf
000005c0: fc78 cdec 085c f1bf 48fd 3db0 93ea d93f
000005d0: 61a0 2d98 550c 08c0 f6ce 2c83 b405 f6bf
000005e0: ffc0 be42 8bd3 f43f d5c3 27fd 49eb 0040
000005f0: b08f 04f3 3d13 d8bf 5fb4 1a89 a7b9 07c0
00000600: ce1a 3e13 f382 e73f ee05 fd76 d9c1 df3f
00000610: 92a3 0053 eff2 02c0 5971 98ba 6671 f9bf
00000620: 0aae 8831 8008 d0bf 283c 80b5 cf42 e5bf
00000630: f89e 3da7 0f82 fbbf 89c2 7df6 e430 0140
00000640: e80a 8009 3356 e63f a435 913c 4212 f6bf
00000650: 1438 6d17 cb81 febf ba14 c3d8 4bd8 e4bf
00000660: cd5c 3a31 b949 eb3f 24c3 026b 0287 ef3f
00000670: c123 2e67 9e19 edbf 2fa5 4c08 bac5 dabf
00000680: 6af2 06b5 723c 05c0 ee5b aeb3 0d4a f6bf
00000690: 387a 697b b198 f53f 79bb 6117 fec3 f2bf
000006a0: 84ec 0be5 5a5a ecbf 4eeb d7c6 db20 c4bf
000006b0: ccaf 7079 b8b0 edbf 7099 a283 221a f03f
000006c0: 70fe 8a28 1a33 e1bf 5057 1d3b 2137 b2bf
000006d0: d442 8a10 5298 01c0 d033 4d79 b325 b0bf
000006e0: 8720 3461 fd56 ef3f e0fb 01ab 1014 abbf
000006f0: f0e6 4eb4 5c68 0540 06a4 3e5b 27c8 f03f
00000700: 7659 bc85 d742 0040 3b00 d9cd 80f2 f7bf
00000710: 8e7e bed9 be2f f4bf de11 b7fa 7163 fc3f
00000720: ef2f 460b 3a85 cfbf cc8e d8a3 6b6e fcbf
00000730: bcc0 e110 bf8d c4bf 5c79 e2af df38 acbf
00000740: 3929 5af6 6052 f3bf f70b 9c63 3060 07c0
00000750: 2185 64fa 7d15 fb3f 09f5 f6a3 3594 0840
00000760: 8778 3e4e bd5c fcbf 1aa3 b4a7 41aa e0bf
00000770: 7081 92c5 9aab b6bf a0b4 0de7 2544 f13f
00000780: 2259 e3f2 f9f5 08c0 4a0d dbc0 803e c8bf
00000790: e164 5366 6009 eebf 5e1b b2ba 4f7b f5bf
000007a0: 9240 ea54 36d0 f93f c4a3 437a 357b f83f
000007b0: 88cf 0e37 6609 cfbf e616 f3cf f364 02c0
000007c0: 9f3a 9cdc 17f8 f13f 4ca9 fa0f 0abd edbf
000007d0: 8a82 9354 e584 d8bf 1c61 fc28 ca74 fabf
000007e0: 2dd8 dc73 7184 0040 54b5 615f 17bd e13f
000007f0: 48a0 d40f 3de3 e83f 18a0 be55 bf51 f83f
0.6980223832655084 -1.3794576993853802 -1.9066878237822449 -0.651403354037629 0.8527494393810328 0.9852306451849557 -0.9093772902716554 -0.4183182793663872
-2.6545156615014083 -1.3930794733803338 1.3497786350996148 -1.1728497422552318 -0.8860296701017365 -0.15725276192811044 -0.9278223392370657 1.0063805715559089
-0.5374880592207405 -0.07115371411540283 -2.1993752758211085 -0.06307527266944057 0.9793688677318894 -0.05288745963571384 2.675958069475077 1.0488656582112887
2.032637638864954 -1.4967048684048003 -1.2616566186551736 1.7742786210593469 -0.2462532572793695 -1.7769581222754947 -0.16057575535114443 -0.05512141248731009
-1.207612001717799 -2.9219672948834043 1.69274709519989 3.0723679361095697 -1.7726414734275229 -0.5207832599163323 -0.08855597804586157 1.0791377091911996
-3.12010564571677 -0.18940743843823682 -0.9386445997762749 -1.342605332641788 1.6133330647463 1.5300802970834662 -0.24247434318897354 -2.29929316006279
1.123069631346583 -0.9293260871975515 -0.3831113172473378 -1.653513107396119 2.064669518639706 0.5543324339793387 0.7777390774908963 1.519957861843063
1.3361289769704667 1.1720745932317729 0.27309312545239994 -0.006118984311171388 0.06827487156457779 -1.6094094649561914 1.6488448913059766 0.7407765281817885
1.3575123712040873 2.1307949492742564 0.5835069205687577 1.7253302337280254 0.5534512575966046 -1.853378123729017 -0.4035812909888403 0.8741525281659954
-0.15855526054267755 1.1001218757616522 -1.4968165061092658 -0.6412456476777529 0.908752181530422 0.14953649978292183 -2.4424347092543113 -0.019680477328460677
-0.02451197517815973 1.4599218645353043 0.5200970790674 -0.8016441624478579 0.29480702418993276 0.5403694345472339 0.865524186535404 -0.6172940321683666
-0.5148963905143025 -0.816470759081658 0.16669301714635737 0.35096157223722124 1.342731522382705 2.5218512811260014 -1.119868799285489 -1.3620001916347353
0.9316383217658765 -0.4694288567514444 0.614284040420055 1.2631293236835546 0.008669939773426005 0.6629177045368893 2.7112512262426653 -0.42607303551826714
1.0763481497868523 1.8114112861280223 1.274891577526837 1.9418627360102627 -0.43737995278573105 -2.376338458190528 -1.4196291625018338 -2.959482580502904
0.37782190399841586 0.7395870845159149 0.1471748842585726 1.105648468190111 -1.2377689077143166 2.1086320820498745 -1.5756644657457999 -0.3337542611389971
0.20795928041496714 1.7686768283866627 -2.829566006090693 -1.151581744140391 -0.4851794847161143 0.730624059406576 -2.194290234252094 -0.13936845657595265
1.4648252467260487 -0.8317456290057902 0.5673610023598352 1.8802167599561304 0.16512833300575927 0.0746623495350196 0.6990948394505232 2.444752774251387
1.4319683752527967 0.19866813788768456 0.6088037202419432 -1.1172561650543718 0.17991450550470867 0.1151662107085325 -0.49832186738037976 -0.4355271639680327
-2.4136176782246337 0.26985425154827125 -3.8349703300827693 0.2906469007100463 -2.7318653824429635 1.244532201787794 0.2759417859317006 0.7380290017990283
-1.209434608145841 -3.185107252394906 2.3910237419865794 1.9402280931322946 -0.27640030045028374 -2.5893870898387954 2.4189808388752554 -0.07665676297598556
-2.383282691404938 -0.10805458712150615 0.36358141693877943 1.9677714053218494 0.1587054172328357 -0.10761443823821948 1.9006431928173328 0.5811818108068347
-0.005558185401569715 -0.31610945706367743 1.1534677332156575 0.9759394393716336 -0.8590548185610827 -0.37895382262934624 -2.976587770032141 0.027287134651767353
1.755494431738269 1.8654395993393578 -0.8019718864381814 2.3874375470021127 -0.21358393260258413 -0.8269554920665224 0.22590387879837492 -1.8494161581004802
-1.0849694490530615 0.4049424382319171 -3.006022633449945 -1.3763928531670309 1.3016464812499746 2.1148872163543992 -0.37617443783005466 -2.965651579978427
0.7347350478965724 0.49620663280447175 -2.3686205372400275 -1.5901858605276031 -0.2505188449601695 -0.6644056839885524 -1.719253209384929 2.148874211991203
0.6980223832655073 -1.3794576993853775 -1.9066878237822538 -0.6514033540376183 0.852749439381023 0.9852306451849455 -0.9093772902716567 -0.4183182793663773
-2.654515661501411 -1.3930794733803356 1.349778635099609 -1.1728497422552364 -0.8860296701017352 -0.15725276192810117 -0.9278223392370761 1.006380571555919
-0.537488059220733 -0.0711537141154086 -2.1993752758211063 -0.06307527266945034 0.9793688677318791 -0.0528874596357054 2.6759580694750795 1.0488656582112994
2.0326376388649647 -1.49670486840479 -1.2616566186551696 1.7742786210593446 -0.24625325727936295 -1.7769581222755049 -0.16057575535115187 -0.055121412487312255
-1.207612001717804 -2.921967294883412 1.6927470951998844 3.072367936109576 -1.772641473427514 -0.5207832599163311 -0.08855597804586579 1.0791377091912082
-3.1201056457167775 -0.18940743843823277 -0.9386445997762644 -1.3426053326417882 1.6133330647462896 1.5300802970834733 -0.24247434318897043 -2.299293160062791
1.123069631346574 -0.9293260871975604 -0.3831113172473485 -1.6535131073961287 2.0646695186396955 0.5543324339793494 0.7777390774908861 1.5199578618430731
