Darcy_Flow6D/dataset/Dim6/Beta6/DarcyFlow_HoumanC2000_B408_Trace.npz (npz, 712410 bytes, 6 tensors)

beta f8 []
0	0x4018000000000000	6.0

XTrain_Col f8 [2000, 6]
0	0x3fe9dc098f9f6ec2	0.8081100278027054
1	0x3fef251a6cbf39db	0.9732792018856417
2	0x3fcf6c1930747253	0.24548640123329565
3	0x3fe694b765133013	0.7056538557167208
4	0x3fe16ff44849e996	0.5449162876023361
5	0x3fb9b757173082a4	0.10045379940175764
6	0x3fe703287a2fc3ed	0.7191355120140749
7	0x3fe97c8582e514da	0.7964503819026973
8	0x3fe1fe03b1b72c29	0.5622576209074214
9	0x3fe599d23b84337a	0.6750270044736759
10	0x3fe310b7ae23c554	0.5957907105604741
11	0x3fe5c1ec65a85441	0.6799222932337515
12	0x3fe5b60d49b42533	0.6784731330418822
13	0x3fe578a92b8bd6e4	0.6709791040909434
14	0x3fcaca34345668b5	0.20929577403587066
15	0x3fe48b7af65cfebb	0.6420264064581355
16	0x3fd8964128b50549	0.38417080855659386
17	0x3fe411d056201c5f	0.6271745378625261
18	0x3fe6193d64838f01	0.6905810321008802
19	0x3fe0c078f3e48e6e	0.5234951747447221
20	0x3fd7fab5929e62bd	0.3746770793746171
21	0x3fd63295debcfbea	0.3468374896219176
22	0x3fd58c188314fc34	0.3366757660004993
23	0x3fbb90ac9047ef2c	0.10767630121693789
24	0x3fb2f88fdfee3e00	0.07410525528961642
25	0x3fd8285c46701980	0.37746340635967357
26	0x3fe1aaca08904e92	0.5520982901820892
27	0x3fed27482850f8e4	0.9110451495578471
28	0x3feb920e07f67fff	0.8615789561772543
29	0x3fc39a918fa31292	0.15315455926442617
30	0x3fe932a508aa694f	0.7874322098971706
31	0x3feb3df5ce603dcd	0.8513134985714089
32	0x3fe835a24cb417e9	0.7565471170535122
33	0x3fdd38501223c548	0.45656205913026726
34	0x3fb8f0fd4c6aaf66	0.09742720714228667
35	0x3fdfd3414cf94da9	0.4972689868638676
36	0x3fb083d0923a39c3	0.06451133317953066
37	0x3fe70e53691575bd	0.720498757593013
38	0x3fd06b34eebf0ee4	0.2565433818347016
39	0x3fef0bf68fe43fb2	0.970210343397403
40	0x3fe4c5cc9a785fa4	0.6491454140659596
41	0x3fd70d58eb3b6449	0.36018965694308186
42	0x3f97b433007f72e1	0.023148342996011876
43	0x3fc770f7a040900e	0.1831349880677639
44	0x3fe651cc56c3386d	0.6974851317006717
45	0x3fdb6bd9c2b9bddd	0.4284576799027187
46	0x3fb147c1dd3b8e2e	0.06750117922961671
47	0x3fe5390342d59acf	0.6632095628127334
48	0x3fda7ac97395a5b3	0.41374431884340906
49	0x3fe711255d036418	0.7208430115380251
50	0x3fb6c1125860a6d1	0.08888353974966924
51	0x3fa3a5a13092de87	0.03837302892628452
52	0x3fe9d2587eb7b1ff	0.8069269633247699
53	0x3fb30bf0ed6b3ede	0.07440095707283542
54	0x3fe4165a91fec3e8	0.6277287341564461
55	0x3fea4ab6f52a2a17	0.821620444142641
56	0x3fd361824b1cd462	0.30282647452560785
57	0x3fe401c22d68f053	0.6252146613037531
58	0x3fe6dca1cd258ccc	0.7144326216479384
59	0x3fd10e9daef40855	0.26651708684233216
60	0x3fe98c778b5f275c	0.7983968469718365
61	0x3f9bc6333c0974b0	0.027123261012424293
62	0x3feb58c645bc24c6	0.8545867311487647
63	0x3fe5c297b9377032	0.6800039880286077
64	0x3feae30461d98090	0.8402120505452491
65	0x3fd5814ba45e342c	0.33601656962929627
66	0x3fea79ed02dbf933	0.8273835235448018
67	0x3f801e766f23f17d	0.007870602862106274
68	0x3fac29770476de08	0.05500385217186127
69	0x3fe63cf75e3aa845	0.6949421730435082
70	0x3fd5faf48d27868a	0.3434420946560769
71	0x3fd3e0de713b947d	0.3105999093807624
72	0x3fe70df73d448aec	0.7204548069606438
73	0x3fec75c94bde3c32	0.8893782121466585
74	0x3fcc9a9c191342b3	0.22346831535698683
75	0x3fd8c4e6717cc6bf	0.387017832591578
76	0x3f962680da17f9a4	0.02163125353944796
77	0x3fe027b9dec7ceac	0.5048493720227802
78	0x3fe538c38e6835ed	0.663179185999693
79	0x3feeb6df05619569	0.9598231415845194
80	0x3fe69a6ee2e0334f	0.7063517028014789
81	0x3fed4f959837ca43	0.9159648869520612
82	0x3fe0658e4571ada3	0.5123969417885984
83	0x3fd53e6ab489e1a2	0.33193462019655773
84	0x3fefda22a2c27391	0.9953778437517135
85	0x3fa372b65db8f790	0.03798456090997526
86	0x3fddad52af4183ff	0.4637037955745313
87	0x3fedeb9cdbb930d9	0.9350113193009079
88	0x3fe36daed295bf57	0.6071390259730646
89	0x3fc58ff25c5902d1	0.1684554053226948
90	0x3fdf9ca0269f3174	0.4939346673170555
91	0x3fe656f661bd6ae3	0.6981155308706913
92	0x3fd259f27800896d	0.28673993796305447
93	0x3fe5ca134e2485fc	0.68091740858307
94	0x3f9a3b426649168d	0.02561668156911039
95	0x3fe37c648b129549	0.6089346615087062
96	0x3fb9e1261b5a8365	0.10109174888431267
97	0x3f96219f64855585	0.021612635145478194
98	0x3fe34f883f22abb3	0.6034585221399226
99	0x3fbb2ba05101b064	0.10613443353366986
100	0x3fe47be2f1d81b03	0.6401228641051094
101	0x3fdd46375f9d8eca	0.457410663008187
102	0x3fe7ac51f2c63aa7	0.7397851697622472
103	0x3fbaed8649f5e1ff	0.10518683725047849
104	0x3fed8941259e2a52	0.9230046972964578
105	0x3fef20deb2ac404b	0.9727624406532497
106	0x3fea090d0f35e261	0.8136048600272937
107	0x3fcc95ea107a4e1b	0.22332502178743216
108	0x3fd04426f7dc7fe9	0.25415968136985484
109	0x3fee1fce2525b4f0	0.9413824773343134
110	0x3fedc8345ecc3f8b	0.9306890346069719
111	0x3fe0b7d3b76cf95e	0.522439821484834
112	0x3fb61b2a3487b6ef	0.08635200293039323
113	0x3fe8852810ab7000	0.7662544560985225
114	0x3feb1600ef05567a	0.8464359920860283
115	0x3fe6b7001a63b2c3	0.7098389163416744
116	0x3fec4ee00d78018a	0.8846283209859831
117	0x3fdb60580bf7dad5	0.4277553669811998
118	0x3fe28fa88ca66353	0.580036425311031
119	0x3fa2c4d7a1d6f8ee	0.03665803766806329
120	0x3feddd3973ddc8f6	0.933254934598408
121	0x3fef6c1c4c253de0	0.98194708702243
122	0x3fe5d452033559d1	0.6821680128730866
123	0x3fe0d99320e2e9c4	0.5265594141304111
124	0x3fcb6a5e1f0545ad	0.2141835833995577
125	0x3fe197d8195a4e11	0.5497856612368556
126	0x3fc38fc157cf0f11	0.15282456195392816
127	0x3fba1d84695fa6e9	0.10201289723013542
128	0x3fd86d6ea02fbcd3	0.38167920726023147
129	0x3feae599d5ec3284	0.8405274561096836
130	0x3fea59ed508525c3	0.8234774181993817
131	0x3fe70dc3dab2c1c4	0.7204303046656197
132	0x3feb762c3b6d9b4f	0.8581753884035183
133	0x3fecff0e3012ccc9	0.9061346949514696
134	0x3fdf3435a4e3e744	0.4875616178757023
135	0x3fe8a84cd8fc41e3	0.7705444562907896
136	0x3fee3eb97ca25ae1	0.9451568063985542
137	0x3fefad5851d21789	0.989910278135299
138	0x3fe1040936ceee88	0.5317426748728886
139	0x3fcde002edf74750	0.23339878673010128
140	0x3fb990d351f939e4	0.09986611129099959
141	0x3fe71e13e35d8a4c	0.7224215927820494
142	0x3fe09ad282bf0fa6	0.5188992074622447
143	0x3fc137bac89639ef	0.13451323313024896
144	0x3f7058b3c1098adc	0.0039908429758692375
145	0x3fe403d1e2d64b03	0.6254662924205551
146	0x3feac07399191093	0.8359926214402712
147	0x3fd0476e3fc94373	0.2543597815429656
148	0x3fef35318f5286c2	0.9752433585419669
149	0x3fe4e5a1b707b4be	0.6530312132651017
150	0x3fb73649c45c6a33	0.09067212146730057
151	0x3fe551324f788050	0.6661616851961387
152	0x3fef1ee1b3d353f2	0.9725197326866903
153	0x3fae3d515b2e6d33	0.059061567669426294
154	0x3fe8e590a3fcc5e2	0.7780230715636061
155	0x3fed304530aec807	0.9121423674425849
156	0x3fe1e619c20c1e68	0.5593384542452897
157	0x3feee5812311040b	0.9655156788722946
158	0x3fd58753febb4af2	0.33638477207311646
159	0x3fe86c8293704bfc	0.7632458572064702
160	0x3fcc02bc00396041	0.21883344660705187
161	0x3fea3aadffefde5c	0.8196630476731559
162	0x3fea28313864f6f1	0.8174062825634946
163	0x3fde165f588056d5	0.47011550562579646
164	0x3fd730587c173b53	0.36232578390347675
165	0x3fe81267f7064145	0.7522468399711576
166	0x3feffd9fb5efef49	0.9997099450551811
167	0x3fe5122930de04be	0.6584669069708509
168	0x3fbae0292682d9e4	0.10498292150700866
169	0x3feaf100dabf64b0	0.8419193527617121
170	0x3fd91ea7e35a21bf	0.39249608232833205
171	0x3fd623764afc4f18	0.34591443369684916
172	0x3fef2d5482e7bc75	0.9742834622137609
173	0x3fdb723a6ca6437f	0.4288469372777896
174	0x3feb1e357829309a	0.8474376055614983
175	0x3fd6e875428df7fc	0.3579381132075239
176	0x3fee9703717f0d97	0.9559342591023093
177	0x3fde8acff0a205fb	0.4772224283152295
178	0x3fa57a4125dbf61b	0.04194835269116145
179	0x3febdf3b4cf5b36e	0.8709999564285746
180	0x3fe2d2c70cfef58a	0.5882296804262961
181	0x3fe026bbe2320912	0.5047282617454434
182	0x3f7f97dc445f47bf	0.0077131847555892965
183	0x3fecb609154221ef	0.8972211280061496
184	0x3fbead1ab964bf35	0.11982886339387451
185	0x3fc84f40b75e551e	0.18991860345401163
186	0x3fdfbaf41f5f8c82	0.4957857424144053
187	0x3fb295ed89d1af1e	0.07260021795962898
188	0x3fe8f79b28e81ef4	0.7802253531417294
189	0x3fe43c1e758a4912	0.6323387428003875
190	0x3fed4e587d4a5c83	0.9158136794166157
191	0x3fef3393dc27e78f	0.9750460910720323
192	0x3fd2bd90616eb6a7	0.2928200675477037
193	0x3fd5abdda6a56c20	0.3386148574260819
194	0x3fdd203170e11878	0.4550899126373973
195	0x3fe990594b1baddf	0.7988707034068588
196	0x3fe73cdd5f1b5943	0.7261797769122399
197	0x3fe0a48fc79bb2b3	0.5200880907628601
198	0x3fdf3fec557cde94	0.4882765612451092
199	0x3fa9c058243e522a	0.05029559557366199
200	0x3fe186691ba36029	0.5476575412567445
201	0x3fedd19ab3818717	0.931836462590783
202	0x3fb7e2d86a6f711d	0.09330513571280048
203	0x3fe6381ce0b9e41c	0.6943497075254785
204	0x3fd831a893f7b65b	0.3780309147831297
205	0x3feaa1a914841b99	0.8322339440063501
206	0x3fe745026319b1db	0.7271739898256401
207	0x3fed7441fe7e06cf	0.9204416246941153
208	0x3feabcc533de8961	0.8355432522842358
209	0x3fe39c0bab8a309b	0.6127985334765244
210	0x3fe6a609a49803d6	0.7077682699892829
211	0x3fe52b0042bdff75	0.6614991477544964
212	0x3feead684fa5caf2	0.958667903482221
213	0x3fddf0cfd4483f4a	0.4678229878490937
214	0x3fef1358d3dd1868	0.9711116922342287
215	0x3fc2366ec5889594	0.14228615422431956
216	0x3feb8b504fbc1fa4	0.8607560689279024
217	0x3fd27fffc67c62c7	0.28906244643580375
218	0x3feac55785d22f1c	0.8365895856563585
219	0x3fcff074f820a3a9	0.24952566257095768
220	0x3fe6f1b8317078b9	0.7170067754375601
221	0x3fe1527ff211f78a	0.5413207748349447
222	0x3f0fe5f529105000	6.084112568074951e-05
223	0x3fbd406edcb103b7	0.11426442039466066
224	0x3fef169ee4e7d33b	0.9715113135158399
225	0x3fb3360d340700f6	0.07504351158332043
226	0x3fea13ca1baa4380	0.8149157085737073
227	0x3fdad8e2488bf530	0.4194875439132657
228	0x3fe8df40664bc4ee	0.7772523878067241
229	0x3fa1987ff05d3400	0.03436660584575435
230	0x3fc69d2f8082f570	0.17667192244509122
231	0x3fe3893b6e3c2a7a	0.6105019715335651
232	0x3fb341bf22968c20	0.07522196382937851
233	0x3fb03124ddb4b8c0	0.06324987805121207
234	0x3fd89c2d9a92ee3e	0.3845323571692666
235	0x3fe452e9a77d08c2	0.6351211806543449
236	0x3fd6290b3a9702bb	0.34625511857670305
237	0x3fe25445913e35d5	0.572787078550102
238	0x3fe4481eb9f7af3e	0.6338037140062409
239	0x3fd221fa03aa5d28	0.28332376821477334
240	0x3fd34cbead16e5cc	0.30155913260713585
241	0x3fefa689677fa60c	0.9890791913468902
242	0x3fce8681cd7c0534	0.2384798291532576
243	0x3fefaab073db547b	0.9895860922648717
244	0x3fc8a3d43536d6fe	0.19249966238356103
245	0x3fe2acd3d3727e33	0.5835971002415533
246	0x3fb21e7d9eee805f	0.07077775125662943
247	0x3fc4a9e72231370d	0.16143502397101664
248	0x3fca617d9887bb6d	0.20610017726672983
249	0x3fe978b40da7c0ed	0.7959842936234317
250	0x3fcfbe4f1e655bfa	0.2479952715318346
251	0x3fcd54c3855613af	0.22914928446348656
252	0x3fdbd54f5026523d	0.43489439799421686
253	0x3fee50872b21b08a	0.947330078355223
254	0x3fe07eb38fe3a2c3	0.515466481240843
255	0x3fc8c075103343c1	0.19337333003070792

FTrain_PDE f8 [2000, 6, 6]
0	0xc01302c0120db394	-4.752685815893432
1	0xc01325af073b4c72	-4.786800492281246
2	0xbff50053cafbe0b0	-1.3125799111422047
3	0xc00dcf1fe189bf29	-3.7261350269472087
4	0xc0079c3540844aaf	-2.9512734451648934
5	0xbfdda158a69f1894	-0.46297279616954623
6	0xc01325af073b4c72	-4.786800492281246
7	0xc017df47afd4bdab	-5.968046901092218
8	0xbff85294dffd0f39	-1.5201615094710645
9	0xc0111ecc388c7244	-4.280075915882268
10	0xc00b26f2780b0a7c	-3.3940171602601463
11	0xbfe18e622d6a0353	-0.5486307990068816
12	0xbff50053cafbe0b0	-1.3125799111422047
13	0xbff85294dffd0f39	-1.5201615094710645
14	0xbff2be57573171d1	-1.1714700132352969
15	0xbff29e3292fc28d4	-1.1636224500276073
16	0xbfece6a61fcfd9dd	-0.9031553860975766
17	0xbfb114ab9c950a02	-0.06672165463263727
18	0xc00dcf1fe189bf29	-3.7261350269472087
19	0xc0111ecc388c7244	-4.280075915882268
20	0xbff29e3292fc28d4	-1.1636224500276073
21	0xc00fc58178ebbcf0	-3.9714383551541843
22	0xc005118ba7f105f7	-2.633567153971622
23	0xbfd9b245c2ad29d0	-0.401505890001002
24	0xc0079c3540844aaf	-2.9512734451648934
25	0xc00b26f2780b0a7c	-3.3940171602601463
26	0xbfece6a61fcfd9dd	-0.9031553860975766
27	0xc005118ba7f105f7	-2.633567153971622
28	0xc00666ccae0adf1d	-2.800195083338521
29	0xbfd2d14d8e2eca0c	-0.2940248383048647
30	0xbfdda158a69f1894	-0.46297279616954623
31	0xbfe18e622d6a0353	-0.5486307990068816
32	0xbfb114ab9c950a02	-0.06672165463263727
33	0xbfd9b245c2ad29d0	-0.401505890001002
34	0xbfd2d14d8e2eca0c	-0.2940248383048647
35	0xbfe94038230adf54	-0.7890892681525465
36	0xc01707685f5c9a1f	-5.757234087016086
37	0xc01120ec7cf928ae	-4.282152130801633
38	0xc0062529e1eb0ba4	-2.768146290765303
39	0xc00c435fd1f68fa2	-3.5328976062173334
40	0xc00803e38e5013ac	-3.001898872202636
41	0xc00c846f211ac93b	-3.5646650873469787
42	0xc01120ec7cf928ae	-4.282152130801633
43	0xc01a616981b4d8a6	-6.595129038489324
44	0xc0092c2d4db3930a	-3.1465707846094846
45	0xc00fcfe042fd47de	-3.976501963953509
46	0xc00b33b43e7914e4	-3.4002461319638417
47	0xc0100b3d8d774411	-4.01097699203912
48	0xc0062529e1eb0ba4	-2.768146290765303
49	0xc0092c2d4db3930a	-3.1465707846094846
50	0xc0106c70a9d35e65	-4.105898526693271
51	0xc004525d91a7c6a4	-2.5402175311399606
52	0xc000e24a524a86de	-2.110493319415453
53	0xc00487044d07eada	-2.5659261720696636
54	0xc00c435fd1f68fa2	-3.5328976062173334
55	0xc00fcfe042fd47de	-3.976501963953509
56	0xc004525d91a7c6a4	-2.5402175311399606
57	0xc0152044a359429c	-5.281511833498964
58	0xc0061883f4cc4b70	-2.7619704365583218
59	0xc00a5de512be83fa	-3.2958470787420966
60	0xc00803e38e5013ac	-3.001898872202636
61	0xc00b33b43e7914e4	-3.4002461319638417
62	0xc000e24a524a86de	-2.110493319415453
63	0xc0061883f4cc4b70	-2.7619704365583218
64	0xc011c98b48a1cc5a	-4.446820387721425
65	0xc0064ff04c358df8	-2.7890325502246434
66	0xc00c846f211ac93b	-3.5646650873469787
67	0xc0100b3d8d774411	-4.01097699203912
68	0xc00487044d07eada	-2.5659261720696636
69	0xc00a5de512be83fa	-3.2958470787420966
70	0xc0064ff04c358df8	-2.7890325502246434
71	0xc01556102ca72b9d	-5.334046075537938
72	0xc002f570166cb429	-2.3698426963733437
73	0xc00686611f966356	-2.815614935662249
74	0xbfec40be7ef6ed5b	-0.882903335549979
75	0xc005ab1b08996617	-2.708547656232223
76	0xbffa9a35020cdcf1	-1.6626482086265322
77	0xc00538c02ab1ecb6	-2.652710279040174
78	0xc00686611f966356	-2.815614935662249
79	0xc002803aeb513a18	-2.312612379471158
80	0xbfebf6a6ec87e8c8	-0.8738588924163873
81	0xc00575b85dc67b22	-2.68248055707899
82	0xbffa57618f89ad9c	-1.646333275503685
83	0xc005046e76c4d6d7	-2.627163818246895
84	0xbfec40be7ef6ed5b	-0.882903335549979
85	0xbfebf6a6ec87e8c9	-0.8738588924163874
86	0x3fd7108969356477	0.3603843238284478
87	0xbfead44949a59b8e	-0.8384138525405989
88	0xbfdf7fa0a64d262b	-0.4921647666966204
89	0xbfea3cdb0d8e6268	-0.8199286713380163
90	0xc005ab1b08996617	-2.708547656232223
91	0xc00575b85dc67b22	-2.68248055707899
92	0xbfead44949a59b8e	-0.8384138525405989
93	0xc000bfcaf8caebf9	-2.093648856823617
94	0xbff9517db9cd90e5	-1.582395292084635
95	0xc0043764bd37d93f	-2.5270476133984228
96	0xbffa9a35020cdcf1	-1.6626482086265322
97	0xbffa57618f89ad9c	-1.646333275503685
98	0xbfdf7fa0a64d262b	-0.4921647666966204
99	0xbff9517db9cd90e5	-1.582395292084635
100	0xbfd93e59bbd8ec63	-0.39443057388752417
101	0xbff8c8e93e91fd94	-1.5490505642081631
102	0xc00538c02ab1ecb6	-2.652710279040174
103	0xc005046e76c4d6d7	-2.627163818246895
104	0xbfea3cdb0d8e6268	-0.8199286713380163
105	0xc0043764bd37d93f	-2.5270476133984228
106	0xbff8c8e93e91fd94	-1.5490505642081631
107	0xbfffb996a9dcf986	-1.9828096995621265
108	0x40410150b9c886e6	34.0102760533462
109	0x403d123ddb8053bc	29.071256369428497
110	0x4039f236371e313c	25.946139759894535
111	0x403956a1acb977b2	25.338404460220495
112	0x40391d71e007518a	25.115018846308466
113	0x4033ea2316d944c5	19.914597919506168
114	0x403d123ddb8053bc	29.071256369428497
115	0x403c84535f29bb02	28.51689715164958
116	0x40381bccd0a909f4	24.108593980092294
117	0x4037a1b31b96c2ca	23.631639217669353
118	0x403774d1b1bdbb6e	23.456324681111646
119	0x40335ffff3974f23	19.37499926036902
120	0x4039f236371e313c	25.946139759894535
121	0x40381bccd0a909f4	24.108593980092294
122	0x40386a1f97d433ae	24.414544572169397
123	0x4035f6c418ceb94c	21.963929701299364
124	0x4035d5e8fac7f8c6	21.83558623678325
125	0x4032d906065259a6	18.84774817953589
126	0x403956a1acb977b2	25.338404460220495
127	0x4037a1b31b96c2ca	23.631639217669353
128	0x4035f6c418ceb94c	21.963929701299364
129	0x4037c36469bd8f36	23.763250931529193
130	0x40358539392e8c0a	21.52040440927889
131	0x4032bec663ea31a1	18.745214695621716
132	0x40391d71e007518a	25.115018846308466
133	0x403774d1b1bdbb6e	23.456324681111646
134	0x4035d5e8fac7f8c6	21.83558623678325
135	0x40358539392e8c0a	21.52040440927889
136	0x4037892f76c8a4fb	23.5358804931502
137	0x4032b520734de618	18.707526403921378
138	0x4033ea2316d944c5	19.914597919506168
139	0x40335ffff3974f23	19.37499926036902
140	0x4032d906065259a6	18.84774817953589
141	0x4032bec663ea31a1	18.745214695621716
142	0x4032b520734de618	18.707526403921378
143	0x4034133e1bc7e35e	20.07516645078737
144	0x3fd4f1ecc130a37b	0.32726591936312105
145	0xbfb975a9fc539f92	-0.09945166025465671
146	0xbfc550435a3e6d6e	-0.16651193529547065
147	0xbfd1f8525fb09e3e	-0.28078135819166394
148	0xbfd11bf079effd47	-0.2673302832408421
149	0xbf7accea7f471930	-0.006543079380611425
150	0xbfb975a9fc539f92	-0.09945166025465671
151	0xbfdcd34c40dc6d24	-0.4503965981873128
152	0xbff105c6277bdcd0	-1.0639096777284074
153	0xbffa1fbf6d37e5fd	-1.6327509180395048
154	0xbff90d7a5bf5d342	-1.5657905189702466
155	0xbfd11fec58a4cc97	-0.26757343918434046
156	0xbfc550435a3e6d6e	-0.16651193529547065
157	0xbff105c6277bdcd0	-1.0639096777284074
158	0xbff486562479682d	-1.2827969956183651
159	0xc002c99798d559a9	-2.3484336795911145
160	0xc002067227981348	-2.253147420242758
161	0xbfd9f7dc932aa9a5	-0.4057532727407767
162	0xbfd1f8525fb09e3e	-0.28078135819166394
163	0xbffa1fbf6d37e5fd	-1.6327509180395048
164	0xc002c99798d559a9	-2.3484336795911145
165	0xc00b117ccc46ebca	-3.3835388144629848
166	0xc00b6526cb69bf76	-3.424390401043577
167	0xbfe484c8dcaffa3f	-0.6412090597439785
168	0xbfd11bf079effd47	-0.2673302832408421
169	0xbff90d7a5bf5d342	-1.5657905189702466
170	0xc002067227981348	-2.253147420242758
171	0xc00b6526cb69bf76	-3.424390401043577
172	0xc008b984e7750762	-3.0905855257596366
173	0xbfe3a1bb6ca0e799	-0.6134926911974957
174	0xbf7accea7f471930	-0.006543079380611425
175	0xbfd11fec58a4cc97	-0.26757343918434046
176	0xbfd9f7dc932aa9a5	-0.4057532727407767
177	0xbfe484c8dcaffa3f	-0.6412090597439785
178	0xbfe3a1bb6ca0e799	-0.6134926911974957
179	0x3fcc508d2421dabf	0.22120823158521394
180	0xc00ef62cae9db38b	-3.8702024118305807
181	0xc00d2a3bc6bbf842	-3.645621826754934
182	0xc00a8ce5c82c6eb7	-3.318797649246189
183	0xc000c8845931cefe	-2.0979086845708244
184	0xbfd8ee5a75a88757	-0.3895479344374641
185	0xc00238bfa2641aba	-2.2777092634963454
186	0xc00d2a3bc6bbf842	-3.645621826754934
187	0xc01126db6f905bc6	-4.287946456132834
188	0xc00c3b080140f524	-3.5288238618801575
189	0xc001dcc7a3b9bf70	-2.2328026572285395
190	0xbfdad5fe78ff887f	-0.4193111592886751
191	0xc00363ac095398bb	-2.4236679772030505
192	0xc00a8ce5c82c6eb7	-3.318797649246189
193	0xc00c3b080140f524	-3.5288238618801575
194	0xc00d5623583aadfd	-3.6670596020610433
195	0xc0003c4f7a00a631	-2.029448464531719
196	0xbfd7f6dec49fef03	-0.37444276048312036
197	0xc001a10aa2080eb3	-2.2036335619648866
198	0xc000c8845931cefe	-2.0979086845708244
199	0xc001dcc7a3b9bf70	-2.2328026572285395
200	0xc0003c4f7a00a631	-2.029448464531719
201	0xbffd4c9efb217b2c	-1.8312063035770718
202	0xbfca797669c19892	-0.2068317428958762
203	0xbff61b51ec81bb4f	-1.3816699255509837
204	0xbfd8ee5a75a88757	-0.3895479344374641
205	0xbfdad5fe78ff887f	-0.4193111592886751
206	0xbfd7f6dec49fef03	-0.37444276048312036
207	0xbfca797669c19892	-0.2068317428958762
208	0xbfe308a98aa37985	-0.5948074062142018
209	0xbfcda24fbd377bb6	-0.23151585330103125
210	0xc00238bfa2641aba	-2.2777092634963454
211	0xc00363ac095398bb	-2.4236679772030505
212	0xc001a10aa2080eb3	-2.2036335619648866
213	0xbff61b51ec81bb4f	-1.3816699255509837
214	0xbfcda24fbd377bb6	-0.23151585330103125
215	0xc0006b67f291806c	-2.0524443579343394
216	0x3fce9da5eb713ce7	0.23918603893478194
217	0xbfc6bf1b5facff84	-0.1777071206251969
218	0xbfa1e4d4204dc6e4	-0.03494894880613034
219	0xbfce2ef2e6cfc8b6	-0.2358077647218743
220	0xbfc44282d8d83406	-0.15827975834000102
221	0xbfb1d506ddb37a06	-0.06965678131698647
222	0xbfc6bf1b5facff84	-0.1777071206251969
223	0xc0014ec337dc5cc2	-2.1634582866787193
224	0xbfeb7b13b85c4470	-0.8587740517415465
225	0xc00750ab61ee3f69	-2.9143893862564494
226	0xc000f7b8a527c30b	-2.120957651401459
227	0xbff36c74c2b71bc8	-1.2139785390916007
228	0xbfa1e4d4204dc6e4	-0.03494894880613034
229	0xbfeb7b13b85c4470	-0.8587740517415465
230	0xbfb87de444de9b86	-0.09567095452676541
231	0xbff16638b8a8eb30	-1.0874564374232243
232	0xbfe908abeaaca32c	-0.78230853876912
233	0xbfdbbe51bf4cedca	-0.43349116975488455
234	0xbfce2ef2e6cfc8b6	-0.2358077647218743
235	0xc00750ab61ee3f69	-2.9143893862564494
236	0xbff16638b8a8eb30	-1.0874564374232243
237	0xc00c52ad2c8cc6f0	-3.5403693657361757
238	0xc005537f13e8bb2b	-2.6657697253607657
239	0xbff8818a9e1c8cd7	-1.5316263366919907
240	0xbfc44282d8d83406	-0.15827975834000102
241	0xc000f7b8a527c30b	-2.120957651401459
242	0xbfe908abeaaca32c	-0.78230853876912
243	0xc005537f13e8bb2b	-2.6657697253607657
244	0xbffc5e8761ef7d01	-1.7730783296208872
245	0xbff1b96815b75c00	-1.1077652786532326
246	0xbfb1d506ddb37a06	-0.06965678131698647
247	0xbff36c74c2b71bc8	-1.2139785390916007
248	0xbfdbbe51bf4cedca	-0.43349116975488455
249	0xbff8818a9e1c8cd7	-1.5316263366919907
250	0xbff1b96815b75c00	-1.1077652786532326
251	0xbfdb6dc70800177a	-0.42857528477940543
252	0x40339b7514d7a7ad	19.607255270624297
253	0x40316fb4e9d974fc	17.43635427054413
254	0x4031d2581fe0968e	17.82165717347248
255	0x4031a1b9b8a68ed3	17.631740132010986

XTrain_Boundary f8 [408, 6]
0	0x0000000000000000	0.0
1	0x3fe86aa5b2fc5334	0.7630184646428462
2	0x3fcb8f56ceaf41c5	0.21531186191579202
3	0x3fe97de79055c725	0.7966192072910628
4	0x3febea4ff44eb60e	0.8723525783186135
5	0x3fee41e57167874b	0.9455439772538993
6	0x0000000000000000	0.0
7	0x3f7831efc9b9d069	0.005906998321382508
8	0x3fdcd4ea3eec5662	0.45049530167429996
9	0x3fde31e8d8b1b9e8	0.4717962375788418
10	0x3fd154f2e1c837a7	0.2708098606971085
11	0x3fea1634e4502ba6	0.8152107676736378
12	0x0000000000000000	0.0
13	0x3fde374b7312180d	0.4721249221551041
14	0x3fee98e5acae90f8	0.9561642048543311
15	0x3fef58344f15d857	0.9795171303401372
16	0x3fd58613aa047788	0.33630839923159117
17	0x3fe273d3ef695735	0.5766391445165256
18	0x0000000000000000	0.0
19	0x3fee3f4cd14db9c4	0.9452270591698881
20	0x3fed9152a9302ec3	0.9239896110970779
21	0x3fca9bbec4ccaa47	0.2078779660162857
22	0x3fe4f41a49418168	0.6547976904658244
23	0x3fe649fa5ed2dee6	0.6965305187249811
24	0x0000000000000000	0.0
25	0x3fefa1feae94bde0	0.9885247621331779
26	0x3fbd2a33e9e726b5	0.11392521343727931
27	0x3fdc73b3257c5c3f	0.4445617548057647
28	0x3fed006e0fcd4709	0.9063024815206698
29	0x3fe08ef48be3457e	0.5174505932028948
30	0x0000000000000000	0.0
31	0x3fa7a6fa207fce21	0.046195808856193794
32	0x3fea487aa40d48b8	0.8213475422037595
33	0x3fc7c587764d01c9	0.18571561123282113
34	0x3fea47f012989ee0	0.8212814677435425
35	0x3fdcc0d8ef00822a	0.449270471001031
36	0x0000000000000000	0.0
37	0x3fed4ab96a0cdabd	0.9153716155331818
38	0x3fd26164cbc47451	0.2871944417873396
39	0x3fedbb172562f2c4	0.9290881853299529
40	0x3fceb199e9a3f268	0.23979495914672389
41	0x3fc185e4db41f29e	0.1368986197084227
42	0x0000000000000000	0.0
43	0x3fd013ce5dd81589	0.2512088695951538
44	0x3febcff157344a73	0.8691336348732207
45	0x3fe7925adcd08a0f	0.7366155922684942
46	0x3fc74ca35099e843	0.18202630458455546
47	0x3fd52e4e30591aee	0.3309512588643163
48	0x0000000000000000	0.0
49	0x3fe9cf6080d4f47b	0.8065645710227182
50	0x3fe635b5ac1d09ec	0.6940563546743852
51	0x3feaacbfdf4b51a2	0.833587585565102
52	0x3fe6dc826d30ed82	0.714417660964884
53	0x3fd28bc93eda4bdb	0.2897818673893064
54	0x0000000000000000	0.0
55	0x3fe45c9dfc65876a	0.6363058023091359
56	0x3fcfdff276de66c6	0.2490218239225241
57	0x3fc535531178b77c	0.16568983414748206
58	0x3fc097f9908e34c8	0.12963790472387005
59	0x3fe7901b459d6b69	0.7363411292711649
60	0x0000000000000000	0.0
61	0x3faf275bb7b2c60b	0.06084715478335675
62	0x3fe355e30ff513c7	0.6042342483202611
63	0x3fee5984bd05eb00	0.9484275524003749
64	0x3fe144d4bff7344c	0.5396522282914105
65	0x3fe763404534b627	0.7308656074216672
66	0x0000000000000000	0.0
67	0x3fe5d672ba40415b	0.6824277532305517
68	0x3fc9bc8c82f6afd1	0.2010665549727251
69	0x3fd080a5a9710f3e	0.2578519968703751
70	0x3fe09cf48bb2ac88	0.5191595772243014
71	0x3fcfd54ffb9e9a11	0.24869727884397766
72	0x0000000000000000	0.0
73	0x3fe35e9ff678ed78	0.6053008855737252
74	0x3fdaaab97b634368	0.41667019891342827
75	0x3fe674d1fad6f417	0.7017602824413441
76	0x3fe479937b4400d2	0.6398408324748976
77	0x3fe1027082b18d2e	0.5315477898224452
78	0x0000000000000000	0.0
79	0x3fd7eabdecec3a43	0.37370250832546875
80	0x3fd9e75d50f04962	0.40474636940157016
81	0x3fc2784d9cc83ee0	0.14429636149770086
82	0x3fc5b7c1e78f2604	0.16967033201790127
83	0x3fa58d667213283a	0.04209442274584814
84	0x0000000000000000	0.0
85	0x3fd172f88994bf5b	0.2726422637524501
86	0x3fd3d67399aa4e78	0.3099640846860221
87	0x3fd8ff6393ce3ab7	0.39058770593775755
88	0x3fe690c07b2e4748	0.7051699071764483
89	0x3fe3d77a881de577	0.6200535448580656
90	0x0000000000000000	0.0
91	0x3fd90d88408adb99	0.39145094206781433
92	0x3fe6bafe485d647f	0.7103263295531547
93	0x3fd6b377bba0bf0f	0.35470383952177625
94	0x3fd47fb8765cd76f	0.32029544409612404
95	0x3fc51062212a8414	0.16456247920453448
96	0x0000000000000000	0.0
97	0x3fdc92e81d779794	0.44646647336627976
98	0x3fb4cd2e192f23d3	0.08125579943511178
99	0x3fe328761a396d17	0.598689128131272
100	0x3fb44fdd38c65b5c	0.07934363018135343
101	0x3fd8d41e88540d21	0.38794673264802
102	0x0000000000000000	0.0
103	0x3fc321e60591a0a8	0.1494720008079231
104	0x3fbed2f7ab78758d	0.12040660797398157
105	0x3f894294099cb7e9	0.012334019225445263
106	0x3fd8ba338705823e	0.3863648241586225
107	0x3fe2f0bbfe8cc4eb	0.5918865176846827
108	0x0000000000000000	0.0
109	0x3fca0b4a60c0d9e7	0.2034695599010796
110	0x3fecb5d9e5fcaac1	0.8971986286099637
111	0x3fdc00b765ea386e	0.4375437255156446
112	0x3fbbae70ee016f38	0.10813051043208766
113	0x3fed620d605229f7	0.9182192689198122
114	0x0000000000000000	0.0
115	0x3fcbe2dd074f182a	0.2178608213127416
116	0x3fdffbf6d4766149	0.4997536730602588
117	0x3fe500cff79b6770	0.6563491664958132
118	0x3fe8fb63202e8464	0.7806869152592637
119	0x3fc8f8dbf50f52aa	0.19509458032429922
120	0x0000000000000000	0.0
121	0x3fec796b472c3ba8	0.889821661958071
122	0x3fe922bc917dcd94	0.7854903070096264
123	0x3fe41169adb242b7	0.6271255867487388
124	0x3fd7ebe47f715e48	0.37377273984518355
125	0x3fe55c26c6f92bb8	0.6674989591787073
126	0x0000000000000000	0.0
127	0x3febd423d876b2e9	0.8696459987455373
128	0x3fd6fac2b59f5b55	0.35905521141596825
129	0x3fe1a136491e95e0	0.5509292057146773
130	0x3fdef7f40fd7db6f	0.4838838724821732
131	0x3feca4a70d5ee378	0.8950991879602119
132	0x0000000000000000	0.0
133	0x3fc28204b3210a8d	0.14459284540688025
134	0x3fd52f3896a00087	0.33100714406465
135	0x3fd1d658516a1e46	0.27870758009564545
136	0x3fed53b1a12045b7	0.916466536235183
137	0x3fd44ce98b6569b4	0.3171943532267065
138	0x0000000000000000	0.0
139	0x3fd673d39bd18458	0.3508194944061578
140	0x3fe581404fbf0120	0.6720277364293317
141	0x3fbc462f66844c57	0.11044594052172961
142	0x3fe2dc4e74461ec9	0.5893928786253692
143	0x3fef2beb6c0dbb57	0.9741112814352658
144	0x0000000000000000	0.0
145	0x3fe754fad458482c	0.7291235110626579
146	0x3fefd00f1a96664f	0.9941478270804484
147	0x3fe094e7d683d70a	0.5181769551988691
148	0x3fdc9d753a694ec0	0.4471104689048211
149	0x3fcad3fea1e273b3	0.20959456352730185
150	0x0000000000000000	0.0
151	0x3fd3d9975e8da2c0	0.3101557181712842
152	0x3f9d7dcc9a27a55b	0.02880019846808089
153	0x3fecc0dc36ce97cb	0.8985425062608042
154	0x3fe2725b2cb8b58d	0.5764594911067192
155	0x3fdbeb22a61e1d0d	0.43622652265953904
156	0x0000000000000000	0.0
157	0x3fe27cb6d02686b4	0.5777238908232989
158	0x3fe096a5fad589e4	0.5183896922210889
159	0x3feb8eacb7886155	0.8611663422225698
160	0x3f6bd0943627f6cb	0.0033953566319258935
161	0x3febc1e611af6361	0.8674192757999714
162	0x0000000000000000	0.0
163	0x3fe0397d7e4829be	0.5070178476756195
164	0x3fa9f94c40234f63	0.05073011668142049
165	0x3fd3bc241f88403f	0.3083582218105256
166	0x3fe870e13f91f03a	0.7637792817690816
167	0x3feb0323abbe1dc1	0.8441332201336352
168	0x0000000000000000	0.0
169	0x3fe4bbd81da76e8a	0.6479302004986078
170	0x3fe2637c3476b6f1	0.5746441864664275
171	0x3fe2979a4a9cb25e	0.5810061890857232
172	0x3fefe636a8b38844	0.9968522353121974
173	0x3f83d19ae7caeabc	0.009677133749723558
174	0x0000000000000000	0.0
175	0x3fb69d9db7e9da82	0.08834253063273859
176	0x3fc4393e484aff93	0.15799692659311101
177	0x3fe89917c90a8528	0.7686880995353578
178	0x3fdb98d3a5804ffe	0.4312028042052133
179	0x3fb33062c73a6f6d	0.07495705951663263
180	0x0000000000000000	0.0
181	0x3fe93f4fcf86dd4c	0.7889784863718119
182	0x3fe1b42644021d05	0.5532409027372586
183	0x3fa9b818860b2be0	0.05023266445422059
184	0x3fca689ea3f032a4	0.20631773953245613
185	0x3fdf8ff496139ae8	0.4931613412467599
186	0x0000000000000000	0.0
187	0x3fea6eeabf92f610	0.8260396711045264
188	0x3fe3cefbc028cf69	0.6190165284265109
189	0x3fd4cf12cad2c279	0.3251387577720731
190	0x3fa1d516288bb331	0.03482884640638984
191	0x3fd82213c7568f31	0.37707991091359633
192	0x0000000000000000	0.0
193	0x3fe1890215ec6e63	0.5479746273226279
194	0x3feaf169fa987004	0.8419694799845279
195	0x3fb541109c14119c	0.08302406130321177
196	0x3feaa3659dc99800	0.8324459153925545
197	0x3fbd419c7d3f1b71	0.11428239877487358
198	0x0000000000000000	0.0
199	0x3fdb489ad0d87407	0.42630644221372943
200	0x3fe81a26229c6c6c	0.7531920124050777
201	0x3fe75eda0bd115f9	0.7303285818858846
202	0x3fee89b4d5df3e26	0.9543098618686983
203	0x3fe95a6e29c89d0a	0.7922888580405083
204	0x3ff0000000000000	1.0
205	0x3fe86aa5b2fc5334	0.7630184646428462
206	0x3fcb8f56ceaf41c5	0.21531186191579202
207	0x3fe97de79055c725	0.7966192072910628
208	0x3febea4ff44eb60e	0.8723525783186135
209	0x3fee41e57167874b	0.9455439772538993
210	0x3ff0000000000000	1.0
211	0x3f7831efc9b9d069	0.005906998321382508
212	0x3fdcd4ea3eec5662	0.45049530167429996
213	0x3fde31e8d8b1b9e8	0.4717962375788418
214	0x3fd154f2e1c837a7	0.2708098606971085
215	0x3fea1634e4502ba6	0.8152107676736378
216	0x3ff0000000000000	1.0
217	0x3fde374b7312180d	0.4721249221551041
218	0x3fee98e5acae90f8	0.9561642048543311
219	0x3fef58344f15d857	0.9795171303401372
220	0x3fd58613aa047788	0.33630839923159117
221	0x3fe273d3ef695735	0.5766391445165256
222	0x3ff0000000000000	1.0
223	0x3fee3f4cd14db9c4	0.9452270591698881
224	0x3fed9152a9302ec3	0.9239896110970779
225	0x3fca9bbec4ccaa47	0.2078779660162857
226	0x3fe4f41a49418168	0.6547976904658244
227	0x3fe649fa5ed2dee6	0.6965305187249811
228	0x3ff0000000000000	1.0
229	0x3fefa1feae94bde0	0.9885247621331779
230	0x3fbd2a33e9e726b5	0.11392521343727931
231	0x3fdc73b3257c5c3f	0.4445617548057647
232	0x3fed006e0fcd4709	0.9063024815206698
233	0x3fe08ef48be3457e	0.5174505932028948
234	0x3ff0000000000000	1.0
235	0x3fa7a6fa207fce21	0.046195808856193794
236	0x3fea487aa40d48b8	0.8213475422037595
237	0x3fc7c587764d01c9	0.18571561123282113
238	0x3fea47f012989ee0	0.8212814677435425
239	0x3fdcc0d8ef00822a	0.449270471001031
240	0x3ff0000000000000	1.0
241	0x3fed4ab96a0cdabd	0.9153716155331818
242	0x3fd26164cbc47451	0.2871944417873396
243	0x3fedbb172562f2c4	0.9290881853299529
244	0x3fceb199e9a3f268	0.23979495914672389
245	0x3fc185e4db41f29e	0.1368986197084227
246	0x3ff0000000000000	1.0
247	0x3fd013ce5dd81589	0.2512088695951538
248	0x3febcff157344a73	0.8691336348732207
249	0x3fe7925adcd08a0f	0.7366155922684942
250	0x3fc74ca35099e843	0.18202630458455546
251	0x3fd52e4e30591aee	0.3309512588643163
252	0x3ff0000000000000	1.0
253	0x3fe9cf6080d4f47b	0.8065645710227182
254	0x3fe635b5ac1d09ec	0.6940563546743852
255	0x3feaacbfdf4b51a2	0.833587585565102

YTrain_Boundary f8 [408]
0	0x3ffa1b35fb9eac41	1.6316432789706286
1	0x40047ff310472e5e	2.5624753257487063
2	0x3fe2b1e39cc4ebf2	0.584214979352849
3	0x3fed5513d5c3c9d0	0.9166354346364702
4	0x3fd84ea88d6cdb04	0.3798009282212862
5	0x3ff0e4019e6b0516	1.0556656063275276
6	0x3fe1986e09061434	0.5498571563954386
7	0x3ff543b7a0fe1278	1.3290325440185864
8	0x3fdf1d5aa0b9c350	0.4861666268907827
9	0x4005bc04f5d34ee2	2.7168063359366537
10	0x3fd7fd8c3d35c5ae	0.37485033013862334
11	0x4004491191a7189b	2.5356780413740814
12	0x3fe52264a9d3c4e8	0.660448390668674
13	0x3fe5e262de8cf87f	0.6838850351994238
14	0x40034b8a0a959033	2.4118843867199984
15	0x40047a0fa39372eb	2.5596001414654572
16	0x3ffddc0ce028704e	1.8662232166452841
17	0x3ff23cced2ac4cfb	1.1398456792274476
18	0x3fe024198b8d2460	0.5044067121135747
19	0x3ffc62f345994074	1.774157783384024
20	0x3fdd369eaaaf8559	0.456458727536377
21	0x3fd7eebe88c1f25e	0.3739467940829736
22	0x40050f186d8cee61	2.6323708113321094
23	0x3fe006ffae33d195	0.5008543398276283
24	0x3fd966380b5a8498	0.39686394795178037
25	0x3ff9d96e76f06c13	1.6155838628826629
26	0x3fd7f0b44bc8c5ca	0.3740664234238379
27	0x3febc82610fb850c	0.8681822139443809
28	0x3fd846b16eaae477	0.37931476409318726
29	0x40019aedbb2badef	2.200648748655787
30	0x400333da94b851b4	2.400319253802275
31	0x40005e7e06a2fa45	2.046138812874491
32	0x3fe75dcf7f526029	0.7302014815095436
33	0x3ff52351c2f2ef12	1.3211228957360999
34	0x3fec28c5d622e257	0.8799771482800435
35	0x3fd78fb6bd3524bc	0.368146595738448
36	0x40020dc6a8188073	2.256726563689932
37	0x3ff92d9aaab0bb83	1.5736338298408732
38	0x40059023452fb34c	2.6953797726804734
39	0x3fe4f244cd9eae0c	0.6545738235485614
40	0x3ff4a510f5e613b5	1.2902993779582463
41	0x3fe12c27ee10811a	0.5366401338288
42	0x40043c2e77741fad	2.529385503035846
43	0x3fd9050e3b1c302c	0.3909335686919373
44	0x40027db609a22062	2.3113823654748993
45	0x3fdef877a8a44131	0.48391524762066057
46	0x3ff0b9b60ee217ff	1.045339639794747
47	0x40001596f31d77dd	2.010541819893645
48	0x3fd7b0523bd979aa	0.3701367935626886
49	0x3fde6b207c57f610	0.4752885069172814
50	0x3fe808a4cfbd1770	0.7510551507373133
51	0x3ff4889a11a2852d	1.283350056539642
52	0x3ff6fa406d765896	1.436096599185054
53	0x3fdbadebc1ccad46	0.4324902908872058
54	0x4004e19a1219d587	2.610157147801775
55	0x40054eaea8d3592c	2.6634190740106956
56	0x3fd7bdd9beb9747b	0.3709625589888856
57	0x3ff72fc9fbd4b759	1.4491672360558907
58	0x400056fed4c05931	2.0424782391738963
59	0x3fdd8a854e788215	0.46157963431508736
60	0x40029a6c483a1a9d	2.3254018442851945
61	0x3fe930fccef55db7	0.7872299234540411
62	0x4001eea74d027750	2.2415300384881576
63	0x3fe36116625e0eb7	0.6056014939535633
64	0x3fd7b75ae453826d	0.37056610391122186
65	0x3fd95fe123d50f83	0.3964770173954479
66	0x3fee07f5d8c93376	0.9384717210865421
67	0x3ff1b36706993b30	1.106299424911139
68	0x40036a2d3124e4ee	2.42684400934069
69	0x3fe0258b39f56a33	0.5045829898838917
70	0x3fde668a5f83cdce	0.4750085766565605
71	0x3ffb882b613c8848	1.720744495229626
72	0x3fe9558e1b9eae6c	0.7916937388849425
73	0x400355b85666c0d7	2.416855502138883
74	0x3fdcccc7a01bba53	0.4499987662847264
75	0x3fe19217a8c2bd8f	0.5490835472209471
76	0x3fdbe9f250759889	0.4361539636360097
77	0x3fdd5b362ead40d0	0.4586921172931513
78	0x3fee8b4e29265638	0.9545050433832278
79	0x400185f782cafe00	2.1904134958456325
80	0x40038c1b7d28dc98	2.4434118059248924
81	0x3fd7c51bc0b5663c	0.37140554255674707
82	0x3fe64a1b11c62124	0.6965461108348205
83	0x40027a307836c9c0	2.30966276089859
84	0x3ff303906346ed65	1.1883701208124304
85	0x4002c01a7e03a4c2	2.3438005299436506
86	0x3fe621815d4cab53	0.6915900060897492
87	0x3fda85fbb5833c3c	0.4144276878914217
88	0x3fe1ef070db82d5c	0.5604281681020598
89	0x3fd90e89b99b5eba	0.3915123283927461
90	0x40054af8a1956bc4	2.661607038853136
91	0x4003a6fadeec06a3	2.456533185556354
92	0x3fe013a49a83aae3	0.5023978250368056
93	0x3fe27c38d0b06896	0.5776638103445915
94	0x3fe9041ded3cc8d7	0.7817525514167539
95	0x3fd978034e4f3ff2	0.39795000693720717
96	0x3ff5116546e3e3de	1.3167469758175154
97	0x3fda35999a6a8605	0.4095214851350593
98	0x3fdbea6ad8882aba	0.4361827005929332
99	0x40038adc36deb113	2.4428028380117524
100	0x3fdff09e1a5b73d6	0.4990611321825872
101	0x3fddc07d9fcc37e9	0.46487370114561927
102	0x3fd7a802c73c1cd4	0.36962956863903895
103	0x3ff6f79ff42bcfd3	1.4354552781996872
104	0x3ff8dbaed1178c30	1.5536335151343899
105	0x3fdc41d1e023eba8	0.4415173233862171
106	0x3feb9f4fde707cf1	0.8631972641486795
107	0x3fd7ad759b6020c7	0.3699621217097157
108	0x400503771eb5b8dc	2.626692047043532
109	0x3ff4ae0e4387e186	1.2924940717622078
110	0x3ffc0803858733f3	1.7519564834540204
111	0x3ffa13529f368111	1.6297174662832428
112	0x3fe6fe8338d75f06	0.7185684309178846
113	0x3fd8857e0ab046fd	0.3831477264767356
114	0x3fd79fe4af82d3fe	0.36913411273718555
115	0x400309c2da75040e	2.379766184516945
116	0x3fffb67a7d1bb542	1.982050408081094
117	0x3fd7ff2aa8b0afa9	0.37494913552904535
118	0x3fe2dcfce0f13075	0.5894760507012636
119	0x3fd7e0d2d93361f5	0.373097145185539
120	0x3fefd132592cde94	0.9942867032722966
121	0x3ffe569432e9f375	1.8961374272177782
122	0x400291674a720835	2.3209977928209136
123	0x4000c346126bc0ac	2.0953484954007617
124	0x3fd7eb1235ec70d3	0.3737226034734366
125	0x3fd79a51704f5940	0.36879383056420423
126	0x4003de867db78add	2.4836549588811594
127	0x3ff377dfb18a064b	1.2167660651324634
128	0x3febfb07b5393141	0.8743933238525089
129	0x40004234025832dd	2.032325762096987
130	0x3ff1c2fdf29331af	1.1101054645142587
131	0x4005ab79433a9de5	2.708727383829443
132	0x4005476579f03846	2.659861519473483
133	0x3fe089d544dc64d0	0.5168253273906434
134	0x3ff74b41d9d57e59	1.4558733472003011
135	0x3ff998e4a7554957	1.5998274361087022
136	0x3fe10d54719268ba	0.5328771799279572
137	0x3fde7fffa54ac824	0.4765624155217003
138	0x3fda7a159f67048d	0.413701444307727
139	0x3fdb40c3cd2998f2	0.4258279326953832
140	0x3fdd64ed033fe895	0.45928502385471265
141	0x400071fefd084cda	2.055662133041193
142	0x4000171a1260451e	2.0112801967267293
143	0x3ff396b64110ef41	1.224294904865886
144	0x3fdc8f8f6797296a	0.44626221767671004
145	0x4000163043f2a8ab	2.0108342464855773
146	0x4001277005547721	2.144256631508043
147	0x3fd82aca737a1bd6	0.3776117446618036
148	0x3ff991e4e3800342	1.5981186758728687
149	0x40047473ce0a5cc7	2.5568615052139623
150	0x40001a10754cd688	2.0127267040323353
151	0x3fe25be680249124	0.5737183096685254
152	0x3ff82aba2c49e7e2	1.5104314546610955
153	0x400141213bfdfbfd	2.156801670731055
154	0x3fdb8248bf9f62a5	0.4298269149126475
155	0x4005b5eba295c68a	2.7138283445318097
156	0x3ff0a5f68938528e	1.0405183181912068
157	0x3ff4be2c283c366b	1.296428830307742
158	0x3feb7236875ae983	0.8576920169501111
159	0x3feeaf553842def2	0.9589029406406253
160	0x3ffc27bf66b872ef	1.7597040188331297
161	0x3fddbe642d806e7d	0.46474556392215743
162	0x3ff9591847903ca0	1.5842516704031269
163	0x4002d8f828fcc45a	2.3559420778406492
164	0x3fd8811bfd9d82d8	0.3828802086555192
165	0x3ffaa36231e00d9f	1.6648885677576357
166	0x3fe7981e9d4267d4	0.7373192855331987
167	0x3fdad7f70682319e	0.4194314540443659
168	0x3fe32e217ae4df6f	0.5993811989091976
169	0x3ff3bdb9a3fd5bde	1.2338196187827104
170	0x3ff572f2948d83fe	1.3405633738368574
171	0x3ff8bfd8465d20a1	1.5468371151528475
172	0x3ffe6cc4a31ad199	1.9015547152785983
173	0x400574922897c0f6	2.68191940034023
174	0x3ffa075526368fa2	1.6267901890468939
175	0x3fd94f934af36406	0.3954818946781987
176	0x3fd99de5cbdb39f4	0.4002623072418878
177	0x3fe2636fb179d5c1	0.5746382204367181
178	0x3ffb1be57fcd8a17	1.694310664396317
179	0x3fe5e1554b930187	0.6837564922389426
180	0x3fe4170a6b60eff1	0.6278125855674245
181	0x40057d38ba1a3307	2.6861433543439293
182	0x3fddc66c4cb1070e	0.46523578156858114
183	0x3fd78e5ccf293a8d	0.3680641196305395
184	0x3fe5da8626cf2217	0.682925296591807
185	0x3ff3a02d0faee230	1.2266054737684833
186	0x3fdf0d1ea5d13fc4	0.4851757640180916
187	0x3fe3ee0529c97f5e	0.6228051963953296
188	0x3ffca70845a62f07	1.790779373232853
189	0x3fd9e795306f411d	0.4047596905702607
190	0x3ff66925fc26a11d	1.4006709909099933
191	0x3fe186cafc3c555d	0.5477042128065183
192	0x3ffab2c62a65a8f7	1.668646016706189
193	0x3fe6e506307432d3	0.715457052837872
194	0x3fe9cbe369de7ff9	0.8061387126690526
195	0x4004b4c44335095d	2.5882649660644987
196	0x3fddf7269825ab9a	0.468209885197831
197	0x3fd7d6f716223438	0.3724954334400681
198	0x40018ce13873ba38	2.1937889490430074
199	0x3feb84728862bfb8	0.8599178947242683
200	0x3fedba1c8592a138	0.9289686783641065
201	0x3ffdc290d501f1c2	1.8600014038666903
202	0x3ff2a6c16000cb45	1.1657117605324896
203	0x3fe24494fabf3f11	0.5708718202022017
204	0x3fda3c3f689c6938	0.4099272271720511
205	0x3ffcd683e20bbc84	1.8023718671718436
206	0x3fd9296c400ec621	0.39315325027118503
207	0x40052aec7a43b461	2.64595885771864
208	0x3fedb071698b95b0	0.9277884541922301
209	0x3fdb759278377d8f	0.4290510343543809
210	0x3fe234067283c65e	0.5688507305732846
211	0x400031bef8071f48	2.0242900254415055
212	0x400251edbd7744cb	2.290004234506886
213	0x3ff22f735b7e3aff	1.1365846227596987
214	0x3ff0bb18ae94951f	1.0456778354212657
215	0x3fd7c61202a1aeee	0.37146425492276947
216	0x40049c5b02d7f859	2.5763454649123045
217	0x4005ba1f5f59352f	2.715880150709061
218	0x4002568d2fc4c281	2.292261479560978
219	0x3fe97e0a2c1b00e6	0.796635709899445
220	0x3fe568a3266fa4f4	0.6690231085496223
221	0x3ff31dacb185c986	1.1947447714306647
222	0x3fe833962971e4a5	0.7562971887083633
223	0x40038290a1e3677d	2.438752426864936
224	0x40012a52af2f9597	2.1456655203243815
225	0x3fd8c82b13edacca	0.38721730180868674
226	0x3ff16ff437143da0	1.0898325110937108
227	0x4004d29a7fd0311a	2.602833746472368
228	0x40013a2b457dcfb1	2.1534028462428627
229	0x3fd7b5608f9727be	0.3704453851938715
230	0x3fe9ea2f84c0b69e	0.8098371117427694
231	0x3ff19683428d3046	1.099246273009173
232	0x3fe754875eaf823e	0.7290684556319957
233	0x4005be02d9d618ef	2.7177788752043095
234	0x3fd83e822e1c7abc	0.3788152170472292
235	0x400272222001f84b	2.305729150829426
236	0x3fe9927d458f2489	0.799131999833791
237	0x3fd7d86d301f2091	0.3725846261918458
238	0x3ffee337e0e54643	1.9304732117638117
239	0x3fdb647eb5e63ee8	0.4280087257729819
240	0x4000a0f6fd4c0d87	2.078596094973992
241	0x3fdc4c3ad070ba01	0.4421526942777803
242	0x3fe79f75918d9323	0.7382152407486483
243	0x3ffcbb31547d17fb	1.7957013416612415
244	0x3ff3d2f3b7c6b4d1	1.2390019587285688
245	0x3fd986518fe43dc7	0.3988231568518725
246	0x3fd8125652662676	0.37611921355037425
247	0x3fe39bf62f87c3bc	0.6127882889105574
248	0x3ff64e71e0e9e162	1.3941515718161885
249	0x400306fc1135f6de	2.3784104675859075
250	0x3fde06c7e0286061	0.4691638649978867
251	0x3fd9bd58ef0dcf35	0.4021818480025446
252	0x3fd810130c626998	0.3759811039868963
253	0x3feb72bec9cb84a8	0.8577569905575233
254	0x3ff07dab7032117a	1.030681074394208
255	0x3ff39a642d65106e	1.2251931927903814
