Allen_Cahn4D/dataset/Dim4/Allen_CahenC8000_B1600.npz (npz, 385050 bytes, 4 tensors)

XTrain_Col f8 [8000, 4]
0	0x3fc04ef02a791c89	0.12740900110131673
1	0x3fe081239dc8b8c4	0.5157640535087684
2	0x3fead1c6c976c7fb	0.838107484325746
3	0x3fd81e907f72ebd8	0.3768655056589387
4	0x3fd39cba65c3598b	0.3064409250049713
5	0x3fe1d8c35d987977	0.5577103450812463
6	0x3fe5f4807fe669f6	0.6860964296386658
7	0x3fe203ef67c8d30b	0.5629803683319506
8	0x3fe05a12209663db	0.5109949718927241
9	0x3feebd368b3567c1	0.9605972975652933
10	0x3fed38e6f6c1bd86	0.9131960696667398
11	0x3fd3dec6eb94a430	0.31047223096772125
12	0x3fe94227188368c1	0.7893252829337812
13	0x3fe597bb2b969284	0.6747718669253833
14	0x3fd5a06daadae8bf	0.33791677174634666
15	0x3fea03ee9819a6b8	0.8129799814898524
16	0x3fcd35b4a6aa0a7d	0.22820146692182056
17	0x3fbc793f021203d8	0.1112250690512292
18	0x3fed27077cbf2f31	0.9110143124066551
19	0x3fbbc5923b3cc0ef	0.1084834475157128
20	0x3fb0613f204ff878	0.06398386515499677
21	0x3fedd413c2179ee4	0.9321383276810278
22	0x3fc13accaa8ef864	0.13460691764879862
23	0x3fe3cb48a6a8a0bc	0.6185649161389146
24	0x3feb62605e3ed0fe	0.8557588425378808
25	0x3fefa61e01191eaa	0.9890279790351617
26	0x3fdac6e08a832f1e	0.41838849569897885
27	0x3fc1a73e31455085	0.13791634946631262
28	0x3fe56133458fd5ed	0.6681152685766257
29	0x3fec522cddda7816	0.8850311596941107
30	0x3fcecff69891da83	0.24072153520292625
31	0x3fe08fd3c6dfdf44	0.5175570377605045
32	0x3feb52cb5a42b0e1	0.8538567316914191
33	0x3febba9f56efe99b	0.8665310571662305
34	0x3fedba704c011a94	0.9290086254557814
35	0x3fa1f2f9a8e4a70c	0.035056878916590234
36	0x3fe2e59c1ef39f28	0.5905285458111154
37	0x3fde03482b6ebdb4	0.46895031205618953
38	0x3fed1e250e6bd09b	0.909929779211342
39	0x3fde834f756aa34a	0.4767645498891865
40	0x3fd2139d5e9e3f50	0.28244718780569134
41	0x3fe97bda85c22aef	0.7963688480825492
42	0x3fc606a9bc72dc47	0.17207833959193605
43	0x3fed9877dc3e0a08	0.9248618413551535
44	0x3fe38f1bf6558075	0.6112193881235856
45	0x3faba1847625dc45	0.05396665518031133
46	0x3fdd0f2dd22f3d1e	0.45405145192940377
47	0x3fdd6a7d2e42d3cb	0.4596245719688425
48	0x3fd36c1fc23b7b7d	0.30347436874392725
49	0x3fd033ba90b6b664	0.2531572735996177
50	0x3fe5ce08b4423bf2	0.6814006348303094
51	0x3fc75a9bfe55cec8	0.18245267790518072
52	0x3fd8848d26b5545d	0.3830902936945842
53	0x3fe53d044a002234	0.663698334247846
54	0x3fb5497144551f41	0.08315189283632397
55	0x3fec71c5a6d1b2d1	0.8888881929575182
56	0x3fe1b4b29d20eb84	0.553307825938973
57	0x3fd6010408de44d9	0.3438119970897567
58	0x3fe0415649cc62b4	0.507975715768302
59	0x3fecccacd71a31be	0.8999847604005067
60	0x3fdc2813fe0b2ead	0.43994617279961795
61	0x3fce244880055b94	0.23548227549573808
62	0x3fe624f877a639ec	0.6920130097294623
63	0x3fe36cd69b8284fb	0.6070359265615076
64	0x3fe6b0ea2710ea61	0.7090960276612571
65	0x3feaf97bfafbc1f8	0.8429546262760246
66	0x3fe1dc1aa5688e63	0.5581181746133094
67	0x3fec342a67738c53	0.8813678761038183
68	0x3fd35692c479be94	0.30215901553217717
69	0x3fef7027e491d887	0.9824408973934319
70	0x3fe29494c33da3d7	0.5806373418137082
71	0x3fd4303be5c70fb4	0.3154439681932175
72	0x3fe3e4a098d30d9a	0.6216586098529888
73	0x3fe3a20cc0ac5d87	0.61353147155289
74	0x3fd1d7e472dbd02d	0.2788020250002344
75	0x3fee5f3a1b351063	0.9491243869201863
76	0x3febd7a056ea222b	0.8700715730238405
77	0x3fe7dd452fe6ef50	0.74576053005101
78	0x3fd033e18bb1b13c	0.2531665672493266
79	0x3fe5ad01eb2146bd	0.6773690788633854
80	0x3fd8da4cd020a4ff	0.3883239777083673
81	0x3fd9ea910cda76fa	0.40494180922711076
82	0x3fe5afc3c1573ca0	0.6777056480585948
83	0x3fe0850e15f30d09	0.5162420681666912
84	0x3fe0bb384a788bd3	0.5228539900311894
85	0x3fe36ed5e84d89d3	0.6072797333875378
86	0x3fe9a0fea563f7a5	0.8009026747019915
87	0x3fe1400f7d4ff4e8	0.539069885969778
88	0x3fb2d60bb9dbfb6f	0.07357857978420922
89	0x3fea11b763f8a475	0.8146626427234326
90	0x3fbd0c6a5d48aaa5	0.11347069528043592
91	0x3fefd597e0345c92	0.9948233965868829
92	0x3fee72fcf784c909	0.9515366396283592
93	0x3fec9514cf27772a	0.8931983991603591
94	0x3fdc230863642a7f	0.4396382303827195
95	0x3fe0c74d8c41427a	0.5243289698938292
96	0x3fe086ba9e7afe3b	0.5164464087792519
97	0x3fe454739ff475dc	0.6353090404624555
98	0x3fdf35f8f39372dd	0.487669217936668
99	0x3fdd0696c505d9e2	0.45352715721619863
100	0x3fe3fe6ff7763aec	0.6248092492331501
101	0x3fe375d537316588	0.6081338956820881
102	0x3fb2f7245ac9f776	0.07408358780409494
103	0x3fd7fbcc7674242d	0.37474357192747015
104	0x3fa74bf1a3147cf5	0.04550128093455356
105	0x3fba86c8ca5c3de8	0.10361914577901354
106	0x3fb1292d439c5c7e	0.06703455830244029
107	0x3fd7cf1a7dad889d	0.3720155932734402
108	0x3fe7ff274357f23c	0.749896651773788
109	0x3fe8c8d8aec57c6a	0.7745173848633276
110	0x3fe8ba311e2ca72e	0.7727284993500001
111	0x3fdea724f15aac3b	0.4789516789412038
112	0x3fe68fd44fb3aae1	0.7050572926212589
113	0x3fec06e56ee69c05	0.8758418241530995
114	0x3fea3e1857891a9d	0.8200799665144874
115	0x3f976fc9416dd9f6	0.022887367838359617
116	0x3fe5da308385334f	0.6828844612842689
117	0x3fe1c778a532d788	0.5555995203528576
118	0x3fef74e03a8c5091	0.9830170768277801
119	0x3fda5297ed982cfe	0.4112911052950067
120	0x3fd27636ad02dec1	0.2884651841700184
121	0x3feeaf3579b291d2	0.9588878037362127
122	0x3fe9ed92eb31f610	0.8102507203727232
123	0x3fe1c576ed7f390d	0.5553545607197364
124	0x3fed6cc8f6acdfbd	0.9195294206501711
125	0x3fefe981510a5400	0.9972540457553123
126	0x3fd15380dd8fdfe3	0.2707216418925766
127	0x3fdd383b0e8e9a3e	0.45655704900346794
128	0x3fcd4d7e16d5ccc6	0.22892738451955646
129	0x3feb7f6344a9101c	0.859300264456127
130	0x3fd3c71ba18f8f9a	0.3090275838605919
131	0x3fef0834c546f21a	0.9697517254895189
132	0x3fe299391bbb5045	0.5812039891848221
133	0x3fef05b1134d8e56	0.969444787694054
134	0x3fef3ed686c736e8	0.9764206535707816
135	0x3fd4f2d3eccf2c2a	0.32732103467850726
136	0x3fdd4182b9f5b424	0.45712345276007427
137	0x3fe36151adbbe62e	0.6056297677270714
138	0x3fd793f89afac9bb	0.36840644011240514
139	0x3fd5303e968bc785	0.3310696096588049
140	0x3fc0bd53db69f876	0.13077781880923894
141	0x3fe5489f740c10cd	0.6651150957627806
142	0x3fe947625c5384d9	0.7899638942000379
143	0x3fd0159d9f6648ed	0.2513193184505685
144	0x3fe39f74e3a3e089	0.6132149168106632
145	0x3fee2055fa7f478b	0.9414472477458146
146	0x3fe741d086a55190	0.7267840032387074
147	0x3fb5251303a12ada	0.08259695852863605
148	0x3faaff2b008dbead	0.052728027169789506
149	0x3fe2a0c61ff2a1c9	0.5821257232647038
150	0x3fd59a20d9a7efe8	0.3375322461649817
151	0x3fe86d235f48bb36	0.7633225308435161
152	0x3fe395ad78138be7	0.6120211930505065
153	0x3fd6b2a15ca7ed56	0.3546527294963274
154	0x3fe7024967494c04	0.7190291421233046
155	0x3fe4b620a136b0cb	0.647232355947858
156	0x3fd0fc893c016338	0.26541357860473935
157	0x3fe304d6e7e3ac58	0.5943407563294256
158	0x3fd1ab727407a7c8	0.2760892994980364
159	0x3fe6b1b900da4639	0.7091946617749222
160	0x3fe1fc9258f36101	0.5620815026586855
161	0x3fe115ea54210910	0.5339252131600762
162	0x3fc5111e32393e3c	0.1645848984940005
163	0x3fb064792a10e6c4	0.06403310086252662
164	0x3fe29860593f8466	0.5811006301047541
165	0x3fe1f1e4891f27ba	0.5607779195936395
166	0x3fa73a472b2866a0	0.04536650087193306
167	0x3fe0ea9640c61f74	0.5286360993495536
168	0x3fe2048407fa3350	0.5630512386138466
169	0x3fc6603bcd8566ec	0.1748118165513043
170	0x3fbe74ae81e59fc1	0.1189679209834358
171	0x3fe0e8e779f5e560	0.5284306890527368
172	0x3fd47c639b70b659	0.32009210757937506
173	0x3fede6ea80b12d27	0.9344379914777264
174	0x3fe8e218fa41733a	0.7775998008542964
175	0x3fc064899f4de729	0.12806816366701781
176	0x3fe0f639b20fec03	0.5300568082597014
177	0x3fe770c19b9a05ae	0.7325141944021902
178	0x3fe4b6d5e5722e34	0.6473187905662088
179	0x3fe91effe2a9d606	0.7850341250438653
180	0x3fe95b2b74008bf5	0.7923791185061179
181	0x3fdda5110b509fa5	0.46319986443495004
182	0x3fc820bcb42f82b7	0.18849905775188855
183	0x3fdb323087f596e2	0.42493832852629343
184	0x3fce391bd1bfd953	0.23611781827612308
185	0x3faed7c0b48236f2	0.060239812884089874
186	0x3fe92dc8a1a54b68	0.7868388325826858
187	0x3fef362e786a457e	0.9753639556749218
188	0x3fec840f882f49d9	0.8911206874711822
189	0x3fe2dbc31060a11a	0.5893264121887427
190	0x3feb811f9a979aa8	0.8595121402148225
191	0x3fe042aff0318078	0.5081405345226946
192	0x3fe2d5a32f383e7d	0.5885787889728388
193	0x3febaa086ebeda61	0.8645059741018707
194	0x3fe511f4d4e85d90	0.6584419401505546
195	0x3fef84e13ae03614	0.9849706792753659
196	0x3feff3cb19232002	0.9985099307023122
197	0x3fe4f8ccc80691b5	0.6553710848571003
198	0x3fe03d98a0e87963	0.5075190680252429
199	0x3fe1b23710752c46	0.5530047723235689
200	0x3fc8401e53a612f6	0.18945674023066034
201	0x3fe3a4792d16eb84	0.6138273125319391
202	0x3fd092173869675b	0.25891666897734006
203	0x3fdd052830015f3c	0.453439757232889
204	0x3fe7d1151a87b56c	0.7442727583090067
205	0x3fe5e554616467b2	0.6842443372909115
206	0x3feadd77f8f609d7	0.8395347464104884
207	0x3fc3348928353cba	0.15004076445845788
208	0x3fe9d1a6da1ca5a2	0.8068422565458386
209	0x3fc00e509e2ca882	0.1254368564926303
210	0x3f9a2061746d4416	0.025514147502068672
211	0x3fdc1568d8ed089a	0.4388067358414759
212	0x3fe63d445afb01a2	0.694978883453633
213	0x3fc2024217cad2ab	0.1406939140485027
214	0x3fdfe534351a57aa	0.49836449800329297
215	0x3fe47e20736500d5	0.64039633310315
216	0x3fe0f81ef5e3205d	0.5302882006153699
217	0x3fbcb99ab4f41fa8	0.11220709722340294
218	0x3fe20a9af7db79b2	0.5637945977176086
219	0x3fe2d0b35e4f67b5	0.5879761545177106
220	0x3fce596539ba254e	0.2371031314726601
221	0x3fd2b3361004f5c6	0.29218818249122724
222	0x3fa77e31dde0295f	0.04588466485445752
223	0x3fe1687ece931674	0.5440057787570383
224	0x3fd7989d49383468	0.36868984365793844
225	0x3fd8290641b7889a	0.3775039331213833
226	0x3fe7e0904e41724d	0.7461625603132888
227	0x3fd15ab281d9a268	0.27116072350194154
228	0x3feaecea647cd0c3	0.8414203608176866
229	0x3fe91ad756277ca2	0.7845265085888011
230	0x3fec2fa0349046e8	0.8808136965401134
231	0x3fbe4273b75c4b1a	0.11820147730422229
232	0x3fe6ed0398cee51f	0.7164323792013966
233	0x3fd76c6842ac7689	0.36599165450193333
234	0x3fea2c2695bb8092	0.8178894924603972
235	0x3fdafcc2b9dbb911	0.4216772856733693
236	0x3f670f8befa3b09b	0.0028150303961550056
237	0x3f7d9272cdc7aedf	0.0072197422527826285
238	0x3fe2559350e07684	0.5729462222695507
239	0x3fb388154ec35f60	0.0762952153485208
240	0x3fdc20234df09edc	0.43946154223747924
241	0x3fe59bfb62e9f9cc	0.6752907688058314
242	0x3fd002be7a78ccd6	0.25016748390335175
243	0x3fd2ae1cd1c6e8a9	0.29187698827775904
244	0x3fe8cc6a01587898	0.7749528909951264
245	0x3fe51215dfb9adfb	0.6584576959261875
246	0x3fd892c793692f0b	0.383958715396816
247	0x3feb17083803c13e	0.8465615362202141
248	0x3fa01e3f97fba20d	0.031480777075390966
249	0x3fc4a797beb5f16a	0.1613645249561942
250	0x3fc2f6386fb4c147	0.14813905195615915
251	0x3fd039bd61e3b2c6	0.25352415618435165
252	0x3fd0b3347155e008	0.2609377962867261
253	0x3fe6b4de2338bec9	0.7095785797045774
254	0x3fdd15c4072eee3f	0.45445347501274463
255	0x3fd22c345599a0c3	0.28394802436242744

FTrain_PDE f8 [8000, 1]
0	0xc0c141a548759ec2	-8835.29127378704
1	0x40d15bd70b78acbe	17775.360075157827
2	0xc0d9e3323f204dea	-26508.7851029168
3	0xc0c72ff4a9672596	-11871.911419766762
4	0xc0d9367791854f58	-25817.868256881222
5	0xc0c3a734ca2e130e	-10062.412420043282
6	0xc0cc3c53d60b81f8	-14456.654969633542
7	0x40dfaa3d999d5547	32424.962500890044
8	0x40c579114df59770	10994.13519163031
9	0x40cd1b266f07d3b2	14902.300263384215
10	0xc0ccf1d047fc255d	-14819.627196806186
11	0x40d2867facb16e9b	18969.994915349973
12	0xc0c4757244eba0e0	-10474.892728284409
13	0x40d9c85f817aa338	26401.492277774232
14	0xc0c4b03baf11e249	-10592.466280208102
15	0xc0ca6d98ba84bc9e	-13531.19319209299
16	0xc0c1682ffccc46c5	-8912.374902281337
17	0xc0d78306c1fec181	-24076.10559052369
18	0xc0b3e521949a88ad	-5093.131173761719
19	0xc0c7aeeb250ecd6f	-12125.837068414983
20	0x40d251131904aa33	18756.29840199109
21	0xc0b80913c95838b4	-6153.0772910250125
22	0x40d82c613c1aab33	24753.5192934677
23	0x40dae8371dd7f660	27552.86119650898
24	0xc0d7e371dc760d99	-24461.77908088043
25	0xc0d25e4adaf42a80	-18809.169613877777
26	0xc0c8380729f25e6e	-12400.055967613323
27	0x40ba1e2daacda435	6686.178387501325
28	0x40df63030e35cfe4	32140.047742321985
29	0x40d0eb360decd79d	17324.84459992462
30	0x40d2a2e46d895e29	19083.56918558307
31	0x40d462e0487ce037	20875.50442430397
32	0xc0ddd82eca2619fa	-30560.73108818566
33	0xc0c282ea34d3b25f	-9477.829737150283
34	0x40d97eaf5fab32d8	26106.740214156773
35	0x40d806ff9786dfe7	24603.99362346521
36	0xc0da5a83dbde5056	-26986.060294702962
37	0x40d30d9ac8b28989	19510.418499597847
38	0x40b756bf18dc18eb	5974.746473079761
39	0x40dd3977f6a15720	29925.87442811497
40	0xc0cb034687c5e3b3	-13830.551018463308
41	0x40a0d0c22cdaaa3a	2152.3792484600826
42	0x40cd49440432dda3	14994.531378133985
43	0x40e0809845ba7d66	33796.75851177685
44	0x40d7cfd200d98e7c	24383.28130186953
45	0xc0bab4c6e4474e3e	-6836.776920754053
46	0xc0d08b5eb58367c0	-16941.47982869274
47	0xc0c6c31c0ca61bb4	-11654.21913601258
48	0x40db81af88b9007d	28166.742719889142
49	0xc0de06446dd4dae1	-30745.069203580617
50	0x40b09dea31b1e500	4253.914820784004
51	0x40bb25077195def3	6949.0290769261655
52	0x40835e7be3c531ba	619.8104930311013
53	0xc0a3caf8f3beab37	-2533.4862346252444
54	0xc0b0acd7d2ca6811	-4268.843060160071
55	0x40d63df6f7bfed68	22775.858871442644
56	0xc0b0c1d6a6dbc424	-4289.838483558069
57	0xc0c2bcee79310389	-9593.863073469854
58	0xc0c23eb9ffd9df8e	-9341.453120454938
59	0xc09b69aecae6dd88	-1754.4206958840095
60	0x40afd34fc147111a	4073.6557714661003
61	0xc0bf659e356bffbb	-8037.618002653059
62	0xc0d4a166310c2711	-21125.596743620063
63	0xc0cf93c7c84cff82	-16167.560800194511
64	0xc0cf1147bf92ecdc	-15906.560533872274
65	0x40d91bad9b06268d	25710.712586915633
66	0x40cd4b3ede507d02	14998.491159497298
67	0x40d1b07a7d552e8c	18113.91389970346
68	0x40af1a8e7976193f	3981.2782704263514
69	0xc0c8fd4f150f859d	-12794.617830219499
70	0xc0d63bcbd25fa3b0	-22767.184715185023
71	0xc0ca835b2a868463	-13574.712235273973
72	0x40d2d8c6043df9ee	19299.094008916923
73	0x40c77fed2993eb17	12031.852831353941
74	0x40bc066452231642	7174.391878312048
75	0xc0d2bd9826e67880	-19190.377374284435
76	0x40ba13edfb39f264	6675.929614659955
77	0xc0c4a70a2d5ddb06	-10574.07950947947
78	0x406ccddbd2f7c786	230.4330839957658
79	0xc0b4d8c6db786f80	-5336.776786353323
80	0xc0d45fc3c3c2ad25	-20863.058823269927
81	0xc0c7f26823e79602	-12260.813595722433
82	0x40cdff915962f7b1	15359.135540362304
83	0xc0cf487b8b9ddad2	-16016.965198261114
84	0xc07aea11e14c170d	-430.6293652508037
85	0x40cc499081c87ab5	14483.128960666576
86	0xc0d8cc3da10f6683	-25392.962955331906
87	0x40d2f403bcd6e929	19408.0584008481
88	0x408085bf6afe0fc3	528.7184657906113
89	0x405cba44e77e1f09	114.91045558277632
90	0xc0baeebab8fe5491	-6894.729385276457
91	0xc0d56ab71455fcf0	-21930.86061620427
92	0x40b184cf5136b746	4484.809832973237
93	0x40d792842535135f	24138.064770955007
94	0xc0dc36e8c582bbc3	-28891.637055095063
95	0xc0c531f43e1c7f9e	-10851.90814548713
96	0xc0dcf02b2bc99a89	-29632.674547577775
97	0xc0b3be0c12beb23f	-5054.047161024587
98	0x40ca61b3a02a1b8c	13507.403325332118
99	0x40d746e277e35ef9	23835.53856739306
100	0x40a5c1b1bd60ee91	2784.847147969362
101	0xc0dedb3f19edfb51	-31596.985957618166
102	0xc0d35e1bd9bda07c	-19832.43516483948
103	0xc0d92774eccf7545	-25757.826953758737
104	0x40d8f0209bb5852e	25536.509503727015
105	0x40d67cc7abb7ec0b	23027.11985586215
106	0xc0cb2d9879b1b6c3	-13915.191213812102
107	0xc0c5efca3cbd74fa	-11231.579978639715
108	0x40b2a44825e4ccd0	4772.281828212741
109	0xc0c08edb871e0eba	-8477.715060956183
110	0x40cae2235f08a0dd	13764.276337698504
111	0xc0550b06a35c2f57	-84.17228015901979
112	0xc0b13a16360c4547	-4410.086762205995
113	0x40d40dcdef11c7a1	20535.21771664138
114	0xc0de90151bce5ec7	-31296.329822151714
115	0xc0dc84d4a077c442	-29203.32229417959
116	0x40d0e3b666208584	17294.849983339678
117	0x40bdf4ffdd057390	7668.9994662673125
118	0xc0d75cf1331fe1e5	-23923.768745394325
119	0x40dae060893d3d59	27521.508376417074
120	0xc0d16286abb78026	-17802.104230761666
121	0xc0d58e86e61e7c96	-22074.107795354525
122	0x40df861fe00a0cb4	32280.498049271016
123	0xc0c3165c73bfa446	-9772.722282366954
124	0x40b44b959eaa6858	5195.584452295756
125	0xc0ca239bad8b8bc2	-13383.216233676187
126	0x40dafcd6f010b77c	27635.35840242308
127	0x40d539dfc807f0f7	21735.496583924596
128	0x40c26563484fc5f3	9418.775644275336
129	0x40d8e8c4b428ec60	25507.07349608501
130	0x40c47ed782786cb8	10493.683669140897
131	0x40c1934298489dab	8998.520272328364
132	0x40a73976d443caed	2972.73208820202
133	0xc089a2379b449306	-820.2771516187065
134	0xc0d9d0a88293f255	-26434.632969843533
135	0xc0d2f8af355a4db3	-19426.737631393316
136	0x40d66f54ab8673a2	22973.3229690675
137	0x409606bd9750dff0	1409.6851475369149
138	0xc0dcb993b19b2f7c	-29414.30771522176
139	0x40b89ed2bbc67011	6302.823177721367
140	0x4096225181bffc5a	1416.5795965192578
141	0xc0abbfb58a10f909	-3551.854568987274
142	0xc09432d1b94e937f	-1292.7048084523701
143	0x40dddb988960b31d	30574.383384871402
144	0x40d5d16e5bb5d3a3	22341.724347550084
145	0xc0c16d77c99513ff	-8922.935839304699
146	0x40c46982b27d0318	10451.021072031508
147	0xc0c333ad822b5013	-9831.355534948443
148	0xc0c55bfc217c8fc5	-10935.969771928978
149	0x40b0026f7fc769a6	4098.435543502133
150	0xc0d3f6d388677b40	-20443.30520045315
151	0xc0db1fdf3e4fdfab	-27775.488178223062
152	0xc0dff94ba5ec54e7	-32741.182002146637
153	0xc0d96f7f97938744	-26045.9936264821
154	0xc0c9125d5a1669f1	-12836.729311753968
155	0xc0e032154ef2d928	-33168.66588728345
156	0x40cf23092afd1415	15942.071624407583
157	0xc0d901b63873fb9f	-25606.847195621227
158	0x40d02b682be17140	16557.62767826137
159	0x40c0f88ef4d260cf	8689.116846368093
160	0xc0bb7948589de94c	-7033.282602185685
161	0x40da61644ca54bd9	27013.56717808158
162	0xc0c1116cc70b1e74	-8738.84982432353
163	0xc0cb26b0dd968ba9	-13901.381762331193
164	0xc0e116bd43fe4eb5	-34997.91454997418
165	0xc0d057082d64022e	-16732.12777042592
166	0xc0db7bde7376eefe	-28143.47579739894
167	0xc0c06a75577c6a8f	-8404.916732360869
168	0xc0c6065ca789d772	-11276.723862867544
169	0x40daf302e38a9f32	27596.045138030495
170	0xc0b57ea856fba8c4	-5502.657577255919
171	0xc0a1989aef21fbda	-2252.302605688089
172	0xc0ca502e7906f962	-13472.363068458337
173	0x40db8019ba014a23	28160.401977846526
174	0x40cd5b137a7fb74f	15030.15217586947
175	0x40d2604594f31ea9	18817.087216167394
176	0x40c0df5f407ca6eb	8638.74415548468
177	0x40e06a9b709e9786	33620.857497497505
178	0xc0b4bfcadbe3e2eb	-5311.7924177578925
179	0xc0d97c7e956af496	-26097.97786973844
180	0x40dbd71805c41f6c	28508.375351935087
181	0x408298e5b8c6ffe7	595.1121688410611
182	0xc0dc60ae60f57259	-29058.724667894046
183	0x4091c7686c36282f	1137.8519752943064
184	0xc0c232217c7fedd9	-9316.261611930024
185	0xc0c8e457020f77bd	-12744.679750379053
186	0xc08d20d7e007d30e	-932.1054077731403
187	0x40d149acc71baca0	17702.699652594165
188	0xc0a805d20bc22569	-3074.9102459593455
189	0xc0a8ee7aeac22920	-3191.2400723147584
190	0xc0bfe3e5e4757b0e	-8163.898017256301
191	0xc0b3ae16ab16fc5a	-5038.088548122987
192	0xc0ca1b5356038e9b	-13366.651062435752
193	0xc0b97abaa4ef198a	-6522.729079192863
194	0xc0cee434f03652ed	-15816.413580694667
195	0x40b60879069cc129	5640.472757146033
196	0xc0b3d67df7d14636	-5078.492062644616
197	0x40cba90a483e43d7	14162.080329688191
198	0x40a9b00452deb6f4	3288.0084447477657
199	0x40deb67cdd8eeada	31449.951022843692
200	0xc0c3b66b81870cd9	-10092.839890366815
201	0x40bd1e31ca294a81	7454.194490986528
202	0xc0b7f5bcf20041a1	-6133.738067642234
203	0x40dc21b0e852f58d	28806.76417993526
204	0x40df3a0749e6f415	31976.11388563
205	0x40b577b0eaa2854d	5495.69108024363
206	0x40d3abdc72486a07	20143.444475272696
207	0xc0c52b2de0be8a46	-10838.358421151654
208	0xc0dbe30bb3aa176a	-28556.182840845933
209	0xc0d800bbf3df8c9b	-24578.93675984126
210	0xc0d2563f68e388e3	-18776.990776904753
211	0xc0dd0f45737eeaa4	-29757.085174302236
212	0xc0785e54fe1933e8	-389.89575013966396
213	0x409192f67fd650b0	1124.7407220350979
214	0xc076081c8535e161	-352.50696297690416
215	0xc0c7d3092a2af63f	-12198.071599359739
216	0x40856d23eb56e42c	685.6425387180693
217	0xc0c21496024a0dc4	-9257.171944863054
218	0x40be8cff37431465	7820.996936981658
219	0xc0ca0193963b497e	-13315.15302220429
220	0xc0d5e57480ec7abb	-22421.820368881086
221	0x40b219a4651eaeff	4633.642167966579
222	0xc0cc5f62a6c8ee6b	-14526.770714870849
223	0x40c346177b84466a	9868.183456930525
224	0xc0b3119befe38560	-4881.609129161894
225	0x40c331bf3f1fa801	9827.494113881143
226	0xc0d49aa5c09f58f0	-21098.589881741384
227	0x40b8750d12a68723	6261.051065834038
228	0x40aa2c11d5d697ec	3350.034834581418
229	0x40c3d9951b8870d8	10163.16490273962
230	0xc0c0ca948ec60eea	-8597.160607106478
231	0x40a5e236e1dea8ff	2801.107191999559
232	0xc0ad1f973f2e4d81	-3727.795403906785
233	0xc0c1546e01758c0f	-8872.859419530285
234	0x40d96fe0f44e1da5	26047.514911202383
235	0xc0c4fd607564fa63	-10746.753582594165
236	0xc0c0b188b72ece39	-8547.068090296454
237	0xc0df00dd135fcd5e	-31747.454307508997
238	0x40d38e8067c8fd7c	20026.006334540885
239	0xc0dfcbcee082d4af	-32559.232453067492
240	0x40ddb11cab456ce5	30404.447953564017
241	0xc0c4fad807a5aaf1	-10741.68773337218
242	0x40c1b60f3c4a571f	9068.119027416744
243	0xc0c1f00da61ca68e	-9184.106631833387
244	0x40c76facdf24417c	11999.35055974195
245	0x40c10b9776d5a988	8727.183314044742
246	0xc0d5d85a9b995cae	-22369.415747013576
247	0x40d4fe18b53681a1	21496.38606035861
248	0xc0ca2062383ae488	-13376.767341004932
249	0x40c7fd8b318f0bdc	12283.087449913779
250	0xc0d35605979d8082	-19800.087378859993
251	0x40c0edbfd4567b1b	8667.498667535887
252	0x40c3dd1b928bc965	10170.21540973028
253	0x4069b68c3dda94c1	205.70461933795562
254	0x40da848b6a4cba63	27154.17836301996
255	0x40bea9585ad10e68	7849.345135751741

XTrain_Boundary f8 [1600, 4]
0	0x0000000000000000	0.0
1	0x3fd4f2f36169cfd4	0.3273285342504526
2	0x3fdc42367f6648aa	0.4415413135658449
3	0x3fe3a50a00d49158	0.613896371480716
4	0x0000000000000000	0.0
5	0x3fe3c6fbe5dbed2a	0.6180400361476235
6	0x3fdf0db553258a56	0.48521168823041216
7	0x3fe2f35082487bad	0.5922014755814097
8	0x0000000000000000	0.0
9	0x3fed2368258979c4	0.9105721219200906
10	0x3feb299b4293f718	0.8488289165831899
11	0x3fedd1528e7b81e5	0.9318020613537185
12	0x0000000000000000	0.0
13	0x3fbd404ca1b7223b	0.1142623801052957
14	0x3f997bee8473e33c	0.02488682444979705
15	0x3feef1e4409b742f	0.9670277845249354
16	0x0000000000000000	0.0
17	0x3fefbb898e4ff67a	0.991642740205591
18	0x3fb94bbf505e7d16	0.09881206237922799
19	0x3fe8ed601bfe8374	0.7789764925729359
20	0x0000000000000000	0.0
21	0x3fda21e8f22a6d46	0.4083196988010126
22	0x3febfeb3f2c0ef20	0.8748416653902247
23	0x3fd50405f060fb56	0.3283705565881311
24	0x0000000000000000	0.0
25	0x3fedd8475253c43a	0.9326511962846162
26	0x3fe5003fe16d9573	0.6562804606334524
27	0x3fe8a4305ef0f5a6	0.7700425962754494
28	0x0000000000000000	0.0
29	0x3fd59549be331483	0.337236819974642
30	0x3fe67f34c950f48e	0.7030281002004288
31	0x3fcfd907b38fc249	0.24881073253301825
32	0x0000000000000000	0.0
33	0x3fc8e728b9b37517	0.19455441539222626
34	0x3fe77b806f56f3e8	0.7338258909800262
35	0x3fe559626642d2f8	0.6671611783300184
36	0x0000000000000000	0.0
37	0x3fd46c241f4fc405	0.3191004091050334
38	0x3fb761b918d990d2	0.09133488518415625
39	0x3fe5ce8a83dd06ff	0.681462533517532
40	0x0000000000000000	0.0
41	0x3fedade0567a7514	0.9274751366644147
42	0x3fe213c3929d845d	0.5649125922756287
43	0x3fd03a22bb57cf31	0.25354831977095943
44	0x0000000000000000	0.0
45	0x3fd76dc6e2de4998	0.3660752501974911
46	0x3fc151bde4b64401	0.13530706088616287
47	0x3fc7a202bcad932d	0.18463167393488203
48	0x0000000000000000	0.0
49	0x3fed4d1a8bb678a0	0.9156620720639417
50	0x3fe7f1a4f751149f	0.7482476072697358
51	0x3fe336aeb5ed6602	0.6004251054066005
52	0x0000000000000000	0.0
53	0x3fe16ac081040016	0.5442812461697055
54	0x3fdbe60c9e369392	0.43591609430796396
55	0x3f98ce1241bcab33	0.024223599684016505
56	0x0000000000000000	0.0
57	0x3fb18d0c3dd6ffd9	0.06855846891175989
58	0x3fc77e1db5e0f336	0.18353625660702172
59	0x3fd60563147fc8cd	0.3440787983119094
60	0x0000000000000000	0.0
61	0x3fde0f5967c2eca8	0.4696868432326462
62	0x3fe691dbd5995d12	0.70530502050943
63	0x3fe859f2b17a20a0	0.7609799829815707
64	0x0000000000000000	0.0
65	0x3fe7108544841faa	0.7207666719632375
66	0x3fd72122c9a54d3f	0.3613974541851412
67	0x3fee238402042a74	0.9418354071979835
68	0x0000000000000000	0.0
69	0x3fed07f50be566fa	0.9072213394494775
70	0x3fd897e4237f474e	0.3842707010891119
71	0x3fe017d2260dcdcc	0.5029078238716749
72	0x0000000000000000	0.0
73	0x3feb01848175aa16	0.8439352539547282
74	0x3fe08545a359a291	0.516268557589756
75	0x3fc4c3a5b785caf7	0.1622206827265342
76	0x0000000000000000	0.0
77	0x3fe98c630ff7756f	0.7983870803688385
78	0x3fed43d96e9f92df	0.9145323906528481
79	0x3fd6f63b7bac1e7f	0.3587788303125094
80	0x0000000000000000	0.0
81	0x3fdaf63ba6f3daa5	0.42127887062035035
82	0x3fe00d0bf8193248	0.5015926213905653
83	0x3fd27292261fdbe9	0.2882428524312091
84	0x0000000000000000	0.0
85	0x3fe536b482ba8e26	0.6629278710647142
86	0x3fe1aba091033f68	0.5522005874899891
87	0x3fdc3082a837d214	0.44046083858054996
88	0x0000000000000000	0.0
89	0x3fd976d2c3d4e165	0.39787739872146793
90	0x3fe4acf34f31a053	0.6461121126894888
91	0x3fe79276256b8e1b	0.7366286021101048
92	0x0000000000000000	0.0
93	0x3fd8a1e1881550ff	0.3848804310739666
94	0x3fc299f7329b87a4	0.14532365771361555
95	0x3fdf316608321a9c	0.48739004898417604
96	0x0000000000000000	0.0
97	0x3fab639adc5016ca	0.05349430026403253
98	0x3fd2b852d32d586d	0.2925002157475152
99	0x3fcecf64305cb7ce	0.2407040821212249
100	0x0000000000000000	0.0
101	0x3fd0871eca3207ad	0.25824708696029114
102	0x3fb1dee0ad496c9a	0.06980709295878498
103	0x3fdce826cd4377fd	0.45166940732258337
104	0x0000000000000000	0.0
105	0x3fec4f286df7e64a	0.8846628330058561
106	0x3fecda4168c99cfc	0.901642517722308
107	0x3fdcb31f660f7612	0.4484327789958523
108	0x0000000000000000	0.0
109	0x3fccb2b8d57a2a72	0.22420416282359984
110	0x3fe10feb5bf4ea6c	0.5331932827023826
111	0x3fe031f7a02aede6	0.5060995224261517
112	0x0000000000000000	0.0
113	0x3fe2dc3ac3f9558b	0.5893834903351246
114	0x3fcb26092fcbc5a6	0.21209826310909569
115	0x3fefeb8cf3ff9d32	0.9975037351222567
116	0x0000000000000000	0.0
117	0x3fd548a841075c06	0.33255964613403
118	0x3fc353c34c0a4423	0.15099374020476927
119	0x3fcb1d7de49af4ea	0.21183751737945694
120	0x0000000000000000	0.0
121	0x3fe33fd0b61ae9fd	0.6015399510136487
122	0x3fe8d6883e63ab78	0.7761880129377081
123	0x3fd90604c4c2b9dd	0.3909923478594502
124	0x0000000000000000	0.0
125	0x3fdfbf321dda7494	0.4960446635757958
126	0x3f927b9b1036fed7	0.018049643387484018
127	0x3fe6475798173a7d	0.6962087603113357
128	0x0000000000000000	0.0
129	0x3fe4a03e0b483cb4	0.6445608349184995
130	0x3fb2b72a6b99b801	0.07310738684620334
131	0x3fed6a51db1ccde6	0.9192284850636809
132	0x0000000000000000	0.0
133	0x3fe594b569d44978	0.6744029108979666
134	0x3fee7c63ae9e01f1	0.9526842508785746
135	0x3fe3ae7c481c30e3	0.6150494964981842
136	0x0000000000000000	0.0
137	0x3feb29fec0321c98	0.8488763574431628
138	0x3feff8e9d800db4d	0.9991349428954465
139	0x3fd17ecd14f1ed1c	0.27336432500278973
140	0x0000000000000000	0.0
141	0x3fe0d0bf40afedff	0.5254818213865632
142	0x3fd064180f142e68	0.2561092517141561
143	0x3fe1a1d6b659a1fc	0.5510057031179367
144	0x0000000000000000	0.0
145	0x3fc9c67d94fddb5a	0.20136995100957727
146	0x3fb9a304fc847cdb	0.10014372982958568
147	0x3fb32323cbaaf64f	0.07475494119986446
148	0x0000000000000000	0.0
149	0x3fdbd9d7ba1f3e8a	0.4351710622404218
150	0x3fe74d5894cf976e	0.7281916529143311
151	0x3fd1ffae8e90fd88	0.2812305824517911
152	0x0000000000000000	0.0
153	0x3fe231fd1b9e7fbb	0.568602136558176
154	0x3fee4b3ed5b224a3	0.9466852353808871
155	0x3fe141e639f6faf6	0.5392943508266785
156	0x0000000000000000	0.0
157	0x3fb947c0a0f92cae	0.09875110559476027
158	0x3fe6ddbff8da8286	0.7145690784855823
159	0x3fbaad909285ef13	0.10421088769174629
160	0x0000000000000000	0.0
161	0x3fe0199fe0f53f8c	0.5031279939375835
162	0x3feae3c5ec76edd6	0.8403043383072439
163	0x3fd3c7506d955f5a	0.3090401716376526
164	0x0000000000000000	0.0
165	0x3fb76f68616229ae	0.09154369714284513
166	0x3fb47e937768f48d	0.08005639710695985
167	0x3fc10375979cdc28	0.13291807082143348
168	0x0000000000000000	0.0
169	0x3fe28b39371d400f	0.5794950558138242
170	0x3fa22e3e7ca1228c	0.035509064401201135
171	0x3fce75ef8c4fd98d	0.23797411299865381
172	0x0000000000000000	0.0
173	0x3fdb4368832a83c6	0.42598927315890156
174	0x3fb6596291e2f756	0.08730140744861833
175	0x3f5a5888a8f56f14	0.0016080221719993503
176	0x0000000000000000	0.0
177	0x3fe427d1e5a67176	0.6298608289103373
178	0x3fd82552fe732cd6	0.377278088079675
179	0x3fd0c7108eaa5a36	0.2621499436585596
180	0x0000000000000000	0.0
181	0x3fc39a85a229a3ef	0.15315313737963218
182	0x3fe7a7d0d79ef8ba	0.7392353259417839
183	0x3fe30d18dae1f78d	0.5953487658550657
184	0x0000000000000000	0.0
185	0x3f9869d75e0e0541	0.023841252437255326
186	0x3fc9e2413051d6e6	0.20221724376067768
187	0x3fed86c661e97772	0.9227020180075967
188	0x0000000000000000	0.0
189	0x3fe74af8341e70dc	0.7279015558192685
190	0x3fe52df4462318ec	0.6618596429696288
191	0x3f86f828bef13e29	0.011215513541315296
192	0x0000000000000000	0.0
193	0x3feb9d77175e7bdc	0.8629718262126249
194	0x3fdad65f83634c57	0.4193342955670167
195	0x3fecd57b88315709	0.9010598812116949
196	0x0000000000000000	0.0
197	0x3fee8b2459d68221	0.954485106911367
198	0x3fc12a726dbcc03d	0.13410787924067505
199	0x3febd6ca9cc6b561	0.869969659999395
200	0x0000000000000000	0.0
201	0x3f6d67dc831b36ec	0.003589564025651684
202	0x3fd679298a714334	0.3511451580025551
203	0x3fe6fc0de9a25354	0.7182683528104499
204	0x0000000000000000	0.0
205	0x3fbe4588b72f994a	0.11824850532830058
206	0x3fd40deb69722d23	0.3133495836015802
207	0x3f91f44d4f92aaa1	0.017533500653977744
208	0x0000000000000000	0.0
209	0x3fca83f0db8a9ae5	0.20715151519581024
210	0x3fe0e2871eb32be5	0.5276523208243559
211	0x3fee6f5c9b6f200a	0.9510939632245947
212	0x0000000000000000	0.0
213	0x3fe1f38bc0b895b1	0.5609797252733896
214	0x3fdca65d993f1331	0.44765415158717575
215	0x3fe777beb078b5ba	0.7333672949513848
216	0x0000000000000000	0.0
217	0x3fe375ba2f9628a5	0.6081210069107966
218	0x3fe826c536eabd38	0.7547327110859561
219	0x3fe915951d4941fc	0.7838845798488019
220	0x0000000000000000	0.0
221	0x3fea4e47080b6c57	0.8220553547975084
222	0x3fea5c5e6f5fd6cd	0.8237754988938036
223	0x3fec4b80fee7a6f8	0.8842167833911097
224	0x0000000000000000	0.0
225	0x3fdd00671501f8c4	0.4531495766785947
226	0x3fd565bce08bfea5	0.3343345825996756
227	0x3fbf63e1a0609761	0.12261781850301424
228	0x0000000000000000	0.0
229	0x3fdd738d412b3805	0.46017772068159984
230	0x3fe25e30137d66bf	0.5739975338612665
231	0x3fec9df3732fe613	0.8942811250446446
232	0x0000000000000000	0.0
233	0x3fe9a1d06d31659b	0.8010027058291372
234	0x3fd6fa748ac73a0d	0.3590365748649738
235	0x3fdb867ef1cd374c	0.43008397687377875
236	0x0000000000000000	0.0
237	0x3fe9e85bbf09a4cf	0.8096140605167877
238	0x3fddf1b4ec7a8aca	0.4678776082384216
239	0x3fb6a3f3cf077849	0.08843921474860496
240	0x0000000000000000	0.0
241	0x3fe4a5fb0107028d	0.6452612896028583
242	0x3fe6fd282380ee72	0.718402928679508
243	0x3fecb75b9337e9ff	0.8973825335845617
244	0x0000000000000000	0.0
245	0x3fe30a1b8f2f07e8	0.5949838444287225
246	0x3fead6a6fbaf358f	0.838702670642009
247	0x3fedb998647cbe24	0.9289056742326847
248	0x0000000000000000	0.0
249	0x3fdc2e76bfb07ebc	0.440335929104531
250	0x3fd12079f8c55c74	0.26760720533406546
251	0x3fedf32070d06736	0.9359285548591518
252	0x0000000000000000	0.0
253	0x3fd84c611cd42e40	0.3796618253261137
254	0x3fda51bbda1a53d8	0.4112386350546422
255	0x3fb12b2fbec8d5f9	0.06706522376847336

YTrain_Boundary f8 [1600, 1]
0	0xbfe2a8342e87cfae	-0.5830326947020603
1	0xbfb145c3b0b61bd0	-0.06747077049486383
2	0xc004006dcb27de70	-2.5002094146291753
3	0x3fe0f532e28eb928	0.5299314904166623
4	0xbff2d944b1c64cb6	-1.1780440277405382
5	0x400239acf53853a1	2.278161922246412
6	0xbfdb7338d6adde24	-0.4289075943447378
7	0xbfe2023c6caa9dfa	-0.5627729532615711
8	0xbfebb3eb8fac974c	-0.8657129102836989
9	0x3ff67d6f5924221b	1.4056237680507653
10	0x3ff0a11b4ad477ba	1.0393326685948368
11	0x3fe9659a7a57a046	0.793652762365135
12	0x3ff15c2784a1b5d4	1.0849986248898533
13	0x3febf09b9dac5ebd	0.8731210784489672
14	0x3fea00123db77adc	0.8125086980251939
15	0xbfdc277f1d8a29e5	-0.439910677764287
16	0x4006d5eff48079da	2.854461584254051
17	0x3fd71c9d1ffc0c04	0.36112144587986017
18	0x4007ced9907f106b	2.9760009087349792
19	0x3ffb4fc53e8bf6a6	1.706975216220067
20	0x3fe20a6a9ed142dc	0.5637715436842785
21	0x3fc409fbb2044736	0.15655466263029333
22	0xbffce3418866952e	-1.8054824188378222
23	0xbfc1856812bf7668	-0.13688374438690976
24	0x3fe189a48e7763b6	0.5480520994707294
25	0xbfea6d9c2ae8bf44	-0.8258801305837342
26	0xbff9e8fb7bb5fe52	-1.6193804581124778
27	0xbfe249f7bd01319e	-0.5715292636391955
28	0x3ff212d1beaceede	1.129594559503793
29	0x40081ae285b0a544	3.0131273693592977
30	0xbfadd204c8993e64	-0.05824294041360359
31	0xbff952db96e996d6	-1.582728948118008
32	0xc002d84da12c1037	-2.3556168166706146
33	0xbfd4b45feac2b536	-0.32350919652784016
34	0xbfd28bec934e2168	-0.2897902906920735
35	0xbfe195c58dafb57c	-0.5495326773940827
36	0x40026764565e3fac	2.3004843471062113
37	0x3ffdb2623c7210bd	1.8560507165102955
38	0x3feec97d98a9bde9	0.9620960218143725
39	0x3fc9d1f7fb117092	0.20172023543534984
40	0x3ff1b533cae33146	1.1067388463298626
41	0x40055fb8d074f598	2.6717392240231668
42	0x3ff392b78611f843	1.223319553100297
43	0x3ffc08fe2b7956b3	1.75219552022956
44	0x3fbcfe66ccf8b394	0.11325685981928607
45	0x3ff11fb840e77948	1.0702440772361843
46	0x3fdd13b5a71b4e54	0.4543279773617759
47	0xbfa566fef62bee20	-0.041801421690220275
48	0xbfe01a6d6b56eed9	-0.5032260033107959
49	0x3fec230a4734d9c1	0.8792773619414264
50	0xc000390364ea3738	-2.027838505170532
51	0x400123b2e8bcdaf3	2.142431085837751
52	0x3fc5692dff57f8f8	0.16727232902480416
53	0xbffc245e592dd7f0	-1.7588790401036896
54	0xc003a9f7293059de	-2.4579909532433097
55	0xbff58ab00e07de0e	-1.3463593051982374
56	0xbfe28cb73ef67fb3	-0.5796772222274654
57	0x3fd3f4d3c491424f	0.3118180675128643
58	0xbfb2950917652df0	-0.07258660145924245
59	0x4009cd6cc010ad96	3.225305080899214
60	0xbfc6553d61999d8a	-0.17447631135585723
61	0xbfff1dd71c51355c	-1.944785223592894
62	0x3fc98bdfb46850d6	0.1995811110397258
63	0x3fe8433e271e63be	0.758208347705583
64	0x3fea16f667a7b172	0.8153030418884966
65	0x3fda377296822f94	0.40963425348376714
66	0x3fc3914c70c3f8c4	0.15287166124466556
67	0x3ff12ac3100634bc	1.072939932436653
68	0x4000c850190c3349	2.0978090245102163
69	0x3fbebf81527c4980	0.12010963691526477
70	0xbfd8bf64b88c926c	-0.3866817285764117
71	0xbfe3b33889dc7636	-0.6156275456048153
72	0x3ff333e2c48a26cc	1.200167434437776
73	0xbfffc4425733b3d9	-1.9854148298575096
74	0xbff5ea4ea0c7e347	-1.3697038918018778
75	0x3fde2e470dc8801c	0.471574557743226
76	0xbff5c32e4bb82b82	-1.3601515729703526
77	0x3fefed65e9feb8c4	0.9977292604651429
78	0x4002c99c53cffc1f	2.348442702088064
79	0xbfe2cf9f8baad6c3	-0.5878446319463467
80	0xbff7d3240846c354	-1.4890480349824502
81	0x3ff4eef93048c92c	1.3083431135278927
82	0xbfdb67c8fee2aa44	-0.4282095421901071
83	0xbff03929d3d74214	-1.0139559054406435
84	0xc0021e56230d759d	-2.2648127306444636
85	0x3ff4414efd75f5ec	1.2659444714366783
86	0xbffb27527842d244	-1.6971001336761597
87	0x3fd940a4f07c2ccc	0.39457057461613654
88	0x3ff0d4ac771dbe50	1.051922288224791
89	0xbff6ebdf6ad38640	-1.4325861142064156
90	0xbffcb3692fe491c6	-1.7938014860929896
91	0x3fd99ac1e141a00b	0.40007063863458886
92	0xbfe3c3f3c48d8f1c	-0.61766994847537
93	0xc0036c5b961e9bd2	-2.427909062203505
94	0x3ffd509110f7706f	1.8321695959812379
95	0xbfd38e72c8f28000	-0.30556935905224236
96	0xbfd42a6dd8ec606c	-0.3150896662132314
97	0xbffba30bd3e60df6	-1.7273062016764675
98	0x400509e9277fef4a	2.629839237777479
99	0x3ff6b05494356d42	1.4180494107630044
100	0xbfe01af876e82534	-0.5032923052214415
101	0xbff285bcd0ace95a	-1.1576507712730604
102	0x3ff5a93ba3a10ed5	1.353816641975688
103	0x3fe1f9164a0d5b88	0.5616561361629104
104	0xbfd135783c533dcf	-0.26888852969292726
105	0x3ff6cbcfaff55f52	1.4247586129549359
106	0x3ffe550aeb0b7cef	1.895762365478557
107	0xbfd7ecc77e92f70c	-0.37382686005354127
108	0xbfe373130901f34e	-0.6077971626215033
109	0x40045f591234efe2	2.5465566084294418
110	0x3fef7575c6aeda96	0.9830883865859785
111	0x3fe06e2afbbc9ba1	0.5134482304318803
112	0xbfd1a477f1634800	-0.27566336224583665
113	0xbfbe371d4382cda0	-0.11802847765175395
114	0x3fef887e1c6c3e4f	0.9854116969235721
115	0x40076c2c5dfbf2da	2.9278189985765097
116	0xbff81442c012f7f8	-1.50494647053665
117	0xc005e9419933d161	-2.738894650358063
118	0xc00160446ce772a4	-2.1720055111057537
119	0xbfdf721de0aabdef	-0.4913401311887062
120	0xbff1fa6245527da7	-1.123628874578438
121	0xbfdc7b2e38fc6982	-0.44501834454572287
122	0x3fe509e4ce2b09ab	0.657457735702612
123	0xbff8b53e049890a8	-1.5442485980538923
124	0xbfff04b54b4dbb4f	-1.9386494580791866
125	0x3ff80c790688f97e	1.5030451064372694
126	0x3fee57107d1b42cb	0.9481279796110241
127	0xbfd345079c6731a0	-0.3010882403730424
128	0xbfdb5b113644a71c	-0.4274333028757711
129	0xbfd17169855e3241	-0.27254713081564225
130	0xbfea32466ad85c1f	-0.8186370932406851
131	0x3fd695b2ae953ffa	0.35288683938142607
132	0x3fb6e60992c1e188	0.08944759209578568
133	0xbff7821cdec4eb15	-1.4692658140108439
134	0x40024b9a3cfaf035	2.286915279777555
135	0x3ff271c6b805b49d	1.1527774036760896
136	0x40015ff6dbd98cfe	2.1718575645223828
137	0x3fc6bf755ba5437c	0.17771784758454234
138	0xc00202a48c998829	-2.2512904152254305
139	0x3fca223b0268fb2c	0.20416963212661565
140	0xbfd3c1a51d8fc9b4	-0.30869415175325376
141	0xbfd0389a91d25988	-0.2534548210182028
142	0x3fb7827ef64712c4	0.09183496010434583
143	0x3fc382daacc379b0	0.15243085323068106
144	0xbff0d6f7c9df4ce4	-1.0524824033389502
145	0xbff179c46701d1a4	-1.092228319522385
146	0xbff3d3a71ec20443	-1.2391730500678626
147	0xc003984fc0386eae	-2.449370862695864
148	0xbfafddf8970977b0	-0.06224037975037733
149	0xbff684ec2814bfee	-1.407451778952232
150	0xbfeef2ca5dbebd3e	-0.9671375113447664
151	0x3ffdd912ad932636	1.8654963283792205
152	0xbfde39130f48259c	-0.4722335480915605
153	0x3fe3e5ea250bf52f	0.6218157504623941
154	0x3ff1688aeab6b3d6	1.088023106432265
155	0xc0000052db0e1852	-2.00015803467526
156	0x3ff580fe4b43da5e	1.3439925136605306
157	0x3fe9dabf6c0e0e19	0.807952605290157
158	0xbfda3112fbed4c45	-0.4092452488159249
159	0x3fe905de9a0c092f	0.7819664963465466
160	0xbff2c81fee4a77d5	-1.173858576606553
161	0xbfc5d072a0d07278	-0.1704238209939779
162	0x3ff09d3c8fa2f5ae	1.0383878336718726
163	0x3fbafceb94df45a8	0.10542175659727226
164	0xbf8071d7eb097860	-0.008029639110812947
165	0x3fe1dea1cf365abe	0.5584267661204974
166	0xbfec2f3c31f1e081	-0.8807660079464911
167	0xbfc66b335df0bd6c	-0.1751465042775452
168	0x3ffe8e0cbd34344e	1.909680117681336
169	0xbfecaa100554c018	-0.8957595924493971
170	0xbffb5365555a5b5f	-1.7078603109454986
171	0xbfe218484048026d	-0.5654641395086181
172	0xbff24b842e33b018	-1.1434366040002768
173	0xc00258eeb40b47c5	-2.293424040407418
174	0xc000897a37bf5041	-2.0671276431330914
175	0x3fe07d47e21b4dcd	0.5152930656571982
176	0x3fe1bb9e0297fb28	0.5541524935395943
177	0x3fda323f92e5112a	0.40931691498942036
178	0xc009860f85451713	-3.190459290667499
179	0x3fd8c3c19b7fadac	0.386948015074007
180	0x3ffff27a1a81de6c	1.9966984782639896
181	0x3ff11e778894c248	1.06993821479786
182	0x4006fe77c632dad7	2.8742518886823336
183	0x3fdb3d9c8eb503bc	0.42563547073592267
184	0xbff9a7e813efa464	-1.6034928110841742
185	0x4002902af240de2a	2.320394413570985
186	0xbffdd2024a9d6046	-1.863771716560238
187	0x4005882bcfa70208	2.691489813121965
188	0xbff3b189ed20a542	-1.2308444273752035
189	0xbfebe7c09b03ec92	-0.8720400836604247
190	0x4001a785d5dd1662	2.2067982395263224
191	0x3fe4cc4fa6c33716	0.6499403245049702
192	0xbffd7c0c2f54be7e	-1.84278505791363
193	0xbfe67399561e85f4	-0.7016112024322738
194	0xbfe11930ca15611c	-0.534325022405969
195	0x3fe2614205cd6aaf	0.5743723023727706
196	0xbff1826783b90050	-1.094337000409741
197	0x400001c8d15653a5	2.000871310660346
198	0x3ff9cf61e8baedae	1.6131304827712074
199	0x40068cd1044821ec	2.8187580427659125
200	0xbfe2a8342e87cfff	-0.5830326947020693
201	0xbfb145c3b0b61b60	-0.06747077049486228
202	0xc004006dcb27de63	-2.5002094146291696
203	0x3fe0f532e28eb93c	0.5299314904166645
204	0xbff2d944b1c64cd9	-1.178044027740546
205	0x400239acf5385390	2.2781619222464045
206	0xbfdb7338d6addee8	-0.4289075943447487
207	0xbfe2023c6caa9e53	-0.5627729532615809
208	0xbfebb3eb8fac97a1	-0.8657129102837083
209	0x3ff67d6f59242210	1.4056237680507628
210	0x3ff0a11b4ad4778f	1.0393326685948272
211	0x3fe9659a7a57a0a8	0.7936527623651459
212	0x3ff15c2784a1b5d8	1.0849986248898542
213	0x3febf09b9dac5e8d	0.8731210784489619
214	0x3fea00123db77a7b	0.8125086980251831
215	0xbfdc277f1d8a2a9b	-0.4399106777642971
216	0x4006d5eff48079d2	2.8544615842540475
217	0x3fd71c9d1ffc0c98	0.3611214458798684
218	0x4007ced9907f1078	2.976000908734985
219	0x3ffb4fc53e8bf675	1.7069752162200562
220	0x3fe20a6a9ed14306	0.5637715436842832
221	0x3fc409fbb20445ce	0.15655466263028334
222	0xbffce3418866955d	-1.8054824188378327
223	0xbfc1856812bf7698	-0.1368837443869111
224	0x3fe189a48e776395	0.5480520994707258
225	0xbfea6d9c2ae8bf88	-0.8258801305837418
226	0xbff9e8fb7bb5fe4d	-1.6193804581124767
227	0xbfe249f7bd01315f	-0.5715292636391885
228	0x3ff212d1beaceec5	1.1295945595037875
229	0x40081ae285b0a52c	3.013127369359287
230	0xbfadd204c8994448	-0.05824294041361405
231	0xbff952db96e996a8	-1.5827289481179978
232	0xc002d84da12c102b	-2.3556168166706093
233	0xbfd4b45feac2b5c6	-0.32350919652784815
234	0xbfd28bec934e2158	-0.2897902906920726
235	0xbfe195c58dafb5c2	-0.5495326773940905
236	0x40026764565e3f94	2.3004843471062006
237	0x3ffdb2623c7210ee	1.8560507165103064
238	0x3feec97d98a9be4a	0.9620960218143833
239	0x3fc9d1f7fb11720d	0.20172023543536036
240	0x3ff1b533cae33176	1.1067388463298733
241	0x40055fb8d074f5a9	2.6717392240231743
242	0x3ff392b78611f856	1.2233195531003012
243	0x3ffc08fe2b7956d9	1.7521955202295685
244	0x3fbcfe66ccf8b680	0.11325685981929645
245	0x3ff11fb840e77954	1.070244077236187
246	0x3fdd13b5a71b4ec8	0.4543279773617823
247	0xbfa566fef62bf370	-0.04180142169022971
248	0xbfe01a6d6b56ef36	-0.5032260033108062
249	0x3fec230a4734d9e5	0.8792773619414304
250	0xc000390364ea374f	-2.0278385051705423
251	0x400123b2e8bcdaef	2.142431085837749
252	0x3fc5692dff57f7c4	0.1672723290247956
253	0xbffc245e592dd7c4	-1.7588790401036798
254	0xc003a9f7293059ef	-2.4579909532433173
255	0xbff58ab00e07ddf8	-1.3463593051982325
