Darcy_Flow6D/dataset/Dim6/Beta6_5/DarcyFlow_HoumanC1000_B204_Trace.npz (npz, 356986 bytes, 6 tensors)

beta f8 []
0	0x4018000000000000	6.0

XTrain_Col f8 [1000, 6]
0	0x3fb1d5012a6b411e	0.06965644155139158
1	0x3fe0f0569516600b	0.5293381606925335
2	0x3fec36ce2555a900	0.88169009487072
3	0x3feb7cc83452b43d	0.8589821836409396
4	0x3fd3f6d94b169c06	0.3119414552006109
5	0x3fc613ce4b598550	0.1724794261854563
6	0x3fccbcf9e39582d5	0.2245170937776694
7	0x3fd8f6419813aa20	0.39003028727771216
8	0x3fe56a6079309fbe	0.6692354552260367
9	0x3fe237277047e08c	0.5692326729759016
10	0x3fe1efe64ae36b31	0.5605346167243167
11	0x3fdd9c4453ecedd5	0.4626627750000954
12	0x3fe46b6c9791c0dc	0.6381133041704987
13	0x3fe492499b10f725	0.6428573635709866
14	0x3fb8250c4854d41c	0.09431530729200727
15	0x3fa79f5e289e3e03	0.0461377548773463
16	0x3fe862b429acf713	0.7620487989404147
17	0x3fa00d486a2b73df	0.03135134025590224
18	0x3fec860f68760761	0.8913647690062413
19	0x3feb7693cba48e91	0.8582247712515302
20	0x3f93babf5f34a8a2	0.01926707285489527
21	0x3fe73409f3709c14	0.7251024012265384
22	0x3fd7a0db5f395ab9	0.36919292735312187
23	0x3feb6437e3d12a2e	0.855983681636024
24	0x3fe88a626aa22399	0.7668926317866066
25	0x3fddf6ebb37c4638	0.46819584396243696
26	0x3fc42646d66dafc4	0.15741811247005277
27	0x3fefce0631b44a83	0.9938994379793517
28	0x3fd570771ed3b96e	0.33498933802083897
29	0x3fe6b2b377fe8211	0.7093140929828811
30	0x3fddca3bc00a04a2	0.46546834710904694
31	0x3fe461ea6fb80ca5	0.6369526083002667
32	0x3fe375d47ff56f8a	0.6081335543817528
33	0x3fd2ade27073a977	0.2918630693590311
34	0x3fdce84a3456e98b	0.4516778479698124
35	0x3fe4f2842efb728a	0.6546040456410804
36	0x3fede2a2e6c774d0	0.9339155681042488
37	0x3fd2983568e62df6	0.2905400776296284
38	0x3f6d8e4b90e5b677	0.0036078906916177616
39	0x3fefebc6d939fe56	0.9975313418107798
40	0x3fe557012db72ddd	0.6668706791764937
41	0x3fbf7acd15adece9	0.12296754626543173
42	0x3fc7cead0f62ca17	0.1859947514654585
43	0x3fe1aba85b3b7ead	0.5522043020136685
44	0x3fefda2cfa0b1df8	0.9953827747021355
45	0x3fdfc8d6241b7ab5	0.4966330864535096
46	0x3fd8b8379919db3c	0.3862437243582695
47	0x3fdc45914d8fa3ae	0.44174606870961497
48	0x3fea6b636f68c190	0.8256089378319746
49	0x3fc44fa1861597b2	0.1586801438053818
50	0x3fafa4c29e4a619d	0.06180389578111376
51	0x3fc45a8bd9decfc2	0.15901325357628876
52	0x3fe2ab6676d74503	0.5834228821860566
53	0x3f6cbac29b57aa26	0.0035070229448497412
54	0x3feb4358d84d6891	0.8519710755019948
55	0x3fe859d8acc706ad	0.7609675764617428
56	0x3fe14d8ca5a9f52d	0.5407164798377032
57	0x3fd36499aa6e2a77	0.30301515239322135
58	0x3fe80eb928290a74	0.7517972740536849
59	0x3fdf9c3c806b53fd	0.4939109090894929
60	0x3fe0286163e7f3f2	0.504929251793895
61	0x3fc933fe01fdebe6	0.19689917657146266
62	0x3fe9d52c6c36f261	0.8072721589629276
63	0x3fdcdcbcfb6392a7	0.4509727911920813
64	0x3fedd8ed3071832d	0.9327302881393728
65	0x3fc5ac0b608c6682	0.16931287969855552
66	0x3fecc766dc5cf9d0	0.8993410400360577
67	0x3fc79cadf716482a	0.18446898045346077
68	0x3fea6f433b7c56ca	0.8260818635778489
69	0x3fb7e094fd387813	0.0932705991949379
70	0x3fb9927d8a490414	0.09989151598075835
71	0x3fe0938658656330	0.5180083967671631
72	0x3fd76ffab3616a39	0.3662096740496597
73	0x3fe42ec8e41027e4	0.6307110266072837
74	0x3fca8c7da88891a8	0.20741244057820762
75	0x3fdbbfb9c0bb90aa	0.43357700177717595
76	0x3fd5cceec526bf1b	0.34063309910833234
77	0x3feadde753d77d38	0.8395878446134821
78	0x3fd9eab02a58d9d4	0.40494922767120767
79	0x3fb427cc843f3466	0.07873228291210096
80	0x3fcbd216680ef72c	0.2173488624666161
81	0x3fe8564a09c62480	0.7605333510301904
82	0x3fc74b989012f4bb	0.18199450526109281
83	0x3fc837baf2cae346	0.1892007527838137
84	0x3fe9daff858c5cb0	0.807983170353415
85	0x3fd3d8799780b77d	0.31008758349604887
86	0x3fef2e854910c38b	0.9744287898121099
87	0x3fd5393977d188e6	0.3316177053549282
88	0x3feae3cd6057c5b0	0.8403078920074929
89	0x3fe392dde60e8e79	0.6116780751512599
90	0x3fd7407ccf42f072	0.3633110069311051
91	0x3fec4bbb75226907	0.8842446601659341
92	0x3fe235bdb4fb6b93	0.5690601858908501
93	0x3fd7643b23b122e3	0.3654926155618751
94	0x3f9a3221e24de898	0.02558186477424637
95	0x3fe37fc811dafc5e	0.6093483303774396
96	0x3fe47be9ffb3e597	0.6401262277787961
97	0x3feae63529cca9ae	0.8406015221019538
98	0x3fd221dc7d98ef7f	0.2833167292153504
99	0x3fe01d8d963da3f5	0.5036075529470724
100	0x3fa1420b0198014c	0.03370699305014799
101	0x3fe06f1d3db5176c	0.513563747904056
102	0x3fd975def64fa9b2	0.39781927160097574
103	0x3feffb1f25372e7c	0.9994044997087737
104	0x3fedd32b3984e1ad	0.9320274470729167
105	0x3fed99d0a162f88a	0.925026240547383
106	0x3fe63cd22fd4a483	0.6949244436447234
107	0x3fca72479a78049c	0.20661253969595783
108	0x3fd43ee6bb4afa67	0.3163391903907837
109	0x3fe23f5e32d02577	0.5702353470270926
110	0x3fdbc97bcd158bb8	0.43417258289099037
111	0x3fb4aa12f8cdf552	0.08072012495354855
112	0x3fe5474987e1db54	0.6649520544004681
113	0x3fd89bfce2c911da	0.3845207419110729
114	0x3fedaa575655bf39	0.9270435987691378
115	0x3fd7efecf0298dc9	0.3740188927970079
116	0x3f9135d331ebb435	0.01680688850585828
117	0x3fd60db658330dbb	0.3445869313547651
118	0x3fc24c779f3738ea	0.14295859598355004
119	0x3fcf89de9721f4a4	0.24639494304202458
120	0x3fec297596bd3230	0.8800609535333646
121	0x3fe4b0831d9ec49b	0.6465468958396231
122	0x3fe25145b4ba1643	0.5724209337065037
123	0x3fe1d17c3b94700a	0.5568219340962071
124	0x3fe279609228617d	0.5773165564196884
125	0x3fef18dfa108ba7f	0.9717863221356565
126	0x3fe0e97341a09ea6	0.5284973413262903
127	0x3feacf7e6db72fdc	0.8378288405306153
128	0x3fb0d24749c3f064	0.06570859480774655
129	0x3feec990fde7d373	0.96210527029926
130	0x3fe95ef38b16ae4f	0.7928407398771443
131	0x3fdb980675e44183	0.431153884056606
132	0x3fe972ab0ea84376	0.7952475820803631
133	0x3fe0d80c0ae9f1f7	0.5263729298745251
134	0x3fc1a5c5b1127ae7	0.13787146707632944
135	0x3fdf7e8f73f43427	0.49209963153481556
136	0x3fdc4c013cb697a5	0.4421389668372007
137	0x3fe80a843d8b6c98	0.7512837602656814
138	0x3f8da589a68d857f	0.014475894351280825
139	0x3fe0c27ea86df9ce	0.5237420358314979
140	0x3fe9bc892d921b67	0.8042646303227742
141	0x3fcd05eb190d47fd	0.22674311373935999
142	0x3fd0c4818ab1eae8	0.26199377579147987
143	0x3fe65c34b4f69ded	0.6987556013527275
144	0x3fda88a26617863f	0.41458950014029833
145	0x3fd221cbd5dfc457	0.28331275831357544
146	0x3fe61f9f2d58de1f	0.6913600812612833
147	0x3fdd7998cf7f8105	0.46054668677790317
148	0x3fe4f9e71f1a1854	0.6555057151279109
149	0x3fd7e7580b053505	0.3734951121922026
150	0x3fe4c7c44f170219	0.6493855995868812
151	0x3fba277a41d9c7c9	0.10216487987216206
152	0x3f9b1bddfe3535f8	0.026473492279640326
153	0x3fe1f2a28a1d4987	0.560868520502752
154	0x3fc1614682bb2a7c	0.1357811106048138
155	0x3fc237ec0aaba41c	0.1423316051580351
156	0x3fd5481e4736a3b4	0.33252675013005306
157	0x3fe1226b7a999812	0.5354516405611796
158	0x3fe1cfe2bf5fb45c	0.5566266763468195
159	0x3fc819a06adad7c8	0.1882820626976225
160	0x3fa9a6f4f77f613a	0.05010190507136021
161	0x3fdcba83b5701b67	0.44888394087359135
162	0x3febe14505239c8d	0.8712487316487497
163	0x3f701685839c6e2c	0.003927728213763564
164	0x3fe3569ad641a3c2	0.6043218788810167
165	0x3fdf772a73edbe63	0.4916483051410749
166	0x3fbb0d4ba7e38f73	0.10567162369585308
167	0x3fbfa322a4021ed2	0.12358299736126391
168	0x3f730f1ea7759558	0.004653091185308732
169	0x3fe27085a246e06a	0.5762355966062505
170	0x3fc7ba206ac82408	0.18536763395266598
171	0x3fe2df0dc55d89aa	0.5897282461922277
172	0x3fa1a04c2aa8bb86	0.034426098067675645
173	0x3fdca9a135c031dd	0.44785337685678234
174	0x3fe373bba01b17ce	0.6078775527064353
175	0x3fb280757fbdb6e4	0.07227262848547472
176	0x3fcce6e872a039bb	0.22579675290076104
177	0x3fbf24280cb82504	0.12164545355348727
178	0x3fdef54e633ef254	0.4837223023603532
179	0x3febab15ee70719d	0.8646344811455041
180	0x3fde813d50ce9339	0.47663815394689696
181	0x3fd14c914daa4150	0.2702983149001925
182	0x3fd361fef6e097f5	0.30285619839776184
183	0x3fee254c28955374	0.942052916778819
184	0x3fc0c070ace0b59c	0.13087280694291514
185	0x3fdac69a0150970e	0.41837167862318914
186	0x3fed80dd0d92f98b	0.9219804062957321
187	0x3fbf0041ebf33068	0.12109767923829085
188	0x3fde2cb0d3df03e2	0.47147770586530957
189	0x3fe0ddb7cab75843	0.5270651778507801
190	0x3fd9cd7317b8ee36	0.4031646472610392
191	0x3fe74f32bd154946	0.728417748740221
192	0x3fea7a02e104bb82	0.8273939509289081
193	0x3fee2f39ff563a77	0.9432649600074247
194	0x3fc2cfef09531fe0	0.14697063403423183
195	0x3f9417f5e48369ca	0.019622652122828467
196	0x3fd96f108a8034ea	0.39740384602994416
197	0x3fda177a9ded63f0	0.4076830427416658
198	0x3fd85c3e33a59dd3	0.3806300644268649
199	0x3fd5e3ba6d043dbb	0.3420244278540527
200	0x3fc6b7715a461f67	0.17747322948366248
201	0x3fe6e91ac5a7b5de	0.7159551487399616
202	0x3fea944ec8abea4d	0.8306039733282177
203	0x3fe7a1366a4307e9	0.7384292674471428
204	0x3fec6418359a40ec	0.8872185751843324
205	0x3fbb2bfc81cc64df	0.10613992852121922
206	0x3fefa5af8bd42037	0.9889753085162799
207	0x3fcd40f41e08e5c3	0.22854472605267348
208	0x3fdd6c0982218650	0.4597190638361086
209	0x3fed55ad854e7528	0.9167087176935285
210	0x3f8f35864fa3a4b1	0.015238808923145749
211	0x3feb5101848ccf78	0.8536384190433486
212	0x3fdc09321ef0ed20	0.438061266151367
213	0x3fea64a4c7f42f82	0.8247856049870139
214	0x3febd40a2be512e1	0.8696337563820543
215	0x3fce9d9e08d0adea	0.23918509893824985
216	0x3fbb8d6eab849c79	0.10762683570338706
217	0x3fd1c9892d4d3c53	0.2779257719420844
218	0x3fd80ef808c46e7a	0.3759136281603116
219	0x3fee0fe72d2e69cf	0.939441288227778
220	0x3fdf908d551a5f14	0.49319775877801075
221	0x3fe71aa4f9111b4d	0.7220024933420547
222	0x3fd41318028d8242	0.3136653923920997
223	0x3fd3074e5e6e39e4	0.2973209306882423
224	0x3fd0095601dfe373	0.25056982214987683
225	0x3fea47f494f3c5fb	0.8212836178992683
226	0x3fe57c18eaccca3b	0.6713986001908049
227	0x3feef32621c3412a	0.9671812686374655
228	0x3fe3a7f6037fecef	0.6142530506471341
229	0x3fdf943a1a1e0242	0.4934220557261463
230	0x3f9ef387cde85793	0.030225870077707006
231	0x3fd930850b9c60a0	0.39358640798446665
232	0x3fe799142e173e49	0.7374363804064582
233	0x3fe41149509174b7	0.6271101544949919
234	0x3fd9a6fa77b9f673	0.4008165520861901
235	0x3fc1bab5f9885c3d	0.13851046261035718
236	0x3fef56c26e55834c	0.9793407587968459
237	0x3fe4722534b9d335	0.6389337568094563
238	0x3fc872b4a8718b48	0.19100054001600086
239	0x3fe13bb3b695633d	0.5385378423771737
240	0x3fd083bdb1e9096a	0.25804083227207875
241	0x3fbd2a19ea0e0a1f	0.11392366375188388
242	0x3fcabc6b8f4648d0	0.20887512679889264
243	0x3fac88f967c12b02	0.05573253051314532
244	0x3fef42e5fe776289	0.9769163103147359
245	0x3fb76a56d36a424d	0.09146635686398348
246	0x3fb4854122803c07	0.08015830128009337
247	0x3fb7ff6f011e747d	0.0937413575870369
248	0x3feb63594661fefd	0.8558775305427556
249	0x3fe1481abc0a62d5	0.5400518105189699
250	0x3fdb373f786ae848	0.425247066111869
251	0x3fd58a07b2c4f560	0.3365496869845028
252	0x3fe780f87c74de02	0.7344934874335538
253	0x3fef8feaa120ed45	0.9863179347079628
254	0x3fed1e817197d40c	0.9099738329520064
255	0x3fe4e136145cf71e	0.6524916074483575

FTrain_PDE f8 [1000, 6, 6]
0	0x3fe7781b7a9f7013	0.7334115405060423
1	0xbfc7107bfc88bca7	-0.18019056158798216
2	0xbfd4e084d7dc3dd5	-0.32620354728802897
3	0xbfd45d4e3bbbf4c9	-0.31819492181223247
4	0xbfb262df6a53d58a	-0.07182117792020484
5	0x3f6206ab04758220	0.0022004451927133545
6	0xbfc7107bfc88bca6	-0.18019056158798213
7	0xbff52f9aa49dbe14	-1.324122088462791
8	0xc007be2588d8e1c1	-2.967845028990468
9	0xc00747263fd4b4c8	-2.909740923575189
10	0xbff1f4bef377121a	-1.1222524175983666
11	0xbfe2ba0d4e47a87f	-0.5852114228157602
12	0xbfd4e084d7dc3dd5	-0.32620354728802897
13	0xc007be2588d8e1c1	-2.967845028990468
14	0xc010a04af42dba13	-4.156535926142641
15	0xc011fe2b78b19201	-4.498212705457719
16	0xbffc41fa1119c1bb	-1.7661076229088468
17	0xbfee3f95b9555421	-0.9452618236342724
18	0xbfd45d4e3bbbf4c9	-0.31819492181223247
19	0xc00747263fd4b4c8	-2.909740923575189
20	0xc011fe2b78b19201	-4.498212705457719
21	0xc00fc032b001aa7c	-3.9688466787823113
22	0xbffbb153fd204738	-1.7307929885614168
23	0xbfed9dce876ab5e7	-0.9255135197506065
24	0xbfb262df6a53d58a	-0.07182117792020484
25	0xbff1f4bef377121a	-1.1222524175983666
26	0xbffc41fa1119c1bb	-1.7661076229088468
27	0xbffbb153fd204738	-1.7307929885614168
28	0xbf027cb4a6212800	-3.526140496086516e-05
29	0xbfd459e047c371fa	-0.3179856015028971
30	0x3f6206ab04758220	0.0022004451927133545
31	0xbfe2ba0d4e47a87f	-0.5852114228157602
32	0xbfee3f95b9555421	-0.9452618236342724
33	0xbfed9dce876ab5e7	-0.9255135197506065
34	0xbfd459e047c371fa	-0.3179856015028971
35	0x3fe102410ad071fc	0.5315251551833735
36	0x400fb58ca9690b13	3.963647197263876
37	0x3fdb568fc76c23f8	0.42715830302091673
38	0xbfdb62ca64b81070	-0.42790469966735767
39	0xbfc1ad3968d27800	-0.1380988847567437
40	0xbfbca843fa8c0470	-0.11194252840870589
41	0x3fc88be4d9036b78	0.1917692241321125
42	0x3fdb568fc76c23f8	0.42715830302091673
43	0x400255c97ca7f39e	2.291888212085225
44	0xbfffdc177a79c446	-1.9912333282666324
45	0xbff7f0dc42f53c16	-1.4963038077874038
46	0xbff739e4a29d2808	-1.4516340591530952
47	0xbfeddac694e0502c	-0.9329560191858994
48	0xbfdb62ca64b81070	-0.42790469966735767
49	0xbfffdc177a79c446	-1.9912333282666324
50	0xbfffaedcdf082ed7	-1.9801911079584238
51	0xc00c87e4a1f1d3f8	-3.5663540508198786
52	0xc00bf29f4cca2c21	-3.493467903060733
53	0xc0052d613f932041	-2.6471581427358903
54	0xbfc1ad3968d27800	-0.1380988847567437
55	0xbff7f0dc42f53c16	-1.4963038077874038
56	0xc00c87e4a1f1d3f8	-3.5663540508198786
57	0xbfd2d02499302760	-0.2939540382363841
58	0xc00669548d7b3cc5	-2.8014308026537003
59	0xc000878183a20170	-2.066164997464675
60	0xbfbca843fa8c0470	-0.11194252840870589
61	0xbff739e4a29d2807	-1.451634059153095
62	0xc00bf29f4cca2c22	-3.4934679030607336
63	0xc00669548d7b3cc5	-2.8014308026537003
64	0xbfc3b4fac2167bb8	-0.15396055676407427
65	0xc0001c1d36cd2ef0	-2.013727596413325
66	0x3fc88be4d9036b70	0.19176922413211228
67	0xbfeddac694e0502c	-0.9329560191858994
68	0xc0052d613f932041	-2.6471581427358903
69	0xc000878183a20170	-2.066164997464675
70	0xc0001c1d36cd2ef0	-2.013727596413325
71	0x3ff538acb130af41	1.3263365670672587
72	0x401052da698e7375	4.080911301917571
73	0x3ff0af467332a30e	1.042791795722397
74	0x400e7f7e2689b257	3.8122523318072967
75	0x40104d7055d1025f	4.075623837358392
76	0x3fe16c68ce5ddd14	0.5444835692023013
77	0x4010a05c69807cf4	4.1566025242493545
78	0x3ff0af467332a30e	1.042791795722397
79	0x40101d1da6e496bc	4.028433425619081
80	0x400e78be1f1f667d	3.808956378122103
81	0x40104bc931ae6f50	4.074009681960732
82	0x3fe0a677c7b8bd40	0.5203207875073659
83	0x40109f3cd3771b16	4.15550547041382
84	0x400e7f7e2689b257	3.8122523318072967
85	0x400e78be1f1f667d	3.808956378122103
86	0x401ff23f8204d8ea	7.986570388360841
87	0x4011275c7fe08603	4.288438795164896
88	0x400dd7661a872a4c	3.730175215959468
89	0x4011347899a57035	4.301241303179315
90	0x40104d7055d1025f	4.075623837358392
91	0x40104bc931ae6f50	4.074009681960732
92	0x4011275c7fe08603	4.288438795164896
93	0x40201f627e4cef66	8.061298319713114
94	0x401024471c3ad181	4.035427514162053
95	0x401142a9b8a5f6bd	4.315100560311916
96	0x3fe16c68ce5ddd14	0.5444835692023013
97	0x3fe0a677c7b8bd40	0.5203207875073659
98	0x400dd7661a872a4c	3.730175215959468
99	0x401024471c3ad181	4.035427514162053
100	0x4005484404b473f6	2.6602859847612264
101	0x40108462d5044bf8	4.1292832645294695
102	0x4010a05c69807cf4	4.1566025242493545
103	0x40109f3cd3771b16	4.15550547041382
104	0x4011347899a57035	4.301241303179315
105	0x401142a9b8a5f6bd	4.315100560311916
106	0x40108462d5044bf8	4.1292832645294695
107	0x402025e0d632eb75	8.07398099299983
108	0x3fd2e0291c0bf010	0.2949316762822045
109	0x4003038e8597c95c	2.376736682600649
110	0x401398c0509c74d1	4.899171123074852
111	0x4005925d42c659b6	2.6964669434339283
112	0x400dd8758ab7a458	3.730692943314846
113	0x40030dd5956d0a6b	2.3817550348188
114	0x4003038e8597c95c	2.376736682600649
115	0x3fd6d8e4ac3c3800	0.3569881135925925
116	0x40139a982657b51c	4.900971030333746
117	0x4006114250e6d80c	2.758427269024656
118	0x400e1d811bf23255	3.764406412438158
119	0x40039e551f471e72	2.4523107951716208
120	0x401398c0509c74d1	4.899171123074852
121	0x40139a982657b51c	4.900971030333746
122	0x3ffc43e2a7a17088	1.7665735767432427
123	0x4013a2b3e29d2773	4.908889332620549
124	0x4013bcee3b27e66d	4.934502529440221
125	0x40139ab8baca4fca	4.9010953126889465
126	0x4005925d42c659b6	2.6964669434339283
127	0x4006114250e6d80c	2.758427269024656
128	0x4013a2b3e29d2773	4.908889332620549
129	0x3fe469e84c708040	0.6379281514127868
130	0x400f4d40f0c83188	3.9127215205282404
131	0x40061a0562fdc1c7	2.7627055867853616
132	0x400dd8758ab7a458	3.730692943314846
133	0x400e1d811bf23255	3.764406412438158
134	0x4013bcee3b27e66d	4.934502529440221
135	0x400f4d40f0c83188	3.9127215205282404
136	0x3ff691407097542e	1.4104618452158877
137	0x400e2245984b5083	3.766734304235855
138	0x40030dd5956d0a6b	2.3817550348188
139	0x40039e551f471e72	2.4523107951716208
140	0x40139ab8baca4fca	4.9010953126889465
141	0x40061a0562fdc1c7	2.7627055867853616
142	0x400e2245984b5083	3.766734304235855
143	0x3fd71fefbd7e38c0	0.36132424836331367
144	0xc0105461633defb8	-4.082402754454897
145	0xc0022d352006a52e	-2.27207398433952
146	0xbfe6eb49b40ef0ac	-0.7162216679348794
147	0xc011438253860e79	-4.315926842744028
148	0xbff9ff49d77753ad	-1.6248262802739462
149	0xc00aa178590878ce	-3.328842826434175
150	0xc0022d352006a52e	-2.27207398433952
151	0xc000bf97aae571df	-2.093551001669979
152	0xbfdb4e1df6a54adb	-0.42664288603297756
153	0xc00624418e3976f0	-2.7677031623160175
154	0xbff047e47b037d82	-1.0175518803806374
155	0xc001018bf98127d1	-2.1257552616634503
156	0xbfe6eb49b40ef0ac	-0.7162216679348794
157	0xbfdb4e1df6a54adb	-0.42664288603297756
158	0xbfe99a998dd6e178	-0.8001220484066343
159	0xbfec6dc16d6c541a	-0.8883978974505482
160	0xbfd1f24e7f3f79a4	-0.2804142229705582
161	0xbfe54ae46b7958d3	-0.6653921221830167
162	0xc011438253860e79	-4.315926842744028
163	0xc00624418e3976f0	-2.7677031623160175
164	0xbfec6dc16d6c541a	-0.8883978974505482
165	0xc0168c1ede5e42fb	-5.6368365044625035
166	0xbfffc63b32d2cfab	-1.9858962998668896
167	0xc0102d3a74c1ffe8	-4.04416830476837
168	0xbff9ff49d77753ad	-1.6248262802739462
169	0xbff047e47b037d82	-1.0175518803806374
170	0xbfd1f24e7f3f79a4	-0.2804142229705582
171	0xbfffc63b32d2cfab	-1.9858962998668896
172	0xbff677688fabe944	-1.404152451722056
173	0xbff84aad7e1abafe	-1.518231861682295
174	0xc00aa178590878ce	-3.328842826434175
175	0xc001018bf98127d1	-2.1257552616634503
176	0xbfe54ae46b7958d3	-0.6653921221830167
177	0xc0102d3a74c1ffe8	-4.04416830476837
178	0xbff84aad7e1abafe	-1.518231861682295
179	0xc00d65bce322c459	-3.6746766800866166
180	0xbfee1cf401272930	-0.9410343191641797
181	0xc00930b8b118c112	-3.1487897716216446
182	0xc00819f5ed72f1fd	-3.012676100797988
183	0xbff5d258b7fe9adb	-1.3638541400229574
184	0xc001d43014eb219d	-2.2286073335892085
185	0xc009d8920eb85ab8	-3.2307473325739373
186	0xc00930b8b118c112	-3.1487897716216446
187	0xc008660ec03bdd9f	-3.0498328226346554
188	0xc0105eb21ee1b45a	-4.092476351285848
189	0xbffe85caac0d40d3	-1.9076639862797051
190	0xc0086d9f5cf49380	-3.0535266172541355
191	0xc01186976e35921a	-4.381437036533066
192	0xc00819f5ed72f1fd	-3.012676100797988
193	0xc0105eb21ee1b45a	-4.092476351285848
194	0xc0055d7c24e7ee85	-2.6706469424514716
195	0xbffd20622b54cf0e	-1.8204061215046212
196	0xc0075e8aa6eba54d	-2.9211628952659
197	0xc010c9864848668c	-4.196801309031468
198	0xbff5d258b7fe9adb	-1.3638541400229574
199	0xbffe85caac0d40d3	-1.9076639862797051
200	0xbffd20622b54cf0e	-1.8204061215046212
201	0x3fe631c80a19435a	0.6935768315544053
202	0xbff51591ff8de5eb	-1.3177661879147944
203	0xbfff5cff151980e8	-1.9602042030529052
204	0xc001d43014eb219d	-2.2286073335892085
205	0xc0086d9f5cf49380	-3.0535266172541355
206	0xc0075e8aa6eba54d	-2.9211628952659
207	0xbff51591ff8de5eb	-1.3177661879147944
208	0xbfe94735cda03f17	-0.7899426475650867
209	0xc00910d8ead88dab	-3.1332262370430803
210	0xc009d8920eb85ab8	-3.2307473325739373
211	0xc01186976e35921a	-4.381437036533066
212	0xc010c9864848668c	-4.196801309031468
213	0xbfff5cff151980e8	-1.9602042030529052
214	0xc00910d8ead88dab	-3.1332262370430803
215	0xc00a4940692adc91	-3.285767385120899
216	0xc0123880a4a818d2	-4.555178234824966
217	0xbff733df6129c491	-1.4501642032085196
218	0x3fb0c1e8806d14ef	0.06545880446818207
219	0xc011aacce7192e41	-4.416797266876132
220	0xc009d5d09de41910	-3.2294018111453013
221	0xbfe2515c9b9850b2	-0.5724318541492919
222	0xbff733df6129c491	-1.4501642032085196
223	0xbfefead2cea1f424	-0.9974149738114915
224	0x3fb3f1645ee4de5f	0.07790210072277536
225	0xbff84ecf9d813bab	-1.5192409660846617
226	0xbff189cb9b47dcb9	-1.0961414399769593
227	0xbfc31f5de88306d4	-0.149394739657558
228	0x3fb0c1e8806d14ef	0.06545880446818207
229	0x3fb3f1645ee4de5f	0.07790210072277536
230	0xbfde558131297b0f	-0.47396879006366616
231	0x3fb088e4c77e734a	0.0645888316198128
232	0x3fb1e61c7fb15742	0.06991747014521102
233	0x3fb4f3895e46a54f	0.08184107352885416
234	0xc011aacce7192e41	-4.416797266876132
235	0xbff84ecf9d813bab	-1.5192409660846617
236	0x3fb088e4c77e734a	0.0645888316198128
237	0xc013b087eb8d9acf	-4.9223934941462195
238	0xc00b074486fa43bf	-3.3785486741184907
239	0xbfe343a74d640636	-0.6020084868943687
240	0xc009d5d09de41910	-3.2294018111453013
241	0xbff189cb9b47dcb9	-1.0961414399769593
242	0x3fb1e61c7fb15742	0.06991747014521102
243	0xc00b074486fa43bf	-3.3785486741184907
244	0xc0073b64b9c2c4e1	-2.9040007126392173
245	0xbfdaef33c74a2234	-0.420849747294173
246	0xbfe2515c9b9850b2	-0.5724318541492919
247	0xbfc31f5de88306d4	-0.149394739657558
248	0x3fb4f3895e46a54f	0.08184107352885416
249	0xbfe343a74d640636	-0.6020084868943687
250	0xbfdaef33c74a2234	-0.420849747294173
251	0xbfe23cef47c8ea03	-0.5699383165404587
252	0x3fe007b5fcf2187e	0.5009412708611902
253	0xbfe5768b7ed8cedf	-0.6707208135107655
254	0xbff218ecc21f93d7	-1.1310851653045029
255	0xbfe3359cc7c7668b	-0.6002944852763944

XTrain_Boundary f8 [204, 6]
0	0x0000000000000000	0.0
1	0x3fd90f3e51b0cca6	0.39155538537597534
2	0x3fe557a8d86f7b11	0.6669506289725594
3	0x3feee9e5a8fe7209	0.9660518932974479
4	0x3fd6129e8b849607	0.34488643288418114
5	0x3fe0e300c2ba6176	0.5277103236467571
6	0x0000000000000000	0.0
7	0x3fca32b24146a1d1	0.20467212855625275
8	0x3fb2d0c9ec10e750	0.07349836362200546
9	0x3fdb81595192555a	0.4297698303792764
10	0x3fecadb26f68787a	0.8962032485903955
11	0x3fd2d1357f3c7780	0.2940191023388863
12	0x0000000000000000	0.0
13	0x3fef129a6aa94035	0.9710208972192108
14	0x3f81ad5eaa794ec4	0.008631457879494937
15	0x3fe7b1dc34cf2026	0.7404614478518894
16	0x3fe151ae2eb6b3dd	0.5412207519890405
17	0x3fe0f8411362d1fb	0.5303044680245529
18	0x0000000000000000	0.0
19	0x3fbb2a1fd5406413	0.10611151653610333
20	0x3fdbb21a1f2a2668	0.43274548571989735
21	0x3fd1a825dd035008	0.275887933571767
22	0x3fc735a5f8077ff7	0.1813247166710423
23	0x3fe7dd3b3092d4fa	0.7457557629301441
24	0x0000000000000000	0.0
25	0x3febf76097e86398	0.8739474265049578
26	0x3fed30d0543d9647	0.9122087140392033
27	0x3fde9ed52852517c	0.47844437539722384
28	0x3fda40214b1d763e	0.41016418776948516
29	0x3fec087f17237949	0.8760371639180359
30	0x0000000000000000	0.0
31	0x3fe89fdcd4d6fd26	0.7695144803073262
32	0x3fdfb114667bf54f	0.4951830864736921
33	0x3fe35c9dcfdb8e43	0.6050557193488618
34	0x3feffadcb7dab72b	0.9993728247552317
35	0x3fe97eebf2e257a9	0.7967433685141617
36	0x0000000000000000	0.0
37	0x3fddeea67596dcbc	0.46769105418520573
38	0x3fc64c01e90ca45b	0.17419456366886518
39	0x3fd69187a668a135	0.3526324391446168
40	0x3fb03904c7914b27	0.06337003586058342
41	0x3fee5f9617277111	0.9491682483890448
42	0x0000000000000000	0.0
43	0x3fe22203ad82917c	0.5666521443240948
44	0x3fcdc2c4cced8084	0.2325063706039182
45	0x3fa0440fe35c0469	0.03176927233108346
46	0x3fe78ae9e4a2bb55	0.7357072320499848
47	0x3fdd2da8830c5397	0.45591175840063997
48	0x0000000000000000	0.0
49	0x3fe81e5035e3929a	0.7537003567236582
50	0x3fe9b7d9a465ad62	0.8036926470644341
51	0x3fd8b7aec719f26a	0.3862111038541004
52	0x3fe47c8f26cb878b	0.6402049787250105
53	0x3fcd72646d8f1174	0.2300534758525249
54	0x0000000000000000	0.0
55	0x3fe2dc2cc34436b4	0.5893768132970849
56	0x3fe70c08e243c6af	0.7202190798982054
57	0x3fb4597f05767d1c	0.07949060328836705
58	0x3fde93859aaaeffe	0.4777540216853139
59	0x3fe54c0fceb74c83	0.6655348813459486
60	0x0000000000000000	0.0
61	0x3fd507d71a11eee8	0.3286035303678845
62	0x3fef7ab06434b871	0.9837266881129506
63	0x3fce1386c0974b15	0.23497089771134286
64	0x3fea159e745e6f93	0.8151390335874446
65	0x3fe36ac3b97ecc53	0.6067827818827801
66	0x0000000000000000	0.0
67	0x3fe686f6c2701f69	0.7039750859848769
68	0x3fd1c193a96651bb	0.27743999045312834
69	0x3fea61a794a82c2f	0.8244207290130187
70	0x3fc50fd3f88b7d08	0.1645455325696974
71	0x3fd9c50f93b3bd2e	0.4026526396182416
72	0x0000000000000000	0.0
73	0x3fd13b271c0a2e83	0.2692353986574078
74	0x3fea8bb2c2d10a57	0.8295530133257881
75	0x3fe537dabf72fcdb	0.6630681742898575
76	0x3f95f8d2eb6371b8	0.02145700036713702
77	0x3fd3b310c6adc80b	0.3078042927000985
78	0x0000000000000000	0.0
79	0x3fecd301a9f29831	0.9007576293267957
80	0x3fd8e3d49662cff8	0.38890566526538306
81	0x3fc297084e0fa418	0.1452341443212226
82	0x3fd227d9e5d92f98	0.2836823219884024
83	0x3fb3223c1135f18d	0.07474112911399385
84	0x0000000000000000	0.0
85	0x3fc5c57b6abde172	0.17008917533872708
86	0x3fd53c11aa544a2a	0.33179132112232657
87	0x3fed9c1080ac79c7	0.9253008378180362
88	0x3fe4ff37c7a9eda8	0.6561545276339773
89	0x3feca88c70a2a435	0.8955747795017773
90	0x0000000000000000	0.0
91	0x3fe04c1aad9d6e97	0.5092900648991926
92	0x3fe4841ef01dab44	0.6411280336154523
93	0x3fe9f4c5afb0365b	0.8111294204151805
94	0x3fec23c4dd808e4b	0.8793663336004526
95	0x3fad9c5bed72e105	0.057833550200884466
96	0x0000000000000000	0.0
97	0x3f90165385fb7437	0.015710167935015753
98	0x3fe14eefa0250f9a	0.5408857467486883
99	0x3fe14de8d296e4d0	0.5407604325365813
100	0x3fdca539c98da8f0	0.44758457835145204
101	0x3fc4928e40ac5f7d	0.16072252424123326
102	0x3ff0000000000000	1.0
103	0x3fd90f3e51b0cca6	0.39155538537597534
104	0x3fe557a8d86f7b11	0.6669506289725594
105	0x3feee9e5a8fe7209	0.9660518932974479
106	0x3fd6129e8b849607	0.34488643288418114
107	0x3fe0e300c2ba6176	0.5277103236467571
108	0x3ff0000000000000	1.0
109	0x3fca32b24146a1d1	0.20467212855625275
110	0x3fb2d0c9ec10e750	0.07349836362200546
111	0x3fdb81595192555a	0.4297698303792764
112	0x3fecadb26f68787a	0.8962032485903955
113	0x3fd2d1357f3c7780	0.2940191023388863
114	0x3ff0000000000000	1.0
115	0x3fef129a6aa94035	0.9710208972192108
116	0x3f81ad5eaa794ec4	0.008631457879494937
117	0x3fe7b1dc34cf2026	0.7404614478518894
118	0x3fe151ae2eb6b3dd	0.5412207519890405
119	0x3fe0f8411362d1fb	0.5303044680245529
120	0x3ff0000000000000	1.0
121	0x3fbb2a1fd5406413	0.10611151653610333
122	0x3fdbb21a1f2a2668	0.43274548571989735
123	0x3fd1a825dd035008	0.275887933571767
124	0x3fc735a5f8077ff7	0.1813247166710423
125	0x3fe7dd3b3092d4fa	0.7457557629301441
126	0x3ff0000000000000	1.0
127	0x3febf76097e86398	0.8739474265049578
128	0x3fed30d0543d9647	0.9122087140392033
129	0x3fde9ed52852517c	0.47844437539722384
130	0x3fda40214b1d763e	0.41016418776948516
131	0x3fec087f17237949	0.8760371639180359
132	0x3ff0000000000000	1.0
133	0x3fe89fdcd4d6fd26	0.7695144803073262
134	0x3fdfb114667bf54f	0.4951830864736921
135	0x3fe35c9dcfdb8e43	0.6050557193488618
136	0x3feffadcb7dab72b	0.9993728247552317
137	0x3fe97eebf2e257a9	0.7967433685141617
138	0x3ff0000000000000	1.0
139	0x3fddeea67596dcbc	0.46769105418520573
140	0x3fc64c01e90ca45b	0.17419456366886518
141	0x3fd69187a668a135	0.3526324391446168
142	0x3fb03904c7914b27	0.06337003586058342
143	0x3fee5f9617277111	0.9491682483890448
144	0x3ff0000000000000	1.0
145	0x3fe22203ad82917c	0.5666521443240948
146	0x3fcdc2c4cced8084	0.2325063706039182
147	0x3fa0440fe35c0469	0.03176927233108346
148	0x3fe78ae9e4a2bb55	0.7357072320499848
149	0x3fdd2da8830c5397	0.45591175840063997
150	0x3ff0000000000000	1.0
151	0x3fe81e5035e3929a	0.7537003567236582
152	0x3fe9b7d9a465ad62	0.8036926470644341
153	0x3fd8b7aec719f26a	0.3862111038541004
154	0x3fe47c8f26cb878b	0.6402049787250105
155	0x3fcd72646d8f1174	0.2300534758525249
156	0x3ff0000000000000	1.0
157	0x3fe2dc2cc34436b4	0.5893768132970849
158	0x3fe70c08e243c6af	0.7202190798982054
159	0x3fb4597f05767d1c	0.07949060328836705
160	0x3fde93859aaaeffe	0.4777540216853139
161	0x3fe54c0fceb74c83	0.6655348813459486
162	0x3ff0000000000000	1.0
163	0x3fd507d71a11eee8	0.3286035303678845
164	0x3fef7ab06434b871	0.9837266881129506
165	0x3fce1386c0974b15	0.23497089771134286
166	0x3fea159e745e6f93	0.8151390335874446
167	0x3fe36ac3b97ecc53	0.6067827818827801
168	0x3ff0000000000000	1.0
169	0x3fe686f6c2701f69	0.7039750859848769
170	0x3fd1c193a96651bb	0.27743999045312834
171	0x3fea61a794a82c2f	0.8244207290130187
172	0x3fc50fd3f88b7d08	0.1645455325696974
173	0x3fd9c50f93b3bd2e	0.4026526396182416
174	0x3ff0000000000000	1.0
175	0x3fd13b271c0a2e83	0.2692353986574078
176	0x3fea8bb2c2d10a57	0.8295530133257881
177	0x3fe537dabf72fcdb	0.6630681742898575
178	0x3f95f8d2eb6371b8	0.02145700036713702
179	0x3fd3b310c6adc80b	0.3078042927000985
180	0x3ff0000000000000	1.0
181	0x3fecd301a9f29831	0.9007576293267957
182	0x3fd8e3d49662cff8	0.38890566526538306
183	0x3fc297084e0fa418	0.1452341443212226
184	0x3fd227d9e5d92f98	0.2836823219884024
185	0x3fb3223c1135f18d	0.07474112911399385
186	0x3ff0000000000000	1.0
187	0x3fc5c57b6abde172	0.17008917533872708
188	0x3fd53c11aa544a2a	0.33179132112232657
189	0x3fed9c1080ac79c7	0.9253008378180362
190	0x3fe4ff37c7a9eda8	0.6561545276339773
191	0x3feca88c70a2a435	0.8955747795017773
192	0x3ff0000000000000	1.0
193	0x3fe04c1aad9d6e97	0.5092900648991926
194	0x3fe4841ef01dab44	0.6411280336154523
195	0x3fe9f4c5afb0365b	0.8111294204151805
196	0x3fec23c4dd808e4b	0.8793663336004526
197	0x3fad9c5bed72e105	0.057833550200884466
198	0x3ff0000000000000	1.0
199	0x3f90165385fb7437	0.015710167935015753
200	0x3fe14eefa0250f9a	0.5408857467486883
201	0x3fe14de8d296e4d0	0.5407604325365813
202	0x3fdca539c98da8f0	0.44758457835145204
203	0x3fc4928e40ac5f7d	0.16072252424123326
204	0x3fe7687c36598ee0	0.7315045415420762
205	0x0000000000000000	0.0
206	0x3fdc3b0ab65b1e77	0.4411036282367386
207	0x3fbf3e6ca4646a17	0.12204627049906268
208	0x3feb6bfe23113555	0.8569327053934709
209	0x3fcc7d383e23bb0c	0.22257140192183333
210	0x3fd8cb56cc72752f	0.3874108311227528
211	0x0000000000000000	0.0
212	0x3fe149caed02c8a2	0.5402578953856116
213	0x3fef2a50e79f7986	0.9739155315290169
214	0x3fa7769f3b98c36d	0.045826889061919875
215	0x3fdf192f4ae16b38	0.4859121543174072
216	0x3fd59bc8f9968f2c	0.3376333653816228
217	0x0000000000000000	0.0
218	0x3fcdf05a3f6523d7	0.23389747710669326
219	0x3fb27f800f0af2dc	0.07225799910788616
220	0x3fc5a8730e27d068	0.16920316878497776
221	0x3fe8e3bcaa017f3c	0.7777999229838097
222	0x3fdd85c2ac7f1d48	0.46128908963551796
223	0x0000000000000000	0.0
224	0x3fe78dcf7871dce2	0.736060843700127
225	0x3fe249b54d76dc21	0.5714975846266307
226	0x3fec5cc5ee64d0a7	0.8863248497132376
227	0x3fec1ddb1e103cd2	0.8786445223976449
228	0x3fed9036b0debde6	0.9238542036527491
229	0x0000000000000000	0.0
230	0x3fc39b3c34993b1d	0.1531749016598604
231	0x3fd1a304574ecd97	0.27557476545481435
232	0x3fe39fd824499bad	0.6132622441044667
233	0x3fe1beff3ff05187	0.5545650719455332
234	0x3fe063aea0ce2298	0.5121682301260817
235	0x0000000000000000	0.0
236	0x3fd05cac8283e5f2	0.2556563639223831
237	0x3fe79e06e5f1695a	0.7380403987001884
238	0x3fef2e9cc8aed1c0	0.9744399947726876
239	0x3fb067527a965b15	0.0640765713963954
240	0x3fa8f8f17eeac269	0.04877428697853221
241	0x0000000000000000	0.0
242	0x3fe37283c84c4b7a	0.6077288543768724
243	0x3fc80e339aee3e78	0.18793339791271868
244	0x3fe9019b952fe0d5	0.7814462579545088
245	0x3fdab4bce571345a	0.41728136450257625
246	0x3feaccacc2d057c6	0.8374847226102637
247	0x0000000000000000	0.0
248	0x3fed63581b89a16b	0.9183769739002349
249	0x3fe9a5270628cf79	0.8014102096844758
250	0x3fe6ba731bf48654	0.7102599664687639
251	0x3fe2f058bb359891	0.5918391853745267
252	0x3fd09f1f81748988	0.25971210138427425
253	0x0000000000000000	0.0
254	0x3fe99d9def23274c	0.800490347924304
255	0x3fea8944c494475c	0.8292564238965769

YTrain_Boundary f8 [204]
0	0x3fdcfd56f1cd91a3	0.4529626237256485
1	0x40056211eb392f58	2.672885739977499
2	0x3fd88a12e4e1e25b	0.3834273562602328
3	0x4003291db0ccc31d	2.3950761616219
4	0x3ff15c464a6c7198	1.0850279719516944
5	0x3ff5bd153d022c50	1.3586628325599754
6	0x40022b2af606ff5e	2.27107803543906
7	0x40050faf9a804955	2.6326591558837813
8	0x3fe14475625622ce	0.539606754363456
9	0x3ff1dd9c302f29f4	1.1166040308186185
10	0x3fd78f3fc11183dc	0.3681182275232098
11	0x3ff886610c87d4d1	1.5328073968387808
12	0x40011e5978f5fc59	2.139819092757119
13	0x4005bccb9db27ccf	2.7171852417082856
14	0x3fd7cad4d796cf08	0.371754847084262
15	0x3fd7cf3e4d94e022	0.3720241315490985
16	0x4001ee4e6ebf2424	2.2413605358201654
17	0x3ffa8a0be67e6dd0	1.6587027553240326
18	0x3fd8043939e65448	0.3752577844073284
19	0x40017ecbd60d010c	2.1869122240751775
20	0x3fe11475c40b3d52	0.5337475613577374
21	0x3ff5894df1dd736d	1.3460215995648597
22	0x3ff13109dae6b672	1.074472289164444
23	0x3fd825eddaa5e84d	0.37731500961638603
24	0x3fd7be315e7d37b4	0.37098345019773693
25	0x3ff51f2528beb023	1.320103797111195
26	0x3fe3eb26cc0dff46	0.6224550233309649
27	0x4003f0d01190ae55	2.492584359386266
28	0x3fdeb56bdaf4c89f	0.47982307798805296
29	0x3fd8cb2850383ce3	0.3873997481723121
30	0x3fd90f1f5478d4fa	0.39154799699038245
31	0x400523a7e349c09e	2.642410064399953
32	0x4002ed67282cadbc	2.3659194124827234
33	0x3fe2e15fbd0c493d	0.5900114719718556
34	0x3ff3b8d625f933ea	1.2326261027658298
35	0x3feea3161a09ff44	0.957407999856493
36	0x40015c0679676723	2.169934223621469
37	0x3fe9dcf3d30ed94e	0.8082217333056094
38	0x3fed49f984b1813e	0.9152801124255701
39	0x3fe26d70bdd62e0d	0.5758594234225157
40	0x4003dc26b014a5eb	2.4824956661511712
41	0x4001a63394ed03e0	2.20615307186425
42	0x3fe7814ef4d2370e	0.7345347196257721
43	0x3ff7aabdbb056d9f	1.4791848474040774
44	0x3ff716ceda2c76c2	1.4430683634194996
45	0x3ff426d58b7b7473	1.259480995991251
46	0x3fd94ea68ab609a1	0.39542544885639513
47	0x3ff3224deaeffda7	1.1958750893826193
48	0x4005734904f69709	2.6812916171792307
49	0x3fdc926b13c5325e	0.44643666201299037
50	0x3ff8ed0ea484c8e8	1.5578752924453116
51	0x3fe2486afda14f7a	0.5713400796616803
52	0x3fe6eda85135a6ac	0.7165109239696981
53	0x3fe3c36b58f921b6	0.6176048982388724
54	0x3ffc180a6ea4ab35	1.755869323921343
55	0x3fe7ee9e035fd238	0.7478780809311223
56	0x3ff38a363775ee69	1.2212431112701785
57	0x3fd791ae86f127e0	0.3682667081635582
58	0x3fe34fa69f09f8d3	0.6034730058888961
59	0x3fedd85873ddb6a8	0.9326593649872921
60	0x3fdf8cf40e8dc022	0.4929781095625022
61	0x3ff0205ccc494660	1.0079009990626204
62	0x3fe1f42446cdf540	0.5610524542713975
63	0x4000731cb8282a00	2.0562071215874766
64	0x3fe2c2e520d8a2f4	0.5862908975151115
65	0x3fdb45f352c86028	0.426144438593385
66	0x400515a233004b1f	2.6355632767166663
67	0x3fde56c9eae9d486	0.4740471643520511
68	0x3ffe85d59df0b22f	1.9076744241275596
69	0x400588040a975ef3	2.69141395830581
70	0x3fe1884c67449b17	0.5478879944756468
71	0x3ffc7c804bd1b236	1.7803957902607528
72	0x3fd7acc17e541b99	0.3699191793133934
73	0x3ff149966cf5aff8	1.080465722679035
74	0x3ffccf124fc9aabd	1.8005545727452692
75	0x3fd78e0c0c8658cc	0.36804486487507115
76	0x4005bf01b7054108	2.7182649897077944
77	0x4002368a7ce32e86	2.2766313320951808
78	0x400422a062b903ab	2.516907473822774
79	0x3ff761e39c86deaf	1.4613987078027255
80	0x3fe32638f5af47c5	0.5984158323792533
81	0x3fe8ed13a19ae1d8	0.7789400249812912
82	0x4004eebc285e9862	2.6165698198192766
83	0x3ff11f0f92b6bc24	1.0700832110412728
84	0x4005988b86c20602	2.699484875484587
85	0x3fe763fb049d1272	0.7309546556576392
86	0x3fd83e0f7367122b	0.3787878634432526
87	0x3ff4bc04bca12eea	1.2959029548973668
88	0x3fdb9d6a4e348374	0.43148286473483854
89	0x400358473e45cb30	2.4181046357201907
90	0x3ff59f962bf39ae5	1.351461574254864
91	0x3fdb69215a2bf382	0.4282916431982856
92	0x4003fd4c769528e2	2.4986809982557228
93	0x3fd959cd4163f1e7	0.3961060656145307
94	0x3fe274eb8ebdfcc4	0.576772478860129
95	0x3fd78bbc5164cfbe	0.3679037852154997
96	0x3fdfd8a6d3fb64d4	0.49759836865775964
97	0x3ff2af9ecf5f9ab7	1.1678760624433104
98	0x3fec157e7954d753	0.877623784041797
99	0x3fd7ad7c444f8e17	0.3699637095544132
100	0x3ff5d2d8c99b4087	1.3639762759449086
101	0x3fd86252dd984630	0.3810012020122455
102	0x3febdde7ab4e2340	0.870838007526892
103	0x3fd89188fabaa988	0.3838827560927247
104	0x3fde51ebeb684ac9	0.47375009526255646
105	0x400542ef438fef05	2.6576829222011633
106	0x3fec80a2c1739c49	0.8907026079513197
107	0x3ff6cf69237bd75f	1.425637377365511
108	0x3ff6ed96246912b1	1.4330045149119253
109	0x3ffe105dc64c1250	1.8789956804258914
110	0x4004345871e43dee	2.525559320238009
111	0x3fe6a1e089367ad4	0.7072603874147156
112	0x40032f8d9f7a29cf	2.398219343104962
113	0x3fd896a263e4b772	0.3841939902803154
114	0x4004d70c6f76ec9e	2.6050041874091923
115	0x3ff816998ad58141	1.5055175231173765
116	0x4001cb4e03494d9f	2.2242698914285053
117	0x40050217f1931aa6	2.626022231389771
118	0x3fe439763421e2d6	0.6320143717012694
119	0x3fe91db55ee366ee	0.7848765233313466
120	0x4001733c643bf6b1	2.1812675314712
121	0x400482b8202a7fd1	2.5638277543039085
122	0x3fd7e38914113660	0.37326266250315676
123	0x3ff9d43892574efd	1.614311763424609
124	0x3fe03bd7e4f40b50	0.5073050948852629
125	0x3ff03f7cc9956fa9	1.0154998659481669
126	0x3fdaac4d31acd350	0.41676645136913226
127	0x3fd78b5afba6754a	0.36788057875840663
128	0x3fef102220224d27	0.970719397317599
129	0x3fe10b4ab8f6a596	0.5326284039085063
130	0x40016b6aa742dda7	2.1774495188980896
131	0x3fd7a41a045ae23f	0.3693909685639802
132	0x3fdf20cd0ee9f560	0.4863770146983679
133	0x3fe316a3f12517e7	0.5965137204991579
134	0x3fd7b6bb0fc5198f	0.37052799739867565
135	0x40011208f524b849	2.1338061477499974
136	0x3fe06317fca97d24	0.5120963988119098
137	0x3fd78b7502b27960	0.3678867842044351
138	0x4003e25fbf201961	2.485534184615219
139	0x3fe901a1c812fcb0	0.7814492137621496
140	0x3fea7b26f7b9d316	0.8275332296749152
141	0x3fdaf8c425b55c27	0.4214334839102229
142	0x3fde8a38d389b683	0.4771864000129897
143	0x3fe3f11bb8c76be4	0.6231821640934609
144	0x3ff9a8d0cb20f0fd	1.603714745971103
145	0x40046ea40d3de681	2.554023841334868
146	0x40012dd858f494a2	2.1473853063240123
147	0x3fea88d3606c77c9	0.8292023547435231
148	0x4004240c8d8e7c53	2.517602067862336
149	0x3ff417921a3c2e5d	1.2557545685584934
150	0x3ff0b519173ed9c8	1.0442133815791852
151	0x4003c3e5519e23e6	2.470652234686429
152	0x3fd7d53fa04ebb67	0.37239065794977083
153	0x3ff68a2f53dd9f30	1.408736541366988
154	0x40044554483eb527	2.5338521618019914
155	0x3fd790e463fab806	0.3682185150490799
156	0x3febfddf89cf4574	0.8747403804392619
157	0x3ffb8907f75606ed	1.720954862743777
158	0x3ffd89946a4e6d93	1.8460888054458777
159	0x3ff8b4bfba9c70a5	1.544128159474931
160	0x3ff1d796981c9cf3	1.1151338521829615
161	0x3fddb30da8fa7569	0.46405354978363406
162	0x3fde8c41d19317c0	0.4773106142641801
163	0x3fe40cc7b45f29fe	0.6265600703130187
164	0x3fea5cf65fc8a53b	0.8238479491020948
165	0x3fdf622efa4be118	0.4903676456738295
166	0x3fe1ff9611fa1bc4	0.5624494887459766
167	0x3ff65600e68b3f7f	1.3959969525930942
168	0x3fe039446f14454a	0.5069906396403578
169	0x400531e56198212d	2.649363291220786
170	0x4005bf09f485a57c	2.718280706718984
171	0x3fe4ffeb85ec9a85	0.6562402358730003
172	0x3fd841602386426b	0.3789902064245669
173	0x3fe021c366658fe2	0.504121494287116
174	0x40007a7552642194	2.0597940861518484
175	0x3fe1b62676a7dba1	0.5534851377004665
176	0x400147b0e63f8ecf	2.160005377592689
177	0x3fe5f40aca78c92f	0.6860403017547351
178	0x4003c0c7d66a675e	2.469131159898935
179	0x40013b2c726e616a	2.153893369668528
180	0x3ff0eccce793d291	1.0578125997537067
181	0x3fe074b217dad141	0.5142450776971047
182	0x400089cc9940e579	2.0672847721986582
183	0x4005a1db7326c4a9	2.704031848545658
184	0x3fd9af17fd5ca51d	0.40131187193272116
185	0x3fdf6ce927588f74	0.4910223850476918
186	0x3feeed3cb16d940d	0.9664596047774708
187	0x3fd9536e32dbcc7c	0.39571719137820316
188	0x3ff0d7e90a602f00	1.0527124791432811
189	0x4001f8279159dda2	2.246169219546304
190	0x3ff6fe8200bd3475	1.4371356991644266
191	0x3fe5342e72a02865	0.6626198042661257
192	0x4002b8842d62abbe	2.3400958581673583
193	0x3fd8ae789922fdf2	0.38564887003664616
194	0x40000b914eaf53b3	2.00564824554973
195	0x3fd795b7232862e4	0.36851290162444017
196	0x3fd8b7082a3719b2	0.38617138025838493
197	0x3ff6106fc35ff4eb	1.3790128356770832
198	0x3ff66bc3d6297432	1.4013098111820566
199	0x3fd93c0b715c7705	0.39428983755520647
200	0x3fda6f33a2480d2a	0.4130372128276628
201	0x4000040821eb3a16	2.001968636504226
202	0x400420477c1a8fbd	2.5157613463979644
203	0x3ff8003b62dd3545	1.5000566350821185
