Allen_Cahn4D/dataset/Dim4_2/Allen_CahenC8000_B1600.npz (npz, 385050 bytes, 4 tensors)

XTrain_Col f8 [8000, 4]
00000000: 5d12 1448 714c d43f 719e 02b3 bc13 583f
00000010: ee5f 6210 f152 ee3f 0c16 3a73 a5ae e73f
00000020: ee6f db45 fc65 e53f 706e a3de bbe0 e83f
00000030: de4b 53e9 19ef e13f af19 22dd 05c8 ee3f
00000040: 3066 1dfa c1db b63f 56d0 ba7c 4d4e e43f
00000050: 9a94 45ce 10d4 e63f 231e 7eb6 45dd a43f
00000060: 1ccc e936 2e88 e43f b182 b325 f9a0 e83f
00000070: df01 d158 28ad d13f 9c5d e524 7cc2 ec3f
00000080: 0804 c456 b001 ec3f 26a4 f757 c96a df3f
00000090: 46ab 5770 9cab 7a3f 453a 9e5e 05c1 ea3f
000000a0: 03e2 7b65 6270 c53f a74b 858f ea0a ed3f
000000b0: 548a 68a1 860f dc3f d14b 00ff 283f ef3f
000000c0: a0e4 99f8 174d e23f 9d8b 111d b65b ef3f
000000d0: 90b9 988c ef3c b23f c9b6 ba09 5c7f c93f
000000e0: 12b9 8562 4a99 d03f 4535 9354 72a4 dc3f
000000f0: ffb5 403a bbc4 eb3f 472b 9dc8 d8fd e53f
00000100: 674d 65d1 4818 da3f 3b0d 2ae8 9cf2 e03f
00000110: aead 2713 52b7 923f 7bf2 17c4 41fb dd3f
00000120: 8b5f c20e b118 d13f 80af ef00 7d8b d23f
00000130: fd34 f1f1 aeb1 ee3f f346 2f26 8051 b73f
00000140: c28f dae1 67bc e03f 8f2e 33f4 c260 e43f
00000150: 1c8f 12a6 d8f8 de3f 9cfb 877c 2987 ef3f
00000160: e769 0e97 b1e1 e73f 860d b054 4ff2 ec3f
00000170: 3623 b838 acf5 e13f 8ed6 0b7e de72 d73f
00000180: d050 b416 fa6c d73f 5635 04bf 33f7 e73f
00000190: 3744 7b71 8732 a63f be60 e62a 2b05 db3f
000001a0: 586e 5df0 6b91 dc3f 06ae a46d 1469 e73f
000001b0: a619 1ce4 7934 e13f c8bf b5fd 145c ef3f
000001c0: e5e0 b266 a543 eb3f 1d7b 7a00 5e31 e53f
000001d0: e5ab 12bd 4ef1 d43f 3a52 d078 ba3c e63f
000001e0: c56c 55c7 54f3 e53f 910e 97ba a07a e63f
000001f0: 274a 068f 95cf e83f 0c3f 4fe8 6f89 e23f
00000200: 4da1 3a88 8d95 e03f f2cb 28e5 93e4 a23f
00000210: e3a8 3e62 4546 ea3f c76a 6a4a 3f48 d73f
00000220: e461 ff22 2e61 b13f 2673 9875 ee9b b03f
00000230: e998 9c11 bfc4 e23f ed6b c590 722d dd3f
00000240: 5f54 f5b8 ec3f ea3f 3fc2 f1a4 94b5 d93f
00000250: 5213 1da0 58f2 ec3f fdb4 5b95 1db8 e13f
00000260: d632 1e4f ced8 dd3f 85d8 2ce8 c5c1 e63f
00000270: c162 6e10 a942 d63f 57ac 5631 18c2 e93f
00000280: eff6 8c94 2e1d db3f df0e e0a1 a026 b23f
00000290: 4a65 9b7d 7b95 d43f e7ab 330b 681a c83f
000002a0: a854 7e77 500f e23f 4a35 945b 62bf eb3f
000002b0: 9034 f6ad a1ce d73f 7c9b f1a1 e2d5 b83f
000002c0: 1b15 5058 fda5 e83f 35b0 a802 f489 aa3f
000002d0: 6521 7602 94d5 c53f f147 26bf d1fe eb3f
000002e0: 9d55 069b b3b2 c93f a62a 8ade 6d69 de3f
000002f0: 753c 8db7 448f d73f 560b 35ef 2561 dc3f
00000300: 7850 c3d5 b638 ec3f be79 6e42 926c ea3f
00000310: 34c4 cf0f d0eb c33f 675a 484c f79c ee3f
00000320: 392d 5c3f 43cc b53f b67c 67ec 5dbc c33f
00000330: e913 e00f c49e e23f 3317 e87a 9dfc e23f
00000340: c654 8789 5e9a ee3f e57f 9ec5 8b14 ae3f
00000350: 7c77 89b4 9a17 e83f 83b7 1b0c e183 e23f
00000360: 7f69 2f4e c32e e23f 18c5 a1ec 1373 d03f
00000370: 6a81 a096 8e7e d43f 71a6 64e8 ad08 e23f
00000380: 68d5 6565 c26c b03f 54ba 69b7 0397 b73f
00000390: 1de7 bad3 6c3b e23f 830c 8944 dd20 c93f
000003a0: 7156 7022 c353 e23f c86d 8803 68a7 8f3f
000003b0: a75e 1ea8 8c24 ee3f 3961 40e7 3251 e53f
000003c0: cec9 5b28 4990 c63f 366a 1bf4 d16d a23f
000003d0: 5f98 ecf4 7bff d53f e129 930b 822f de3f
000003e0: 9301 6560 b731 d43f fe4d e67a 3f1c c33f
000003f0: 394b 05ec 4ef5 b33f 70aa e36e 2e0c ec3f
00000400: b12d 1fb7 12c2 ea3f 58f1 f8dd 8bc6 c23f
00000410: 5600 6700 3980 ec3f 4360 b8c2 9c6a c63f
00000420: 3976 32b6 0ccb eb3f eaf9 247f 6b19 e33f
00000430: 59c2 326f 57dd ba3f 64f5 2b20 6d58 ed3f
00000440: 5b71 7429 864a e73f 6d0b 672b 07b8 b33f
00000450: 2325 925d 0580 bb3f e37b 9215 a9ff ea3f
00000460: 4a43 6636 f27f c23f cc9a 09cd 75e9 e53f
00000470: e336 fe8c 31da eb3f e845 7ea0 24ec e13f
00000480: f7a8 8bcb ceff e33f 9e63 544c 41c9 eb3f
00000490: e62e 601c f4f9 e23f e27d eede d5dc e33f
000004a0: 5a08 0fb0 f441 e53f 93e0 9efa 787f e63f
000004b0: 655e a80f b3bd ed3f cf46 e4ad c901 e03f
000004c0: 2456 256b 8407 d53f fb3a 8329 0db9 d83f
000004d0: 7a01 afe2 d475 ec3f e7b9 1186 a36a dd3f
000004e0: 3c0a 74e9 6d54 e93f f068 f378 9f86 eb3f
000004f0: 494d 3fed f61d c53f 9f2c 0389 74fb e03f
00000500: 3375 9f85 e4bb e23f 5382 c86e d6bf e33f
00000510: 2a4d 338d 38a0 e63f 42c9 45d9 9f5d e83f
00000520: 4f64 2fa9 d758 ee3f 4998 c8ff dd0a ee3f
00000530: 3b9e ef61 eee0 d33f 134a 982f b04b ee3f
00000540: 3394 4e3c 48a3 e23f b414 b1ee f863 d83f
00000550: 1861 32fc a320 e23f ee18 be8b dae1 c43f
00000560: 5969 3905 df93 e53f 1df9 87b0 d112 d73f
00000570: 8e22 0396 e1b1 c43f 5435 d6f9 f5a1 e33f
00000580: 0e16 bf85 61b5 c73f 2fc9 54bc 62a9 dc3f
00000590: 838d ddc0 5017 de3f 144c eb25 2106 ef3f
000005a0: 8f66 e9b9 dab9 e83f 36ef 13e3 2dff d03f
000005b0: c352 7016 a53f c33f de48 7afa 9eb4 ec3f
000005c0: 7aac 36d8 f101 d63f 4ff3 91f3 6c42 c23f
000005d0: 2909 b485 e0dc e33f aef5 2013 a13f ef3f
000005e0: 26b3 6369 dbe0 e53f f967 11c4 9d46 dd3f
000005f0: 200c 8fc4 33c4 d13f 1cf9 2c02 e486 c63f
00000600: adea 5e21 cf41 ef3f 42af 4302 6def b83f
00000610: 0b42 1e0d 941a d03f 936f 9cd3 dd00 ef3f
00000620: a5b7 424d 9e60 ee3f 62a2 522b a254 e33f
00000630: 9ef5 116e 5634 b03f 4d93 90fc ed82 ef3f
00000640: 604e 21eb 0b8d dd3f dd69 0eb8 4742 e03f
00000650: d1f9 a5a5 8f1a d33f bd79 88ab 02e1 dc3f
00000660: cac7 927b efb2 d93f 0e9f 9ea9 df8a e33f
00000670: 29a7 1c6e 6a12 e93f 53e3 0abb bfb7 ee3f
00000680: aed0 a3a0 c405 7e3f e556 c445 bf5f e13f
00000690: adf0 0773 1815 da3f 1032 d8a5 c5b1 e03f
000006a0: 4a46 35c4 bd3a e63f 28c8 841f 2d9b e53f
000006b0: d6ea f80f affd ea3f 9a82 9bbe 680f a43f
000006c0: b557 f22f 1268 b73f 31b6 9027 1644 a03f
000006d0: 77d6 8de1 d84a dc3f b728 ae0e cfcf ec3f
000006e0: 5ede 59cc 787a d43f 03d6 e711 9135 a53f
000006f0: 0f59 b007 ec33 ed3f c5eb 9c5c b802 de3f
00000700: ae40 49fd 5eee e73f 816a 3558 4b3c e23f
00000710: 0301 64db 4b62 d83f 3158 33e6 f5b4 e03f
00000720: b352 566a b655 d83f c8e2 52f5 c36d dc3f
00000730: ae40 4731 5279 ed3f 9f85 ecad c5a2 e93f
00000740: 9744 095c 8b76 ef3f c2ff fabe 2eb5 e33f
00000750: 3705 1bb9 8825 d73f 8779 1144 0bbd e93f
00000760: 9007 848e f9f9 b73f 4592 48da a73a ef3f
00000770: 83df 2be8 244c ca3f 728a de99 e364 c23f
00000780: 21fa b988 012d e23f 2555 a3ec 0922 cc3f
00000790: ee97 074e 0f1d b83f 2b6b f388 83d8 a33f
000007a0: 535a a1cc a32d df3f bcd5 86a5 e50d c93f
000007b0: 9d15 a9dc c004 de3f 64b5 8e99 a5f7 dc3f
000007c0: aebf 5060 fe2a ec3f daf2 b786 2ca1 d83f
000007d0: 9009 11c4 25ac ce3f c2df 7742 2335 ea3f
000007e0: 823d 4b18 1a15 e23f 0476 8687 cc44 ad3f
000007f0: d958 328f e951 ef3f 0872 088a 1418 ec3f
0.3171656803026844 0.0014695494428823808 0.9476247138982197 0.7400691271329278 0.6686993946454984 0.777433333244927 0.5604371602188356 0.9619168585784815
0.08929073673552845 0.6345584331634295 0.7133869198556966 0.04075067379659127 0.6416235992932147 0.769650052676374 0.2761937014911648 0.8987408371566974
0.8752061552660289 0.49089273062287686 0.006511317338189942 0.8360621307381925 0.1674921985175076 0.9075825503481284 0.4384476257565997 0.976459978150496
0.5719108443728551 0.9799452369446616 0.07124230558904388 0.19919920420709605 0.259356113637197 0.44753702410965374 0.8677650583028366 0.6872371595612571
0.4077322049026492 0.5296158346613206 0.01827743760979466 0.4684605040527356 0.26713205758414266 0.28976368991310864 0.9591898656305201 0.09108735019915652
0.5229987536626981 0.6368117112665049 0.48393837183015065 0.9852492744683903 0.7463005018537928 0.9045788435036435 0.5612393482016163 0.3663860541267717
0.36602642266485663 0.7489260416784116 0.0433542562510713 0.4221904677338094 0.4463758323015319 0.7315771237821884 0.5376557784336924 0.9799904780647859
0.8520075803599211 0.662276268896537 0.3272282453933129 0.6949131354945799 0.6859535115467216 0.7024692196213939 0.7753398698280919 0.5792769944473277
0.5182559643481369 0.03690015957217686 0.8210780066340501 0.36378462092549707 0.06788910250123298 0.06487932558998163 0.5865168899515797 0.45589889657793387
0.820303307768551 0.40170780284737256 0.9045832755296976 0.5537250439789713 0.4663577816616401 0.7111539396926366 0.3478186283551104 0.8049431766170397
0.4236561251344559 0.07090190841705234 0.32162368074712744 0.18830586001362734 0.5643694242341057 0.8671123303080688 0.3719867895932305 0.09701363042550598
0.770262405858975 0.05183374912698505 0.17058038826167912 0.874855874384819 0.20076603955810138 0.4751848862876308 0.3681194107529742 0.44342945442274606
0.8819231200273085 0.825753335713493 0.15563393375444579 0.9566608896155459 0.08514805123211468 0.15418600123573406 0.5818805990280654 0.5933368111152276
0.9563439069849202 0.05875050341933256 0.7528813863861923 0.5785985218515041 0.5682083632521396 0.257023793302396 0.3202244254080343 0.5635594881943701
0.06415953612834857 0.09214804866653853 0.5697540412286092 0.1963154396672487 0.5727248833306487 0.015456020934883422 0.9419616015975024 0.6661619679098641
0.17627825232155064 0.03599411110709065 0.343718518432416 0.47164965753895954 0.315534443030651 0.14929955960234048 0.0779618574354516 0.8764869848067303
0.8361905647847633 0.14668415392396628 0.8906521804674508 0.1751285506040877 0.8685363348519736 0.5968530162133991 0.1049399038772746 0.9170442226747295
0.7278471765198832 0.07702679452544965 0.1074221948093919 0.8437085553485953 0.14452960640167084 0.6847485546721486 0.870384955765726 0.5600760588296767
0.6249765372752155 0.8683172694028263 0.5930119089329906 0.6207074503071761 0.6643012465140246 0.7030606169637558 0.9294066720785393 0.5002182384798405
0.32858381713353624 0.38629464200941727 0.8893837382711773 0.459633713652606 0.7915563163408659 0.8601834642716124 0.16497694572772506 0.5306952167533331
0.5854361162015834 0.6171676791892174 0.7070582158870924 0.7614287608724128 0.9483450226208648 0.9388265605709957 0.31060370983184143 0.9467392854297166
0.5824319055433363 0.3811018305753564 0.5664844442099222 0.16314250777595113 0.6743006803547288 0.3605236267029726 0.16167850327316952 0.6135206107734725
0.18522280722224632 0.4478384818240952 0.47017306170001677 0.9694982281311035 0.7726873046005539 0.265574905162555 0.15037978740351407 0.8970484630720212
0.3438686953983915 0.14265214818069658 0.6207125293151751 0.9765172361000418 0.6836983736407987 0.45743507525696675 0.2776002330321621 0.17599153619989572
0.9767833377621479 0.09740334801943809 0.2516222122294784 0.9688557751683099 0.9492942341801053 0.604081234564614 0.0632986086584055 0.9847326214699962
0.46173379861759223 0.5080908388948121 0.29849616219135294 0.4512335467460636 0.40154635493956603 0.6107023537524314 0.7834980154632137 0.9599302914785802
0.00732971961609878 0.5429378855357895 0.4075375674581306 0.5217006911421453 0.6946705658139731 0.675192414817734 0.8434672653159747 0.03918006254912605
0.09143174810955552 0.031769459085222336 0.44206831003916797 0.900367287323454 0.31997508960873755 0.041424306331389736 0.9125881338284517 0.46891602558360673
0.7478480288500771 0.5698601458382911 0.3809995310293887 0.5220899101357245 0.3802314794968808 0.4441995521297426 0.9210597002475163 0.8011196515037006
0.983220748670777 0.6158670168006142 0.36166589810098365 0.8043266610582557 0.09365806321514314 0.9759101165150886 0.20544873558514717 0.14370388997220435
0.5679938955725597 0.21978878073302002 0.09419341712018056 0.03876124426616053 0.48716063483644695 0.1957366045223078 0.4690401224982795 0.4526151656708264
0.8802482491646424 0.3848372760401567 0.23962852548181646 0.8189865396698155 0.5650759195795418 0.05716551927910632 0.9787490650949408 0.8779394813496433

FTrain_PDE f8 [8000, 1]
00000000: e42a e016 6c65 a340 0bb8 db52 888b c2c0
00000010: a7b1 7978 512d b2c0 f890 6f9e 9863 b840
00000020: 6784 0e38 e84b c440 f9b7 39b8 78d3 ddc0
00000030: fbba 5200 795f b040 0e46 1c4c 997c a340
00000040: f752 4452 f9c1 dec0 d045 0f45 5b6f b740
00000050: 1df1 40fa 2502 bec0 4199 8330 f3d1 d040
00000060: dd4b 05e1 9d25 d240 34ea 1f91 6994 ce40
00000070: ad80 be9b f326 c740 0089 7bd4 318b b340
00000080: 1235 5b4b 982f afc0 3bae e2f8 f337 d640
00000090: d35e be0f e47b c5c0 a732 94fe 5440 d4c0
000000a0: e7f2 0cb1 da22 d2c0 a020 b816 eba7 b9c0
000000b0: 204c 1805 54e3 8e40 71c3 4d2d a04f d840
000000c0: 815c 12ad 97af d940 cee5 8a77 fdf6 d440
000000d0: 1dd8 da41 0199 cec0 ea0f 09bb 9d74 b2c0
000000e0: fbb5 912d cb95 d240 2e9a 069b f119 d8c0
000000f0: d827 3099 3ad1 d2c0 b808 1288 5210 cec0
00000100: 8e11 951c 5c91 c240 f4bd b4af f9c2 c340
00000110: 464f 78bd 5f11 d640 de6c 45ba 647a ccc0
00000120: e8c8 cec2 fdba bbc0 91fb 2f3e 3df3 b3c0
00000130: 2c95 dbc5 50b2 c1c0 b9b9 4ff4 5b2c 8940
00000140: a870 8881 1fe2 9a40 79c7 948a b2de c0c0
00000150: 0e00 c8e3 c3b7 d3c0 ab4c ac6a 9aa9 a940
00000160: 1d7a bfc6 b3ee d240 e20e 1d47 09ce dd40
00000170: 0ab6 a98a cef2 c940 b7fd 4bc9 4d6a b240
00000180: b39b 5778 0e9f e0c0 d22a 3d59 955f d4c0
00000190: f3e4 1f2c 9515 a2c0 909d 23bd a09d d9c0
000001a0: d476 c765 47d0 c4c0 fdfc 3a82 4a8a d2c0
000001b0: 689e 89b7 a0b3 8f40 f542 496d cc20 9fc0
000001c0: 7c33 a968 2a65 da40 afa2 7607 ab43 cb40
000001d0: b83b d2bf 6526 c340 7290 8af6 0dd6 d840
000001e0: 0b47 a3c4 d9d3 c940 c521 11a7 4e30 cec0
000001f0: aa2b ba38 6691 d7c0 aba0 b1ac dba5 ce40
00000200: 79a9 1f89 4cf6 9740 7b69 6620 8812 ce40
00000210: 39c0 8b17 bb64 d0c0 933f 5f5d a519 b040
00000220: f50b 6491 c850 c740 261c 115b 5983 d940
00000230: d7dd fd39 2ce5 cfc0 58bc d452 986a c3c0
00000240: 8040 3977 5fb9 d2c0 38c3 9a4f ac0e 8a40
00000250: debf 1753 868d d2c0 faf9 283f f61d d5c0
00000260: 5b85 2af4 ddb8 ce40 5068 8286 7939 7340
00000270: e65e 9ecc f92e 8440 0f5a 9d28 efce d5c0
00000280: 285e 7967 d0a8 d040 ead5 0bfa 485e 8840
00000290: e61b 02d4 30e2 d0c0 40d6 8bc7 4df3 c1c0
000002a0: 826b f3cd 03e2 c4c0 e8e8 db25 e930 a2c0
000002b0: 1251 bec0 e756 d1c0 0966 9507 dcdd d8c0
000002c0: e732 dc4a bc46 c040 517e f649 a5c9 6140
000002d0: 1f49 91b2 324c d9c0 0178 5eae 04d7 c0c0
000002e0: 8a95 45ae 9e20 cbc0 9a04 632c 8c6b a940
000002f0: ef81 61f1 8a08 d3c0 d715 c50b 060d e140
00000300: 7a49 fc21 4dd2 d040 6bfb 72bd 1211 b540
00000310: 3d51 35bc cefa b3c0 7944 0914 b84c b440
00000320: 34d8 d0af 3023 d040 486f 2486 b6bc d7c0
00000330: 4711 7a86 228e c640 ed3b 5c95 363b d340
00000340: 2ad7 35f1 4ac1 d3c0 8836 8d75 b583 cb40
00000350: 96dc 071c 0f01 dfc0 7a5e adae d100 b040
00000360: 527a 6ee5 e91e e040 0db5 f573 2f75 de40
00000370: b436 83cf 09aa c0c0 87d1 a3af 897c cdc0
00000380: b419 09ef e7ad cd40 328c e0c2 2494 d5c0
00000390: f6c8 c578 1af1 b5c0 f2cc 4934 6cc9 d4c0
000003a0: 48e8 1a72 c352 dec0 bef7 82b8 3337 d440
000003b0: 6613 4fc4 28df b240 4386 8fe1 c301 dc40
000003c0: c4ed 1382 0e3c c440 555b e860 a1f3 c340
000003d0: 2901 839b ded3 cfc0 61d7 0578 2df7 5f40
000003e0: 62b2 8a11 1c99 c640 a07b 7407 9b3e a340
000003f0: 8a39 d645 aea6 dd40 7ae2 8436 8f32 c5c0
00000400: 875b 1d44 4a76 bb40 48c9 7265 198d bec0
00000410: 8889 3961 e0b1 94c0 b579 ff82 88b0 d640
00000420: 9440 d02d 88b1 cfc0 51cf 5817 91d2 c440
00000430: ea44 17c0 a34e c1c0 156b 0a1f 4d2c dd40
00000440: 8c19 fcbc be62 b040 ec1a e144 54ee dcc0
00000450: c530 4f32 b292 d040 1fbf 9399 0a26 c940
00000460: bedb 42e7 994e c5c0 ee7e 6166 b654 d140
00000470: ba35 b553 6927 98c0 6a4f d466 6349 d5c0
00000480: 2963 7cd9 b9ac da40 1dd6 196d 6d0f de40
00000490: bc75 ec02 b3a0 dcc0 a2ac e4bd de73 a040
000004a0: 9c7b 2e55 0f19 b7c0 8465 c77e 1a1e 82c0
000004b0: fc09 e3c9 3eff bc40 fb93 4219 7dcc d4c0
000004c0: 8198 f3fa c92c c740 bff1 e5f9 8a06 bf40
000004d0: f3bb 341d 1258 b640 ccd0 b775 4289 bf40
000004e0: 2dd4 d79d acc3 adc0 2341 3d4c 0afa d040
000004f0: 57fb 2a96 a008 d340 88c5 b5b1 8b75 3040
00000500: 4242 3699 9444 bf40 6134 bca0 e6d4 d940
00000510: 4ff4 4249 a334 b040 54b7 684d f613 d440
00000520: 31b5 6955 907e dc40 2e46 6ede e4a2 da40
00000530: e231 cbb8 aa11 d740 b8b6 9949 f7e9 c1c0
00000540: d07d c11f f889 d1c0 0925 a44d 6a9b de40
00000550: 8e6b b116 15e4 c440 b424 3cb3 396b c140
00000560: ddfb dfed 0c7e d840 67de 6aaa 625a c640
00000570: 5773 5b15 2997 ca40 4c79 991f a9b3 d340
00000580: 2df6 d20c 15ae c5c0 3859 6072 7668 a840
00000590: e894 df3c 7d0c 9cc0 4aeb 2a82 dff9 d340
000005a0: 7070 1685 8588 dac0 1d57 8af4 4e05 e040
000005b0: 524d 188f 8871 dfc0 0fdd f593 063f a0c0
000005c0: 9115 c755 44a7 d240 7a83 db8b 44b8 da40
000005d0: c285 8b5f d524 d440 0b91 c556 291c aac0
000005e0: 543f 6a66 2b88 dac0 89f1 9621 52b2 c7c0
000005f0: 1a9a e0ff 9e4a be40 da2b 653c bd35 d840
00000600: e679 77ca e821 bcc0 4056 9719 6c8c a3c0
00000610: 67ec 3c14 1254 9a40 f0b2 d9c6 518d d6c0
00000620: a29c fc81 71f2 bec0 42b2 95e2 f51e d2c0
00000630: f840 d237 2a4b cfc0 d498 0021 2fdd c0c0
00000640: 1859 b91a ec95 cdc0 e362 f8f4 756c d440
00000650: af6e b6f7 b1e8 c840 be26 2739 d292 a840
00000660: cfbe 7ba1 ccce b840 0422 9975 99c2 a240
00000670: bc33 3f91 f553 c840 3f6e 2ba6 4446 aac0
00000680: 65d2 790d ca0a d340 7f9f 6045 c23d dac0
00000690: d8d4 d2a1 83a6 d7c0 636f c740 cca7 95c0
000006a0: 0400 e289 02f7 a6c0 af0c 4615 860c a7c0
000006b0: fa35 6a01 3a51 a540 2ec8 eedf a162 c640
000006c0: 7330 0a54 5c84 d8c0 1a4a 7be5 aa24 d8c0
000006d0: ea46 018e c278 bac0 c159 971c 4691 db40
000006e0: 2aa7 4fb8 f33c d540 9542 d5c9 dc40 d040
000006f0: 0cd5 82e8 0b3b cbc0 ee37 f37b 572d d3c0
00000700: d421 3978 2650 c340 6699 e556 2de8 b9c0
00000710: 4fe5 8a97 bd04 a040 199c 801b ee2a b340
00000720: 3869 64e3 effd d840 8a91 ffba c9f8 9d40
00000730: 5b2d ed68 941c a5c0 a92b 7c1a 6ce6 d1c0
00000740: b138 4df6 36c5 ccc0 43f6 fd5c 540e cec0
00000750: f5bf 0613 4fc0 d7c0 3171 a171 3886 d9c0
00000760: f2a8 9845 18dc cd40 202d 745c e8ca d2c0
00000770: 1f59 6874 dec8 bcc0 ce56 087f 7a0c bcc0
00000780: ef65 0527 6209 d3c0 3d99 1f7a 68a5 df40
00000790: 9436 724b b156 da40 64a4 c41a b24f a440
000007a0: e78e 38fa cfe4 d140 080c 92bf 90cd b440
000007b0: fbea 56e5 1ad6 d640 10d1 b9a5 5f57 c740
000007c0: aabc b77c 4029 df40 d8c3 840e 879f 8040
000007d0: f32b 9102 6fec d640 f8b4 3608 d369 d5c0
000007e0: c119 49bd b562 9dc0 ed6c a2eb a3b9 c840
000007f0: 575a 82c8 7b16 d240 6add a101 fcb2 a240
2482.711112027393 -9495.065028633942 -4653.318244558212 6243.596167538541 10391.81421071496 -30541.886244229947 4191.472661181116 2494.299408801605
-31495.895646172543 5999.3565225167695 -7682.148349818101 17223.799836063063 18582.466859172902 15656.824741353375 11853.903190434294 5003.19464847655
-3991.7974499227794 22751.812065763614 -10999.781730457593 -20737.32803826281 -18571.4170563099 -6567.91831541821 988.4160253427726 24894.50276512228
26302.369938459717 21467.96042129938 -15666.009822230839 -4724.616135183702 19031.174656322208 -24679.77508702332 -19268.915599860105 -15392.644777540452
9506.719622262546 10117.950674622298 22597.49593932859 -14580.786934545667 -7098.991253780412 -5107.239230154913 -9060.631038139189 805.5448995808175
1720.5307675665626 -8637.394854161643 -20191.060777664236 3284.801595100745 19386.809005612613 30520.144965424093 13285.61360665692 4714.3038527960225
-34040.452190212345 -20862.33357171232 -2314.7913522688846 -26230.511544135923 -10656.557793553373 -18985.164198634204 1014.4534750701396 -1992.1996356436841
27028.66263799694 13959.336165265498 9804.794916419181 25432.218172684727 13223.701313409509 -15456.61447347783 -24133.59721235527 15691.716207698299
1533.574741835326 15397.063488770966 -16786.923312127798 4121.645955994626 11937.566936975325 26125.39618327855 -16330.345519765206 -9941.19002780148
-19173.491651833523 833.834136208613 -18998.098821580286 -21623.847604984396 15729.734013857951 307.5921692937891 645.8719723103247 -22331.73685392184
17059.25631555743 779.7856331753403 -17288.762939955945 -9190.607652167906 -10692.029722621435 -2328.45536696642 -17755.621139125033 -25463.43796286549
8333.471034550528 142.30142686980483 -25904.792148896606 -8622.036571320148 -13889.23969335367 3253.773776144325 -19490.17098272027 34920.18893675104
17225.20519931007 5393.0732032646 -5114.807559330305 5196.719055728166 16524.760730944763 -24306.851937397645 11548.269728907047 19692.8528662286
-20229.170972309228 14087.417649890544 -31748.23608585874 4096.8190716128975 33015.30925678149 31188.741452624137 -8532.076645280562 -15097.075672604855
15195.811982286024 -22096.57439435664 -5617.103405343592 -21285.69069142355 -31051.053839423024 20700.808136693893 4831.15924543594 28679.060642129054
10360.113344660851 10215.260769886585 -16295.739120841567 127.8621501977009 11570.219285332776 2463.302791252223 30362.723012500945 -10853.118851290306
7030.290101847501 -7821.099204229489 -1324.4691208830063 23234.1329954804 -16227.06389811662 10661.133524991254 -8861.279299648904 29873.205019573757
4194.745071178662 -29625.31670405988 16970.7843206383 12876.082811802216 -10909.202370030685 17746.849998830752 -1545.8528583826105 -21797.553151204636
27314.90389928516 30781.709783991904 -29314.797053446746 2105.935042520593 -5913.059893517664 -579.7629371240478 7423.245268049181 -21297.95466675235
11865.577970933404 7942.542875644226 5720.070758148085 8073.259608734585 -3809.8371417471412 17384.16090327607 19490.509165521096 16.459162814023813
8004.580462828804 26451.603560496475 4148.637836632391 20559.8484746733 29178.25521319098 27275.57607609609 23622.66752891418 -9171.93193360731
-17959.8769382218 31341.66098884217 10696.164755036847 8918.450782316133 25080.20201873394 11444.77082572803 13614.320964270895 20174.642553680853
-11100.164453859523 3124.231341372386 -1795.1223025259624 20455.492319803023 -27170.086248025706 32810.46735112204 -32198.1337338214 -2079.5128475982997
19101.067735453664 27361.071036222835 20627.333956604598 -3342.0807401408724 -27168.678125917286 -12132.641650073945 7754.621091878531 24790.95681123049
-7201.909339396725 -2502.211132745055 1685.0176553267754 -23093.277761864418 -7922.4433896906285 -18555.841954635696 -16022.329828531001 -8634.368194651244
-15147.844565552237 20913.843076798028 12753.390372089429 3145.410592292289 6350.7993390408365 2401.2997253278754 12455.918495083104 -3363.1340802738264
19499.157072501624 -26871.035484462507 -24218.056751926284 -1385.9494658624396 -2939.5049582123775 -2950.2618810549243 2728.6132920447244 11461.264646384949
-25105.442629382433 -24722.67025644528 -6776.7599793241625 28229.09549506917 21747.8081244595 16643.449818911573 -13942.09303317454 -19637.366940312022
9888.300543920057 -6632.177107191039 2050.3702968029897 4906.9301071530435 25591.74825392032 1918.197002404459 -2702.2898630254617 -18329.689116518628
-14730.429391529733 -15388.659087891812 -24321.235536277254 -26136.881935463465 15288.189623911374 -19243.630642932956 -7368.868963739164 -7180.478500863259
-19493.53363165812 32405.632453822753 26970.770229867267 2599.8478604746506 18323.24964727359 5325.56542313379 23384.42024777362 11950.747245051462
31909.007612165682 531.9409456608073 23473.734531681937 -21927.297376324394 -1880.677479879567 12659.280628493487 18521.9341131098 2393.4921999533444

XTrain_Boundary f8 [1600, 4]
00000000: 0000 0000 0000 0000 7f1e db87 a624 ec3f
00000010: 094a 7390 c30a d53f 0409 2a85 8b51 c83f
00000020: 0000 0000 0000 0000 bfe7 7a14 a73f de3f
00000030: fe9f 8502 8e6a d43f 3860 0eb5 acd5 ed3f
00000040: 0000 0000 0000 0000 da7d 7e0d 9163 ab3f
00000050: bf3d 04f6 7eaf 943f 2f09 6a86 3a88 e83f
00000060: 0000 0000 0000 0000 4108 452b 631d e73f
00000070: 8909 580f dade d33f 2810 9c19 1e7b d93f
00000080: 0000 0000 0000 0000 132d 0232 c3c3 ed3f
00000090: 1869 b6dd 4ba0 9a3f 3b22 8902 2b9c a23f
000000a0: 0000 0000 0000 0000 c31c e597 8efe d93f
000000b0: d3d1 0313 44e3 df3f 923f 4b58 0f49 da3f
000000c0: 0000 0000 0000 0000 2a50 2218 fac9 dd3f
000000d0: 9856 36db 7928 c43f f877 c278 86e0 e73f
000000e0: 0000 0000 0000 0000 4005 07a0 d9e7 ec3f
000000f0: b32f 5518 1168 e53f 6ca5 c849 9a5f ee3f
00000100: 0000 0000 0000 0000 a810 9bb6 2f61 bc3f
00000110: 175f 280e a58b e43f 89be 80aa ffe8 e13f
00000120: 0000 0000 0000 0000 7b39 681d 556a e13f
00000130: 8e82 8172 ffa2 d13f a10b c110 b5da de3f
00000140: 0000 0000 0000 0000 7c01 c9ff 51ce e13f
00000150: 6fb9 50e4 f186 da3f 98a8 315a 97db b63f
00000160: 0000 0000 0000 0000 7f58 fe7f d497 c03f
00000170: 80e7 11ab 86e1 b93f b6f7 6beb 27bd db3f
00000180: 0000 0000 0000 0000 d7a0 48a2 1f5e db3f
00000190: 1bc6 76da e945 ea3f e9ce fbb5 dc3c dc3f
000001a0: 0000 0000 0000 0000 21e8 f1a3 1860 da3f
000001b0: 4c76 264a 3b70 ed3f 841d a398 b328 e63f
000001c0: 0000 0000 0000 0000 bcc7 0c93 860a e93f
000001d0: acb6 a5db e184 ef3f ce2d 7c08 1efc c53f
000001e0: 0000 0000 0000 0000 e997 96e9 acbd e83f
000001f0: 9a2e 0dbe 6377 ec3f 8190 b055 3430 d43f
00000200: 0000 0000 0000 0000 606b 70f2 b886 bb3f
00000210: e769 5620 f71a e33f 802a c4f6 ecc9 eb3f
00000220: 0000 0000 0000 0000 9a37 3761 b0fa ea3f
00000230: 58dc 569e 12cd e43f 6a24 6c6c be65 db3f
00000240: 0000 0000 0000 0000 055e f366 015c ec3f
00000250: ed14 a237 b39a ee3f 7618 cee7 1c07 cd3f
00000260: 0000 0000 0000 0000 5446 c236 7e89 ec3f
00000270: f26d 75c5 26da ee3f b693 cb1d 77a0 e63f
00000280: 0000 0000 0000 0000 43d7 cd8b 8bb5 cf3f
00000290: 6481 4132 3fcb e63f d7ae 8ff9 d2da dd3f
000002a0: 0000 0000 0000 0000 841f 7dee 2342 e23f
000002b0: 987f 51fa 1a56 d03f e42f db28 0928 e43f
000002c0: 0000 0000 0000 0000 6530 9726 a4c7 eb3f
000002d0: 0072 3b8c 0efd ea3f 99d3 9a9e fd42 e23f
000002e0: 0000 0000 0000 0000 db0e b78d 7973 d53f
000002f0: 7b4b cf51 b2cb d43f 8d56 f92b fbec d03f
00000300: 0000 0000 0000 0000 0c34 970e a42c dc3f
00000310: a574 c45d b1dd ed3f c4d0 86e7 101e d83f
00000320: 0000 0000 0000 0000 efa3 2539 1b31 ea3f
00000330: 6d74 900b c0b7 db3f 4d12 0c1e 90b7 e33f
00000340: 0000 0000 0000 0000 9f30 35ba c6f9 dc3f
00000350: a666 e3b3 1157 663f 28e6 eb32 3c76 b43f
00000360: 0000 0000 0000 0000 b333 5849 fd41 c53f
00000370: c5e9 23d0 a5ad eb3f 6638 a282 3749 c03f
00000380: 0000 0000 0000 0000 f894 df86 f1b3 b53f
00000390: ac28 3d97 5358 d23f cc06 8e4f c0a9 e73f
000003a0: 0000 0000 0000 0000 585b 7048 f218 e23f
000003b0: 9330 0d32 57be c73f b47e 5a68 fa61 cc3f
000003c0: 0000 0000 0000 0000 c1f8 67d5 4dd3 803f
000003d0: 2f8e b801 e852 c93f 9c6c ed55 e575 ed3f
000003e0: 0000 0000 0000 0000 e8e7 0675 8f57 e93f
000003f0: cc2c 2733 80c2 e23f f8fa d50c a9fc d53f
00000400: 0000 0000 0000 0000 f695 46d7 f95c d23f
00000410: 9125 1c7a 8900 e53f 5a62 3c23 0c88 eb3f
00000420: 0000 0000 0000 0000 ec03 5e16 4f53 ad3f
00000430: ca29 aeb7 64ab e43f 3372 dbe5 3c57 c43f
00000440: 0000 0000 0000 0000 3f3f 3e5b 6e53 ee3f
00000450: 497f de1d 5387 ec3f 9786 ed6b f185 ab3f
00000460: 0000 0000 0000 0000 094d d916 0c8d d43f
00000470: 5103 d857 a8ab c03f 055b 0bae bba5 e93f
00000480: 0000 0000 0000 0000 3d44 2e51 49f5 e43f
00000490: 005a 831b 9685 c63f 8a45 6486 3f06 dd3f
000004a0: 0000 0000 0000 0000 b478 923d 98f7 ec3f
000004b0: 33db e547 505e d93f 9ccc 6c24 d5e8 e23f
000004c0: 0000 0000 0000 0000 2620 1836 7f38 c33f
000004d0: bade f622 48d0 a83f 752b a173 941e d13f
000004e0: 0000 0000 0000 0000 63e3 edbc a923 a63f
000004f0: 80b4 bfe8 a1b4 e83f a64f 940d 4668 e33f
00000500: 0000 0000 0000 0000 8818 2857 c058 e83f
00000510: c035 dae4 9649 ce3f 5560 e5b2 1866 c23f
00000520: 0000 0000 0000 0000 6c12 4cb4 f582 e83f
00000530: 7348 4017 16d8 e03f baef b4b6 0184 e93f
00000540: 0000 0000 0000 0000 714a 5201 c3e5 d63f
00000550: 68f7 a7f9 ef95 e23f 0970 f787 6093 ca3f
00000560: 0000 0000 0000 0000 8b59 56ec e4dc c23f
00000570: dfc5 a543 7af6 c53f 7d3b 11d3 b24a e63f
00000580: 0000 0000 0000 0000 723f 3fb9 ee15 e83f
00000590: a9ba d297 bea5 aa3f 5b11 63a3 6468 d73f
000005a0: 0000 0000 0000 0000 5b90 06f5 4b1a 883f
000005b0: eee8 5de1 0347 d83f 8f2a 2537 3382 dd3f
000005c0: 0000 0000 0000 0000 a53a c6ba 9492 de3f
000005d0: 4fa2 a0df 69bf e73f 195f ca8b a295 c23f
000005e0: 0000 0000 0000 0000 a9f6 7ce5 cb2f e63f
000005f0: e125 0dbf 21cd b73f 66ec ba13 b9e5 e43f
00000600: 0000 0000 0000 0000 9feb bd1f 0817 e53f
00000610: 2aaa 7e22 0ba0 ea3f 807d d5ce e4b2 9f3f
00000620: 0000 0000 0000 0000 4caa 8faf ca1c ca3f
00000630: c1de fcc6 b407 b03f 6dcf f1ad d23c ec3f
00000640: 0000 0000 0000 0000 a584 261b a2ae cb3f
00000650: 5314 c4ea cae0 813f 6477 f080 e6d9 ee3f
00000660: 0000 0000 0000 0000 d4ce 7371 3aa8 e93f
00000670: df30 81c7 d22b e83f 09af be08 894a e13f
00000680: 0000 0000 0000 0000 b4ad 57a2 a043 dd3f
00000690: 6365 08e6 ea08 ed3f 6ac7 6e6d 01bb e53f
000006a0: 0000 0000 0000 0000 6669 bc72 0cee ef3f
000006b0: e0f3 5a1e bf32 ed3f b1c7 2cd9 bf0a d73f
000006c0: 0000 0000 0000 0000 74c6 6148 ec9f d33f
000006d0: 4a20 2fd4 74b5 ec3f 7a08 f731 a80a ee3f
000006e0: 0000 0000 0000 0000 0465 f190 494c ef3f
000006f0: 673f ae67 4b17 c33f 1f6a 6fe0 c4dd ea3f
00000700: 0000 0000 0000 0000 ab25 d8ce 6a5b c13f
00000710: ad50 5993 c619 dc3f 932a c60b c899 b53f
00000720: 0000 0000 0000 0000 7482 8630 37e6 be3f
00000730: e8b8 5c58 11b3 cd3f c93f 9b3c b774 c73f
00000740: 0000 0000 0000 0000 c87f 33b7 4b1b d03f
00000750: 48fc a831 6388 dc3f 1478 e3e3 12bd c43f
00000760: 0000 0000 0000 0000 adb7 9fb6 b63b e53f
00000770: 6f98 c081 f6b2 c33f 489c 4adb 87a2 903f
00000780: 0000 0000 0000 0000 75dd 1b7d 6a14 e43f
00000790: 45b0 8ebd 95ef ef3f 8a52 ac3d 1b1b ba3f
000007a0: 0000 0000 0000 0000 f7d0 b3a3 3afb 6f3f
000007b0: bf1a 8569 8615 d33f 53cb 9146 6851 b73f
000007c0: 0000 0000 0000 0000 ae4f 9cf8 c2ca ef3f
000007d0: f80d 2e75 6a90 d33f 96ec 0643 ee6c c93f
000007e0: 0000 0000 0000 0000 4d89 598a d94c e43f
000007f0: 7a18 8b13 156e e43f 2d90 7794 aaea c83f
0.0 0.8794739392696583 0.3287819777152952 0.18998855592878539 0.0 0.4726350498200382 0.3190035843495024 0.9323333297970811
0.0 0.05349400796626087 0.02020071388784372 0.7666294694211383 0.0 0.7223373265371792 0.3104767942278604 0.3981395006269417
0.0 0.9301467873314401 0.02600210705495795 0.03634771734192951 0.0 0.40616192658894706 0.49824621064115354 0.4107092249150749
0.0 0.46545269352759766 0.15748522952769828 0.7461578711115626 0.0 0.9033020139251349 0.6689534640549851 0.9491702500428523
0.0 0.11085794647357494 0.6420464779393765 0.5596922235617551 0.0 0.5442300390584899 0.27557359869209896 0.48209883342877374
0.0 0.5564355846218372 0.41448638245028396 0.08928819610597072 0.0 0.12963348626789536 0.10109750439178633 0.4334201621094239
0.0 0.4276198468019294 0.8210343615411974 0.4412147309478614 0.0 0.41211524973152974 0.9199501465079236 0.692468450660201
0.0 0.7825348732060244 0.9849709787356082 0.17175650991735697 0.0 0.7731537401457419 0.8895739280646524 0.3154421650708699
0.0 0.10752445143627432 0.5970416671364632 0.8683991260198383 0.0 0.8431016825431812 0.6500332920612761 0.42808495128753654
0.0 0.8862311373476933 0.9563842856011014 0.2267795688496254 0.0 0.8917838162908063 0.964129815732518 0.7070880491197531
0.0 0.24772781683321385 0.712310407787339 0.466480964386148 0.0 0.5705737741454731 0.2552554554476898 0.6298871801350256
0.0 0.868120265362006 0.8433907259855573 0.5706775758504704 0.0 0.33517302359926554 0.3249326514170929 0.2644641808923119
0.0 0.44022466111056313 0.9333121138949038 0.37683508501073626 0.0 0.8184944263604147 0.4330902207310093 0.6161575877054674
0.0 0.4527451342044148 0.002727064681590746 0.07992912524414264 0.0 0.16607633668209373 0.8649472298850972 0.12723440054509466
0.0 0.08477696936423118 0.2866410233442689 0.739471583729221 0.0 0.5655452170202393 0.1854962343589973 0.2217400559938959
0.0 0.008215530467165501 0.1978425987627914 0.920641582324055 0.0 0.7919385228808524 0.5862427710611882 0.343546164069195
0.0 0.2869248010923394 0.6563155541381765 0.8603573501778314 0.0 0.057276221733452676 0.645922049284587 0.15891228888985295
0.0 0.9476844579785179 0.8915191253072204 0.05375627939680532 0.0 0.321108839333832 0.1302385739254768 0.8014810942939624
0.0 0.6549421868859394 0.17595173209583947 0.4535063564699945 0.0 0.9052239611226214 0.3963814451339431 0.5909219466615414
0.0 0.15016164914436664 0.048464063900096346 0.26749144832563526 0.0 0.043240837395336816 0.7720498605609833 0.6064787163945666
0.0 0.7608339025762385 0.23662077116425273 0.1437407372966414 0.0 0.765986301558383 0.5263777212260393 0.7973640984050612
0.0 0.3577735436348695 0.5808029056640693 0.2076225913905321 0.0 0.1473661569586507 0.17158439925292066 0.6966184732826687
0.0 0.7526773088556935 0.05204578021345203 0.36574665027389636 0.0 0.011768906989182584 0.37933442123870875 0.4610717810179858
0.0 0.4776965927093591 0.7421159141277459 0.14519149614056273 0.0 0.6933345300855837 0.09297381319370103 0.6530423531870724
0.0 0.659061491008618 0.8320365594602823 0.030955863117353655 0.0 0.20400365421604005 0.06261758668994856 0.8824246785502347
0.0 0.21626688314157608 0.008729539193618551 0.9640991705270889 0.0 0.8017856803766912 0.7553495308470949 0.5403485461042418
0.0 0.45725265363463596 0.9073385708644931 0.6790778291090025 0.0 0.9978086701333211 0.9124446480633388 0.36003109177101594
0.0 0.3066359240393475 0.8971504348965109 0.9388009048345929 0.0 0.9780624228398271 0.14914839327365856 0.8395714171886687
0.0 0.13560233211346193 0.43907322301425716 0.08437776839688586 0.0 0.1207003110380443 0.2320272141891515 0.1832493825845616
0.0 0.25166600123156657 0.4458244309389028 0.16202007415171293 0.0 0.6635392729638078 0.15389901481211463 0.016245005378234617
0.0 0.6274921840221582 0.9979962065022013 0.10197611098949202 0.0 0.0039039750387194166 0.2981887846439512 0.09108592722786328
0.0 0.9935011726070024 0.30568944400167153 0.19863680146031432 0.0 0.6343810751098232 0.6384377843576339 0.19466144799582832

YTrain_Boundary f8 [1600, 1]
00000000: 58fa 13e6 f804 f63f 2e6c f5f7 a66a e3bf
00000010: 7851 965a c794 f4bf 9402 6958 387e d3bf
00000020: bcdb 3a0a 1b5a e6bf 985e 0a28 4e04 d73f
00000030: 4593 7b89 c024 d83f 8c08 fa73 ba36 c3bf
00000040: 96dc ff97 3fa5 fb3f 729f eadd fd71 ea3f
00000050: ea4e bc93 4d1c fc3f 32fd 4994 ac4d ec3f
00000060: 0f42 be3d f016 c5bf 90f8 5be1 6188 f53f
00000070: 7408 e116 51bf bf3f 59d0 259c 97fb d6bf
00000080: bd3a 01bf 7af8 02c0 6cc6 1fd6 ff0d 0840
00000090: 70d1 bb1b 0a6a d4bf 520e 1831 eb03 08c0
000000a0: 0e19 1e3f bc5f d83f 16bd cf4b fcb2 dabf
000000b0: b8ca 23bb 1634 cc3f a2b8 de09 9f68 d0bf
000000c0: 6c01 e601 67ce b8bf 1449 f6e5 9328 c0bf
000000d0: 4132 08fa 3042 ec3f 501d b9e6 dd0a c23f
000000e0: a439 fb39 d2b1 c1bf 3afa 2e87 e8c9 0240
000000f0: e0e4 0853 37af a93f 2453 15a0 2b3c 0040
00000100: a8c4 4269 4377 04c0 8465 c4d1 3a83 fd3f
00000110: 19c4 3255 6e24 febf 8eba e08d 32ed f1bf
00000120: ac2e fe32 7ffa f8bf 5062 311d 5431 00c0
00000130: d8ad b496 23c5 e53f 76a8 1364 7325 f13f
00000140: 7090 c639 53b7 f73f e03e b265 d0e3 e9bf
00000150: 406a 0626 21db b7bf 6bce f201 d988 efbf
00000160: 00de f1a8 afc4 ea3f 1cc1 3c04 30eb 00c0
00000170: 5aec 9e39 08a4 ff3f 0fa3 bff7 9254 09c0
00000180: 2e78 7e5f c474 d4bf 3415 6f23 16d4 fc3f
00000190: f6a2 7a52 ce37 f03f 3a22 0362 5b8b fe3f
000001a0: 27f0 58b9 5567 ea3f e08b d0e9 ae08 0440
000001b0: 5cdd bd81 94a6 f13f 2bdc d6e2 203a ffbf
000001c0: 1889 d5f4 f2cb ef3f 1695 a66b b70e f53f
000001d0: e147 8f66 6791 fb3f e286 71ba c734 f93f
000001e0: 8c33 6dc8 c67f d83f 870f b122 2ed1 f93f
000001f0: 815b 73dd 63ea f13f 6bf1 1ce4 2e26 d73f
00000200: 2614 6b4d 9cc8 f0bf 7ada a303 715a f03f
00000210: e31d 8f3d 0b8d e93f 354f c104 0b90 fabf
00000220: d415 cb99 0deb bd3f 6648 961f 8c85 0340
00000230: f1b6 6cc1 ed78 ff3f c0d3 341f 00c6 cabf
00000240: 52a1 04ab 7aae 0140 4073 d9c7 2485 ecbf
00000250: 46e9 5f1d f9cc eebf bfe5 7808 6c80 f63f
00000260: d4b1 b152 eb9a f0bf 004f 0d24 c44e ad3f
00000270: b593 81c0 0a49 f63f d19c f9b3 c0fd f23f
00000280: d60d 4f28 f3ae 02c0 de47 40b7 a31e cfbf
00000290: 46c9 f9dc 68c5 0140 0b2e c824 02d4 09c0
000002a0: 2982 b014 fdbe 0640 f69c b55d 220a 0840
000002b0: a456 e024 bc0e 0740 a13f 4abb 5784 edbf
000002c0: b05a 86c5 3f6c f2bf f499 8d2c c4d1 00c0
000002d0: 6ee1 8389 de48 f03f 5d48 0494 54ad f4bf
000002e0: 628a 7fb9 29eb 0940 a5e3 4e61 2b19 d5bf
000002f0: b757 fb4f b3a3 f33f ba74 1b68 225b f1bf
00000300: 503a 30f0 999b 773f 9644 79cf 9c8e f9bf
00000310: 307e 9fa6 6976 bd3f f021 e56e f5a5 a93f
00000320: 5584 741e 0d7a e4bf 00a2 f2d3 2927 52bf
00000330: 3066 00b7 6c48 9bbf ec80 37f9 9187 f0bf
00000340: c2d4 8eb3 8300 f0bf 744e 0ab9 5170 e13f
00000350: b5ea 01be c4e2 d8bf e89e e8ed e731 f23f
00000360: 2c02 eccb 4aed e63f 031c 61c8 1456 01c0
00000370: bb85 f7d5 a174 e73f 928b 88ba c776 04c0
00000380: 84c1 5ac1 1983 e5bf 2443 d308 0991 df3f
00000390: 6acc c696 7a67 fd3f c8da 7ce8 8001 eabf
000003a0: 9466 a343 89b0 c5bf 92a6 77bd af09 debf
000003b0: 0daf e378 141e e53f d391 04d7 f685 f23f
000003c0: 5609 c503 ae8b f3bf 2b44 af07 b35b f43f
000003d0: 4ea9 b522 3215 d43f 8c9b a8eb a0b6 d4bf
000003e0: c9fb f775 7ebc 03c0 0447 2089 24bf c4bf
000003f0: 2abd 5d92 251c 06c0 24ad dc4c cee8 e1bf
00000400: c741 5377 71bd e4bf 1229 e1f0 2cbb 02c0
00000410: befe 27e3 6d4c f93f 0c42 ae69 be85 fbbf
00000420: 1d96 0666 7d23 0340 30d8 638f 3237 bebf
00000430: a2cf c4f6 6243 e1bf a077 7044 b19f f4bf
00000440: 7504 ce1e dcf7 f53f 0d38 615e e63f 0040
00000450: 85dd c218 cc53 e63f 45eb 922c 798a fabf
00000460: 97cf 1945 b992 dcbf 62e9 362a 648c eebf
00000470: 8cf0 581c dad5 f6bf 4c46 7f0e 5508 d63f
00000480: 8bd2 3fea 2121 e4bf 6dbb 8cb5 27f7 eabf
00000490: b29f 4491 7e61 e0bf 0252 a777 58c5 e6bf
000004a0: 56cf 2fa7 6634 fabf a49d b5b8 b654 f0bf
000004b0: 96b4 f41a e784 fc3f f4a6 c092 7f51 00c0
000004c0: d0e4 15f7 21dd fbbf 4099 c851 1ea5 c73f
000004d0: 0c1c 7b1e 4883 f9bf 7485 5be4 776e fa3f
000004e0: fb4e 94d8 934f e7bf ef84 ee99 b2f3 e2bf
000004f0: fc4f e210 cbbe 02c0 2af6 34fc d596 f9bf
00000500: 4a43 f29b 805d f4bf 621f d135 5f9a 0340
00000510: d8a1 055a c65b edbf a635 586e 83a1 903f
00000520: 99cc 3efa 16d7 d43f b416 53a6 dd9e dd3f
00000530: 3e2b 63cb 12e7 f0bf 1a12 12f2 9c10 0240
00000540: 693f 7dae 6df3 dbbf 5ed8 4f80 05b8 0040
00000550: 1e03 f83b e1ea e2bf a2e4 ba61 4b21 cfbf
00000560: 3a4c 8549 0050 cdbf 646c 25e2 5b4a 02c0
00000570: c7df 67f3 b8d6 fb3f 74de a6ae 227d fbbf
00000580: 10e3 239a 4bd4 f0bf c850 4c14 46c7 d13f
00000590: 874e 71bb 7ce2 0040 f08c 596e 8c12 9c3f
000005a0: 90c5 ec6a 81b0 eebf f4e1 85fe 02a3 d83f
000005b0: 675c b821 9eae febf 8cb9 2d8e 895e dd3f
000005c0: 8404 145f 9b14 bf3f 2340 4679 34c2 e93f
000005d0: d8c5 8b3a f760 f0bf ecc5 a5e7 a010 bb3f
000005e0: 9d49 3dee fe06 0340 8061 0c0a e659 e9bf
000005f0: 26d5 f7f4 30a7 f5bf f557 bcf6 1971 d03f
00000600: ee76 2e5f 9742 eabf aab0 d729 6366 f93f
00000610: 4cd6 7d0f d313 c03f 0722 5011 d87a ed3f
00000620: e5c4 261a 9ab1 e8bf 96ae 2824 6539 fcbf
00000630: 1946 ec33 3c7a ecbf e8ce 56a6 671a cb3f
00000640: 46fa 13e6 f804 f63f 7e6c f5f7 a66a e3bf
00000650: 8951 965a c794 f4bf f602 6958 387e d3bf
00000660: 1adc 3a0a 1b5a e6bf f85d 0a28 4e04 d73f
00000670: 8892 7b89 c024 d83f 2007 fa73 ba36 c3bf
00000680: afdc ff97 3fa5 fb3f 429f eadd fd71 ea3f
00000690: 064f bc93 4d1c fc3f d5fc 4994 ac4d ec3f
000006a0: ba40 be3d f016 c5bf 7df8 5be1 6188 f53f
000006b0: a408 e116 51bf bf3f bbcf 259c 97fb d6bf
000006c0: ab3a 01bf 7af8 02c0 7ac6 1fd6 ff0d 0840
000006d0: 40d1 bb1b 0a6a d4bf 410e 1831 eb03 08c0
000006e0: 3719 1e3f bc5f d83f 5cbc cf4b fcb2 dabf
000006f0: 30c9 23bb 1634 cc3f 5eb9 de09 9f68 d0bf
00000700: f0fe e501 67ce b8bf d448 f6e5 9328 c0bf
00000710: 2a32 08fa 3042 ec3f d01e b9e6 dd0a c23f
00000720: 7639 fb39 d2b1 c1bf 53fa 2e87 e8c9 0240
00000730: 60e0 0853 37af a93f 1253 15a0 2b3c 0040
00000740: a0c4 4269 4377 04c0 6465 c4d1 3a83 fd3f
00000750: 25c4 3255 6e24 febf a2ba e08d 32ed f1bf
00000760: c22e fe32 7ffa f8bf 3b62 311d 5431 00c0
00000770: d8ad b496 23c5 e53f 92a8 1364 7325 f13f
00000780: 9990 c639 53b7 f73f 803e b265 d0e3 e9bf
00000790: 3068 0626 21db b7bf 84ce f201 d988 efbf
000007a0: 18de f1a8 afc4 ea3f 28c1 3c04 30eb 00c0
000007b0: 42ec 9e39 08a4 ff3f fba2 bff7 9254 09c0
000007c0: be78 7e5f c474 d4bf 0815 6f23 16d4 fc3f
000007d0: f4a2 7a52 ce37 f03f 0a22 0362 5b8b fe3f
000007e0: ecef 58b9 5567 ea3f c88b d0e9 ae08 0440
000007f0: 84dd bd81 94a6 f13f 15dc d6e2 203a ffbf
1.3762139308379542 -0.6067690699522978 -1.28632293115251 -0.30457886346634067 -0.6984992217829737 0.35963777456479695 0.37724317003294444 -0.15010767615246257
1.727843850849046 0.8264149984652092 1.756909920780283 0.8844817062635342 -0.16476252569965807 1.345796470937362 0.1240130120141048 -0.359105970848082
-2.3713278696298787 3.0068356255003916 -0.31897213657727885 -3.00191343645728 0.3808432213194387 -0.4171744098993754 0.22033962381063588 -0.2563855739962354
-0.09689945026730634 -0.1262383339749894 0.883079994529517 0.14095662847305812 -0.13823917227859994 2.3485880433284168 0.05016491783721633 2.029380083704739
-2.558234045362571 1.8445385164289698 -1.8838942840632227 -1.1204095403769858 -1.561156462851538 -2.024086216039258 0.6803148215744228 1.0716432484864788
1.4822571045742983 -0.8090593324904738 -0.09318740061136399 -0.9854550397926237 0.836509542436886 -2.114837678054881 1.977546906548716 -3.1662959437711673
-0.3196268971022417 1.8017789253365892 1.013624498542581 1.9090226963618435 0.8251141185824097 2.504239870716887 1.1031689708741714 -1.9516915188703574
0.993646124068877 1.3160928921800568 1.72299900114421 1.575385788244994 0.38279885838419925 1.6135693888799965 1.1197241449751518 0.36170551563897985
-1.0489771865989126 1.022080435008006 0.7984672739339057 -1.6601667581316637 0.11686787609786303 2.4402086704003976 1.9670236163760217 -0.20916749500034193
2.2101949082172405 -0.8912528899487384 -0.9625211309169479 1.4063530283877836 -1.0378220777739573 0.05724156322562912 1.3928325195094946 1.1869513540530543
-2.335424723541773 -0.24312254379088832 2.2213914169052797 -3.2285197137441677 2.843256150852785 3.004948360543149 2.882194793792978 -0.9224051149376359
-1.151428004819234 -2.10242495352872 1.0177903529821282 -1.2923169881728633 3.2398256771132745 -0.3296612215304385 1.227465927533087 -1.0847496096314857
0.00576362735865972 -1.5973175148431316 0.11508808439202123 0.050094289576524065 -0.6398988337351833 -0.0011079700923720681 -0.026643465680626643 -1.033098195555847
-1.0001256002408785 0.5449608434741564 -0.38884085231226645 1.1371840756709677 0.71646632984636 -2.1670318274150318 0.7329873255768499 -2.557998139659909
-0.6722534920173051 0.49322725164261016 1.8377633943280451 -0.8126835385108615 -0.16944995691919884 -0.46934121611284596 0.6599218712921996 1.157706108010747
-1.2216015002491836 1.2723875332051289 0.31379369153605274 -0.3236467648843522 -2.467038079862935 -0.16208321281060745 -2.763743537412343 -0.5596686841212528
-0.6481253939219237 -2.341394311782218 1.5811594842233911 -1.720152294936386 2.3923290224800113 -0.11802974701626634 -0.5394759006216996 -1.2889874146853586
1.3730126574812662 2.0312011121195668 0.6977291568390888 -1.6588069668930114 -0.44645530460479094 -0.9546376060964514 -1.427209959728347 0.34425856033076196
-0.6290444922620549 -0.842670301999403 -0.5119011723772842 -0.7115900361046104 -1.637793210099479 -1.0206820693218583 1.78244696168557 -2.03979410791805
-1.7414874698427418 0.18472651475276258 -1.59455119997597 1.6519698066916506 -0.7284640531601946 -0.5922482496718241 -2.3431607550683093 -1.5993251659232421
-1.2728277293828847 2.450376911587157 -0.9174529798738673 0.016241124734781252 0.3256280368615961 0.4628214000953037 -1.0564144081897235 2.25811184995315
-0.4367326930996485 2.089854242741281 -0.5911718531861856 -0.24320356628394274 -0.2290039404857412 -2.286308066145965 1.7399224765813288 -1.7180506536805327
-1.0518299122906605 0.27778770429837296 2.1105894702867007 0.027414507136552524 -0.9590460861565351 0.3849494443489043 -1.917631274909377 0.45889510044698834
0.12140818663830727 0.8049566620484295 -1.023673275656952 0.10572248130281253 2.378415929074619 -0.7922239490754208 -1.3533181733194595 0.25690316291127085
-0.8206288203252521 1.5874969133829304 0.12560499435828587 0.9212456071991831 -0.7716799269457196 -1.7640124714334084 -0.8899212850685131 0.21174331304575067
1.3762139308379502 -0.6067690699523067 -1.2863229311525137 -0.3045788634663461 -0.6984992217829842 0.35963777456478807 0.37724317003293395 -0.15010767615245246
1.7278438508490515 0.8264149984652038 1.7569099207802892 0.8844817062635238 -0.1647625256996486 1.3457964709373578 0.12401301201410547 -0.3591059708480732
-2.3713278696298707 3.006835625500398 -0.3189721365772762 -3.0019134364572726 0.380843221319441 -0.41717440989936505 0.220339623810625 -0.25638557399624584
-0.09689945026729752 -0.12623833397498763 0.8830799945295145 0.14095662847306878 -0.13823917227859867 2.348588043328428 0.050164917837208334 2.029380083704731
-2.5582340453625676 1.8445385164289627 -1.8838942840632253 -1.1204095403769903 -1.5611564628515429 -2.0240862160392488 0.6803148215744228 1.071643248486485
1.4822571045743074 -0.8090593324904631 -0.09318740061135666 -0.9854550397926265 0.8365095424368887 -2.1148376780548865 1.9775469065487106 -3.1662959437711584
-0.3196268971022497 1.8017789253365795 1.0136244985425806 1.9090226963618329 0.8251141185824031 2.5042398707168765 1.1031689708741803 -1.9516915188703525
