Allen_Cahn4D/dataset/Dim4_2/Allen_CahenC16000_B3200.npz (npz, 769050 bytes, 4 tensors)

XTrain_Col f8 [16000, 4]
00000000: 08b5 3a32 5357 eb3f 9c1a c9b7 49ff e63f
00000010: 93d2 43f7 4b00 973f 0fe3 18a8 c739 d63f
00000020: 7851 55b2 a762 e73f 2d37 18fd 469d de3f
00000030: 6f1e 49d6 90b1 df3f 75de eb66 897f ea3f
00000040: a4ba 1ece 7f9e e13f ef5e 7050 c4a0 cc3f
00000050: d42d 945a af6b 9d3f 5884 1f62 2f7b d63f
00000060: 8d07 9784 1d9f cf3f 2324 8fe7 bf99 683f
00000070: e760 8748 97af e83f 6dc7 4d09 3de7 e13f
00000080: 49fe 34ab 7694 a93f 8c7e 1921 1ad7 e13f
00000090: 0db1 8e72 9789 de3f aecd 43ea 69aa d63f
000000a0: 4b8d 8cd7 0810 ec3f a016 5995 b8c5 ef3f
000000b0: aa8b d85b e9a3 e93f 48fa 263d e449 ec3f
000000c0: 11b6 3bc0 8c22 ec3f 8890 0a7e 9463 dc3f
000000d0: 7882 f231 3457 b03f 593c ffc9 21af e73f
000000e0: 3c78 ceea 46db ec3f 0b51 feeb ca07 eb3f
000000f0: 6f8c 1e82 eadb e13f d8f1 1659 6a83 e33f
00000100: 2364 6450 9150 b33f 8957 6881 c86c e23f
00000110: 3b63 e887 2775 e33f 167e 3ab1 ecbb e13f
00000120: fe1e d39d d16c d73f 04e3 c228 8239 e23f
00000130: d6bd 2d91 4f65 e93f ace2 1b21 324a ef3f
00000140: a98e 25d1 1d29 e93f 376f f9b1 a45a ef3f
00000150: 4e1b 208a e9ed e63f ba24 4bc0 b02c b13f
00000160: 1955 df9b efd9 e13f abb7 f92b c82f e23f
00000170: b1eb 26b8 0dce ca3f 8de2 f5df 36a1 ea3f
00000180: 687e c516 ec47 d73f 7a88 2db3 33da e83f
00000190: 2756 f82a b174 e63f 60ff 1138 f26a d03f
000001a0: 9a4d 4ec5 82cb ec3f e6f4 fa95 f5dc d63f
000001b0: fc23 0415 48c2 ce3f 9f1b 4073 e964 d63f
000001c0: be14 e4a8 5edc df3f f619 947d fb63 c43f
000001d0: d2b0 f963 49ee d03f 7749 c50e 0a21 de3f
000001e0: 5b86 bfdd 10a1 bc3f 4bd1 30f4 5670 db3f
000001f0: a558 ab0b af79 df3f d373 c777 5625 e33f
00000200: 9d80 0af8 a6f1 ed3f df6f 28df 1bbb ef3f
00000210: c38c bd0b 492a ec3f e86d 35bd 253e ca3f
00000220: 08b8 c200 32e2 e93f 73a6 b687 8ea3 ef3f
00000230: 3dc9 750a 2550 c23f 42ab af5a d380 ec3f
00000240: ec48 0088 72aa aa3f 2faf 89f8 b69e e73f
00000250: a83a 6dda 7539 ed3f 71e9 9d83 cf70 db3f
00000260: 4e51 aec6 f426 e03f b4fb 5c12 203c e93f
00000270: b375 e6bc a018 ed3f 615a 957c a171 e73f
00000280: 164d 3fd6 fe38 e73f 17a6 59e4 e2f0 c63f
00000290: adf3 6954 6ebc b13f 8d5c e676 d168 d13f
000002a0: e8b6 901a 67f2 e83f 421c 0158 2f6f ea3f
000002b0: d8c9 1b24 af5c df3f 32f0 d55b 761d c43f
000002c0: aab2 e3f7 0a5f e73f 14c0 db87 894f e73f
000002d0: 1c95 5996 2f02 c33f 1397 0fb5 dd64 d23f
000002e0: 70fc 5608 5e59 e53f 63b5 c99c d787 b43f
000002f0: 4f4e cb1d 3d39 d43f fe96 01c8 7a50 ec3f
00000300: c628 6af7 4feb ee3f 3c15 9da2 a4b0 c03f
00000310: ce09 0345 621d be3f ac42 2339 f4fb e33f
00000320: 5dc7 2d01 dc70 e93f 7372 bc93 5a0d c13f
00000330: 55b9 1fba 48d9 d33f 7c3f 8c05 c58b d43f
00000340: 4b84 0d65 0109 e13f 1802 a84d 0857 ea3f
00000350: 0635 5bad 4556 da3f 8094 2f55 1f07 e63f
00000360: 828e df7c 4251 ba3f 9e6e b859 27ce d53f
00000370: e93b a2aa 2b1b d93f 02aa a758 3029 d33f
00000380: bcfe d8e4 3515 dc3f 9c5f e214 57eb bb3f
00000390: 5702 2fb5 1335 e03f 107b f1f6 872a e53f
000003a0: bc9f 8bfb 8437 cd3f 533d 35d9 46c5 d93f
000003b0: 7d3c a7c2 f42c eb3f 034e 4191 176b da3f
000003c0: db5c 8d46 c9fb e83f 9d96 cfdd 7fd4 db3f
000003d0: 1b94 e3aa 7290 d03f 9157 160b b297 cc3f
000003e0: 17f1 fb25 70ff ee3f dcae dee0 c829 de3f
000003f0: a23c a871 2d52 e83f f327 e16a cdf7 eb3f
00000400: 107c 2126 a704 c53f 53d6 c496 8bf0 eb3f
00000410: 6dc4 6072 6a42 da3f e685 e7bc e8d8 a63f
00000420: 780a 5c2c 605e ed3f 7172 f4ba 7826 e73f
00000430: 58ba 7feb 6c3d e23f 78ab 0a4e b127 e53f
00000440: 392d 16c5 f409 c63f 4809 adbb d90b d33f
00000450: 13f6 6b8b afbd df3f b617 f579 a4db e03f
00000460: 64a2 a226 ac74 ee3f a151 798c 8d7f ef3f
00000470: d458 2e97 df1b ef3f 9622 9cee 68bf dc3f
00000480: e044 5021 435e dc3f bf5e c06b c532 ed3f
00000490: b816 2fc5 9a5a c43f a2d5 e705 dbae eb3f
000004a0: 93be 3538 9060 eb3f 0d24 d0f6 3b7d e93f
000004b0: 86cd dad7 25b3 e63f 8a95 4bde ba30 e43f
000004c0: 5c92 f652 40fd b93f f88d 3156 f6b6 d53f
000004d0: 6312 0673 a318 ef3f 9095 3ec3 87ea 983f
000004e0: 5780 382d 759e df3f d925 635a 2caa d93f
000004f0: e2e4 df7d fde6 e03f f663 99c1 2dd8 c33f
00000500: a864 1277 8503 d83f 1aa0 4a86 e895 e33f
00000510: 64a1 141d 41cd d43f 25d8 538e c4ef d23f
00000520: 145b da33 e745 ea3f 4adc 56d5 b43d cd3f
00000530: 6216 0710 5204 d13f 78d8 f25f 8967 e63f
00000540: 336e 9204 e033 df3f 5c0e 3325 574d dd3f
00000550: 8a43 c97e df25 d83f a395 699a f345 b13f
00000560: ef50 7c5d 6be0 c53f 3b2c 3f67 f921 e33f
00000570: 2d02 6a72 a92e ef3f 9e64 c77d 8e88 c53f
00000580: 235a 3b10 5b24 a13f d328 922b f8bf e03f
00000590: a583 98a2 25bb eb3f 30f8 1509 751e d13f
000005a0: 55db c233 966d b73f 8d59 12c9 d89c e73f
000005b0: cf88 cb6a 6e0c e33f c2f6 cf9e 2d86 cb3f
000005c0: 4b67 c7da 18df e63f c341 cb86 d175 e53f
000005d0: f1ab b6ca 4604 e43f dd32 185c 21f5 c83f
000005e0: 66c6 b101 1329 e83f f35f edf0 04c5 d33f
000005f0: 5c1c c0bf 590b 933f 7bed f809 4aa5 ef3f
00000600: 19b4 4521 294e e93f cf01 b6b8 ce85 e23f
00000610: 73e1 016e b89a ea3f 9695 e319 cb2c ed3f
00000620: 9f96 642d d72d ef3f 600f 978c dfab da3f
00000630: 6579 6b21 2654 ef3f 8316 3b0e e105 dc3f
00000640: 8bfd a70d 7c36 d03f f7b2 de51 c50d ed3f
00000650: 93a8 1d3d e239 d33f 49d4 cf91 601d d13f
00000660: d422 8d9d 3e50 ed3f 89d6 a566 d59f da3f
00000670: c75b 6f00 e901 cb3f efac 8dc8 93b2 d93f
00000680: 7923 871f ece9 ea3f e8c4 ddcd 3a0d ec3f
00000690: 5731 f7df 8abb c73f 88c5 b9e0 bcaf c83f
000006a0: c470 550f 84de e83f d102 51cb 509c ea3f
000006b0: 6d83 b922 b87c e13f 191b e3e5 0527 8a3f
000006c0: 68c4 285e 2ab1 eb3f 00dc d12b 9aed d03f
000006d0: 2b86 29bd 56e6 a83f d105 fcae f34d ca3f
000006e0: ec6a 42e0 87d1 a73f 8129 9ae1 8ee0 dd3f
000006f0: fd93 7f80 5e77 b23f e7fe f17a 224e eb3f
00000700: b85f 497c 83ee d63f 9607 1542 031e b33f
00000710: dd7d 97ac 4369 5b3f 7542 7b64 8151 c53f
00000720: 455c 60e9 3b2a ee3f 2284 08a4 72b3 943f
00000730: 60b1 fdeb aeb3 ed3f b887 ebf7 ac84 d93f
00000740: 7e38 6b79 cf5a c33f c298 564d 7026 e33f
00000750: d73d d679 2680 dc3f 9860 fac0 a202 d33f
00000760: bd40 c4a8 aaff e43f 7614 2ef8 3f3d db3f
00000770: fe87 982f 49ba eb3f 24d5 1c32 de39 c83f
00000780: ea0d 57b5 0273 cc3f d156 9f46 f024 d43f
00000790: 5024 0bfa 45f0 d73f f37d 763a 05f5 a23f
000007a0: 3c6e 785c 0885 e13f 698a 86d1 c76f eb3f
000007b0: 59f0 3f63 ad98 c63f 8a6b fc4a cd6d ad3f
000007c0: 4771 0f8f 6bc9 e43f 2227 2fb2 8f0d 943f
000007d0: 5fd7 aa4d 707c c33f ccd7 6fa1 fb31 ea3f
000007e0: 71fe 8c33 099f e83f df15 eebf 850b e93f
000007f0: 0380 77a7 8b68 e73f 6cb4 2bc5 2a02 e53f
0.8544097882310391 0.7186630811273349 0.022462069479802848 0.34727660575622193 0.7307928546020284 0.4783494445444941 0.49521275450067653 0.8280684480841517
0.5505980516225759 0.2236562149780563 0.028731098083012288 0.35126862127623815 0.24704331373328295 0.0030030010352431065 0.7714344421938478 0.5594773465838735
0.049960811995785344 0.5575075766063988 0.4771479243015769 0.3541512286894556 0.8769573411886226 0.9928858677819399 0.8012587350716462 0.8840199655895242
0.8792175058894732 0.44357788380353513 0.0638306257192286 0.7401284165624801 0.9017672143998037 0.8447012528654637 0.558095220698659 0.6097919216186325
0.07544811451624915 0.5757792022220524 0.6080510763596075 0.5541900121206165 0.3660167733437304 0.5695200725668603 0.7936170421143582 0.9778071066530933
0.7862691006561892 0.9798148609220111 0.7165420243989986 0.06708817190805663 0.5578535122282658 0.5683327540298156 0.2094132565669873 0.8321794866779598
0.3637647840859928 0.7766359805648471 0.7017446364649843 0.2565274760781815 0.8998426297788911 0.3572362866069184 0.24030400301151633 0.3499091744892499
0.497825303013382 0.15930122024310805 0.2645438648530788 0.4707665580982829 0.11183267034314197 0.42873166891810816 0.4918019880254952 0.5983078326640857
0.9357485622931737 0.9915904387048576 0.8801617841058021 0.20502158869463405 0.8088617338996764 0.988715424600015 0.1430708218645779 0.8907257815566043
0.052081660367678 0.7381243566755752 0.9132642046113988 0.4287604127236114 0.5047553902136686 0.7885895117432171 0.909256333299416 0.7326209481496556
0.7257074532048218 0.17922626638328218 0.06928147850881201 0.2720225964671464 0.7795901793340052 0.8260723799547878 0.49003199125504926 0.15714911922612057
0.7303519097891542 0.7284591344341629 0.14850420800500153 0.287406374757084 0.6671590960394393 0.08019778802709747 0.3159935751875524 0.884824171673898
0.9662246544187603 0.1303907197963471 0.11763586220607822 0.6245061031314285 0.7950267813705342 0.13322002614667702 0.31013696838535526 0.3210308603456651
0.5323492978751657 0.8231240765308625 0.411515635770073 0.6883694328104326 0.1028024248949411 0.34070762407075417 0.392283360132693 0.29938896806439186
0.4387945875969128 0.10905975589628131 0.5064791239493144 0.6614417861090676 0.22825681955805333 0.40266581737247015 0.8492378045865646 0.4127863806254199
0.7807356241200084 0.43484493886203684 0.25881640137078116 0.22337937871332916 0.9686814062002068 0.4713003345484432 0.7600314350001052 0.8739993178835433
0.16420449601989207 0.8731134361939418 0.4103036992046956 0.04462363534890894 0.9177704683682597 0.7234462405645684 0.5699982261265388 0.6610952877284566
0.17217883704538808 0.2975982983372387 0.4959524976291913 0.5268118268947919 0.9517422442050472 0.9843204253798384 0.9721525147204155 0.4491827325987655
0.44325330975796184 0.9124476532478737 0.15901503208276835 0.8650946727126902 0.8555375192499518 0.7965373821799645 0.7093686309730607 0.6309484807685959
0.10152055764644657 0.33929212968197886 0.9717576262051576 0.024332162181641304 0.4940464917763214 0.40101155115970993 0.5281970461357128 0.15503475144467388
0.3752149260340709 0.6120493529206243 0.32502773132229934 0.29588426493808334 0.8210330975296949 0.22844562928159667 0.26588870587543145 0.7001387475963972
0.48754120298847 0.4578454840923081 0.3773115862032276 0.0674736263259406 0.1709112364266114 0.5978972450769854 0.9744460329675967 0.16822987691447094
0.03348049710409764 0.5234337664599259 0.8665950942705548 0.26748395812308257 0.09151591075611283 0.7378963401013593 0.5952674947586959 0.2150322938395473
0.7147335312867907 0.6706321366019029 0.6255220374345055 0.19498078343203576 0.7550139458746343 0.3089001038365488 0.018597986534612296 0.9889269060872005
0.790791096672936 0.578833924068073 0.8313867710667594 0.9117179399151378 0.9743457686024221 0.4167403099966034 0.9790220883112793 0.43785883321502456
0.2533254750596476 0.9079310034772722 0.300407943423701 0.26741804351269544 0.9160454823659969 0.4160054685993165 0.21099579354515027 0.4015244921235554
0.841054975107098 0.8766149540735144 0.18541084228344104 0.1928630921643555 0.7771625804412214 0.8315814944290542 0.546474521466832 0.012769743040178793
0.8653766478584091 0.2645020893027663 0.04863234576329164 0.2055039028564765 0.046520467877788935 0.46683094054665025 0.07213392865340036 0.8532879258418377
0.35830771577229426 0.07467670787175815 0.001673046196053344 0.16654984861681368 0.9426555212147681 0.02021578909091571 0.928183995170496 0.3987228795141351
0.15120881489423604 0.5984422216904692 0.44532167337544365 0.29703587384711616 0.6562093063567073 0.4256133960373697 0.8664899758916815 0.1892659897509158
0.22225984434599805 0.31475455185623696 0.37404012125313546 0.03702560747774077 0.5474893384993673 0.8573950855537308 0.17653434129886383 0.0574783472095169
0.649587420859043 0.019582982302188807 0.1522350672946073 0.8186014321388426 0.7694135672426922 0.782656550277064 0.7315119047962074 0.656514535044733

FTrain_PDE f8 [16000, 1]
00000000: 7fd7 afad 6f64 d0c0 03d1 ff6a ebac cc40
00000010: 8008 c8c6 ebe2 d840 5385 60bd 345a d140
00000020: 4702 ab98 5a03 cac0 81c6 aede 3b09 c4c0
00000030: a30c 28cf 5ba2 d640 13e0 e3e9 9561 b7c0
00000040: 2b96 033f 373b c740 e650 33b2 9ce8 cdc0
00000050: 4e59 0089 0f49 c740 83fe 251d e8e3 dc40
00000060: c3c7 3184 ff09 d7c0 085c fc17 f439 dc40
00000070: ce45 839d 2267 9840 c198 6248 27f8 d5c0
00000080: abce 2222 d996 d5c0 eeb1 3a3d 9a67 a740
00000090: 9e86 dfb1 c033 9540 272a f7d4 c9cc b740
000000a0: b54d f287 64bf 9340 87e2 77cf 2dee bc40
000000b0: 3abf c11d 8b8f acc0 c76d 614e 54c5 d2c0
000000c0: 4279 8198 0b46 8f40 577d 71a1 a3a5 db40
000000d0: 1063 108f 6902 d0c0 528a 7210 3cae cec0
000000e0: 8172 409c 4e78 cdc0 01cc ddf9 353e ca40
000000f0: b48c 149c bb73 d2c0 6110 c847 2213 c840
00000100: 633f b384 4ccd d0c0 7b7c c3d4 6063 a440
00000110: d506 353e 86a3 d2c0 e655 a132 2b19 d4c0
00000120: f130 0b59 bc57 dec0 adb5 df19 b730 b1c0
00000130: db81 ed73 f4d7 d140 fe9b 812c 0489 92c0
00000140: 986b 54d9 de22 c9c0 d3ff be32 f70b b540
00000150: b0a6 a34c f199 a4c0 7f3e 1ffe 4f57 c3c0
00000160: e369 a40b 60f3 ce40 fc70 7b42 f662 b3c0
00000170: 89db 3b02 c673 c140 641c 5e60 a218 bec0
00000180: 9fa4 f3d9 5c11 c3c0 7448 cfae 7c62 cac0
00000190: 152c 393f 51a9 d7c0 7395 14a5 e763 d6c0
000001a0: e298 50e3 ebb3 c240 6571 e46e ae75 c8c0
000001b0: 02f8 4f4d 7c84 bf40 b3cd 051c 709c c040
000001c0: 16ab 5fce d0e1 d1c0 1bc9 0049 298d 89c0
000001d0: 6a16 d0ad 3f58 e0c0 d960 812a 5128 ccc0
000001e0: f588 cb80 7bd1 d7c0 1a7e 04fd 51ac bac0
000001f0: 95f1 cd1b 3a1e a440 2e30 6d3f c2fd b240
00000200: d2c3 d296 5436 74c0 38fa 716f 6fdf dfc0
00000210: e78a 6fba 8d02 d740 7193 c805 e0ad c040
00000220: da13 9eed e136 d2c0 a67a 930c 3dd5 d0c0
00000230: 86b2 6c2e 3fc3 c240 8996 2b59 6aa7 db40
00000240: a004 dd92 81f8 d9c0 01db 0c78 0e23 d5c0
00000250: d8e5 084f 32da d4c0 7bf7 8d37 8c41 ddc0
00000260: 1822 ea67 e5b3 c140 77d8 dcf5 0bff bac0
00000270: d0a1 2d5f 4458 98c0 de4e 9074 e537 c7c0
00000280: 538a eb5e 52e6 d8c0 7e00 4330 9cfd a440
00000290: 8349 14d1 e60e dbc0 ca06 457e 7345 d8c0
000002a0: 6051 0311 376d 8240 6e2b 1960 ff95 d9c0
000002b0: 3854 484b ca30 dac0 7066 97d6 baa8 9c40
000002c0: 1a5c b836 a9e2 de40 0f82 25b9 e618 c6c0
000002d0: e048 4fbe 07eb cb40 27e4 7e9c 2e2b cd40
000002e0: 81c6 c67e 3be0 c540 78e0 060d c484 bcc0
000002f0: 53b4 60d8 5a99 c9c0 b6f9 13e1 6848 d040
00000300: ecf9 5b7c 5761 d640 215e 8ff7 9a50 c3c0
00000310: 87c5 63d4 ac6e a040 b35f b683 f19b b340
00000320: ac93 05c0 983c ba40 f16b ad10 91ad 9440
00000330: 5c09 bb35 ab8c d7c0 5afb 4d57 d721 d040
00000340: 82e9 7efd 145f e040 ca5c c0fd 831e 9c40
00000350: 704c 7c14 82d0 4840 5d40 445a a89f d7c0
00000360: bf61 018b a817 ac40 3d1a 8668 3f2b c340
00000370: d082 d449 3663 d7c0 3ed5 fc8f 8c8f d540
00000380: 8eb5 7123 5709 cb40 828d 37e4 fe4f a5c0
00000390: 1d79 5a9e 0d3d dac0 76cb bf95 3d56 dcc0
000003a0: 211c 9f8e 88d9 ca40 27b8 eeb0 7365 bb40
000003b0: 34da 5a23 45ba cb40 593a 9836 142e a2c0
000003c0: e96e 7fae 4b30 c340 920a 896c 4e88 cac0
000003d0: 2a05 d253 1f42 cfc0 b35a 46db 5e9f d5c0
000003e0: 5f11 e9a3 f94a c340 60cd ce0c c676 d040
000003f0: 4dda 4cee b935 b0c0 e767 f249 3af9 d940
00000400: 7f61 2f80 831e da40 0691 ee71 a5b1 d5c0
00000410: bc4f 35e5 e40e ba40 38db e19c 5c55 d240
00000420: 7d3e 0ba2 8835 c940 a1d9 f3d8 c975 dc40
00000430: 4504 972b c483 b540 f19a cd9c bfec d2c0
00000440: 7f2b 3b1c 7ec5 dbc0 bf0c 386e 8b1f dd40
00000450: e79a 63f8 d5c6 c840 0323 29fa 5307 76c0
00000460: b8ce 8301 c54c e140 44a8 b180 b1d6 c240
00000470: 3498 44d5 ea52 c540 5d05 2468 fd8d d8c0
00000480: b2d4 d707 4444 d840 a861 7347 d247 d240
00000490: 61a8 1fd5 4a0e a040 ac77 c149 7a54 c540
000004a0: 49a3 7628 28bc c440 8781 bb66 5d65 da40
000004b0: 0531 3b91 cf73 c8c0 be10 b8ed e016 d4c0
000004c0: ddba 46e5 4fb3 d0c0 fe9a fe68 e904 7dc0
000004d0: 824b 6e99 d646 c740 035f d75b e901 d5c0
000004e0: 69b9 f56d af16 dbc0 3c6a 9aa7 728e da40
000004f0: 5ee8 1a38 1e38 db40 03b5 b427 0809 c5c0
00000500: 8dbb 7761 cac5 c040 7ae9 7ab1 4ae4 ddc0
00000510: 3486 b6ed 0daa cdc0 eedd f320 b30f e0c0
00000520: 1a66 57f5 91f4 c3c0 a529 1e67 7673 c0c0
00000530: 8727 d5e8 bfe8 da40 8c25 1c6b 45cd c440
00000540: ff4d 6b74 b785 c340 73fa de13 8f37 d1c0
00000550: 199f 7c15 bae9 d8c0 4986 b746 2b15 92c0
00000560: e643 e0b4 4ef2 e040 8c2b b4a7 f8fe c140
00000570: db20 eb85 e6f9 c540 8098 a0ef b5d4 c740
00000580: f2c1 d26e ff1c dc40 36a6 1615 6f2a dac0
00000590: 0fc9 6dd0 5d8f d0c0 3fcf 9311 d207 de40
000005a0: eda7 094a faf7 c9c0 8fdd 62dd 948c bac0
000005b0: be73 990b 5ef3 d5c0 a955 19f6 83f9 d340
000005c0: 0452 20df 48f0 b140 ea4e 89e5 4456 ca40
000005d0: 8dff cd7a 0cd3 b640 1c0e fe96 4e41 bac0
000005e0: 086c 71bb 1db0 e0c0 2b7f 271f 1571 7d40
000005f0: 41e7 6f32 07f4 7840 a256 2b09 c4ad a6c0
00000600: 14f8 f6ff 3928 d0c0 87f0 3dac 4b98 ca40
00000610: 3aa7 8e55 8bb3 cec0 9f66 dfdd 34df cf40
00000620: 57e9 910b d7ae d840 e579 8beb 5caf cc40
00000630: 19fe 09af 5e77 c740 543f 7606 9d63 d5c0
00000640: f39e aac3 fc2a c440 5a74 8f5c b684 d6c0
00000650: d948 494a cfca cfc0 f62d 2b49 f729 e140
00000660: 9676 b724 60d4 c240 2ea3 2da2 3c85 c640
00000670: 9384 f92e f01e e140 af7a b3eb 0152 db40
00000680: 09f1 0770 4030 a8c0 bf6b df57 098a e0c0
00000690: 7875 991b 15b1 c0c0 cf35 dc0e d3a1 c6c0
000006a0: 7093 1964 4a79 d840 da38 fabc 3399 dc40
000006b0: 65ad 8656 a4b0 db40 f30e b7f3 d611 d7c0
000006c0: f81c 6732 9cf9 d0c0 3525 97bc 728f d3c0
000006d0: ed1c 9185 7dba cdc0 3c73 7c19 07fc dbc0
000006e0: 233f ba05 f627 d640 d929 694c 6918 d3c0
000006f0: 6f72 6f63 368c d1c0 8c39 260c c864 8bc0
00000700: c8a6 4b95 c722 d540 6453 9bc8 6bfb c740
00000710: b9d7 ba82 1caa cb40 117e 2576 63ad dac0
00000720: e9a0 02b0 a449 c040 36e7 d2bf ff34 a040
00000730: f929 b0cf d215 9440 fe06 4ba1 c2a1 c640
00000740: be58 0540 a2e2 d9c0 2269 816e 9284 d440
00000750: 96da c2bd 3041 d840 66af b869 6875 9d40
00000760: bd06 a93a d584 d340 1044 92f5 6ada df40
00000770: 3818 4b44 97b9 d3c0 4c44 4fde 6124 d840
00000780: 06bc f6bc 8c85 98c0 cc79 05b4 c47a dfc0
00000790: 2c77 102e a9a8 d340 61c5 7051 ee62 e040
000007a0: 7949 c2dd e8ad a8c0 f939 16ac f780 bcc0
000007b0: 9dc6 9517 4ee1 d140 f53d 9d66 5a92 e0c0
000007c0: 09a6 0717 c55d c2c0 8f27 3a9a e24f e0c0
000007d0: 9428 51a1 ba82 d4c0 6b05 6d6d 0305 d440
000007e0: d728 ae6c c803 ae40 735e cf6e c660 d3c0
000007f0: 320a 6619 ba04 e140 de23 a8ac 416d dbc0
-16785.74497600598 14681.839202858979 25483.68400765257 17768.824058656883 -13318.707784057724 -10258.467733237196 23177.434518825856 -5985.585600130277
11894.431610534977 -15313.224188246251 11922.121368449789 29583.62677907805 -23591.992443509178 28903.813963975786 1561.783803988586 -22496.613793038534
-22107.39270849402 2995.801248392315 1356.9381785322107 6092.788405845443 1263.848174844735 7406.178946965031 -3655.7717114015513 -19221.317283971028
1000.7556619753962 28310.556728718188 -16393.6493569343 -15708.46925193552 -15088.614143424902 13436.421687817203 -18894.931401383787 12326.267815597532
-17205.195599376584 2609.689123257585 -19086.097546822235 -20580.674965223203 -31070.94293479709 -4400.715238553862 18271.81957566911 -1186.2540760280094
-12869.741007378136 5387.965618073899 -2636.971287836168 -9902.624942689434 15846.75035529299 -4962.961951937756 8935.546943170733 -7704.634282953197
-9762.725401358968 -13508.974084768655 -24229.269483845757 -22927.61945070834 9575.84287459817 -12523.362759166115 8068.485554693269 8504.87585518402
-18311.26259605129 -817.6451587735531 -33473.98996738794 -14416.634109661378 -24389.929736026523 -6828.320266991412 2575.1134933812523 4861.758780311835
-323.395651648808 -32637.741177076678 23562.214504132888 8539.750176498406 -18651.530128020655 -17236.95389258363 9606.493604266328 28317.661692521102
-26594.024588827626 -21644.226077283736 -21352.78607389875 -29958.190890781098 9063.792233721397 -6911.046720316742 -1558.0667693262112 -11887.792619741926
-25497.287043461878 2686.8050557077504 -27707.60651118449 -24853.804581886892 589.6518879183968 -26199.99024037591 -26819.16084488129 1834.1824592262528
31626.643964853232 -11313.80252522326 14294.060495291313 14934.3641508688 11200.464806410719 -7300.765823774149 -13106.709728324937 16673.63873767267
22917.366965288224 -9889.210679932557 2103.3375579050658 5019.943416021694 6716.596680019906 1323.3916651818402 -24114.675154456272 16519.364703650914
33528.65594430549 1799.6288976723322 49.62896972722308 -24190.63050943647 3595.8291855270213 9814.495377314388 -23948.848256232974 22078.196288307423
13842.680769170427 -2727.9978349075545 -26868.212790125155 -29016.962264965718 13747.06685246347 7013.451918525657 14196.54014144568 -2327.0394790240503
9824.59126274982 -13584.612687235032 -16004.24474549534 -22141.48213347299 9877.950314649088 16859.094531727373 -4149.726292422577 26596.91076336047
26746.054698796474 -22214.58507885134 6670.894122440306 18773.44707533272 12907.067445188057 29143.153866732147 5507.766290129225 -19378.993945504484
-28437.97047309158 29822.1786022305 12685.671642733227 -352.4580022437005 35430.156434921024 9645.386739928399 10917.834633421247 -25143.959481244314
24849.062978704176 18719.28561100518 2055.146157254509 10920.955375846323 10616.313734845857 27029.459395290844 -12519.621619605003 -20571.514509216642
-17101.24836891411 -464.3069848962331 11917.676557337636 -21511.6462305477 -27738.74108641726 27193.791479686493 27872.472174384042 -10770.06371172751
8587.581099478319 -30609.167082527165 -15188.1088169246 -32893.597772534806 -10217.140299725394 -8422.925021906218 27554.99858597622 10650.542331236204
9995.433240330776 -17630.235587830142 -25510.907561450356 -1157.2922619510375 34706.459579594244 9213.942617913497 11251.800961867373 12201.421375345672
28787.991139115715 -26793.735662138286 -16957.465846487376 30751.2823228382 -13295.955384451861 -6796.581503085224 -22477.469457972555 20454.06189568868
4592.284654636405 13484.53825489381 5843.048748850718 -6721.306991461224 -34176.92913123226 471.06765666416567 399.25175708496323 -2902.882882456136
-16544.906247846855 13616.591193907208 -15719.08854849973 16318.413021016224 25275.360081174727 14686.725938257712 12014.739716767379 -21902.45351940331
10325.97472126733 -23058.849399436593 -16277.619454536982 35151.72768172242 9640.751120503333 11530.47369928806 35063.505734213766 27976.030011052902
-3096.125854728864 -33872.29197665257 -8546.164904768331 -11587.648890997194 25061.1623596134 29284.808409266967 28354.567781133013 -23623.35862518749
-17382.440576341905 -20029.792760645232 -15220.980638636707 -28656.11093055013 22687.844099580438 -19553.6452887448 -17968.849819051506 -876.5976794229805
21643.118487275002 12278.842059531897 14164.222739558538 -27317.554086087333 8339.286621407098 2074.4995103747597 1285.4558703923815 11587.52054727403
-26506.53515752474 21010.287994721097 24836.76158210131 1885.351965795236 19987.331705338078 32617.671238485782 -20198.363543294574 24721.52919370336
-1569.387439589716 -32235.07348763365 20130.643436542872 33559.44744146872 -3158.9548168863953 -7296.967469586519 18309.220189517935 -33938.82502615071
-9403.539765316078 -33407.081326558364 -21002.916096009852 20500.053553824702 3841.891454164968 -19843.100513307796 34853.81560041419 -28085.0261631346

XTrain_Boundary f8 [3200, 4]
00000000: 0000 0000 0000 0000 dd8b f691 8977 ab3f
00000010: 51c7 3dc8 22e3 e13f 80a8 8f09 0d08 e23f
00000020: 0000 0000 0000 0000 2e75 91bf d07f de3f
00000030: 406b d216 f796 d43f 58f3 5403 9620 e43f
00000040: 0000 0000 0000 0000 fabf 599c e87b 923f
00000050: cc65 303e 9e22 d53f 91e2 5c5f 19e4 d03f
00000060: 0000 0000 0000 0000 d276 7ffd d670 e43f
00000070: 4812 c397 dbcb d03f 02dc 61fc 6bbe e03f
00000080: 0000 0000 0000 0000 6513 9255 0d57 bb3f
00000090: c20e bc99 37f4 b33f 8ab3 e94a cccb e83f
000000a0: 0000 0000 0000 0000 92d8 acaa c392 aa3f
000000b0: a1cd bcca adde eb3f 40a7 7640 c3e3 ea3f
000000c0: 0000 0000 0000 0000 af1b 3bf9 bb52 dd3f
000000d0: 0378 b2b3 acb6 ef3f a64d 375b 98fb b93f
000000e0: 0000 0000 0000 0000 2abc 1e89 0a18 e23f
000000f0: 2111 5f37 3ff1 b73f ed4a dc63 3492 d73f
00000100: 0000 0000 0000 0000 8816 c546 083d e93f
00000110: 7f7d b445 5836 e83f 5a8c bcf9 04b4 eb3f
00000120: 0000 0000 0000 0000 e472 5eb4 524a be3f
00000130: 26e5 57d3 ca42 c43f dc2e a831 6d56 e63f
00000140: 0000 0000 0000 0000 ea4e 93d3 e277 cd3f
00000150: a111 8bc7 ff14 ef3f 7b69 9a96 b6c5 d53f
00000160: 0000 0000 0000 0000 0147 e7d1 ed98 e43f
00000170: 1c07 9d45 9921 de3f e612 e4fe f479 ed3f
00000180: 0000 0000 0000 0000 34fb 404a 89dc e13f
00000190: 9c5f f27a d7e3 c33f 454a 2248 9562 e53f
000001a0: 0000 0000 0000 0000 d1c7 187f 7376 da3f
000001b0: 37a9 6aa3 3254 d53f 2360 9098 74fe e53f
000001c0: 0000 0000 0000 0000 1d50 56c7 bbb6 ee3f
000001d0: 16a1 d42e 2b0d ca3f c897 cab5 e01a d03f
000001e0: 0000 0000 0000 0000 b2da cf23 00bf e53f
000001f0: a135 6cc5 8b78 e33f cd13 b877 3a0f da3f
00000200: 0000 0000 0000 0000 b6a2 63f0 cd2d ee3f
00000210: 3f5e 5983 1382 dc3f 373c 2310 daaf e83f
00000220: 0000 0000 0000 0000 5812 9623 262d e63f
00000230: 395c 939c 0202 e33f 6fcf 047b add9 e83f
00000240: 0000 0000 0000 0000 aa87 81c9 a5bd da3f
00000250: 0dbd 49c9 c967 e73f 3852 51ab abe9 d23f
00000260: 0000 0000 0000 0000 48db f06b 186c c43f
00000270: 9696 2cfb 06fe d23f 2ef5 a69d 2453 ca3f
00000280: 0000 0000 0000 0000 f3fb 4c17 4a4e e53f
00000290: 2ff1 aafe 39fe d63f 3c05 d394 24a1 e23f
000002a0: 0000 0000 0000 0000 4c3c 2b12 76e8 d53f
000002b0: 1804 3434 766a 893f 453d 8e4a 28f2 ec3f
000002c0: 0000 0000 0000 0000 1d3a d187 1885 c33f
000002d0: f7c5 2a12 c14e e93f c71c fa58 724e c23f
000002e0: 0000 0000 0000 0000 29e3 0449 f3d5 e03f
000002f0: 803a ba72 b5d0 353f ba0e a870 61d8 a73f
00000300: 0000 0000 0000 0000 1883 cd20 eb76 ef3f
00000310: 71c8 9cee 3a00 e43f d6d3 b9d7 77fc d63f
00000320: 0000 0000 0000 0000 fd6f 897b 6903 e03f
00000330: 12a7 9451 64be d23f 3214 375d 3c18 da3f
00000340: 0000 0000 0000 0000 236e bbf1 c843 c13f
00000350: a385 bcdd a127 e63f 92d7 4d1e 445e ea3f
00000360: 0000 0000 0000 0000 a174 1585 01b3 d53f
00000370: 9b5d d03a 205c c73f 804f ad91 3eab e63f
00000380: 0000 0000 0000 0000 8eda bde5 55d1 ee3f
00000390: e923 6f59 26d8 dd3f 6881 cdcd f826 e13f
000003a0: 0000 0000 0000 0000 ddb3 13b5 2412 e53f
000003b0: c6e7 59c5 7ed7 c83f 848c 0222 3bb7 ee3f
000003c0: 0000 0000 0000 0000 1221 146d ff0c d33f
000003d0: 04c5 0950 297e e63f 2d90 1c39 03af e43f
000003e0: 0000 0000 0000 0000 f896 25b9 19a9 eb3f
000003f0: 1110 968a 847e b23f e091 3134 f07f cd3f
00000400: 0000 0000 0000 0000 b64f eb3a abd3 de3f
00000410: c856 8d95 57e1 df3f 9b26 6a3f dcfa d13f
00000420: 0000 0000 0000 0000 c40e f32a 3335 e33f
00000430: 085d 92e5 dc18 c93f c381 bec7 9d62 e93f
00000440: 0000 0000 0000 0000 40eb b794 859d e53f
00000450: 4603 407f fc91 e83f 78ca a1b5 8920 e23f
00000460: 0000 0000 0000 0000 b8b6 19d2 0976 a43f
00000470: c905 9b9f 1f05 e83f 963a 0573 95ee 9b3f
00000480: 0000 0000 0000 0000 417c f639 917b e63f
00000490: a84f 17cf 9306 ea3f c6cf 2ee3 2f31 d13f
000004a0: 0000 0000 0000 0000 fa55 86c8 7ee4 e93f
000004b0: fdb8 397a 8ad5 da3f 0ce5 3360 2927 d83f
000004c0: 0000 0000 0000 0000 b3b9 e711 0a74 e03f
000004d0: 8160 c8e3 9bcf dc3f ba68 38f0 a6a2 e93f
000004e0: 0000 0000 0000 0000 a88a 7a4c a195 d03f
000004f0: 85a2 1731 4e95 cc3f b8c3 02ff bc39 e93f
00000500: 0000 0000 0000 0000 4c07 0258 2b76 ee3f
00000510: 3ff1 ce13 88d8 e53f 8e24 bc7f 7502 ea3f
00000520: 0000 0000 0000 0000 5b00 1b6d abcf d83f
00000530: 0a45 f788 1f83 ed3f 9738 2887 da9f ec3f
00000540: 0000 0000 0000 0000 dd82 2a57 15b7 e13f
00000550: 83f3 5876 1ba1 e33f c834 de3f 7d57 e23f
00000560: 0000 0000 0000 0000 4cb2 a1a2 8a7d d73f
00000570: ae62 8b02 49c0 ea3f ec04 be13 bd13 8e3f
00000580: 0000 0000 0000 0000 ad7a 3dcf 9686 ec3f
00000590: b03d 8d27 e4ff e03f cff3 081d f583 db3f
000005a0: 0000 0000 0000 0000 73e9 2f1d 06ec e83f
000005b0: 4816 5567 91d6 e33f 1b3c f0c7 2527 e83f
000005c0: 0000 0000 0000 0000 ddf3 a828 ed6c e33f
000005d0: f7d9 cedb 85a7 ed3f 2a63 4350 d64c d83f
000005e0: 0000 0000 0000 0000 d1f5 cfcd 57de e83f
000005f0: 300a 57c7 95b6 b13f 6c91 c0b9 2660 ce3f
00000600: 0000 0000 0000 0000 53a4 0549 2b02 d43f
00000610: b7e5 8239 decf c53f fae6 307f 76de c53f
00000620: 0000 0000 0000 0000 eed6 8bec eab2 a73f
00000630: 1f86 9ad4 fc30 e53f 412c 7365 3667 b33f
00000640: 0000 0000 0000 0000 eebc 7446 8df0 d73f
00000650: 00db 8945 814e e03f dc88 2762 00f2 4a3f
00000660: 0000 0000 0000 0000 12ee 2b12 298d b53f
00000670: f71e 7b8f d577 ce3f d424 81b0 0b24 ad3f
00000680: 0000 0000 0000 0000 414e db54 d1b7 cc3f
00000690: fcf4 be0f 774b e13f 86f6 2ede ce4a ed3f
000006a0: 0000 0000 0000 0000 9735 6286 f949 d33f
000006b0: ae1e 9972 c643 ec3f c3de 3c3e ffbc da3f
000006c0: 0000 0000 0000 0000 ec49 e426 911d e43f
000006d0: 7668 a458 78a4 d33f 40fc a342 fbba e43f
000006e0: 0000 0000 0000 0000 a108 a9c2 492c df3f
000006f0: c196 31b1 a660 e33f 777e d5fd f4c2 a43f
00000700: 0000 0000 0000 0000 e560 3d46 c310 dd3f
00000710: 2940 d090 2c89 bf3f 890e 6230 c726 d73f
00000720: 0000 0000 0000 0000 c108 8193 fc28 e33f
00000730: 003f 1c6f 8891 8c3f ba58 3c3d 80cf ce3f
00000740: 0000 0000 0000 0000 9ba0 da65 aec2 d73f
00000750: 2fc5 6d5a ce5f ec3f b799 ccc1 04c0 d03f
00000760: 0000 0000 0000 0000 63f0 98c4 ef5a e13f
00000770: 73d9 b5e2 f5eb ec3f c363 b7b5 2461 ee3f
00000780: 0000 0000 0000 0000 215e 69d2 aa14 db3f
00000790: ec4f 9689 646d ec3f b6a9 ba99 2ffa e03f
000007a0: 0000 0000 0000 0000 7ca1 e88d 686a ec3f
000007b0: fc5c 652a b488 e53f 4ab0 9d2e 66b7 e53f
000007c0: 0000 0000 0000 0000 c310 bedf 42de ef3f
000007d0: 8103 bbd5 0b64 d93f 53a8 554c f815 b43f
000007e0: 0000 0000 0000 0000 9318 256c fcfd e63f
000007f0: 4afb be24 9ff7 ea3f 0411 0eeb 2096 ef3f
0.0 0.053646372859723825 0.5589765463794071 0.563482779192114 0.0 0.476551234319987 0.3217141840811344 0.6289777817797626
0.0 0.018050798933870717 0.3302379233660673 0.2639220649030359 0.0 0.6387743903285019 0.26244249172694767 0.5232448510495262
0.0 0.10679705943227942 0.07794520858083856 0.7748776877539154 0.0 0.05190097292363406 0.8709324798314136 0.8403030642559557
0.0 0.45817469920114723 0.991049147578224 0.10149528719858 0.0 0.5654347112775941 0.0935248861488316 0.36829862358096827
0.0 0.7887002355789301 0.7566338883806764 0.865725028769144 0.0 0.11832157996691312 0.15828833884715116 0.6980501146185492
0.0 0.23022113161879726 0.9713133714035856 0.3401924582227804 0.0 0.6436680888820946 0.4708007030313739 0.9211373308504249
0.0 0.5581709337492158 0.15539067748318025 0.6682840737215164 0.0 0.4134796849422147 0.3332640262475652 0.6873114566578845
0.0 0.959806336717978 0.20352687632226524 0.2516404891306334 0.0 0.6795654963924191 0.6084650855934123 0.40717946711839376
0.0 0.9430913634397118 0.44543922259387964 0.7714662852466806 0.0 0.693011350159007 0.5939953859441466 0.7765719797812219
0.0 0.4178251712638664 0.7314194613844919 0.2955121205352813 0.0 0.1595488097243225 0.29675459412315186 0.20566232393131528
0.0 0.6658068137256791 0.35926675672432656 0.5821707636570532 0.0 0.3423133065634303 0.01241009089290128 0.9045602279819965
0.0 0.1524992621584297 0.7908635477853626 0.1430190023859039 0.0 0.5261169840005994 0.0003328745831162952 0.046572728158961366
0.0 0.9832664147071197 0.6250281010054676 0.3591594320963031 0.0 0.5004165089444538 0.2928705975233338 0.40772923567812136
0.0 0.13488113215758898 0.6923379259862269 0.8240070907474879 0.0 0.3390506553312865 0.1824989592721352 0.7084038586858554
0.0 0.9630536543980541 0.46631773694804096 0.5360073108277392 0.0 0.6584647690448225 0.1940763915661689 0.9598670639283147
0.0 0.29766832020006107 0.7029005587811814 0.6463638415775727 0.0 0.8643921486043089 0.07224300750209546 0.2304668669559211
0.0 0.4816692424185435 0.4981287918538837 0.2809363002093989 0.0 0.600244125257142 0.19607125482136945 0.7932881261113426
0.0 0.6754787354142096 0.7678205952980555 0.5664719150066295 0.0 0.03996306123449983 0.7506254308029209 0.02727731241730654
0.0 0.70258389778963 0.8133029026744127 0.2686271399099919 0.0 0.8091424862383854 0.41928350387651375 0.3773902358512522
0.0 0.5141649579725737 0.45017144436270234 0.8011049930385277 0.0 0.25913269489880486 0.22330644032560457 0.7882981281928698
0.0 0.9519249648003352 0.6826820742494774 0.8128001684973627 0.0 0.3876751485331675 0.9222562480082683 0.8945133819377301
0.0 0.5535990431272598 0.6134164153551044 0.5731798407956825 0.0 0.36703744775767144 0.8359723138520019 0.01468608585833172
0.0 0.8914293334635964 0.5312367222303944 0.4299290450615531 0.0 0.7788115091382636 0.6199423807344795 0.7547787575766763
0.0 0.607046679891592 0.9266995709538709 0.3796897682018875 0.0 0.777141477563129 0.06919227711390685 0.23730930395062033
0.0 0.3126323903184744 0.1704061299149495 0.17085152826785316 0.0 0.046286908507608845 0.6622299339689482 0.07579364754489949
0.0 0.37405712013692394 0.509583125893954 0.0008223058578631609 0.0 0.08418518727915394 0.23803205018906912 0.056915631576495734
0.0 0.22435967105285395 0.5404620463883982 0.9153818454285136 0.0 0.30139005778695477 0.8832733381504647 0.4177854640761149
0.0 0.6286092528919744 0.30691345840899176 0.6478248883794393 0.0 0.48707813272279493 0.6055482350172597 0.04054990385588735
0.0 0.4541481195387987 0.12318686042294814 0.3617418262949533 0.0 0.5987532502115515 0.013949457064455384 0.24070742597604583
0.0 0.37125740000420543 0.886695076578837 0.2617198841639054 0.0 0.5423506583970376 0.9038037708221921 0.949358324923303
0.0 0.42313643024451336 0.8883536040543709 0.530540275814295 0.0 0.887989308515031 0.6729374721570873 0.6786375914066494
0.0 0.995881497380218 0.39673133728143034 0.07846023429525077 0.0 0.7185041534619522 0.8427272527404537 0.9870762434880196

YTrain_Boundary f8 [3200, 1]
00000000: c0fb 0e44 a117 713f 6cfa 366c 311f c63f
00000010: f09c 1a5b 107e f43f 8931 5700 fd81 04c0
00000020: e7d9 3014 a3af ffbf 9265 f0ab dab4 06c0
00000030: 12b9 f428 73d0 ed3f 008f 20bb dd26 e9bf
00000040: 78f1 f11e 393f ccbf 4422 0264 1f59 e5bf
00000050: 8446 3f29 b7b0 fe3f 3c8f dd62 520c f1bf
00000060: 3f5b 7640 99fb e9bf b76d f30b f7ec d73f
00000070: c347 afd7 fb97 e13f afd7 7bed 53f0 0c40
00000080: 2705 04c1 2725 e2bf 546e a936 af33 d1bf
00000090: b851 9747 4adf 0540 f652 cb0d 047e f23f
000000a0: 32cd 114d a1f0 f9bf 558e a2de b012 e4bf
000000b0: 0a5d caf7 5b95 f53f a66c 1caa fc5a f7bf
000000c0: 8110 7865 a4f3 0040 ea49 5f27 9ee5 ec3f
000000d0: b6af 2d7b 816e f5bf ccca 0a1d eaf2 ecbf
000000e0: acd2 9614 e038 d63f 9a2d 20f4 d2a2 e93f
000000f0: 5a0d 068f 76e2 f8bf 40f1 1aed b9a2 9fbf
00000100: 3e2d b837 95f9 ec3f 727f 0130 d246 fcbf
00000110: 8e1b 21c5 611e cabf fc1b f415 0044 f1bf
00000120: b44e f65c 8b5e fc3f bacb 14cc dea9 d8bf
00000130: 986a b93b f2c5 fabf bccf b9fe 92de e6bf
00000140: 8db8 e9ce 6472 c93f 5092 86a3 face d73f
00000150: cc82 a28a 2bb9 e5bf 20e7 f54f 59e4 e23f
00000160: 2699 526d 5773 0340 5e94 6e47 3367 dd3f
00000170: 582d eb0e ff6d ca3f e805 ef1c 6b28 f4bf
00000180: 1bb7 cb81 cd5e 0440 ea0d 42c1 7f0d eabf
00000190: eab1 e36f 5c2c f1bf cefd 88c2 df45 e4bf
000001a0: 6092 6457 0a4a 01c0 d457 8ed6 f559 0540
000001b0: 8f84 dc5f 5874 02c0 5e50 bdd1 3594 e3bf
000001c0: 93cf a14b 4291 f23f f0da d0bd e5a4 efbf
000001d0: 7912 c4ad 12fc 0040 e86b 6937 5974 e9bf
000001e0: 2ea8 9e06 2b5f f03f faee f799 07d8 fa3f
000001f0: 9dfe 985c f6d6 f63f 7cbc 0ef3 1448 00c0
00000200: 604b 0f50 4f41 dfbf 2019 5d16 58e6 b23f
00000210: d089 1edf 50ef dabf b21a 1cc5 e7a6 fc3f
00000220: 2fcd c535 cd6a f7bf 0cec 73c9 e7a0 f6bf
00000230: 40d0 5b42 803d 09c0 00bc 2f00 1dcd dfbf
00000240: d46a 7353 f704 f9bf a503 2f41 1587 f13f
00000250: 6ad7 69e9 f024 e7bf a44b a896 9ed2 a3bf
00000260: 6863 b29d 58e9 e8bf b814 a6d1 6939 c33f
00000270: 34dc f7b5 f486 c63f 13d7 7903 ffd7 e2bf
00000280: 40b7 f465 87ad 953f 3b46 7b5e ab0b 00c0
00000290: 2c4a bc08 b49e e0bf 3250 caa9 94e9 d6bf
000002a0: 326b 9362 43cb 04c0 ca68 440c eabe 05c0
000002b0: 6c70 4827 9fc7 de3f c017 98c3 597f ed3f
000002c0: 50b8 28a4 a689 c13f 5f5b 591d 562c e7bf
000002d0: 3bbe e5bb 3877 f33f 4f0f 10f9 a611 e03f
000002e0: c0cd 6647 6553 cb3f 4024 3476 b56d babf
000002f0: 2aca 77ef 743c f4bf 80cf 402d 0129 cd3f
00000300: d2b3 f8f1 2ca8 cfbf 5f7e 9fa2 3467 0140
00000310: 64e7 e47a 7e21 e5bf 28d3 5949 89d1 f2bf
00000320: 5f43 d88f df1c d73f c3e7 0cae b9ac d8bf
00000330: 8ebe db47 66f2 02c0 7162 d690 0041 f7bf
00000340: 2051 3888 9b58 ff3f 2673 3f9c 5930 e9bf
00000350: 6c1c ece3 f3a7 debf 8ac8 10eb e949 e83f
00000360: e45e be00 a482 0ac0 0cf4 2fab 51fe c2bf
00000370: f37e 3f88 7678 01c0 4412 8e7b 44f3 f23f
00000380: 1a8b 5341 3d4a 0440 323d 0b4a 5843 f4bf
00000390: 6b2f 4a91 1637 f23f 77b3 c763 273a f13f
000003a0: ea71 1484 9bda e53f a95c 54cf 6faa 0240
000003b0: 170d e0d1 a27e dc3f 5f98 543f 168d e73f
000003c0: 6821 2190 3688 e5bf e62c 2eda d52c e8bf
000003d0: 5fdd a834 6855 f3bf 6373 05a0 6c5a e1bf
000003e0: 2e27 970b cced f8bf 1886 e6d7 b40f f43f
000003f0: ac8d b0e0 31bf 02c0 0d65 9701 e70b e53f
00000400: 38c8 9498 353e d1bf 735c 3e92 dc1e f1bf
00000410: 9c97 d776 16cb e1bf 38eb 30f6 bf4f ca3f
00000420: a7a3 bde0 4b43 fcbf 2476 6c59 08cb e33f
00000430: b21e c7c1 162f d6bf 3e6d 818b b3c2 08c0
00000440: fcd7 a393 339f f33f 1c78 ca4a 973d ebbf
00000450: 744b 7de3 7c00 dc3f 8b3a 2e0f 76ac fbbf
00000460: e863 eb05 a9af f5bf c350 4f0c 1bdf e2bf
00000470: 3afa b72d b619 ed3f 002f 1d76 6c6d 9c3f
00000480: 3b07 ae0c 810c e83f a663 f019 872c ffbf
00000490: 27ac efed 7fb7 fa3f da31 7172 8e5d f63f
000004a0: c69b 80d1 089b d03f 10fd ba1a 4076 d23f
000004b0: bc1c 346f aef5 d9bf 5643 f387 c4fd dfbf
000004c0: 38da bd11 b027 a4bf 09ac ee4d 75df e8bf
000004d0: 8849 b415 4d15 c73f 7702 d346 d099 e2bf
000004e0: b03c 47b4 9957 03c0 e8ae 6e0e 3f65 0b40
000004f0: 6c41 7532 ba68 fd3f 8b90 b551 432b fe3f
00000500: 50d5 bfa2 34c7 b43f 045d 6211 8b67 c4bf
00000510: 4d71 4cd0 3cab 02c0 645c 99d4 783c c33f
00000520: 70bd 254d ffb1 febf 9fcb ac75 ccb7 f93f
00000530: 5919 f852 79d7 f13f b5bd 3b3a 9f5c f7bf
00000540: 14c1 fd3d c6a0 c2bf 7b11 8c5c 71ce 0040
00000550: 52e1 e105 6ee5 05c0 b4e3 6f6e ab09 e23f
00000560: 6849 0814 a1ed f13f 4ef1 9496 d4bf e23f
00000570: ec06 be13 465f f43f fea3 a0d2 b340 fa3f
00000580: 3e7d 03a1 f075 00c0 b178 4319 c423 e13f
00000590: 10e0 679f fb90 00c0 fece 8d55 6bc7 00c0
000005a0: 9a35 14d6 b27f f93f 596c 270b 6f59 eb3f
000005b0: 5607 eacc fb74 d9bf 5e77 d6bb b855 0340
000005c0: 1ac0 0af0 e662 e63f 280a 684e 4337 c63f
000005d0: da30 3d1e 8570 b33f 88bb de65 9b37 b6bf
000005e0: b5a7 347d 1fef 0640 266f 8540 f489 0440
000005f0: 3926 d9ab ffd6 0340 edcd 0a88 4be4 ffbf
00000600: b075 62b0 2c56 f73f ec87 0422 a536 e43f
00000610: c0ff 0425 b9b7 f5bf 09c2 a8c2 baa6 f83f
00000620: 12b0 b013 c22f f0bf 1c37 9135 7424 f4bf
00000630: 41d6 f121 4729 02c0 8f49 bb1b cfc9 f3bf
00000640: 8c39 f91d 03f0 f83f 60b6 ddc6 6cde f3bf
00000650: 6971 1384 3d9f e5bf a358 1280 54b0 e53f
00000660: 5a80 c886 641a c43f 0812 ea50 85fb 05c0
00000670: 9e5e 1471 4d6d febf 728a 3b16 5785 e6bf
00000680: 74cc c3b7 5f51 e3bf f9af 1c14 b70e 07c0
00000690: 781b 6c98 b062 e4bf e78b 4ec8 090e 0040
000006a0: d6fd 558a e1c3 db3f 4935 82ad 00ae f03f
000006b0: a375 2387 6d40 e13f d103 be81 944e f23f
000006c0: 2035 e976 9304 ffbf 1ddc 937c 00f5 0240
000006d0: 9c50 2043 df93 f13f e2f3 2faf e481 d5bf
000006e0: 843f ec13 616a edbf 246e 64de 1224 e23f
000006f0: ba76 481f 269b e13f f00e 94d0 25ab ef3f
00000700: 468d 425d f65d fbbf e43b d95b ce4f e5bf
00000710: ccf3 53d6 1f69 ef3f a059 2ad1 0be6 d43f
00000720: 3807 ab05 d0de 0240 90ba 330c 4cb8 0940
00000730: c289 01d3 6df1 d7bf 39ab b78c 203f e53f
00000740: 00c0 f67d a1f7 e83f 001b 7ac5 bc53 6fbf
00000750: fccf d093 330d c7bf f8ae 384e 2426 f33f
00000760: ee91 2b1c 91bf d73f 94eb a203 62f4 edbf
00000770: 3153 4507 eaef ecbf 36ba e39c 461a c23f
00000780: 000e 2060 a7fa 60bf 3431 c533 7f7a f9bf
00000790: a0ca 24a7 3663 08c0 c61d aeb3 dab6 fd3f
000007a0: 4d31 6083 0e40 ffbf 70a1 5c27 dce0 e7bf
000007b0: df8d e1ac 173a f43f a881 956c bc58 02c0
000007c0: 6b2e 674d 23b5 f03f 9881 414c c9c2 0040
000007d0: 70cd a810 4803 e5bf f293 5c3e 1600 0240
000007e0: 33af 883d 01ab e93f f413 76b9 1401 fabf
000007f0: 5186 deca 585e e8bf 76ee d8b6 c86c cabf
0.004172925896397339 0.1728269365684868 1.2807773169277503 -2.5634708429917663 -1.9803801335052584 -2.8383077080477017 0.931695537559593 -0.7859944014385007
-0.2206794167613102 -0.667129226044445 1.9181434260575836 -1.0655082570965098 -0.811962724593151 0.3738381973941744 0.5498027050582482 3.6173475793284164
-0.567035557731434 -0.2687795671278981 2.7340283959440193 1.155765584834794 -1.621247578671341 -0.6272816036548173 1.3489646605792722 -1.4597136158907147
2.1189659049287575 0.9030295151699737 -1.3394789516123473 -0.9046526496152523 0.3472213936868609 0.8011259811477658 -1.555288847623919 -0.030894188973193737
0.9054666603346175 -1.767290294192176 -0.20405218244033246 -1.0791016442833543 1.7730821257909328 -0.3853680603962705 -1.6733267147998614 -0.7146697020639219
0.1988035211865661 0.37200799912742344 -0.6788537700377559 0.5903746186952255 2.431319097598265 0.45942384696747307 0.20648182133150317 -1.2598677759382273
2.546290411023518 -0.8141478323527143 -1.0733303423577305 -0.633529548598682 -2.161152537113864 2.6689259302320156 -2.306809185902757 -0.6118420692896611
1.1604636148813128 -0.9888790805187835 2.1230825019322848 -0.7954526979696057 1.0232343920311098 1.6777416242975378 1.4274810425849076 -2.035196207892623
-0.4883611947854458 0.07382727190006166 -0.42085668362611006 1.7907483768082497 -1.4635746098036397 -1.4142835492373278 -3.1550297912854433 -0.4968941213437006
-1.5637124309347898 1.0954792543636611 -0.7232594069343865 -0.03871627415732995 -0.778484638215656 0.15018961655383634 0.1759935272709484 -0.5888667171372809
0.021169772718329982 -2.0056979543085425 -0.5193729563346259 -0.3580066354854835 -2.5992496205557467 -2.718219848478019 0.48093394123293964 0.9217957325170048
0.13701327338771074 -0.724162156412472 1.2166068401092065 0.5021548141962543 0.2134825323715699 -0.10323652396995531 -1.264759955808254 0.22781386098506218
-0.24731981101049755 2.1753933625148387 -0.6603386307026367 -1.1761563172596627 0.36113728568402864 -0.38554231640921105 -2.3683591474471717 -1.4533696801865086
1.9591327019780422 -0.7871521045413814 -0.479001019077663 0.7590226737140864 -3.313789373216297 -0.1483862005115103 -2.183819832265607 1.1843914820066326
2.5362496474857723 -1.2664416210498755 1.1384492564565913 1.076697721258112 0.682935483902438 2.3332210729236817 0.4452292489588258 0.735972522442136
-0.6728775801685005 -0.7554730664573099 -1.208351331426307 -0.5422881246009691 -1.5580559208633065 1.2538345750439301 -2.343356852901442 0.6577029257852317
-0.26942195797448987 -1.0700345718994668 -0.556040985215748 0.2055587722878387 -1.7664297846733719 0.6185342546993451 -0.3466240780221411 -3.09506901730279
1.22636754676705 -0.8512684307822869 0.43752977576985264 -1.7296047776214063 -1.3553858023863032 -0.5897345772196093 0.9093886273329368 0.02776116820250163
0.7515263793613721 -1.9483710301630963 1.6697997373946778 1.3978409262082239 0.25946255168167587 0.28846743212120973 -0.4056202016804027 -0.49986375118628723
-0.03936529366085434 -0.7772776147952537 0.180337558362748 -0.5812760718618638 -2.417773636268599 3.4244366767433014 1.8380681963936594 1.8855622474448264
0.08116463635800142 -0.15940988873328632 -2.333612086613505 0.15028295880140086 -1.9184563649722257 1.6073727223090157 1.1151059380514055 -1.4601127886524925
-0.1455314448062458 2.1008021574254463 -2.73702625842649 0.5636803776716222 1.1205149443163354 0.5859167996455115 1.2732601901229215 1.6407964923512277
-2.057587869566901 0.535615968077556 -2.0707924321723183 -2.097372692480234 1.5936764109095294 0.854667207512999 -0.397765112029551 2.4168562578987993
0.699573010284442 0.17356149033010237 0.07593566883332717 -0.08678599583684676 2.866759279412657 2.56736040503701 2.479979841770526 -1.9932360948704357
1.4585387125037919 0.6316705383690056 -1.3573543020320216 1.5407054523349208 -1.011659695544044 -1.2588998882742493 -2.2701552059104704 -1.2367697795167236
1.558596722683066 -1.241802956409991 -0.6756885127647766 0.6777746678733546 0.15705544072352745 -2.747812873976958 -1.9016851823015837 -0.7037768778066733
-0.6036833371312142 -2.8821851321463297 -0.6370470978734906 2.0068545960398185 0.4338306284843986 1.0424811151199995 0.5391147269653412 1.1441845958763575
-1.938617195602383 2.369629834425281 1.098601591312252 -0.3360530577481865 -0.9192357434385348 0.5669035285567969 0.5501890765187547 0.9896420549198108
-1.7104400294272906 -0.6659919542233834 0.9815825639812998 0.32654090334235697 2.3587952082461037 3.214988799408566 -0.37411065679603095 0.6639559505832501
0.7802283725959569 -0.003824108785753011 -0.18009037702142894 1.196811967422887 0.3710673117732587 -0.93608189306484 -0.9042863981254411 0.14142687473891308
-0.002072646050693683 -1.592406465747513 -3.0484440858939053 1.8571421641116657 -1.953138840853245 -0.7461987274919419 1.264182734791454 -2.293328140556884
1.044223120074913 2.0951105077258028 -0.6566505742434128 2.2500424263002907 0.802124614890522 -1.6252639050082935 -0.7615169489183221 -0.20644482544036052
