Darcy_Flow6D/dataset/Dim6/Beta6_0/DarcyFlow_HoumanC2000_B408_Trace.npz (npz, 712410 bytes, 6 tensors)

beta f8 []
6.0
00000000: 0000 0000 0000 1840

XTrain_Col f8 [2000, 6]
0.026587855190080577 0.711119563820098 0.7954976614455096 0.7411724177374124 0.047244105986435754 0.8488674050224161 0.709550091977566 0.5074507301595039
0.6349098837140053 0.9429615855360456 0.7359704034780025 0.2312948357543673 0.8753339699197636 0.38384078632967245 0.5269330267006311 0.33380028974481474
0.26277760681325557 0.7291146872923042 0.01357867024834015 0.43529186965200517 0.41178805034026483 0.5853001336686794 0.7435099769746102 0.17885296498008535
0.10213017926912689 0.28076902555313643 0.004616170620181524 0.09112125889481011 0.20289935815906657 0.2633805653664514 0.4071209387232442 0.5100088100767352
0.45943500093348233 0.7564588827254357 0.40276504800892454 0.8040747147344949 0.9759478146112479 0.046090526399674515 0.19863034096578358 0.3201700589322905
0.4727379700200385 0.8888490972189762 0.8606742947722246 0.9319227413835335 0.614265188967369 0.958802975720978 0.07004912397191253 0.7785728159011417
0.6614284639955058 0.5390006127047497 0.938725529614414 0.9290268481568627 0.5125109039667003 0.30227711059870654 0.9984679468934808 0.6979371682865095
0.4456676264882782 0.21014886902883587 0.6550156571440978 0.849217760561096 0.29588993247523443 0.5923909252398857 0.7282730261236364 0.9516708940318576
0.6957068367229865 0.644271981682334 0.9139838970232751 0.14859533194843383 0.6967394259392606 0.013407150738241452 0.6592746082992841 0.906257044220279
0.13897111331866294 0.39249730792819304 0.18961450093654572 0.5000426818612986 0.8590299881921912 0.41237005224453166 0.4386311501957915 0.4743844966282722
0.1313018742001608 0.558490189730514 0.4011877448401379 0.4657641082566641 0.5446100467680005 0.27249103691068893 0.32712287764146136 0.4923003996913514
0.16431574794003384 0.016074900390013563 0.9080108640179588 0.32691729898260297 0.9338859441857136 0.7316674980701229 0.23385234993033122 0.8347473678943659
0.34598508416898344 0.38097476136677433 0.07900004874259152 0.4848165937555218 0.2429119064028062 0.4173882813665035 0.4770185532426358 0.8274058586855287
0.29098242511498357 0.3435196377307092 0.834471129113123 0.7068113384723662 0.7725166670414055 0.48218642903383735 0.4342233956638486 0.8014906510917789
0.12463555891090067 0.8293729109066281 0.1631889400427297 0.14707599300404348 0.4753015997313697 0.8235149038634882 0.48480403262171734 0.06169648664135109
0.8612414319499365 0.43243036126353035 0.7688122908009372 0.03773002371371905 0.19369744662713734 0.8332040940187364 0.9073891476104745 0.9892164368442302
0.6094415697715876 0.8292324371994352 0.7535939960455725 0.030389561472233463 0.3231779851309746 0.3892614345466343 0.7826902819685467 0.16022806691522332
0.7385904396521099 0.004930502762344948 0.4925254315139197 0.8693534275040806 0.21043904334970057 0.2312938557141793 0.4063737040205178 0.2026348977393298
0.2837007887569529 0.25622527164848935 0.5587070022283481 0.3125081703739091 0.4646478600045279 0.9069571943704793 0.9028141133504869 0.15630470148367606
0.07031993568496932 0.393694869619487 0.8111982396397438 0.8068659248987453 0.1664005859307986 0.8444949919976973 0.9523857310799765 0.6575289293435534
0.7093817278570796 0.19043343127364631 0.3752156246573225 0.8097302525973725 0.7350359935213877 0.809457798828696 0.24981347948250085 0.043109598397339424
0.7167315064901812 0.4636767628730234 0.08625577337373068 0.8500799240758753 0.11455737093226605 0.8141494942930798 0.23553395611269776 0.5959496330991428
0.264986149717343 0.730765663691143 0.780824869366164 0.977424712445625 0.4007548583279552 0.03900190633747899 0.9312503724108038 0.8695716605611405
0.8595130546656053 0.07476465677417275 0.2411348777614465 0.7477464348072346 0.4236234901525787 0.2600465952684706 0.10838651793672752 0.829980379338832
0.18198368790049416 0.2557621766090938 0.9540876041800778 0.9565123927453127 0.8252380733295223 0.3659298039137014 0.4920072298816569 0.29923059902134175
0.7092016995516689 0.3206431024964845 0.5505526730189796 0.07865651958984952 0.8052501874630729 0.3904254872804893 0.6832943949032139 0.16453157081247163
0.15317461053273565 0.2764046157162597 0.426310192530681 0.4336444954359098 0.982499395998775 0.9186131719493144 0.4497076353646568 0.6282031094356499
0.8420391889484081 0.40971835345559554 0.1307758774129871 0.1494751825559266 0.8395164893075499 0.17051524141174676 0.43702843055790064 0.3741818704902914
0.5423656084435625 0.2936142294138577 0.667201870710575 0.3555659431824952 0.3732111390377218 0.2104752078250096 0.34773682984456533 0.5236297340972195
0.07329402208125317 0.9090883327497516 0.8184780533515972 0.5303601797251584 0.7758877416922974 0.35931483111467705 0.031441635350544034 0.5671903984353177
0.6761175094623549 0.85060172087979 0.20753892253548314 0.8032128337760732 0.32087088635966754 0.7295948189463932 0.28225075003642375 0.782435762850924
0.8861059345869674 0.0355290624159587 0.621219716145756 0.5469450515877646 0.03221211706665994 0.17018451664588652 0.08777166514561495 0.9068682020552811
00000000: e678 0cc2 d839 9b3f 3ee6 c4d0 7dc1 e63f
00000010: 847e fe82 b774 e93f 5824 dc37 afb7 e73f
00000020: 89ef 4724 6130 a83f f2c5 e6f9 eb29 eb3f
00000030: a75b fd64 a2b4 e63f 78b9 4b50 093d e03f
00000040: 9eae 4e88 2e51 e43f 365f 68c6 bd2c ee3f
00000050: db61 b8cd 118d e73f c53b a6b5 119b cd3f
00000060: 7143 bc62 bc02 ec3f 1c0a 0af2 d890 d83f
00000070: 7491 9ba6 a2dc e03f fd5a f6e3 fb5c d53f
00000080: c294 d82a 59d1 d03f d284 1e53 e854 e73f
00000090: c549 1e45 22cf 8b3f 04af 176e d2db db3f
000000a0: 1f15 4644 bc5a da3f ec71 8e58 c7ba e23f
000000b0: 9961 6b6f d5ca e73f a6e8 b069 a7e4 c63f
000000c0: 9d40 e513 3425 ba3f aac0 9ea5 1ef8 d13f
000000d0: 2500 8bdd 67e8 723f 556e ec0a b953 b73f
000000e0: 2817 d62d 9bf8 c93f 54a8 a928 3adb d03f
000000f0: 6452 55fb 440e da3f 4d72 fefe fd51 e03f
00000100: 0a69 e90f 6267 dd3f dc61 4242 e934 e83f
00000110: 92e4 4a0d e7c6 d93f ea67 6ae5 faba e93f
00000120: 9474 4be9 f63a ef3f 8584 156f 2d99 a73f
00000130: cc7e 3811 b86c c93f f571 118f aa7d d43f
00000140: 4810 34c2 5641 de3f de4e 74a9 7371 ec3f
00000150: 06bf 91d1 a48a eb3f 9982 14a4 4fd2 ed3f
00000160: 9df4 3578 0fa8 e33f 3eee 0094 83ae ee3f
00000170: efa3 9248 bdee b13f 7733 bb89 11ea e83f
00000180: 7f22 b006 6c2a e53f 58e8 8236 7e3f e13f
00000190: 6da7 331f 0a0a ee3f e211 3e83 96ba ed3f
000001a0: 072c 6c44 7d66 e03f d473 1618 8258 d33f
000001b0: 6160 400d 73f3 ef3f 4f82 0e54 8055 e63f
000001c0: 5ccc 2982 d185 dc3f 2397 e27b 28e6 ca3f
000001d0: bfa8 3965 e3f5 e43f 3e5a 99b9 ca2c eb3f
000001e0: 0c98 cc53 dcef d23f 9947 4bd0 ddf4 e23f
000001f0: b151 b83b 034e e73f 4980 cd84 1674 ee3f
00000200: d985 eafb 3a43 e63f 65c0 6146 e09d e43f
00000210: 9f23 5928 5b3f ed3f ce44 87fd 2b05 c33f
00000220: 27c6 077b b04b e63f 2356 a04f 3575 8b3f
00000230: fb50 3710 c718 e53f 5f43 d6c5 0e00 ed3f
00000240: 4b6c 6531 cec9 c13f d474 5407 ad1e d93f
00000250: 6f56 2fb8 4945 c83f 6059 a682 5900 e03f
00000260: 0433 3275 2c7d eb3f 635d 0f5c 4564 da3f
00000270: 2b42 4663 8812 dc3f ccdc afca 505c de3f
00000280: dfed cbf3 7fce c03f c9f0 80d1 26df e13f
00000290: 9b3d e95c 0fad d93f ff3a 2743 14cf dd3f
000002a0: 8721 7e0c 726d e13f ab02 ff3e 7e70 d13f
000002b0: 4795 4fcb 94ef d43f 72da 1e89 d981 df3f
000002c0: 8663 cf65 4c08 c53f bba4 d84d f075 903f
000002d0: b3d5 abcc 6c0e ed3f af1f e888 36ec d43f
000002e0: 5718 8fc6 64e2 ed3f f93b f8f4 d169 e73f
000002f0: 1492 85b1 dfee cd3f 81e8 b01c 40b6 ea3f
00000300: be36 5a9f 9e24 d63f 22fd 2af7 e361 d83f
00000310: a359 bbe1 5839 b43f c43c af2d 3c07 df3f
00000320: 768f e7c2 bc17 cf3f 54fa 8c56 7db6 da3f
00000330: 6fca 70d3 7887 de3f 3157 f2d9 1b7a ea3f
00000340: 8d18 e5bf 749f d23f 1794 65ca 39fc d53f
00000350: e4e7 1fcc fcb3 ea3f 1cc9 e5cf 329e e63f
00000360: 27d9 91df 74b8 e83f 709f d177 24dc de3f
00000370: f031 e2ec 50ca db3f 5fa5 cfb8 cfa5 e93f
00000380: 5ce5 70b1 1de8 bf3f 8408 110f 398a ea3f
00000390: feb5 460c 60e3 c43f df52 fdd9 62d3 c23f
000003a0: 354b a566 576b de3f af97 7bed 3b5a ea3f
000003b0: 8011 457e 0707 df3f 322f ce90 ae96 af3f
000003c0: 0ded 0531 4a8f eb3f 3128 db64 f0ac db3f
000003d0: 7c17 b83b 1c9a e83f 23ff da83 5951 a33f
000003e0: 8287 4af3 13cb c83f 6285 d6a1 9ba9 ea3f
000003f0: 0a6f 37f7 5409 ed3f fa2b 9d3a a9a7 ef3f
00000400: 68bd 5f9b 8b80 e33f f1b9 d176 1289 ea3f
00000410: 3749 ef27 711d e83f daef a6f2 701e 9f3f
00000420: 742e 3bb7 f2ae d43f 9c32 beca a8e9 d83f
00000430: 2f76 7e7d cc0b e93f f5ad a671 5a82 c43f
00000440: da35 ee6a 88a2 e73f e9ad dfc1 0132 743f
00000450: 963c 3363 8985 df3f 0275 7947 bed1 eb3f
00000460: d986 7ea4 aaef ca3f 3971 077d 099b cd3f
00000470: 913d 2eda 0602 da3f 02cc 68b9 f0ef c93f
00000480: 84df 635a 2728 d23f 03e5 88ae fe65 d03f
00000490: 17be d381 ede0 e13f 7247 df44 2200 d43f
000004a0: a90d b860 cabc dd3f 122e 1618 cb05 ed3f
000004b0: 7ba4 666c dae3 ec3f e1ad 8ade ca01 c43f
000004c0: 9115 06c0 7c00 b23f 7798 67f7 4b32 d93f
000004d0: 416a ba02 56f5 e93f 084d f67c d8d1 e93f
000004e0: 86d3 4d49 9d4c c53f 2f82 885c 1a06 eb3f
000004f0: 2f4c 05a4 f179 ee3f e98a f61b 7a0a e53f
00000500: 0dd6 304f 41b3 e63f f453 b167 1f60 c83f
00000510: 867d 3665 8803 d83f e199 2f6b 4fe9 e93f
00000520: d0d4 3134 6a85 e73f c2c3 ae0a 14e7 e93f
00000530: 6f18 3d5a e3f9 cf3f b241 8516 7612 a63f
00000540: a56b 8ce9 76ef e63f 281b 1d4d e1ac dd3f
00000550: 773a bbbd db14 b63f a78b 1cd0 da33 eb3f
00000560: 9179 abc1 a153 bd3f 2066 813d 830d ea3f
00000570: 23ff 4c07 fa25 ce3f 272b 07f7 0412 e33f
00000580: e273 bb77 88f5 d03f 72fb 52ac 6e62 e73f
00000590: c198 ba6f 84fc e83f 7e32 c830 1047 ef3f
000005a0: dcd3 8eb4 f7a5 d93f 2cfa 66d0 0ef8 a33f
000005b0: 178d bc94 cdcc ed3f b06e 74f2 87d3 eb3f
000005c0: 42c3 8885 2181 eb3f 77e2 bdcb c623 b33f
000005d0: 0487 f4f6 81dd ce3f 4d53 66ee 89ed e73f
000005e0: fa73 01b3 a51c db3f 8a4f 8779 9aa4 d03f
000005f0: 7a95 dd05 38bf bb3f 659f 3203 338f ea3f
00000600: 7113 f8d1 3d4b c73f d7bf 0552 685e d03f
00000610: 1f1e 2fba e287 ee3f 18ea a1e0 bf9b ee3f
00000620: bda8 0bad 5968 ea3f 013a 1cd7 646b d73f
00000630: 702f 6fe4 0b7d df3f f495 3019 9826 d33f
00000640: f5f1 3ac3 c7b1 e63f 9d43 baa5 6a85 d43f
00000650: d6f0 aaa3 209e e13f 276e 416b d522 b43f
00000660: 7a0e 880a 9cc4 e93f 9040 d92e bbfc d83f
00000670: fdc7 f434 8cdd e53f 0d48 e6d9 5e0f c53f
00000680: c966 68c3 399b c33f 01bf 3dfc 9cb0 d13f
00000690: 2dba b78b aa48 db3f b935 7fd7 d4c0 db3f
000006a0: 99f1 c492 a270 ef3f e34e 6673 4765 ed3f
000006b0: bdc5 a988 02c8 dc3f 28b1 4868 3d1a e43f
000006c0: 1b7b 4f2b fcf1 ea3f 856a 2a54 d338 da3f
000006d0: 1318 4c92 43bd c03f 3f17 52b6 0022 c33f
000006e0: c9ea 40af 51dd ea3f a79f aa84 71d3 c53f
000006f0: e8c6 2a18 46f8 db3f 1ec3 2084 98f2 d73f
00000700: 11b0 d71e 0f5b e13f b341 3e56 93ca d23f
00000710: a705 d1bc b759 e53f d192 62a8 97c1 d63f
00000720: 09e0 2af9 b0e2 d73f 8815 1d03 daf0 ca3f
00000730: 1804 f3f9 5141 d63f bb24 e524 93c1 e03f
00000740: 0bcf d4a3 65c3 b23f 2ebb 4a6a 4017 ed3f
00000750: 7c71 f4e2 f830 ea3f c9a5 60e9 b5f8 e03f
00000760: 5cf1 7d87 12d4 e83f 41bd 26a2 03ff d63f
00000770: a46e 2037 1e19 a03f 1851 7c7a 6c26 e23f
00000780: e399 ec2f c1a2 e53f 5a33 a319 2138 eb3f
00000790: e1ee 77aa a290 ca3f 8776 9966 ebb3 e93f
000007a0: becf c90a 2689 d43f ea95 d63b d758 e73f
000007b0: e462 2b73 6510 d23f 064c 95b9 b609 e93f
000007c0: 17f6 3ad5 fa5a ec3f d6a6 4482 dd30 a23f
000007d0: e03e 8f2b 08e1 e33f 53e9 a8e8 9280 e13f
000007e0: 1026 ac4a 1b7e a03f 94cb a332 9bc8 c53f
000007f0: 77dd 502f 3478 b63f 1783 b376 1005 ed3f

FTrain_PDE f8 [2000, 6, 6]
-0.5907752713395085 -0.02355819411863791 -0.035613138273863296 -0.02796070399431058 0.09506331052115717 -0.042729068227579034 -0.02355819411863791 -3.5579888131413555
-3.3310883527955184 -3.1432131887387813 -0.12284658830026031 -3.5057917816172197 -0.035613138273863296 -3.3310883527955184 -4.13799047570229 -3.4493640070840765
-0.14426164026680732 -3.846123581006599 -0.02796070399431058 -3.1432131887387813 -3.4493640070840765 -3.764111505007768 -0.1306674439223827 -3.6300822045776373
0.09506331052115717 -0.12284658830026031 -0.14426164026680732 -0.1306674439223827 -0.6014775808278182 -0.1569027614355915 -0.042729068227579034 -3.5057917816172197
-3.846123581006599 -3.6300822045776373 -0.1569027614355915 -4.503077416917022 -6.198381307221301 -3.4205126960232635 -4.309892918982799 -6.104323626878575
-4.958967975821542 -1.2897953607476444 -3.4205126960232635 -4.012931313498397 -3.0590349557111347 -4.397507808723289 -3.5431825682788745 -0.8063324259565926
-4.309892918982799 -3.0590349557111347 -5.358570861148009 -5.502319491728955 -4.4596120050371 -1.1192750955614774 -6.104323626878575 -4.397507808723289
-5.502319491728955 -8.818365709216433 -6.308617728895444 -1.7506742673141833 -4.958967975821542 -3.5431825682788745 -4.4596120050371 -6.308617728895444
-6.499961314649629 -1.3476625454028262 -1.2897953607476444 -0.8063324259565926 -1.1192750955614774 -1.7506742673141833 -1.3476625454028262 -1.8578018477361486
-4.1470328484262176 -2.1887475578059563 -2.9728749110404484 -1.9026477801984507 -1.4881596316380494 -3.970283694589522 -2.1887475578059563 -0.37564802822577004
-1.399764103277509 -0.8777457786668488 -0.6755733587691712 -1.8862642555681843 -2.9728749110404484 -1.399764103277509 -1.3152370924833432 -1.2123674158786384
-0.9408757472871685 -2.566678573838997 -1.9026477801984507 -0.8777457786668488 -1.2123674158786384 -0.1018483903066908 -0.578774090078132 -1.6380056221520034
-1.4881596316380494 -0.6755733587691712 -0.9408757472871685 -0.578774090078132 0.22971102638091379 -1.278339976168962 -3.970283694589522 -1.8862642555681843
-2.566678573838997 -1.6380056221520034 -1.278339976168962 -2.916094225960494 13.253200382517623 9.46979734959849 9.467396153491254 9.484452795337273
9.498396805374615 9.442478429940316 9.46979734959849 14.362453368276716 10.815505142067458 11.345202200808856 11.778235922834549 10.041680787037972
9.467396153491254 10.815505142067458 14.254094721491919 11.247506290366776 11.658536323529681 10.01022054868263 9.484452795337273 11.345202200808856
11.247506290366776 15.133536156726127 12.508809730313265 10.233695014762418 9.498396805374615 11.778235922834549 11.658536323529681 12.508809730313265
16.02279569377775 10.416388080973078 9.442478429940316 10.041680787037972 10.01022054868263 10.233695014762418 10.416388080973078 13.45215451764777
-1.3645525325012748 -0.25473093289207793 0.10513379809332786 -0.008947783208609367 -0.15490570540713763 -0.23261088113271028 -0.25473093289207793 -2.1787739757594866
0.09466061655859405 -0.21539872512479252 -0.6120939387945048 -0.8232868005685356 0.10513379809332786 0.09466061655859405 -1.2371892681445438 0.10578903824938198
0.09918044319545632 0.09566215496396202 -0.008947783208609367 -0.21539872512479252 0.10578903824938198 -1.3385963895893815 -0.126302354228956 -0.19565605700930996
-0.15490570540713763 -0.6120939387945048 0.09918044319545632 -0.126302354228956 -1.7352913692454441 -0.5683735494647477 -0.23261088113271028 -0.8232868005685356
0.09566215496396202 -0.19565605700931 -0.5683735494647477 -2.0684684079262357 -0.5799035347816686 -1.0534235347871364 -0.951536552278322 -1.504676363820081
-0.8343130201522366 -1.5817320057598778 -1.0534235347871364 -1.0618615793380806 -1.1867074703510871 -1.8686692621178491 -1.0421834850260883 -1.9636705665738285
-0.951536552278322 -1.1867074703510871 -0.8153810008182365 -1.6920633067925113 -0.9413266765425979 -1.7783575433704137 -1.504676363820081 -1.8686692621178491
-1.6920633067925113 -2.4421346522854854 -1.4888737199780544 -2.7844135498097344 -0.8343130201522366 -1.0421834850260883 -0.9413266765425979 -1.4888737199780544
-0.5612696021254422 -1.565150256296344 -1.5817320057598778 -1.9636705665738285 -1.7783575433704137 -2.7844135498097344 -1.565150256296344 -2.7254606570822233
-3.5297352759991707 -0.15176571169082448 -0.8247453210456039 -1.3471073904360527 -1.9726793942611223 -3.4010233158259613 -0.15176571169082448 0.22392553243833593
0.004394126599014732 -0.024664613886935423 -0.0594648713704871 -0.13892292886281377 -0.8247453210456039 0.004394126599014732 0.02275988216803993 -0.2803962886839653
-0.42943895483257816 -0.7697422052106407 -1.3471073904360527 -0.024664613886935423 -0.2803962886839653 -0.3058694559702229 -0.7166102527020358 -1.2593797187756661
-1.972679394261122 -0.0594648713704871 -0.42943895483257816 -0.7166102527020358 -0.8982266688001534 -1.845761346496505 -3.4010233158259613 -0.13892292886281377
-0.7697422052106407 -1.2593797187756661 -1.845761346496505 -3.0697265481303906 23.52082591900778 22.102348547121032 19.181906408458282 22.305332797960467
00000000: f409 b68a a1e7 e2bf e062 2ba5 a31f 98bf
00000010: 166a 63a0 e23b a2bf 7830 ea14 bba1 9cbf
00000020: 93e4 bcb1 1156 b83f ae83 409d 95e0 a5bf
00000030: e062 2ba5 a31f 98bf cdce bfd6 c276 0cc0
00000040: 00bf 7aa6 11a6 0ac0 5ae9 cff4 4c25 09c0
00000050: 51bf 2cbf df72 bfbf 610d c58f dc0b 0cc0
00000060: 166a 63a0 e23b a2bf 00bf 7aa6 11a6 0ac0
00000070: 0a34 1160 4d8d 10c0 ac67 1328 4c98 0bc0
00000080: 50b2 8159 2a77 c2bf ca61 a670 dcc4 0ec0
00000090: 7830 ea14 bba1 9cbf 5ae9 cff4 4c25 09c0
000000a0: ac67 1328 4c98 0bc0 ae0b 247e e61c 0ec0
000000b0: cf36 26f7 b5b9 c0bf ca9e f389 680a 0dc0
000000c0: 93e4 bcb1 1156 b83f 51bf 2cbf df72 bfbf
000000d0: 50b2 8159 2a77 c2bf cf36 26f7 b5b9 c0bf
000000e0: 7bd8 5de9 4d3f e3bf 5e4c 82c2 6315 c4bf
000000f0: ae83 409d 95e0 a5bf 610d c58f dc0b 0cc0
00000100: ca61 a670 dcc4 0ec0 ca9e f389 680a 0dc0
00000110: 5e4c 82c2 6315 c4bf 1f0f f4b9 2603 12c0
00000120: e59c 2a78 24cb 18c0 1ac8 a7c2 355d 0bc0
00000130: 222c c191 543d 11c0 0893 16d0 d36a 18c0
00000140: 6642 78b3 fbd5 13c0 3619 cf75 00a3 f4bf
00000150: 1ac8 a7c2 355d 0bc0 9e47 c2dd 3d0d 10c0
00000160: 12cd a051 e778 08c0 0f7c 7949 0c97 11c0
00000170: d41e 341a 7058 0cc0 5503 e6a8 79cd e9bf
00000180: 222c c191 543d 11c0 12cd a051 e778 08c0
00000190: 8fb7 2733 2d6f 15c0 117a 740a 6002 16c0
000001a0: efee 8987 a4d6 11c0 029f aa00 8de8 f1bf
000001b0: 0893 16d0 d36a 18c0 0f7c 7949 0c97 11c0
000001c0: 117a 740a 6002 16c0 3e81 8ad4 00a3 21c0
000001d0: 7349 3249 063c 19c0 c802 4105 c302 fcbf
000001e0: 6642 78b3 fbd5 13c0 d41e 341a 7058 0cc0
000001f0: efee 8987 a4d6 11c0 7349 3249 063c 19c0
00000200: c5bd dedb f5ff 19c0 bec9 e899 0690 f5bf
00000210: 3619 cf75 00a3 f4bf 5503 e6a8 79cd e9bf
00000220: 029f aa00 8de8 f1bf c802 4105 c302 fcbf
00000230: bec9 e899 0690 f5bf 229a 276e 8eb9 fdbf
00000240: 9cb6 6dc7 8f96 10c0 c6cf 5f14 8e82 01c0
00000250: 1e24 30a4 72c8 07c0 4426 7ccc 3e71 febf
00000260: 26ce 5179 80cf f7bf 18d5 0019 24c3 0fc0
00000270: c6cf 5f14 8e82 01c0 1e57 0207 9e0a d8bf
00000280: 1211 5b0b 6f65 f6bf fc6f b250 7e16 ecbf
00000290: 84cc 3e05 4c9e e5bf 5977 946d 232e febf
000002a0: 1e24 30a4 72c8 07c0 1211 5b0b 6f65 f6bf
000002b0: bf3b ab0c 360b f5bf dff4 1e60 db65 f3bf
000002c0: 9a55 8674 a71b eebf fbdb afc6 8e88 04c0
000002d0: 4426 7ccc 3e71 febf fc6f b250 7e16 ecbf
000002e0: dff4 1e60 db65 f3bf 9879 8471 bc12 babf
000002f0: 2a0c 953d 5185 e2bf 6ce9 1c62 4535 fabf
00000300: 26ce 5179 80cf f7bf 84cc 3e05 4c9e e5bf
00000310: 9a55 8674 a71b eebf 2a0c 953d 5185 e2bf
00000320: 4c16 ebc0 2b67 cd3f b20a 6d9e 1474 f4bf
00000330: 18d5 0019 24c3 0fc0 5977 946d 232e febf
00000340: fbdb afc6 8e88 04c0 6ce9 1c62 4535 fabf
00000350: b20a 6d9e 1474 f4bf 2470 a435 2954 07c0
00000360: ea7e 047b a381 2a40 c68b 3847 89f0 2240
00000370: d20a 738c 4eef 2240 d6db 6032 0af8 2240
00000380: 9a07 b7dd 2dff 2240 e48e 6388 8ce2 2240
00000390: c68b 3847 89f0 2240 a725 e67c 93b9 2c40
000003a0: 94cc d5e3 89a1 2540 68f6 c557 beb0 2640
000003b0: 254b 5af0 748e 2740 3666 222f 5715 2440
000003c0: d20a 738c 4eef 2240 94cc d5e3 89a1 2540
000003d0: bdc9 0db4 1882 2c40 f25b fd24 b97e 2640
000003e0: 7c93 49ac 2b51 2740 9bad b4a0 3b05 2440
000003f0: d6db 6032 0af8 2240 68f6 c557 beb0 2640
00000400: f25b fd24 b97e 2640 caf1 e3d9 5e44 2e40
00000410: 032a 7fb5 8204 2940 2049 7bdf a677 2440
00000420: 9a07 b7dd 2dff 2240 254b 5af0 748e 2740
00000430: 7c93 49ac 2b51 2740 032a 7fb5 8204 2940
00000440: db43 47f0 d505 3040 7872 8cd1 30d5 2440
00000450: e48e 6388 8ce2 2240 3666 222f 5715 2440
00000460: 9bad b4a0 3b05 2440 2049 7bdf a677 2440
00000470: 7872 8cd1 30d5 2440 5812 04cc 80e7 2a40
00000480: 7045 4c09 35d5 f5bf 5444 83f8 824d d0bf
00000490: 45de 8370 0cea ba3f 907a 0522 3753 82bf
000004a0: e7fe 573d f3d3 c3bf 6651 947f 31c6 cdbf
000004b0: 5444 83f8 824d d0bf 671a da0c 216e 01c0
000004c0: 999e 569c ad3b b83f fc6a 0178 2f92 cbbf
000004d0: 9e78 2607 4696 e3bf 6273 758f 5d58 eabf
000004e0: 45de 8370 0cea ba3f 999e 569c ad3b b83f
000004f0: b049 5af9 86cb f3bf 7d6f 8e8b fd14 bb3f
00000500: 9c61 edb7 e363 b93f 60fc 08a3 507d b83f
00000510: 907a 0522 3753 82bf fc6a 0178 2f92 cbbf
00000520: 7d6f 8e8b fd14 bb3f f647 3d0c e46a f5bf
00000530: 351c 69f0 ac2a c0bf 2745 0ff7 410b c9bf
00000540: e7fe 573d f3d3 c3bf 9e78 2607 4696 e3bf
00000550: 9c61 edb7 e363 b93f 351c 69f0 ac2a c0bf
00000560: 3c0b ffe1 c0c3 fbbf d899 dbb9 1d30 e2bf
00000570: 6651 947f 31c6 cdbf 6273 758f 5d58 eabf
00000580: 60fc 08a3 507d b83f 2845 0ff7 410b c9bf
00000590: d899 dbb9 1d30 e2bf a7d1 262a 398c 00c0
000005a0: 281b 97db 918e e2bf a2f5 eba2 d2da f0bf
000005b0: d37c 9fc8 fc72 eebf 3ebe da85 2713 f8bf
000005c0: 7cc9 0538 b1b2 eabf 0d67 3c38 c64e f9bf
000005d0: a2f5 eba2 d2da f0bf ea2c 4291 62fd f0bf
000005e0: 9c3a f1f8 c0fc f2bf c562 7dbd 11e6 fdbf
000005f0: c8e4 0997 c8ac f0bf 91d6 f8d3 316b ffbf
00000600: d37c 9fc8 fc72 eebf 9c3a f1f8 c0fc f2bf
00000610: 1069 89e5 9917 eabf 9bf7 56f9 b012 fbbf
00000620: 5f4a 531f 591f eebf eaee 150a 2774 fcbf
00000630: 3ebe da85 2713 f8bf c562 7dbd 11e6 fdbf
00000640: 9bf7 56f9 b012 fbbf b8f4 7fe4 7d89 03c0
00000650: aadf f23f 6dd2 f7bf d0c6 779c 7a46 06c0
00000660: 7cc9 0538 b1b2 eabf c8e4 0997 c8ac f0bf
00000670: 5f4a 531f 591f eebf aadf f23f 6dd2 f7bf
00000680: 40c4 2bab ebf5 e1bf abe6 c1fe da0a f9bf
00000690: 0d67 3c38 c64e f9bf 91d6 f8d3 316b ffbf
000006a0: eaee 150a 2774 fcbf d0c6 779c 7a46 06c0
000006b0: abe6 c1fe da0a f9bf 609f 2551 becd 05c0
000006c0: bca1 2fd9 e53c 0cc0 7ae1 2e10 0f6d c3bf
000006d0: bc6f ad4c 5064 eabf c8f6 a17a c08d f5bf
000006e0: 8683 bd44 1890 ffbf 743f 53b6 4b35 0bc0
000006f0: 7ae1 2e10 0f6d c3bf edf0 4783 97a9 cc3f
00000700: 8895 9860 93ff 713f e229 0d38 ae41 99bf
00000710: 061c 98fb 2d72 aebf 50ae 10fe 39c8 c1bf
00000720: bc6f ad4c 5064 eabf 8895 9860 93ff 713f
00000730: 4249 4ad6 5d4e 973f 6150 7446 03f2 d1bf
00000740: 1999 a886 ed7b dbbf 4361 b767 baa1 e8bf
00000750: c8f6 a17a c08d f5bf e229 0d38 ae41 99bf
00000760: 6150 7446 03f2 d1bf e131 8f7b 5d93 d3bf
00000770: 5bac ea9f 78ee e6bf d231 1659 6b26 f4bf
00000780: 8583 bd44 1890 ffbf 061c 98fb 2d72 aebf
00000790: 1999 a886 ed7b dbbf 5bac ea9f 78ee e6bf
000007a0: aa88 dcda 45be ecbf 4dc6 b60c 3d88 fdbf
000007b0: 743f 53b6 4b35 0bc0 50ae 10fe 39c8 c1bf
000007c0: 4361 b767 baa1 e8bf d231 1659 6b26 f4bf
000007d0: 4dc6 b60c 3d88 fdbf 6110 dfca cc8e 08c0
000007e0: 2d0c f1d8 5485 3740 8ead ae83 331a 3640
000007f0: da42 1b6b 912e 3340 eaa2 4d4a 2a4e 3640

XTrain_Boundary f8 [408, 6]
0.0 0.6922956207727298 0.8523641017949405 0.594682258667025 0.429648977748078 0.8461468604865997 0.0 0.9837291566969754
0.9147112927979988 0.5281981795305704 0.9258485846623887 0.4633794085291661 0.0 0.41291986651230456 0.8996962208451339 0.06556984072377775
0.39589721161015357 0.030599103396506275 0.0 0.14058426324908485 0.9575062831326775 0.12325482049610761 0.6999622446509741 0.7397000229419745
0.0 0.3412867176565178 0.404419381886524 0.26529276321235973 0.9957919997356349 0.23040824894763948 0.0 0.7983343760767521
0.3303629776577367 0.31970593726366614 0.4963058719529255 0.3356962778227334 0.0 0.5365258072496573 0.7064005927491259 0.3866362294789206
0.6291099776168814 0.08429568827241518 0.0 0.520929977703555 0.5823874076940353 0.3288544940985011 0.7399217793141264 0.98614480394756
0.0 0.8413515129987041 0.0793586599397781 0.7765760982469333 0.7895730225607885 0.30970870640732767 0.0 0.9189906730394988
0.7675955277595605 0.3600740526358889 0.14690046636429513 0.6916677464889851 0.0 0.7568191116909017 0.6830588551463801 0.17633302620644986
0.7221829763945025 0.54102627218455 0.0 0.5845393109711468 0.027732845626840738 0.841843439550953 0.3606082921049162 0.6447991491791543
0.0 0.014446904570660047 0.2930820661757459 0.4278250660962621 0.8209971259553954 0.5784742217793606 0.0 0.6336459813137685
0.1327482022976828 0.046545927661106906 0.8715145847078736 0.38447020714044955 0.0 0.5926302784997027 0.999052766075003 0.5690761630720311
0.10405304017782244 0.5118111033501733 0.0 0.10517943178028247 0.052251845088440885 0.2276501320312749 0.05035717324694672 0.8737310296518042
0.0 0.36166838445977467 0.8092378953105327 0.9305844520570191 0.9042888768604774 0.6570622901347342 0.0 0.2414433115663377
0.6112308964638578 0.660939088098018 0.9619391164756079 0.8127408091483398 0.0 0.18972186167584476 0.2598411166237047 0.822044786280841
0.4547072772775909 0.47288594058478056 0.0 0.08225211072820555 0.8575208277350892 0.7363854848609286 0.5303327731822298 0.18294392752944283
0.0 0.4685616600586771 0.20533241716346654 0.6407309198242563 0.5826975697369856 0.7230511560003048 0.0 0.7779723302596462
0.7439248450550952 0.6991731873949188 0.013618028834189914 0.24626053140219717 0.0 0.9647346895662575 0.22380596962800328 0.18444464181768672
0.23627453184738698 0.1300063741745715 0.0 0.3132770147477552 0.4588313922752563 0.7278649423834028 0.1779665596423339 0.9503404288322689
0.0 0.4851392879038782 0.3114032773046654 0.9416570808181802 0.15303673599707332 0.16944502155596194 0.0 0.6632122528990626
0.49912259817549715 0.8713112235845353 0.8333822394189933 0.011193056973340786 0.0 0.17472961635308698 0.10597645478645472 0.5399495369400216
0.6624373262726063 0.0978837301489879 0.0 0.7328116958056411 0.14882283483477637 0.45390804966060155 0.33124412916420687 0.7790650580256328
0.0 0.2698738347106222 0.5383925312175526 0.4714649331463652 0.06675869054881203 0.2803052333746474 0.0 0.030050824585814467
0.6699742042490273 0.9076766330791146 0.2734035296781109 0.41942230994864 0.0 0.9008301970874623 0.4133440092272197 0.9938466454983846
0.5226900635280266 0.8940140964555123 0.0 0.866939412943439 0.5228910359102676 0.11445843735446622 0.5983775139654347 0.9322170333870412
0.0 0.22833693276938977 0.6212018442676724 0.26294884892301473 0.3141639017454355 0.36333899253078794 0.0 0.41123746533464406
0.37138114602946043 0.02911717633513327 0.22999315964736458 0.6157615819694611 1.0 0.6922956207727298 0.8523641017949405 0.594682258667025
0.429648977748078 0.8461468604865997 1.0 0.9837291566969754 0.9147112927979988 0.5281981795305704 0.9258485846623887 0.4633794085291661
1.0 0.41291986651230456 0.8996962208451339 0.06556984072377775 0.39589721161015357 0.030599103396506275 1.0 0.14058426324908485
0.9575062831326775 0.12325482049610761 0.6999622446509741 0.7397000229419745 1.0 0.3412867176565178 0.404419381886524 0.26529276321235973
0.9957919997356349 0.23040824894763948 1.0 0.7983343760767521 0.3303629776577367 0.31970593726366614 0.4963058719529255 0.3356962778227334
1.0 0.5365258072496573 0.7064005927491259 0.3866362294789206 0.6291099776168814 0.08429568827241518 1.0 0.520929977703555
0.5823874076940353 0.3288544940985011 0.7399217793141264 0.98614480394756 1.0 0.8413515129987041 0.0793586599397781 0.7765760982469333
00000000: 0000 0000 0000 0000 a840 4c25 4927 e63f
00000010: 43cc af14 9146 eb3f a58f 8f16 a307 e33f
00000020: 5a05 0c6d 5e7f db3f 8be5 ac94 a213 eb3f
00000030: 0000 0000 0000 0000 4d53 8491 b57a ef3f
00000040: 582d fb9d 5045 ed3f 467f 5cde ffe6 e03f
00000050: f687 0536 8da0 ed3f 2572 511b 02a8 dd3f
00000060: 0000 0000 0000 0000 877f a272 476d da3f
00000070: 29ab 9bba 4fca ec3f c436 8361 2fc9 b03f
00000080: 685d 1c42 6156 d93f 3cea 7f11 5f55 9f3f
00000090: 0000 0000 0000 0000 7258 7e46 aafe c13f
000000a0: a69e 7837 e4a3 ee3f fae9 1abf a08d bf3f
000000b0: eebd a638 1766 e63f ff5b ec61 9fab e73f
000000c0: 0000 0000 0000 0000 2536 b93e a4d7 d53f
000000d0: cf8d c4d4 01e2 d93f 2234 777f 8efa d03f
000000e0: ad74 0f2f 87dd ef3f edb7 fa7a 047e cd3f
000000f0: 0000 0000 0000 0000 fcb5 9088 f48b e93f
00000100: 9a58 36c2 aa24 d53f 389b 38e4 0f76 d43f
00000110: e26f 36b4 79c3 df3f f3cd a83d 0c7c d53f
00000120: 0000 0000 0000 0000 e61c 732b 382b e13f
00000130: ba70 776a d59a e63f c2e2 43e2 a5be d83f
00000140: 2075 6e3f ab21 e43f c8e6 52f8 6694 b53f
00000150: 0000 0000 0000 0000 d6c4 3758 75ab e03f
00000160: 3dbd b4ea eaa2 e23f 8aec 52b8 f30b d53f
00000170: dc12 7870 70ad e73f 3c67 428c 7f8e ef3f
00000180: 0000 0000 0000 0000 2ea0 1802 5aec ea3f
00000190: e981 1861 d950 b43f 756d 1a1e b6d9 e83f
000001a0: 877a b6a4 2e44 e93f 7d94 5377 44d2 d33f
000001b0: 0000 0000 0000 0000 e013 c120 5f68 ed3f
000001c0: c00f 097f 2490 e83f 9665 0d0a 740b d73f
000001d0: 3da1 666d a2cd c23f 60c8 db65 2422 e63f
000001e0: 0000 0000 0000 0000 fd67 b6b6 dc37 e83f
000001f0: d619 833e 9edb e53f fc75 61a2 1492 c63f
00000200: 5af4 2a79 1f1c e73f e8e6 2954 1650 e13f
00000210: 0000 0000 0000 0000 4e1e fbc8 8bb4 e23f
00000220: dc1c f8c3 ff65 9c3f e126 27a7 61f0 ea3f
00000230: 2e73 50cd 3414 d73f a8d1 46d3 31a2 e43f
00000240: 0000 0000 0000 0000 da7c 46b5 5696 8d3f
00000250: 4136 5148 dbc1 d23f 0fb8 d262 7c61 db3f
00000260: 4ed4 c2c3 9b45 ea3f 8ce2 035f dc82 e23f
00000270: 0000 0000 0000 0000 b880 dfef d346 e43f
00000280: dc54 bca1 e4fd c03f e403 222a ded4 a73f
00000290: b8d5 e98d 72e3 eb3f c817 7ded 289b d83f
000002a0: 0000 0000 0000 0000 add1 18c6 d3f6 e23f
000002b0: bea7 a881 3df8 ef3f 2e7b aa36 df35 e23f
000002c0: 86f5 9c54 38a3 ba3f 26cc d3ad c160 e03f
000002d0: 0000 0000 0000 0000 0a4b b50b 0aed ba3f
000002e0: 68fb 9efb c0c0 aa3f 6f90 00b8 a323 cd3f
000002f0: 98e5 6d58 6ac8 a93f 625b bbc6 9af5 eb3f
00000300: 0000 0000 0000 0000 ea1e d026 9325 d73f
00000310: 0f5d e1de 46e5 e93f 0108 780b 59c7 ed3f
00000320: 0513 083a efef ec3f 9308 f27e a706 e53f
00000330: 0000 0000 0000 0000 48f7 814b 9de7 ce3f
00000340: b8be d318 348f e33f fbed 00bb 6926 e53f
00000350: 1830 c08a 34c8 ee3f 9555 6d03 f901 ea3f
00000360: 0000 0000 0000 0000 5af3 9d53 ce48 c83f
00000370: 0884 83a2 3ca1 d03f 7d8d 1dde 304e ea3f
00000380: ed44 4a8d ec19 dd3f 7130 6364 c343 de3f
00000390: 0000 0000 0000 0000 f5c7 9a6d 790e b53f
000003a0: 965a d884 cf70 eb3f e041 d74a 7890 e73f
000003b0: b811 9a6f 7cf8 e03f eed0 dee4 b46a c73f
000003c0: 0000 0000 0000 0000 9d22 870b eafc dd3f
000003d0: b94a 4328 5548 ca3f 38cc 4521 de80 e43f
000003e0: 3c54 af5f 75a5 e23f d666 8b2d 3c23 e73f
000003f0: 0000 0000 0000 0000 160f 753a 26e5 e83f
00000400: 2931 067a 3bce e73f 7d3d c372 a05f e63f
00000410: 2fa5 d4e3 c4e3 8b3f 9c81 5510 7785 cf3f
00000420: 0000 0000 0000 0000 091f a048 1bdf ee3f
00000430: 01d6 198c aca5 cc3f 54c3 43cc e19b c73f
00000440: 33c4 946d 3e3e ce3f 2cf8 ac82 0ca4 c03f
00000450: 0000 0000 0000 0000 0f87 3b09 bb0c d43f
00000460: e9d2 0c58 7e5d dd3f e921 6e6b ab4a e73f
00000470: c104 b9b4 9bc7 c63f b7d6 bc54 3069 ee3f
00000480: 0000 0000 0000 0000 1752 e3a7 850c df3f
00000490: 2902 f902 08ee d33f 3326 c507 0e22 ee3f
000004a0: 83d5 1830 b596 c33f 7fc4 06dd 5fb0 c53f
000004b0: 0000 0000 0000 0000 2b41 10e7 0839 e53f
000004c0: 8bee f6e8 9ff1 df3f c8dd 3d13 c8e1 eb3f
000004d0: efe5 eb3a 11ab ea3f 2661 24ad 62ec 863f
000004e0: 0000 0000 0000 0000 8287 f041 8a5d c63f
000004f0: 3b2f 74df 4521 bb3f 42ba 5440 4447 e13f
00000500: 63b2 7fc3 af32 e53f 81e6 cc7b e80e b93f
00000510: 0000 0000 0000 0000 a591 7383 3173 e73f
00000520: 3eb6 416c a00c c33f 47bd 2b59 d40c dd3f
00000530: 2a25 7093 1a33 d53f 5ba5 35d8 19ee e83f
00000540: 0000 0000 0000 0000 f434 88e7 9c45 d13f
00000550: 78ae 3ff9 823a e13f 08c4 4441 7b2c de3f
00000560: c284 a1f8 1817 b13f f878 8f5c 85f0 d13f
00000570: 0000 0000 0000 0000 8b70 41b3 a4c5 9e3f
00000580: e838 0dbe 6d70 e53f ce61 cddd af0b ed3f
00000590: 5a05 a584 717f d13f bf4c 1cac d0d7 da3f
000005a0: 0000 0000 0000 0000 23ad 77d9 99d3 ec3f
000005b0: 3638 686e 3a74 da3f adf4 f47a 97cd ef3f
000005c0: 5381 1983 e0b9 e03f b00f 4e73 c39b ec3f
000005d0: 0000 0000 0000 0000 8993 46b9 f7bd eb3f
000005e0: ac65 53fb 85bb e03f 754e 30ed 254d bd3f
000005f0: 1f96 a499 e825 e33f c87c e5d0 b8d4 ed3f
00000600: 0000 0000 0000 0000 4e53 5b05 253a cd3f
00000610: 7506 abb0 e2e0 e33f d84a a968 27d4 d03f
00000620: 5225 e5e8 421b d43f 3001 9230 f240 d73f
00000630: 0000 0000 0000 0000 8924 20f2 b651 da3f
00000640: c70a 236d b5c4 d73f ceee 71a0 e4d0 9d3f
00000650: 119c 7e75 6a70 cd3f 5825 16a2 51b4 e33f
00000660: 0000 0000 0000 f03f a840 4c25 4927 e63f
00000670: 43cc af14 9146 eb3f a58f 8f16 a307 e33f
00000680: 5a05 0c6d 5e7f db3f 8be5 ac94 a213 eb3f
00000690: 0000 0000 0000 f03f 4d53 8491 b57a ef3f
000006a0: 582d fb9d 5045 ed3f 467f 5cde ffe6 e03f
000006b0: f687 0536 8da0 ed3f 2572 511b 02a8 dd3f
000006c0: 0000 0000 0000 f03f 877f a272 476d da3f
000006d0: 29ab 9bba 4fca ec3f c436 8361 2fc9 b03f
000006e0: 685d 1c42 6156 d93f 3cea 7f11 5f55 9f3f
000006f0: 0000 0000 0000 f03f 7258 7e46 aafe c13f
00000700: a69e 7837 e4a3 ee3f fae9 1abf a08d bf3f
00000710: eebd a638 1766 e63f ff5b ec61 9fab e73f
00000720: 0000 0000 0000 f03f 2536 b93e a4d7 d53f
00000730: cf8d c4d4 01e2 d93f 2234 777f 8efa d03f
00000740: ad74 0f2f 87dd ef3f edb7 fa7a 047e cd3f
00000750: 0000 0000 0000 f03f fcb5 9088 f48b e93f
00000760: 9a58 36c2 aa24 d53f 389b 38e4 0f76 d43f
00000770: e26f 36b4 79c3 df3f f3cd a83d 0c7c d53f
00000780: 0000 0000 0000 f03f e61c 732b 382b e13f
00000790: ba70 776a d59a e63f c2e2 43e2 a5be d83f
000007a0: 2075 6e3f ab21 e43f c8e6 52f8 6694 b53f
000007b0: 0000 0000 0000 f03f d6c4 3758 75ab e03f
000007c0: 3dbd b4ea eaa2 e23f 8aec 52b8 f30b d53f
000007d0: dc12 7870 70ad e73f 3c67 428c 7f8e ef3f
000007e0: 0000 0000 0000 f03f 2ea0 1802 5aec ea3f
000007f0: e981 1861 d950 b43f 756d 1a1e b6d9 e83f

YTrain_Boundary f8 [408]
0.5269017060073851 2.4748549134786484 2.6416558279524613 0.42086203385898036 1.8295128391461846 2.4203526089730283 1.8933232064088388 0.3759742253953453
0.3914192784479565 0.3828938669070431 0.4724866105260715 0.9915517372263362 2.1881362720869757 2.026143649763195 0.4461066204703577 2.2015638060769684
1.5837793511280485 0.5026908386995977 2.428309364059767 1.0108453250640659 1.138332389331425 0.7326591374462235 2.716355344535906 0.6442209914553427
2.2916479554131444 0.3683002648533308 2.0970754009206365 1.3608785933053167 1.6515843951875717 1.262124383395773 2.0837731649194264 0.3813808918743931
1.942012826442469 1.9471547643990001 2.41433666441166 0.5055065707099093 0.37169041853754153 1.8500297597664372 0.4238751385815866 0.36984286756824986
0.41480739018982954 2.6773652928244136 2.0963141433806336 2.193615992054262 1.5648210970815557 0.693363998437039 0.38332934973103094 0.3986206805226009
1.6951608969649852 0.6052471826470083 0.9100650711048831 2.482825783758326 0.36958288702185554 0.681087978495456 0.6119613744513367 0.9351647619188848
0.3903068984863466 1.0744525275548338 0.3760185466807849 2.4804819063358576 0.6470116189701162 0.5264286745452442 0.8678657761853924 0.560067257106913
0.6525346185114326 2.700662756972943 0.714815204598822 0.7124365976584527 0.9190414124157178 0.4215881825233466 1.6275952380219543 1.0047251870168736
0.5669144913621587 0.3680369694961368 0.3684054127394952 0.9072409012227507 2.5090095979058984 0.6057713761800797 1.8567083237248434 0.5933781227661515
1.8719348451278168 1.027922661415211 1.3422579879054901 0.6618026275313006 0.9273708172993914 2.3810553921711635 0.4011616755221354 1.189626708728216
1.7337865893334081 1.1744985765284854 2.283623551543609 0.6172300163788499 0.7141356400654685 0.5159019989731463 2.437877145207377 2.6341624220632296
0.667719419354623 0.38926516376414727 2.1989976980392894 1.639042228473325 1.1914769446147648 2.1208370558104246 1.5699453916841102 2.6899935028554647
0.4591216990447901 0.6849226013233412 1.244014352663326 2.4994074821454335 2.5755423178168377 0.7542543353171302 0.49342099705668696 1.1516160226406063
0.4199014743420182 1.179323129800622 0.7482437420554806 0.670668485686066 0.5323305293463368 1.0429923859412458 0.7385329275769762 0.5387504333667645
2.003292298684585 1.2304336040574513 0.4392453539101684 1.246136309505278 0.5741749413884255 1.1273018400592094 1.943479723545843 2.4454160024655707
0.36929164353795124 0.3710940647732073 1.0328789159893197 2.119174217691076 0.38247137362772327 0.45682108699611185 1.22853498215502 0.6372682874782306
2.7100645848696874 2.0912475763041516 0.4268770287305393 0.8518319273270823 0.6788321066322809 0.8431710704557057 0.7314790527093328 0.6322853464135815
1.00880180342149 0.651176725721196 1.6661910830140316 0.8818972689369785 1.7778617721309407 1.0715032087490453 0.5118256938865048 2.675479101665087
2.0162920643854525 2.276203512963668 0.37069924015440714 1.5667745114259162 1.774349986029797 0.38652492713466347 0.36995409657235845 1.9450193039686634
0.4739120496395596 1.5508703673061095 0.36894294176802683 0.48018643464431754 2.154625634933307 0.38104788404591694 1.7225736691153464 1.9932840323739218
0.4704809458569261 2.0622716130725522 0.4084028901864298 0.391909356462292 1.8096918177809636 0.8021035957126678 1.0144865077801413 1.69350275322063
0.9367492342400751 2.133134586130812 1.441869293191512 2.0870324742837845 0.8591453660135449 0.7752568895091317 0.7963743023483454 0.6458184131648813
1.4096788103951068 0.42900233912513136 0.6813625189138632 0.3769845405236242 2.628607748032737 0.4720507727764406 0.432459108165695 2.149801061996995
2.61639435181406 0.7134232575856229 2.563383330844634 0.4756383046322174 2.450556556349779 2.5460586638705327 0.3861084305969735 2.6996326732331215
0.8266237936622205 0.402305560385898 1.5738602495619953 0.39480098899188654 1.3059629496699579 0.7689760307218605 0.688985461735902 1.513054557564349
0.9155367080447748 0.4501015794157564 1.34020495834698 1.291424343586282 1.7306979769320168 0.5353237375621845 1.2965011955056525 0.7687835716215689
2.5792220460947775 2.562356159862328 1.833624084668085 0.38143490005269204 2.6435702569889385 0.48552068127404185 0.38233102007057324 0.5274050077657157
0.4795050448750104 2.47449021068023 0.8389589101175604 2.5018919228224648 0.613172759663272 2.5132514227276577 0.4456030371426218 0.4050669560981069
1.785398815603149 0.3689992113923095 2.450112420298053 0.370452256499935 2.232246833784374 1.4511358722547298 0.5444021258032763 1.830458083047042
0.9983341738157105 0.48453837282827195 1.575322955534583 1.6736717430300034 1.0899395232044027 0.5494602340957697 0.8220805376063957 2.3906534461784847
0.5476789363814402 0.88952889543549 0.36849635656797763 0.36814467260553435 0.7673671612915236 2.700825876510304 0.37185562109295495 1.5090165565721783
00000000: 3444 70f7 60dc e03f b9e2 9dbb 80cc 0340
00000010: bebf 6273 1c22 0540 f459 e34f 67ef da3f
00000020: 67eb 3b41 af45 fd3f 959e 22d4 e15c 0340
00000030: 878a 4446 0d4b fe3f 7090 8d32 f60f d83f
00000040: 154e fd71 030d d93f 3e1a 0d47 5581 d83f
00000050: b178 007b 383d de3f 2fbb 75b5 caba ef3f
00000060: 7970 fe96 4d81 0140 17d9 45cd 8a35 0040
00000070: d9c0 5cc8 028d dc3f 4f43 197c cd9c 0140
00000080: 15cd 5204 2957 f93f add5 0619 0b16 e03f
00000090: 76a8 b975 2d6d 0340 376f c725 6c2c f03f
000000a0: 047f 0206 9c36 f23f a24e 4e93 f171 e73f
000000b0: b1c5 c882 18bb 0540 0a51 3657 759d e43f
000000c0: ca8e f385 4b55 0240 eecd 2946 3b92 d73f
000000d0: 0e9a c177 cfc6 0040 452a c1a1 28c6 f53f
000000e0: 0aa2 3ec2 e36c fa3f 44b4 6256 a931 f43f
000000f0: 0ce4 dc43 91ab 0040 81de 7a66 8b68 d83f
00000100: 13ba 9f0a 7c12 ff3f 3782 15c1 8b27 ff3f
00000110: 5774 b9bd 8f50 0340 ea96 a31d 1c2d e03f
00000120: 1fbd f69b c6c9 d73f 672d 2dce b899 fd3f
00000130: 8be7 7230 c520 db3f d753 376b 81ab d73f
00000140: 9148 c04b 348c da3f b402 a17e 3e6b 0540
00000150: 55b2 7f59 40c5 0040 60d8 8e8a 868c 0140
00000160: e1e5 c0d8 8109 f93f 1c59 30b2 0930 e63f
00000170: 3645 2cd3 7788 d83f 3ca5 9650 0083 d93f
00000180: 1fc3 5e08 611f fb3f 9ae1 ee56 2f5e e33f
00000190: 8f13 b4c8 401f ed3f b842 b7c3 d3dc 0340
000001a0: 73e3 3afb 3ea7 d73f 88c6 2a04 79cb e53f
000001b0: e1e0 3505 3095 e33f 0806 9aa6 deec ed3f
000001c0: 32bb 19c9 c9fa d83f a53d 2f22 f530 f13f
000001d0: 29bd 2b18 b010 d83f 0942 d0e5 06d8 0340
000001e0: 297a f3b5 51b4 e43f 8426 9bf2 80d8 e03f
000001f0: d715 c172 8ec5 eb3f 2ab5 1a2b 12ec e13f
00000200: 4976 c047 90e1 e43f b9ca 5513 f59a 0540
00000210: 87ef cd22 c4df e63f 7f54 edd5 47cc e63f
00000220: 52d8 3f89 c968 ed3f b257 1400 4dfb da3f
00000230: c3df e64d a10a fa3f 8047 bbb7 5a13 f03f
00000240: 20ed 00dc 2924 e23f 611c edee ea8d d73f
00000250: 41ac d84b f493 d73f 8a0c 0b12 1e08 ed3f
00000260: f9d8 c29f 7312 0440 bf7b 31a7 7a62 e33f
00000270: 37bf 89c9 13b5 fd3f e928 ee1d f4fc e23f
00000280: 9b11 c1f3 71f3 fd3f a187 5908 5f72 f03f
00000290: dd94 0d83 e379 f53f f9eb 34b4 7c2d e53f
000002a0: 071a 7290 05ad ed3f 81b7 fac4 660c 0340
000002b0: 33ac 3105 a2ac d93f 0ff9 0604 b608 f33f
000002c0: cce2 b601 97bd fb3f e136 f604 bfca f23f
000002d0: 970a b26c dc44 0240 539d ce29 59c0 e33f
000002e0: a5a7 5ffc 32da e63f 67fb b0e8 4482 e03f
000002f0: f8a6 92bb c580 0340 e6e8 78bf c312 0540
00000300: e807 a11d f55d e53f c3b3 f56e b8e9 d83f
00000310: d976 e81a 8c97 0140 eee4 0058 8439 fa3f
00000320: 48ef f020 4a10 f33f 3cce 166b 79f7 0040
00000330: 6aa0 1c0f 7f1e f93f cfbb 4950 1b85 0540
00000340: 4701 92fa 3f62 dd3f 2c33 9fcd e2ea e53f
00000350: f818 0798 7be7 f33f ea89 9959 c9fe 0340
00000360: 1be6 43ee b59a 0440 91b4 e1fc d922 e83f
00000370: e829 61a9 3594 df3f efa7 2cec 046d f23f
00000380: 6cd5 f56e aadf da3f 808f 1eee 81de f23f
00000390: 1014 32dc 9cf1 e73f 0b58 8fc1 1d76 e53f
000003a0: 6b8e c608 da08 e13f bb83 b9c8 18b0 f03f
000003b0: bfca 5ece 0fa2 e73f bc83 808c 713d e13f
000003c0: 816e d91c be06 0040 fa37 9525 dbaf f33f
000003d0: 20b4 7d8b 981c dc3f cfee 7aa0 2cf0 f33f
000003e0: ab45 6e20 a45f e23f 1a66 7ca7 6d09 f23f
000003f0: a518 d131 7e18 ff3f 30a3 dd43 3690 0340
00000400: 2d9f eb6a 79a2 d73f 4c33 fc51 01c0 d73f
00000410: d66e ce0a ac86 f03f 9213 bc9c 11f4 0040
00000420: 01c9 5836 697a d83f c95f 3183 8e3c dd3f
00000430: 6790 254c 14a8 f33f d3e6 af76 8064 e43f
00000440: 4781 5057 36ae 0540 5786 6002 e0ba 0040
00000450: a5ec 7307 f451 db3f f7de b107 3542 eb3f
00000460: dabb 2e1c feb8 e53f 554c 91e5 41fb ea3f
00000470: 850f 23c2 4668 e73f 7dc3 927a ae3b e43f
00000480: 3b75 1d5c 0d24 f03f dc71 9c92 70d6 e43f
00000490: d4e9 26fb b7a8 fa3f 6583 109f 8038 ec3f
000004a0: a2c6 812f 1f72 fc3f eb2d 728c e024 f13f
000004b0: 69d7 0f47 e060 e03f 9a43 5696 6167 0540
000004c0: 3ec2 ddbb 5d21 0040 0fc1 f92f aa35 0240
000004d0: e85f 474e 89b9 d73f b37d 6c26 8211 f93f
000004e0: 1f7f 9acf bc63 fc3f 5a75 480c d3bc d83f
000004f0: 182b 73f2 53ad d73f 3e25 ca8f cc1e ff3f
00000500: 9276 9834 9354 de3f dba4 3e72 5dd0 f83f
00000510: 11f5 3edb c29c d73f 8eee 31e2 5fbb de3f
00000520: 584b 695d ac3c 0140 4efb 0baa 1663 d83f
00000530: 76d1 5c68 a98f fb3f c2f5 2acc 7de4 ff3f
00000540: 6c2f f61c 5c1c de3f 1ded 6c42 887f 0040
00000550: 7b53 3ce0 4523 da3f f51f 40fb 0a15 d93f
00000560: 1754 5368 7ff4 fc3f 93e0 f228 d5aa e93f
00000570: 2062 5234 563b f03f 0a4c cc57 9618 fb3f
00000580: 3fa7 b387 d9f9 ed3f c92f abdd a810 0140
00000590: aed3 3589 e511 f73f 18e9 f514 3eb2 0040
000005a0: 5238 316c 1e7e eb3f cf17 4e89 e7ce e83f
000005b0: 2ec0 fef5 e57b e93f 3954 7660 8baa e43f
000005c0: bf2d 485e 0b8e f63f d3cb 1c3a c674 db3f
000005d0: 3291 eec4 b8cd e53f 1e61 29c4 8320 d83f
000005e0: a480 be7f 6307 0540 f215 c871 1436 de3f
000005f0: 8474 9bf7 68ad db3f 1e77 31e6 ca32 0140
00000600: 14d8 7329 60ee 0440 3127 f102 5dd4 e63f
00000610: c9b6 a81e cf81 0440 53b2 c7a4 db70 de3f
00000620: 5b2a 5465 bd9a 0340 d12b 3801 545e 0440
00000630: c3ed 8722 00b6 d83f 97fe d503 d998 0540
00000640: 74fd fbbd b373 ea3f 03cf 36d2 5fbf d93f
00000650: 9e7d c515 882e f93f ce82 095e 6b44 d93f
00000660: 30ec e967 39e5 f43f 0c77 eb9e 739b e83f
00000670: b367 323d 2b0c e63f 91d7 1cb2 7835 f83f
00000680: b5df 6aa3 134c ed3f e1fd ddda 76ce dc3f
00000690: de98 20c1 7a71 f53f af61 8f92 aca9 f43f
000006a0: 6ed2 a25c f0b0 fb3f 2744 333f 5f21 e13f
000006b0: 33bf 9e09 78be f43f 8122 3a01 e099 e83f
000006c0: 50cb 082b 3fa2 0440 b680 1a96 b47f 0440
000006d0: f2ea 4c35 8656 fd3f b9e0 51ed 6d69 d83f
000006e0: 0391 b329 0826 0540 31a2 e655 c512 df3f
000006f0: 7dc3 dc86 1c78 d83f 4636 8377 80e0 e03f
00000700: e754 80ed 35b0 de3f 6026 0986 c1cb 0340
00000710: 3591 345b c0d8 ea3f 3d31 95e9 df03 0440
00000720: 85a8 b17a 1c9f e33f 14ed d98f 231b 0440
00000730: 43a7 e199 c284 dc3f bd6c 48f4 9dec d93f
00000740: 9352 3559 fe90 fc3f 3081 4bde ae9d d73f
00000750: dca0 658a d499 0340 4b62 9961 7db5 d73f
00000760: a2a0 5d3a a4db 0140 192f 963f da37 f73f
00000770: 9a55 c601 be6b e13f a32c 366a 8e49 fd3f
00000780: a490 6082 5af2 ef3f 4016 3d3c ad02 df3f
00000790: a88b ead7 8534 f93f d4d9 8805 5cc7 fa3f
000007a0: ec7d ec6c 6470 f13f 4c9a fca0 2d95 e13f
000007b0: 7952 f6d7 7b4e ea3f 1440 fbe9 0e20 0340
000007c0: 57ec 0efa 9586 e13f 03c2 574d 0577 ec3f
000007d0: 46e5 09be 7195 d73f b764 42ac ae8f d73f
000007e0: baaf b893 458e e83f 176b de98 4a9b 0540
000007f0: 8164 db84 7bcc d73f c399 798b ee24 f83f
