Allen_Cahn4D/dataset/Dim4_3/Allen_CahenC8000_B1600.npz (npz, 385050 bytes, 4 tensors)

XTrain_Col f8 [8000, 4]
00000000: 204f 320f d83a e23f fc52 8185 fb92 dc3f
00000010: 581a 3891 5009 d53f 897e 802b 3011 e33f
00000020: de36 6533 0e75 df3f 497e d205 7953 e63f
00000030: f4f0 5cd1 d0ca dd3f 0714 a8c8 be3c d93f
00000040: ae45 5a41 2a0a ef3f 9ea8 2539 2ea5 e33f
00000050: bfb7 6ab5 5ef9 be3f bf84 cd9e 2753 e53f
00000060: 6a36 268f e3b2 ea3f 2f2c eab0 8db2 de3f
00000070: 774e 4131 8b3f cf3f 8d29 292c 892a d53f
00000080: 2f52 23aa 9c69 e73f 446e 9b75 7fcb db3f
00000090: 85e9 904f f2a6 eb3f ecf7 edc3 50c2 db3f
000000a0: 647b 9af2 5ade b03f b126 c25a 14a1 cf3f
000000b0: 2616 18c8 8ed5 ed3f 4da4 0cca 9f5c de3f
000000c0: 48c7 bd47 1d95 ee3f 18bb 8fc3 e572 d53f
000000d0: 06c6 e269 ceea db3f 2229 ba10 df7f eb3f
000000e0: 33d0 88c9 5261 ee3f 90ad 3c91 65da e03f
000000f0: 3aa1 6c39 2881 bb3f 8fde b19d 5c09 c13f
00000100: 852e 8341 76d9 cc3f fd59 04e2 b6cf ee3f
00000110: 3f25 7829 94e3 e13f 5a91 382e 329f d53f
00000120: 2cb4 c1ee a7c9 ed3f 7bc0 9079 acd1 de3f
00000130: 45ab 1d1e 6ed3 ea3f 90a8 a3a1 6b53 a83f
00000140: d3cc cab9 72aa c23f a5e8 b9f4 d840 e23f
00000150: 6258 dd8f 3f36 e43f a375 7bbc b853 dc3f
00000160: dc8c 9879 b049 e93f 0ccc 5dd9 6107 d43f
00000170: 5096 1c3b 7091 d93f 2857 dc62 fc20 d03f
00000180: 2038 3cad 7bc7 dd3f b55e fd41 de88 e03f
00000190: 79a5 e9d9 a0d4 ed3f f047 5689 96da d83f
000001a0: d628 4449 ac07 d63f 1c08 7ec8 bee2 e23f
000001b0: bdf8 e7e3 85dc da3f 24ba 6fb5 c121 e93f
000001c0: bcff f8cf 28f1 d63f 879b 94e5 0b71 d93f
000001d0: bb30 0066 2b6b e83f 5045 561f 946b e63f
000001e0: 7300 cd3d e85e ec3f 1242 8538 f065 e43f
000001f0: 41cf cde8 14e4 cf3f 2185 6e77 c33e ed3f
00000200: 472e ef49 65a8 d43f 3f17 00ee 64c1 dc3f
00000210: aee3 5948 7e1b d33f 14ba 5352 3b5b 983f
00000220: f869 b1de 2466 e73f 4b67 96e3 482a ce3f
00000230: d572 92ad 308c b43f ca71 2fa1 514c e03f
00000240: 629a 00af 7d2e de3f 8fdc 6caf 6f0c e33f
00000250: 1a26 1615 8fac c93f 119e 379f 25df de3f
00000260: d290 bc98 fa23 d53f 7cd7 862c 048a ca3f
00000270: 5b25 b420 35ab e83f 23d3 a9ae da71 af3f
00000280: 669b 6c61 db71 e83f f927 e395 48a7 e03f
00000290: ff5f a209 c0f7 ec3f 6f87 57a7 1b35 d93f
000002a0: 93e6 25f1 d709 eb3f 8b58 2d9a 1af2 c63f
000002b0: df27 1429 f542 d13f 5043 bd50 6c12 e93f
000002c0: 2fdc 0f01 0c4a dd3f 3c32 39fd a6ae e33f
000002d0: 8ed5 8410 1231 ef3f aa09 7fc2 4602 ea3f
000002e0: a6d0 3304 e0ff db3f 66be 1c84 4062 943f
000002f0: 2f24 95df a887 dc3f edec c371 4584 c93f
00000300: 74a2 7cc9 7045 c63f d9c9 c7be dff7 ef3f
00000310: da9f 7ab7 e9b0 ba3f 4593 afb9 408b c13f
00000320: a9e7 9ee7 8b37 d63f ef3f c892 d2fc ea3f
00000330: ec4b 552b db93 b93f f68a 3787 9d24 bf3f
00000340: 4f3e e29f bbdc e33f b772 3b1a b0d0 ee3f
00000350: 3c21 16f8 f389 c93f 49f5 3aca 1e63 af3f
00000360: 4d57 89ef 6a94 e73f 3245 ee8c c1cc c53f
00000370: d1db 0112 5909 e53f 38df 2ea5 1db9 df3f
00000380: 8fee 4999 f0d7 e53f 37c9 f071 d02e cd3f
00000390: f7fe 6e1e 2110 e43f 5706 b068 8de9 db3f
000003a0: 71b3 7c96 1815 c73f 7dfd cdfc 1c0b 583f
000003b0: 4e7d b7d2 29af e93f 6c8b bdd5 3abc ee3f
000003c0: 5d38 0b1e f143 db3f 5127 3beb d136 ea3f
000003d0: fd56 0a41 911e da3f a423 61b6 44e5 d13f
000003e0: 0e0d 8eb4 3a6c e93f ce8b b96d 89c5 ea3f
000003f0: 4325 5e99 9b83 e23f 1c2c ce54 7c07 d13f
00000400: d3b7 04a0 598c e43f cb40 ac10 6a61 ea3f
00000410: 34ea 3205 76e2 d33f 1242 7904 ff95 e83f
00000420: 991f 8ed3 8600 dc3f b9f2 a3ad a505 ee3f
00000430: 0b0f 0278 ac4d e83f 4fac 22e7 4659 e23f
00000440: 2e10 fe09 d24f d33f b9ba 84ad 6390 ab3f
00000450: 6ec0 53c3 6f05 e93f 9663 224a 6cc9 d23f
00000460: 9ef3 f558 92bb d33f 127b c4d1 2324 c33f
00000470: bb33 b88a 5c81 bd3f bfbb 2101 c554 e13f
00000480: 1f6c 3322 f369 eb3f 489d 068a 147c c23f
00000490: 65f5 0419 5ab4 e53f 65b6 5005 3ab3 d33f
000004a0: 9706 8019 4731 e23f 3289 a88f 52c6 e23f
000004b0: 2e6d e328 7441 c73f 5efa 03ed 1613 d83f
000004c0: 7757 f039 13f2 e13f f4b5 96c3 1599 e63f
000004d0: 7c13 3464 6ada ea3f 79c9 fc49 192e eb3f
000004e0: 20b1 8e5e 7322 d83f c9bb 5eed fe22 ec3f
000004f0: 2e14 dbe5 60e5 e73f 10bc 5dd2 7173 e13f
00000500: dc10 db69 f082 d03f 8d40 1007 676f e53f
00000510: 5c7d ad4c 5a22 ef3f 822f e729 2b9c e03f
00000520: 363c 67be 1ba2 c53f cd7e 9b5d b007 d93f
00000530: f61f 3412 643b ea3f 99a6 3cb0 e353 d33f
00000540: a9d7 d4d2 9b87 e13f 7ae8 146d 011b e93f
00000550: b5ee 342f 9a2f eb3f 97d3 e3fd 5d18 ec3f
00000560: 6990 0f9e ffe5 e93f 7985 f756 888e d53f
00000570: 5214 0a48 aa7c e33f d2f2 bc2e 1916 e43f
00000580: 62d5 d957 a98f c53f d728 3aa5 67aa b03f
00000590: ffcc 55a0 5762 ef3f 9ad5 f9cb 8209 ef3f
000005a0: c8b2 0882 c754 ec3f 60af 61f5 7982 dc3f
000005b0: e1c8 1df2 1d64 ec3f f6e6 7d43 8eeb ec3f
000005c0: 6db6 c540 4f5a e83f 6faa 4d44 ec58 db3f
000005d0: 1ec0 65d5 4637 c83f 3181 681c f141 ca3f
000005e0: b502 eafa 0e81 983f bc56 a018 565a eb3f
000005f0: ab66 946f e718 e93f 0df1 e0bd e263 ea3f
00000600: d28d 8819 f977 dd3f 98db 212b e0bf ec3f
00000610: db6c 1549 cf8a d23f 55ac 10d7 2592 e83f
00000620: eabc e6b9 7bb1 da3f 2fb0 c80b cb3a e43f
00000630: 2ab4 e707 8691 e93f f6c9 47c4 a9b9 e03f
00000640: 3954 838d bfa9 e93f 2cf7 3730 aa4b d73f
00000650: 899c 2d7e 4e38 ee3f 8ddf 4ae9 fc89 e83f
00000660: c2a5 1a92 d096 e83f e6bf 133a 02f2 e53f
00000670: db72 3bf4 69a3 e03f 9a75 1952 88be be3f
00000680: 696f 11ed a3b7 ca3f 495a 4321 0cea ec3f
00000690: 2f2d 95c4 020f e33f d561 8af5 2130 e83f
000006a0: 8010 3fa8 fa9d c23f 335a edb2 946c d13f
000006b0: 9c51 ae3b f599 cd3f cc67 bb50 0f68 e33f
000006c0: ce55 6d5c 8d59 e73f b33b 2b30 ee66 bd3f
000006d0: 2ec8 670a 4762 ef3f 98f9 9cd4 11ab e13f
000006e0: a7e9 2385 51b3 c93f 66a8 cb77 df9a db3f
000006f0: db14 9cb0 34f4 e83f 21c2 5a68 8a3b eb3f
00000700: 162c ee9f adb8 e13f 9284 d70d f5e4 e43f
00000710: 52f6 37cb 1a4b bd3f 3689 ec8d 1231 9d3f
00000720: 1b7c d295 d95a db3f 7980 335f 9bdb e73f
00000730: ad55 f364 bcd0 eb3f 0389 b4aa 2a75 ca3f
00000740: 22f2 7b2b 6f16 ec3f e773 c8e5 1c17 e53f
00000750: 00ef edd2 92e4 eb3f 13d4 3936 1d56 c33f
00000760: 0097 5beb 5779 ee3f 144f bea1 06ab d03f
00000770: dee4 b00a 292e c23f 4ec6 a074 7cd9 933f
00000780: 2403 5804 9a08 ec3f 8b22 aade b822 973f
00000790: 8e75 5a2a 5be3 ef3f 2845 91d3 d155 e63f
000007a0: f5fb e72f a914 e83f f851 6e5e 6f01 b43f
000007b0: 12ef 4ec5 636c ee3f 5633 6dba 9eee cd3f
000007c0: acc7 5373 4d69 e63f 3f02 cdeb cb92 c83f
000007d0: e117 e8fb 9ac2 e83f b768 10a0 b1c0 ec3f
000007e0: 65df fafd 19d6 e13f b751 92b9 f825 e43f
000007f0: 166b 387b 8e12 b23f 1815 f19c 3838 be3f
0.5696831032568959 0.44647110021223546 0.3286935251384526 0.5958481645247541 0.4915194990070243 0.6976895440784087 0.4655038876114894 0.39433259578100927
0.9699908520143958 0.6139136425165537 0.12099258355257712 0.6664007283799477 0.8343370242962014 0.4796480395968414 0.24412670044931747 0.3307211810357778
0.7316420863158494 0.4342955254084908 0.8641292146706269 0.43373507627245433 0.0658928720754211 0.24710325652659074 0.9323190601432472 0.4744033311022278
0.9557024384687134 0.33513778779790604 0.43620643940366255 0.8593592955305989 0.9493802963465953 0.5266597592030156 0.10743953134499842 0.13309819889012828
0.22538641165589382 0.9628557600397581 0.5590306100795387 0.3378415538193359 0.930866209336846 0.48154746886849126 0.8383093441201274 0.04751144741187929
0.14582666465648816 0.5704159526642526 0.6316221055847218 0.4426099625250918 0.7902452826423558 0.31295057513415325 0.39950185558914075 0.2520132985531398
0.4653004829168612 0.5167075432645648 0.932205606089311 0.3883415547544464 0.3442183223238663 0.5901788631310896 0.41970965630015283 0.7853706878357269
0.35846920308903996 0.39752480907412074 0.763082217426493 0.700632153706616 0.8865853507086413 0.6374436477581773 0.24914800040607513 0.9139115650797615
0.3227780553831718 0.44930384866926326 0.2985530573419578 0.023785521411747793 0.7312187528107748 0.23566542732879223 0.08026413190459476 0.5093162677908876
0.47158758249353216 0.5952680994295337 0.2005785801850813 0.4823698096138012 0.33032097736055477 0.20733692335278053 0.7708993567222636 0.06141551382180512
0.7638985541169461 0.5204203536497963 0.9052429378671148 0.3938664564321845 0.8449516019747584 0.17926342514210022 0.2697117711219316 0.783498914426767
0.4576444635744705 0.6150698610086418 0.974740059150166 0.8127778815035545 0.43749237451926104 0.019906051696294468 0.44578000864254624 0.19934909872959086
0.17399415815568242 0.9990080572300101 0.10426197747676672 0.13706215922061396 0.3471402894898526 0.8433621279564231 0.09991235549868777 0.12165245581813253
0.6206949351053 0.9629745972011595 0.199522491584739 0.06130310267097145 0.7368673971602476 0.17031115895637466 0.6573911048607163 0.4956735718837879
0.6826098436281017 0.2279911571836892 0.626968917313177 0.43612990592382544 0.180331300239597 0.0014674933511001625 0.8026322475015293 0.9604772734277112
0.42602184232680945 0.8191918939930735 0.40811568595505304 0.2796184330987279 0.7944615866148597 0.8366133826315207 0.5785654063667284 0.2660818889787053
0.6421325803146324 0.8243913961068982 0.310697083546674 0.7683100783706911 0.4375321451157049 0.938189353124094 0.7594816535861083 0.5733980669368836
0.30174685455154104 0.053835978442625394 0.7819136443122383 0.29354388465576997 0.3083234661824522 0.14954040281823971 0.11525514971454147 0.5415978452782538
0.8566833179460253 0.14441162814658015 0.6782656181964454 0.30781412619658105 0.568515348248371 0.5867092901064892 0.18168498989585075 0.3761651339154123
0.5608001834504951 0.7061871357051914 0.839162059507188 0.8493772931163185 0.3771027015125288 0.8792719493993612 0.7467503060694349 0.5453423603738674
0.25799188935731165 0.6698489320715609 0.9729434487925732 0.5190635507983503 0.1690096549704962 0.39109429494236 0.8197498660601912 0.3019952031196254
0.5478037946511353 0.784546578455106 0.8495608255393196 0.8779745062625918 0.8093259894490191 0.33682449810847676 0.6089679152506824 0.6276975548604133
0.16844670095057795 0.06510017188898885 0.9807546741052703 0.9699110015778161 0.8853490390516408 0.44546364748997824 0.8872213105044261 0.9037543600272488
0.7610241189083361 0.4273024241471494 0.18918691081808076 0.20513738524551564 0.02392981916864541 0.8547773819907074 0.7842900447169162 0.8246930798118527
0.46044757359979116 0.8984223215510267 0.28972227227286645 0.7678403091898739 0.41708272127557555 0.6321768980174108 0.799014106216082 0.5226639588930186
0.801971222298227 0.3639932127842822 0.9443733658234957 0.7668442303174615 0.7684100011439841 0.6857920774764323 0.5199479837570736 0.1200947952688324
0.2087292583045113 0.9035702371282436 0.5955823745256675 0.755875567981145 0.14544614043382253 0.2722522494636081 0.23126092352016492 0.6064526154325391
0.7296816640106785 0.1148518436050228 0.980746765444797 0.5521325256921044 0.20078486443510465 0.4313276929739288 0.779810280743415 0.8510181463407812
0.5537937282218788 0.6529488821362455 0.11442725621596964 0.028507509147979358 0.42742004042696785 0.7455574855230359 0.8692304584207499 0.2067006429215966
0.8777385567951266 0.6590713966321545 0.8716520423617737 0.15106549403904576 0.9523124310332776 0.26043859286549886 0.1420337011530028 0.019384331339273246
0.8760500035133174 0.022593391981475846 0.99650343200817 0.6979760296036703 0.7525220809619656 0.0781468968910487 0.950731168144076 0.23384460547313307
0.7003543140874533 0.1919798756953401 0.7737555427599966 0.8985221983196173 0.5573854408785165 0.6296352028316993 0.07059565075216442 0.118045366588451

FTrain_PDE f8 [8000, 1]
00000000: 23b9 f504 ea68 cb40 929d 568c 2210 af40
00000010: cb0d 2e2c 23af c440 5897 1b40 c02c d340
00000020: 49dc 0c44 bb3a b3c0 745f 7c03 2f88 b740
00000030: cf2d 2a68 d8a9 cbc0 253a 84a6 1660 c5c0
00000040: 5996 755b 43b2 c440 ae83 c603 7986 de40
00000050: 955f eb85 68eb cf40 7720 bb3c 6109 d640
00000060: 9ec9 50e3 34ba e040 cb4c 2133 1fe5 bcc0
00000070: 36a4 b819 8d2e c5c0 7b17 019a 63e2 b440
00000080: 6fe1 686c 8208 d8c0 9876 e122 9c68 d540
00000090: 9ef8 074a 44ec cdc0 a7d1 12a9 31d3 db40
000000a0: bd93 da64 8a3d d2c0 00ee 9742 822e 9b40
000000b0: 0569 5b3c 18ec bf40 f4da 40f2 666f d340
000000c0: 657f c908 c65b d440 54dc 8822 6ac0 69c0
000000d0: dfef 7806 b245 bb40 8b85 81fa bd3c c3c0
000000e0: b0d2 ae2d a8d9 df40 ce64 58e5 9b69 d440
000000f0: 6250 3a52 2fa8 91c0 8ff1 2e7f 046a b740
00000100: d027 c361 a5f6 d1c0 10cb 4392 be3a c640
00000110: 4cac d543 8c37 b6c0 8402 985e 9ca5 d740
00000120: 7902 0f45 206d d240 b4cc 2897 8f92 d9c0
00000130: 3444 4f88 d699 cfc0 d6c7 73f2 1dae a040
00000140: fa97 48d8 9225 de40 b47e a2cd 34f4 c740
00000150: 7016 8338 4e47 a540 684a b11f e38e c5c0
00000160: d43a 96da 6d06 d3c0 33fe 659a 1cf2 ce40
00000170: 7785 89e6 2673 d640 f974 b67f 776e c0c0
00000180: 4af8 19f4 81a5 be40 cde9 6b53 a234 cf40
00000190: 0ec2 83e3 0317 d040 f3e5 7b5f 28dd d0c0
000001a0: c207 1c85 d381 ab40 01a8 c630 59c6 c7c0
000001b0: f351 a4d8 727d d8c0 609d d764 6a38 d540
000001c0: ff7b 4fd6 8387 d4c0 3fab 215a 6e49 cbc0
000001d0: 43de db87 fe1c c2c0 fba6 1b1a 044b 8ac0
000001e0: ce87 3351 3a9f ccc0 295f d135 6086 c440
000001f0: 6589 d68a 1018 d1c0 90e2 c91f 3e31 b3c0
00000200: 5238 82c1 31ba d3c0 e560 c557 02a3 bc40
00000210: f912 f69f 8853 cf40 72fd ef04 b95b d1c0
00000220: d75b 1b95 3249 d040 a280 eded f233 8b40
00000230: ddeb 3373 4ad4 d7c0 f67a de36 af54 9940
00000240: 7a92 1eb2 b0a3 d740 de4a 3bfc 8bf3 a640
00000250: ad26 afec 98c5 d2c0 fd7b 30b2 5454 c040
00000260: 22dc c369 39de ddc0 d3a2 b5e8 8749 c240
00000270: 2f58 3af1 1fd5 c040 298d ca28 4575 aec0
00000280: b904 fa58 6f1d d340 f2de 20e4 9904 cf40
00000290: f157 396b e1da d3c0 dea1 5b77 31ea c2c0
000002a0: bf9b 5f6f b69f c540 f1ff a97f 8a47 da40
000002b0: b6b6 af37 156a c340 d537 abdc 65d1 c1c0
000002c0: 0da7 4b03 257d d6c0 afe4 b850 31bc 9240
000002d0: 899a 729c 0f61 d0c0 43b1 4371 1ba6 c4c0
000002e0: 99d4 7288 3c71 cbc0 94e4 6419 078c d240
000002f0: ded0 df92 25ae db40 9701 ab9e 1856 bcc0
00000300: d040 4446 b821 cc40 e5cd a08b 3450 e0c0
00000310: 7288 1f08 cafc cd40 0e9b c047 d2c9 dec0
00000320: c4df 8bd9 9b66 c340 3157 a038 cba9 dfc0
00000330: b2c8 08f9 8e47 d240 1970 258c e7c7 da40
00000340: 7d28 0b6a 6c2a cfc0 d031 c982 a056 d540
00000350: 1981 4b26 ab94 a140 7691 3aa4 192d bdc0
00000360: cfad b1b1 dca1 d440 fee3 ad09 0b37 dbc0
00000370: bdde bbfd 05a7 a240 53c6 205c 7ada d0c0
00000380: b4a3 1aad b3cf c740 eaf2 6246 1aa2 bac0
00000390: 0f26 bccf 340c d5c0 adce 4773 a747 dfc0
000003a0: e581 9acf e869 cb40 59c8 e87f cd76 d740
000003b0: 4444 00f8 c509 c8c0 1c67 6e33 3925 d9c0
000003c0: df29 d990 08d8 d140 c047 edc4 6f0e cdc0
000003d0: c171 9a36 52a7 cb40 9390 78fc e0dd a540
000003e0: a7f3 8f26 3d15 d1c0 4d7f c881 8403 d440
000003f0: 1f26 8339 de8b dc40 9045 e229 99df d0c0
00000400: a7e8 fead 1131 9dc0 1a71 d18c b7ab d840
00000410: cbbf 70cd 3fca d9c0 beb2 9754 ad54 b0c0
00000420: 263b ee94 7bba c240 2e2e bb61 e7db a2c0
00000430: 2d5c 70ff c929 d7c0 d9b5 8fc0 2172 d9c0
00000440: 928e 512f de60 d440 13f8 6c3f b9a9 b440
00000450: 5022 c02c cf2d d640 1c70 5365 4499 b640
00000460: 063c 13ad bfd6 95c0 f6a0 751d d0b7 d4c0
00000470: 3e30 a0ab afe6 cf40 1d5c 92e6 5cf3 d4c0
00000480: c12e ee42 9a8a dbc0 a0c7 6e6b 71a3 d240
00000490: 9edc 78f2 7d46 cac0 49c4 6cd0 8adc d440
000004a0: d557 20cf 6929 aec0 8436 1dea 1e23 c7c0
000004b0: 0e2f 8415 abd1 c6c0 2e2c e802 f8a8 b5c0
000004c0: 169f aba9 85b3 d940 2760 73dd 2a32 c3c0
000004d0: 36e5 fda4 8813 a0c0 888f 8e09 72d3 9ac0
000004e0: 0025 3eb2 3de8 d0c0 2011 238f f10f dbc0
000004f0: ea42 0539 c049 e040 7855 65cb 1659 dd40
00000500: 8074 a2e1 1643 ba40 7246 19e4 e62f e1c0
00000510: e664 fc0e 7e43 c7c0 a62f 02f2 f596 e0c0
00000520: f035 78ef 4346 e0c0 2418 8022 d39c 9b40
00000530: 61e0 a244 92d3 a540 ea3b 5e7a 2554 d540
00000540: ce69 79ea f449 9f40 3f85 5523 f498 d5c0
00000550: a899 15ab ffba cd40 3016 2953 47ef bcc0
00000560: 65d2 302c 2e5f d040 8d5e 9904 7012 dec0
00000570: 51bb b73e f6d1 b2c0 e7de ba81 2a99 b3c0
00000580: ac4b 5575 73f2 d1c0 2c6d e618 2061 c240
00000590: 7f58 3b70 105f b040 d73c ddb7 e78f dec0
000005a0: f8a4 8351 7bd4 d7c0 2d04 940e ab5a d040
000005b0: 115b fbb8 989e 87c0 f792 2920 5fa5 ad40
000005c0: 3c3a faef 1c91 a540 aed0 6184 8f57 bbc0
000005d0: 0eef 35ae 44b8 d3c0 0def 54b8 e5c7 d040
000005e0: 6505 16a4 9bd3 b8c0 d47e d523 cd0b e140
000005f0: 9682 f1f6 5f39 b040 840f 0149 841e dcc0
00000600: f3fb e4bd cefd c5c0 8001 bba3 e7b2 c2c0
00000610: a774 08fe a2f4 b0c0 ba5a 02cc 3809 bfc0
00000620: 3c90 15ee 4f02 b240 e4b1 c6b6 a5c5 d140
00000630: 80e9 1bae b360 db40 1f32 65de 75f7 d440
00000640: 4ff0 adf3 b98c 90c0 17f7 7e15 b870 b1c0
00000650: 6ddc 2602 c88b d440 c331 864c b2bb d3c0
00000660: b869 0d55 151a 9440 87a6 6f2b 48cf c140
00000670: 8c6f 6f80 b64b e040 d1d7 0fe2 ec6c d8c0
00000680: 8e02 4736 fc98 ddc0 0c0d 6c6e 5f3d ca40
00000690: 2741 516e 39b9 db40 8499 1eb9 4c8f a640
000006a0: 805d 5739 01ae ba40 4469 e33c e4fa a840
000006b0: 3326 a470 c1d2 c940 3cc7 8a4d 69d5 c640
000006c0: eada 2177 1b65 b740 8719 00fb 318b d340
000006d0: 2c90 dad8 5535 d5c0 1c3d fb67 3ba6 cfc0
000006e0: d271 64fc dd95 d4c0 2fd9 9f8e 659e ab40
000006f0: 31a5 69b5 b976 afc0 6df9 0e4d 5ece b7c0
00000700: 8c85 ea72 6116 dd40 1321 fa09 4b71 b9c0
00000710: 4461 2f9d 60d2 ccc0 a023 c307 bf9c d140
00000720: 0543 338f cf34 cec0 bbe4 d235 55bc c440
00000730: 6614 ea3e 3b29 c340 7867 561c 0c40 db40
00000740: e555 48da 3106 d3c0 5f0a 6779 0211 e140
00000750: e882 b1c1 8ead d9c0 957e 79b6 cd32 dc40
00000760: fa8d ba0a cac4 dcc0 9156 3f6f 29a1 c940
00000770: 7745 cd78 63c0 d7c0 2673 3786 c55d 8bc0
00000780: 63af 6c1b 22ae d1c0 1298 fe27 ec86 d3c0
00000790: a2dc f9c6 80b1 c0c0 f696 6891 2d78 b040
000007a0: 8264 0f2b b5df a0c0 524c 7de7 5bfd d840
000007b0: 151f be44 7abb db40 6f95 fe90 e356 d740
000007c0: 6f5c 53a8 def3 d4c0 c245 d9d6 1c0b af40
000007d0: 5905 7c6e d475 53c0 949d f35e 15af d140
000007e0: 607f b1ed 38b8 dfc0 0d05 743d afe5 bbc0
000007f0: 919d 6d63 4eae d140 fc73 3041 bd75 be40
14033.8282763628 3976.0674769465777 10590.274785763488 19635.00391282825 -4922.731507114201 6024.183646939568 -14163.690678856246 -10944.17695668067
10596.526228617107 31257.890855434984 16342.816586896583 22565.519331723885 34257.65274848345 -7397.121873933075 -10845.102347450429 5346.389068668587
-24610.03786680236 21922.439628949942 -15320.533509251018 28492.775944428195 -18678.162405628467 1739.6272071589483 8172.094670975818 19901.608535970518
20847.09428632203 -206.01295592051122 6981.695411261141 -9849.484207334715 32614.627788263082 20902.435873125498 -1130.046212111622 5994.017565664267
-18394.584091938857 11381.488838647987 -5687.5479100747725 24214.443273546654 18868.504215004363 -26186.24360103598 -16179.676034839918 2135.0584903890076
30870.294450901427 12264.412525474421 2723.65277490281 -11037.774404679614 -19481.716466481637 15844.22346186554 22988.60782087358 -8412.933584982982
7845.507630942457 15977.26817082325 16476.06076139403 -17268.630827879486 3520.913124919841 -12172.696801025422 -25077.794472770718 21729.662404922186
-21022.059955473986 -13970.86212559568 -9273.98852108338 -841.3770029220899 -14654.45560306674 10508.751642390695 -17504.258474001097 -4913.242672555745
-20200.777435832024 7331.0091517793235 16039.067381629242 -17774.890926358705 16676.790350761115 870.4936178736573 -24401.16328142198 1621.1711077463674
24206.760871546787 2937.7734087494746 -19222.389446056146 8360.661687908689 -30584.897080388044 9363.061789230827 8618.24954919153 -3898.6350768372836
19573.739805702793 15881.202274426327 -20331.52216943348 -9684.386455015218 11071.42527384858 26910.164041995948 9940.165761913504 -9122.795796777975
-23028.57832614244 1199.048159493406 -16772.243923808015 -10572.214394055894 -14050.472914079483 18992.110924933644 28344.58708949468 -7254.096171081436
14403.439644366881 -33409.64204445089 15353.57837289965 -31527.285629416867 9933.217576488743 -32423.175331196926 18718.233949848167 27423.61792884776
-15956.846986193437 21850.50798253884 2250.3342765421953 -7469.100162182343 21127.448345584617 -27868.172465775155 2387.511701460781 -17257.911873048473
12191.403720216687 -6818.102636513047 -21552.82517913548 -32030.61641116317 14035.81883555739 24027.210931964542 -12307.546630891164 -25748.89376411504
18272.133840838327 -14876.873197231325 14158.64229136042 2798.939426200531 -17492.955478656713 20494.07042133743 29231.472260272243 -17278.39318138879
-1868.267265303564 25262.867969856692 -26408.996914088533 -4180.677072030199 9588.965482500917 -2413.95191750468 -23719.15621575357 -26056.527378013216
20867.471638097028 5289.723624048772 22711.2371063552 5785.267171110983 -1397.6871836667428 -21215.25179806441 16333.37242510181 -21453.451572980837
-28202.410335107477 19085.772182173678 -13452.983962161754 21362.16897124451 -3860.7066583735673 -11846.241519595736 -11683.336594126678 -5544.968794356142
26318.088480859144 -9828.334883138608 -2057.7668837873744 -1716.861364581595 -17312.964004074223 -27711.774361387943 33358.006960516635 30052.356164296594
6723.089380410616 -35199.21534408339 -11910.98483233382 -33975.68579205805 -33330.12298212561 1767.2061862959608 2793.7856799029255 21840.58559375621
2002.4891756983593 -22115.814656620143 15221.997408580806 -7407.278612678449 16764.721447186912 -30793.750280706725 -4817.961894496185 -5017.1660420221515
-18377.804036449335 9410.250759890849 4191.064212521654 -31295.62059718076 -24401.92685023413 16746.672764782026 -755.8245715748945 3794.685792254629
2760.556518382653 -6999.560613740394 -20193.07313297601 17183.589375718544 -6355.607972503964 34910.41062426349 4153.374861807233 -28794.066955819275
-11259.615170119307 -9573.80968415807 -4340.636688736419 -7945.221862933302 4610.312226627077 18198.58928077099 28034.807501771953 21469.841698931643
-1059.1815936258242 -4464.719078002286 21039.125131335506 -20206.78592066631 1286.5208322616363 9118.563825565636 33373.7031781367 -25011.701297722586
-30307.940812828536 13434.745557314272 28388.89735823977 2887.6498498499295 6830.00478120835 3197.4457770410536 13221.511250036861 11690.822678897173
5989.107286563822 20012.780944847993 -21717.34136070327 -16204.464110760535 -21079.468529807236 3535.198353762876 -4027.362712193885 -6094.368363319297
29785.522638922135 -6513.293120987963 -14756.754796907895 18034.984848770895 -15465.621557624554 10616.665705072102 9810.462857494316 27904.189229584736
-19480.778947910196 34952.07731964136 -26294.23057210716 28875.214262364974 -29459.156904829644 13122.323707501668 -24321.554248159253 -875.7214474041
-18104.532923861767 -19995.68994107104 -8547.006072266322 4216.178000008445 -2159.8538441477003 25589.436003994495 28397.910445719102 23899.55572475999
-21455.479023781078 3973.5563266656545 -77.84109079467216 18108.33392038716 -32480.889507650747 -7141.684531451448 18105.22481861484 7797.739275959317

XTrain_Boundary f8 [1600, 4]
00000000: 0000 0000 0000 0000 8f53 5259 1efd d33f
00000010: 3db2 14f3 0bc1 d43f ee6b 64b1 ab12 ef3f
00000020: 0000 0000 0000 0000 446c a2ac bba6 de3f
00000030: 0c2c d501 eac1 df3f 568c 0f57 cc9a ee3f
00000040: 0000 0000 0000 0000 48e7 b728 be4a e43f
00000050: 9b3e 698e 62d3 e23f 1c94 cd6a 792a aa3f
00000060: 0000 0000 0000 0000 fbbe 187a d965 c33f
00000070: fd19 a192 1302 ac3f 485e 2ff8 4136 e33f
00000080: 0000 0000 0000 0000 1f4f 81cc 7f31 e73f
00000090: a10d 29d8 94f4 d73f eff7 dcc4 0669 d53f
000000a0: 0000 0000 0000 0000 c89c f3d1 c05d d53f
000000b0: 050d d43b 2b22 ef3f 9700 9e7b 159c ed3f
000000c0: 0000 0000 0000 0000 a472 cdca 6bd8 ef3f
000000d0: 5f49 1ff3 0e04 e83f cd14 3592 65f1 e43f
000000e0: 0000 0000 0000 0000 16f5 36cd 2138 d33f
000000f0: d828 2697 0e02 c43f 3f47 e562 54ee e03f
00000100: 0000 0000 0000 0000 2f84 b32b a8a5 e13f
00000110: 202e 565a 0fd7 d53f 4c45 8412 ed24 eb3f
00000120: 0000 0000 0000 0000 4a6d 78f9 553d c83f
00000130: 69ee c6e3 559b e53f 4d35 51b4 aedf ec3f
00000140: 0000 0000 0000 0000 989f fcc8 35cd a53f
00000150: 81a1 1dc4 089a d13f 887e b35d 7e74 cb3f
00000160: 0000 0000 0000 0000 b45a 9a1e 90d3 e03f
00000170: fa88 c0cc d405 cc3f 3ab7 fa5e e198 e43f
00000180: 0000 0000 0000 0000 2417 d700 752d e53f
00000190: ec14 646e a358 e23f 57c5 0575 089d e13f
000001a0: 0000 0000 0000 0000 e1ef c102 4f9c 943f
000001b0: cd3e 26a0 6bea e63f f2b5 9bff db4a ea3f
000001c0: 0000 0000 0000 0000 b2b0 1c09 cdc6 ba3f
000001d0: b159 0149 3180 e33f 1373 130a 6a27 e03f
000001e0: 0000 0000 0000 0000 5671 6aec 7283 d03f
000001f0: 603f b4e9 8b4b b63f 4954 220b 70b2 e73f
00000200: 0000 0000 0000 0000 6d37 a40b c357 ed3f
00000210: 4149 1545 3d25 a73f 4529 bf7b b4ba da3f
00000220: 0000 0000 0000 0000 6d9b e27b 64ea e43f
00000230: c3e1 84f6 6add eb3f 85d0 1b3a 42b8 b73f
00000240: 0000 0000 0000 0000 cf10 72cf 1ea8 d53f
00000250: 68b2 1db6 f9e7 ea3f 05f5 a6a1 319a c53f
00000260: 0000 0000 0000 0000 a6eb 83be 3576 c73f
00000270: 7412 0838 818c e23f 1230 615f a4c6 ed3f
00000280: 0000 0000 0000 0000 ccd1 7b8c b515 e33f
00000290: 76c3 0fdf 5f91 e43f 0631 1430 a2d1 dd3f
000002a0: 0000 0000 0000 0000 a8b8 9661 a953 e93f
000002b0: 70f1 0ade 7685 e13f 2083 7e44 737f d73f
000002c0: 0000 0000 0000 0000 61ee 39e1 85ea d43f
000002d0: 978d a3e8 720c e63f a1e0 70ea 47e1 e93f
000002e0: 0000 0000 0000 0000 73f4 319c f72b ed3f
000002f0: 1f49 8594 b346 d23f 0585 e117 4586 ec3f
00000300: 0000 0000 0000 0000 8d1a c3bf 6de6 e73f
00000310: 2c31 52b3 a436 e23f cc49 aa9f 638a e93f
00000320: 0000 0000 0000 0000 112c 0ed7 8ec7 e23f
00000330: 20ea 8bec 6317 b13f f8bc 8950 b487 b13f
00000340: 0000 0000 0000 0000 e3ac 00e7 a36a e33f
00000350: 3a32 c738 0e5f d43f dda4 cc35 d547 cc3f
00000360: 0000 0000 0000 0000 94ac a217 52dd df3f
00000370: c3ff bd02 036c dd3f 6ed9 2b23 babe a13f
00000380: 0000 0000 0000 0000 9cda 5d9b 0e62 b83f
00000390: 1bbd a680 1e23 e53f a727 6ad9 9778 e33f
000003a0: 0000 0000 0000 0000 20b7 6c1c 54d6 d33f
000003b0: 2478 3e06 f356 e43f 0cad f99b 6a98 bb3f
000003c0: 0000 0000 0000 0000 1870 15c5 ca48 dc3f
000003d0: 29ca bade 2209 e03f 0573 789e 0e3c ea3f
000003e0: 0000 0000 0000 0000 b277 e378 e678 d13f
000003f0: 98b5 d24e dc23 e73f ea09 5972 03fb d93f
00000400: 0000 0000 0000 0000 e8be 4445 ce1c e93f
00000410: ae84 8b62 e4d2 d43f e6c6 f577 5171 b83f
00000420: 0000 0000 0000 0000 fba1 5655 35b8 ec3f
00000430: 890e 6350 ce1a e13f cd94 df64 df55 cf3f
00000440: 0000 0000 0000 0000 1f12 5be4 906b bd3f
00000450: dbca 5b68 7e33 b23f 9774 7880 3ccf ee3f
00000460: 0000 0000 0000 0000 fba4 689e 6fed ec3f
00000470: af04 fc35 73b5 eb3f 7731 ec9a cdb5 ec3f
00000480: 0000 0000 0000 0000 4115 c207 8ee1 c13f
00000490: 2de7 81b4 c232 e13f 9f79 28ed 2305 e63f
000004a0: 0000 0000 0000 0000 cd4d 889c 7a04 df3f
000004b0: cc57 431f 89ac c93f 9442 ced9 8a3a e63f
000004c0: 0000 0000 0000 0000 e478 e4f0 04cd c83f
000004d0: 2de9 d213 3703 d83f 23d3 e7af d4f6 d83f
000004e0: 0000 0000 0000 0000 72d3 f0c4 c698 d73f
000004f0: d404 e9f6 5f02 e43f 8435 ac08 6da9 de3f
00000500: 0000 0000 0000 0000 434b 3a93 9ac3 d93f
00000510: 81d8 3e78 c27d d83f 883c d6fe f101 ee3f
00000520: 0000 0000 0000 0000 a691 2d7f bcd2 db3f
00000530: 8802 c8b9 8b30 8a3f cf56 23a1 c32a db3f
00000540: 0000 0000 0000 0000 2a78 a0d1 896e d43f
00000550: 289b 772f 798b e93f 8a4d 0279 f8c2 e83f
00000560: 0000 0000 0000 0000 8c9e 2698 08ca c93f
00000570: 3106 cff0 c4cb e43f ace3 680c bd5b eb3f
00000580: 0000 0000 0000 0000 8383 da59 2c01 c43f
00000590: 5f7c 6017 0c3e ec3f 6374 c975 6939 a93f
000005a0: 0000 0000 0000 0000 84a3 f9b6 523d e13f
000005b0: ac2a 6318 ca6c ea3f 56be 1dea 176e e03f
000005c0: 0000 0000 0000 0000 d45f 36e1 9023 df3f
000005d0: 6a96 9802 dcce e63f 0050 186e 8355 e63f
000005e0: 0000 0000 0000 0000 3c56 563e 1af6 e33f
000005f0: fdca d496 dffa c83f 38a9 fc60 245e 933f
00000600: 0000 0000 0000 0000 2f12 d913 86e9 cb3f
00000610: 3447 2432 51f0 b33f 04bd 9518 82a5 d53f
00000620: 0000 0000 0000 0000 b6d1 54f3 95ec d53f
00000630: ed5c 3d3b ebd5 bb3f 1883 69dc 4197 ca3f
00000640: 0000 0000 0000 0000 ac44 245d 23d2 da3f
00000650: ca83 4c9c a8e1 e33f ece7 400d a8bc c43f
00000660: 0000 0000 0000 0000 86e4 f9e7 6fae dd3f
00000670: 03a6 0846 689d d33f ef34 4f5f 4100 d83f
00000680: 0000 0000 0000 0000 7a77 b8c6 68b1 d73f
00000690: ea6b 7b5e b6f2 e13f 3fe4 cd23 a40a c73f
000006a0: 0000 0000 0000 0000 406b 108f d16e c93f
000006b0: 4088 7be1 1548 d13f 0ca3 4dea e95b c23f
000006c0: 0000 0000 0000 0000 cfc7 8a20 c16b bf3f
000006d0: 97c7 5588 3767 de3f e0ce 8726 bcba c73f
000006e0: 0000 0000 0000 0000 5278 6333 d728 ee3f
000006f0: 0dd8 2849 7247 e43f 7fce 40cd 2662 dc3f
00000700: 0000 0000 0000 0000 775a ac3e 4123 d83f
00000710: ff81 fdd2 156f a53f 94f9 93d2 0fbe de3f
00000720: 0000 0000 0000 0000 12d0 342a 38f5 a33f
00000730: 29b0 9f5a 0a3c d73f c61f 86ed 8058 d13f
00000740: 0000 0000 0000 0000 f188 2204 91a3 e33f
00000750: 24d9 532a b71b e63f 9441 b574 dc39 d73f
00000760: 0000 0000 0000 0000 ef3b 2432 1ac7 e53f
00000770: ef6b 5fdd 57e4 d23f a3a7 ea59 842a e53f
00000780: 0000 0000 0000 0000 2c18 b8e0 ee34 e63f
00000790: 9885 d110 325f e83f 3997 5695 59be d23f
000007a0: 0000 0000 0000 0000 72ca e064 aa75 eb3f
000007b0: a5f2 e835 2d3b b83f 11b7 77bc db58 e13f
000007c0: 0000 0000 0000 0000 a6c7 194a 8509 ea3f
000007d0: 01f8 30e8 e8c7 e83f 94d1 c920 ff27 e43f
000007e0: 0000 0000 0000 0000 453b c41a f36a 853f
000007f0: 8868 ca93 4901 cd3f 2a46 56b5 fc9d b23f
0.0 0.3123241302758339 0.32428263414729824 0.9710291351979075 0.0 0.47892658099016594 0.49621057681059777 0.9563962650685294
0.0 0.6341238780289382 0.58830383124037 0.05110530308483183 0.0 0.15154570066214731 0.05470334210308534 0.6003732535709299
0.0 0.7247923845520495 0.37430306538973396 0.3345353052608279 0.0 0.33384724143111244 0.9729210060617396 0.9253032125852937
0.0 0.9951685868250775 0.7504954098206261 0.6544673781978873 0.0 0.3003010276841719 0.1563127744705699 0.5290929729037329
0.0 0.5514717916049728 0.3412512190049899 0.8482575761465028 0.0 0.18937182122395263 0.6752118538638118 0.9023049852200217
0.0 0.04258125379993699 0.27502650405815393 0.21449260306598128 0.0 0.5258255574907111 0.21892795560513162 0.6436621527734367
0.0 0.6617989555749983 0.5733201175759439 0.5504190717312366 0.0 0.02012752012568331 0.7161157730024229 0.8216381065701042
0.0 0.10459596130812335 0.609398501003673 0.5048113056942348 0.0 0.25802300536613154 0.08709024863878545 0.7405319421255935
0.0 0.9169631221172786 0.045205988581658925 0.4176455696548554 0.0 0.6536123675949576 0.8707785429788192 0.09265531462352967
0.0 0.33838625200611444 0.8408173138573831 0.16876812356159845 0.0 0.18329498102670277 0.5796514601102687 0.9304983008273686
0.0 0.5964000457593612 0.6427459103270923 0.4659200162430043 0.0 0.7914626031904577 0.5475420319340127 0.3671539467705305
0.0 0.32681414599185216 0.6890196365097151 0.8087501124309889 0.0 0.911617093151689 0.2855652761837905 0.8913903681206256
0.0 0.746878504310034 0.5691703321804531 0.7981432074032511 0.0 0.5868601036357878 0.06676315808355371 0.06847693411122069
0.0 0.6067676078577303 0.31830173058259315 0.2209421646778428 0.0 0.4978833418669606 0.45971751468459504 0.034658257287378244
0.0 0.09524623196726129 0.6605370056840089 0.6084708448772645 0.0 0.3099565770706807 0.6356139299348382 0.10779444034567492
0.0 0.4419428753515162 0.5011152601421759 0.8198311896445324 0.0 0.2730041676094245 0.7231275119317386 0.4059456459691818
0.0 0.7847663262272961 0.325371834025712 0.09547909907066873 0.0 0.8974863688245586 0.5345222063119347 0.24480812478501549
0.0 0.1149225766667503 0.07109823272530084 0.9627974042119999 0.0 0.9039838880463827 0.8658996633895607 0.8971927667458165
0.0 0.13969588640990518 0.5374463582549872 0.6881274826044325 0.0 0.48464837347384276 0.2005778696681645 0.694646287347569
0.0 0.19375669252708072 0.3751962369530187 0.3900653570010936 0.0 0.36869973404400647 0.6252899000611714 0.4790909371084455
0.0 0.4025637090464224 0.38267575972293605 0.9377374627382702 0.0 0.4347373239491169 0.012787906272025099 0.4244851182569222
0.0 0.31924672576303925 0.7982755591482134 0.7738001216370531 0.0 0.20147807530633022 0.6498741820616428 0.8549485437753126
0.0 0.15628580462819394 0.8825741249637636 0.049266143444335574 0.0 0.5387357305272507 0.8257799602809732 0.513439137705016
0.0 0.48654577248953257 0.7127513933853156 0.6979386472980877 0.0 0.6237918107532958 0.195156048439081 0.01891381113015564
0.0 0.21806407899033917 0.07788569902575376 0.3382268180930199 0.0 0.34256504786324216 0.10873289295465201 0.20774100553810437
0.0 0.4190758142077111 0.6212962200844399 0.1620073380198045 0.0 0.46377179769439925 0.3064823802875198 0.37501558597143875
0.0 0.3702032032614323 0.5608779759744469 0.180012242777396 0.0 0.19869441495469609 0.27002474803714804 0.14342998447980226
0.0 0.12273795170292988 0.4750498610875353 0.18538619881984797 0.0 0.9424854282076558 0.6337214878938099 0.4434906963753988
0.0 0.37715178604540917 0.041863138204238474 0.4803504520822568 0.0 0.03898025050366995 0.36303957796076475 0.27102683253951587
0.0 0.6137166100272947 0.6908832384786234 0.3629065646864771 0.0 0.6805544833495086 0.29518696421081264 0.6614400631126397
0.0 0.693961562065629 0.7616205528722046 0.29286803802311884 0.0 0.8581134767794778 0.09465296331559132 0.5420969658859766
0.0 0.8136621901778553 0.7744030508981724 0.6298823967359106 0.0 0.01045789647517171 0.22660178867665004 0.07272319247410822

YTrain_Boundary f8 [1600, 1]
00000000: 00fc c498 20f9 9fbf bc5c 6c26 3390 e3bf
00000010: 2e22 a486 bd76 e5bf 67dd dd52 d037 e1bf
00000020: 7711 6174 482a f33f d6ea e421 9d3c ecbf
00000030: a145 ef08 72d1 e7bf 807c 766f 1608 b5bf
00000040: c879 150f 73dd e0bf 7c55 d096 fad3 09c0
00000050: a064 6c4e ebc5 fb3f 464e 6852 1d4e 05c0
00000060: 8274 bcd3 5707 0240 7ca8 21ea 99d2 adbf
00000070: 87d5 f0d5 9849 f4bf 5aa6 3f5a e1f0 f63f
00000080: 9f77 52c3 b39a f43f d0c8 8b88 885b f2bf
00000090: c6de 9624 e429 f03f d931 ba97 cdeb 03c0
000000a0: eb1d f08d 4c55 e63f 21bd dc8e 9ab6 e53f
000000b0: 40c9 e225 d275 8c3f 94df 0626 f3c0 de3f
000000c0: c1e2 bb33 c820 f8bf c4b5 ab6b 5902 ddbf
000000d0: c455 e9eb 9072 0640 6cd5 57ca bf5a f13f
000000e0: 0769 a6d6 a630 db3f a625 c2fa 8df2 d2bf
000000f0: d97f 160e 6e59 dc3f 61b7 aa7b a2e2 f53f
00000100: 63f9 fa0e 2f6e 0040 28f4 b506 6a0f ec3f
00000110: e63e e3f9 dfd4 c1bf 7eb4 7de3 ecc2 f9bf
00000120: ebb5 8c57 82fe d4bf 6e05 9a48 5980 c83f
00000130: ee4f c048 44b2 f6bf ccfb c487 2945 fa3f
00000140: fe63 bfc4 68ba e6bf 3869 d5d0 7428 eb3f
00000150: d0ea 4803 5f83 02c0 0432 c4c1 2688 09c0
00000160: 443e d078 804b e7bf 26de 533d 0d7f eabf
00000170: 0877 9131 fb22 bc3f c04b 18ea 7ab6 0440
00000180: ea72 03a5 0f70 0940 db27 8f43 ca0f f63f
00000190: 8483 3a8c 0c76 e5bf e861 4fd3 f5eb bdbf
000001a0: 9015 1fd1 555a e8bf f85a 5d21 ee45 0140
000001b0: 909b bef3 cd4f f2bf 299a 2832 2a84 d1bf
000001c0: 8118 5620 6010 fe3f 7829 95d4 cfb0 fe3f
000001d0: ae81 f240 2c98 e33f 543c 3a78 5975 00c0
000001e0: 488d 8a36 5b47 ee3f da56 9664 b7b6 cf3f
000001f0: 600c 21e5 badc a53f 05b8 d6df a14c fb3f
00000200: 4694 4ac7 0d03 ff3f 6e48 6992 f1e3 f73f
00000210: 08cb 3d1d 6f71 c5bf be97 d6d4 53b4 ffbf
00000220: e947 71a1 ae67 fcbf f800 40d4 0eea 02c0
00000230: a84f b67d cf2b fe3f 142f 659d 6713 01c0
00000240: c87f c934 8e12 ebbf 3653 4172 ad2b e93f
00000250: 81c4 4bdb 7615 ff3f a629 8b8b 3f89 efbf
00000260: 4745 3022 6b3e 0140 90a5 a27a 3549 c6bf
00000270: d9ce 93bc f966 0040 4709 bda2 ca96 fe3f
00000280: f74e 7f8e fe28 0440 99e3 21d3 094e 03c0
00000290: dc95 6d5a e399 05c0 eeb5 4764 f8fd eabf
000002a0: 90f3 3e21 2a30 c0bf d379 7293 e9ab f93f
000002b0: 0695 062d faf2 e1bf 77cd e12a 168c f8bf
000002c0: 604c 5dea 2fae cfbf d65d 6488 2ba3 ffbf
000002d0: df9b 3fb6 fd5d f2bf a645 7a62 65fc f83f
000002e0: 3cc8 cbdd 9461 d53f ad30 c056 47b8 0640
000002f0: 34f7 8ec0 23d5 00c0 dc10 ef6a 59f7 cdbf
00000300: 4698 4588 bbb6 e3bf 920b 133f 69f2 fc3f
00000310: 0d5b 335f 0db5 f4bf a9a3 c336 17b1 00c0
00000320: 6014 5a00 b08e 0140 6018 d262 a65e b0bf
00000330: 804f 1845 78f4 d5bf 96e6 0990 c900 fcbf
00000340: 6e06 5fb8 8958 f2bf f57c 51cc eafe e93f
00000350: 646f e349 aac2 c7bf 6d7c 3022 8269 f03f
00000360: 7382 1a39 f147 0440 e37d 0213 661f ebbf
00000370: 0c24 751d 6c6c e13f 231e 9613 0c8b f4bf
00000380: 805c 4a88 4cb4 c23f 0a1f 01fa 2667 f3bf
00000390: 8208 cfb1 a0e7 d0bf 1a7c 4248 29a9 f1bf
000003a0: c416 42d0 0e05 d5bf 286d bfcf 8ae5 f6bf
000003b0: 080d 901d f109 f13f d44b eb6d 9785 f03f
000003c0: a1b2 9011 4537 d03f 621e 7de4 f6e5 e0bf
000003d0: 902d 07db 67c9 f23f ebfb ab4c 0f0c ebbf
000003e0: ee21 951c c5c1 ee3f b4ec 760a c426 fe3f
000003f0: a4c1 b288 5607 cfbf e973 e963 911a d2bf
00000400: 9603 8b22 3575 d5bf ccf8 37d6 1be0 eb3f
00000410: 8c77 531c dce2 0740 e66b 4fd3 cfdc fdbf
00000420: 00e7 a4ae b45e c3bf 4479 251c 2c0c fbbf
00000430: cf87 8bd9 2d17 e53f c41f fe30 0737 f0bf
00000440: 533d 4864 72f1 d73f b1bb c841 7f9d f2bf
00000450: e1f5 7ac5 4605 e53f 1a3c b3a9 81f0 fcbf
00000460: a3d7 1f90 04d2 f13f 560b 89fc 74c4 f0bf
00000470: 6287 90a8 6ea3 f13f 0e42 3ec9 0aa4 e2bf
00000480: 8b4e 0fbf d087 04c0 828d df7f 13cb f83f
00000490: b0cc 28a2 59cc 00c0 67c4 7008 706a f6bf
000004a0: 6def d5a4 6859 e6bf cbab 647e 44e7 c63f
000004b0: 848c b27d e3b3 e4bf 28a2 feac 575c ffbf
000004c0: f41a e40d 579a 0740 88c0 2dce 9d8d 0040
000004d0: b60d 2096 6587 e6bf 9a41 ccda cac5 f13f
000004e0: eacc f512 cbda f53f bf88 89d0 ec96 c43f
000004f0: 819a 811d e4e0 e2bf a86c 9145 12da d4bf
00000500: 0120 8a47 248e 0140 a48b dcfe bf28 fcbf
00000510: b8a3 25dd 15f4 f33f 9421 d9ec d873 fc3f
00000520: 817d bd1f d2ce d13f f8cc 727e 7f00 d1bf
00000530: 24de 734f d0be 01c0 06de 65a4 40df ebbf
00000540: 4822 02bc 5566 e5bf 8441 0fa4 cbe2 ccbf
00000550: ceae bedc e4a3 f6bf 8cd5 60c8 1350 0040
00000560: 34fc b88c a96b dcbf 967c 4fa6 e60f e73f
00000570: 5028 9e35 a2c8 00c0 330a 695d e95a 09c0
00000580: 0868 e0a7 fb5a ee3f ba3c 2e16 4d94 febf
00000590: 4e92 1adc 9d38 fb3f aede 6722 a316 b53f
000005a0: c8c5 d919 6d39 ecbf b664 0d11 705f fe3f
000005b0: e839 a71c 9f7c f4bf 70b6 bdec df72 05c0
000005c0: 8ae3 341a 0f7d dd3f 0495 41e2 7bdc e0bf
000005d0: 9e68 a2a7 5fe3 e7bf 1a6a d4d8 1d86 e73f
000005e0: c611 1fce 078d 03c0 e8f0 4662 415d fcbf
000005f0: 935f 73b4 1aba ee3f 2c28 9806 a569 e93f
00000600: e0ec 590d 6e4f a53f d62a a4d0 38a6 76bf
00000610: 7e5a 17f2 c014 e5bf 445e 10b1 a8b7 febf
00000620: 0ccc 9d17 1a8e 07c0 4d1d ee67 c258 00c0
00000630: 0417 5b2b 6ad7 d13f 6fda 35ac 4fc1 f8bf
00000640: 00f7 c498 20f9 9fbf e25c 6c26 3390 e3bf
00000650: cc21 a486 bd76 e5bf 5bdd dd52 d037 e1bf
00000660: 5611 6174 482a f33f 36eb e421 9d3c ecbf
00000670: fb45 ef08 72d1 e7bf 7079 766f 1608 b5bf
00000680: b879 150f 73dd e0bf 8a55 d096 fad3 09c0
00000690: be64 6c4e ebc5 fb3f 584e 6852 1d4e 05c0
000006a0: 6c74 bcd3 5707 0240 aea6 21ea 99d2 adbf
000006b0: 5cd5 f0d5 9849 f4bf 38a6 3f5a e1f0 f63f
000006c0: 9c77 52c3 b39a f43f e0c8 8b88 885b f2bf
000006d0: 9cde 9624 e429 f03f d931 ba97 cdeb 03c0
000006e0: 911d f08d 4c55 e63f ddbc dc8e 9ab6 e53f
000006f0: b0b5 e225 d275 8c3f e9df 0626 f3c0 de3f
00000700: cfe2 bb33 c820 f8bf 00b6 ab6b 5902 ddbf
00000710: b055 e9eb 9072 0640 9dd5 57ca bf5a f13f
00000720: b269 a6d6 a630 db3f 3225 c2fa 8df2 d2bf
00000730: 6380 160e 6e59 dc3f 39b7 aa7b a2e2 f53f
00000740: 60f9 fa0e 2f6e 0040 85f4 b506 6a0f ec3f
00000750: ae3e e3f9 dfd4 c1bf 51b4 7de3 ecc2 f9bf
00000760: 8eb6 8c57 82fe d4bf a605 9a48 5980 c83f
00000770: 1650 c048 44b2 f6bf fcfb c487 2945 fa3f
00000780: 5a64 bfc4 68ba e6bf 9a69 d5d0 7428 eb3f
00000790: d5ea 4803 5f83 02c0 1c32 c4c1 2688 09c0
000007a0: 0f3e d078 804b e7bf 78de 533d 0d7f eabf
000007b0: 0078 9131 fb22 bc3f d04b 18ea 7ab6 0440
000007c0: ec72 03a5 0f70 0940 bc27 8f43 ca0f f63f
000007d0: 6c83 3a8c 0c76 e5bf c264 4fd3 f5eb bdbf
000007e0: 3215 1fd1 555a e8bf e05a 5d21 ee45 0140
000007f0: aa9b bef3 cd4f f2bf ab9a 2832 2a84 d1bf
-0.03122378284865235 -0.6113525152640231 -0.6707446698865789 -0.5380632036675878 1.1978230043469844 -0.8823991453167206 -0.7443170713906292 -0.08215465756664919
-0.5270324034316269 -3.228505304558608 1.7358201087393255 -2.6631418645936575 2.253585485638326 -0.058247384863379076 -1.2679680211125246 1.433808662923545
1.2877690915843016 -1.147347005255643 1.0102273396750419 -2.490138230676376 0.6979124805665696 0.6785404958990605 0.013896600514588742 0.4805267211299846
-1.508003427587184 -0.45326838984223294 2.805940478380508 1.0846555618312221 0.42484446489255884 -0.2960543583690999 0.4429583680703196 1.367830737184214
2.05380069449818 0.8768816119260281 -0.13930892659708788 -1.6100891958588188 -0.32803400563974944 0.19141689343454565 -1.4185221521229283 1.6418853095526513
-0.7102550356604522 0.8486885145933121 -2.31414606634403 -3.191480172920139 -0.7279665336263368 -0.8280092428021291 0.10990877113496478 2.5891016281761665
3.1797173396756664 1.3788550032645535 -0.6706602801169628 -0.1168817177671212 -0.761027248802451 2.1591456038107673 -1.1444835206291124 -0.2736917009191609
1.8789979231965221 1.918166952515632 0.612325789308718 -2.0572995560428726 0.9462104859598321 0.24776356135833205 0.042699661702976455 1.7062090629292481
1.9382455620591528 1.4931503028097057 -0.16752423217584345 -1.9815252603525404 -1.7753130251262468 -2.364286096766701 1.88569592577276 -2.1344749733451724
-0.8460150748251118 0.7865817290827184 1.942740303635475 -0.9855039334736844 2.155477778528311 -0.17410915840200092 2.0502810223205015 1.9118143422097817
2.520016778240343 -2.4131046766965025 -2.7001406731312567 -0.843502231464013 -0.12646986602149157 1.6044708022742398 -0.5609103087814737 -1.5342008280830137
-0.2475032705648088 -1.9773364379706115 -1.147947036655516 1.561620125463699 0.3340809026696012 2.8399798180963303 -2.1040720981244707 -0.23411100121859973
-0.6160562192496932 1.8091824020236555 -1.294202205541015 -2.08647005829376 2.194671633481036 -0.06394424355139128 -0.3430462527041911 -1.7501922251234752
-1.14661571521756 0.812367819842534 -0.18562821014244968 1.0257588706515677 2.535128065225132 -0.8475828524860244 0.5444851470321068 -1.283947063931813
0.1461272874337034 -1.2126836553379143 -0.2641374336636845 -1.103799135460355 -0.32843370759688306 -1.4310405841013765 1.064927211264889 1.0326151174274303
0.2533734008345992 -0.5280718290968702 1.1741713100226185 -0.8452221391197531 0.9611535604718122 1.8844643028994996 -0.24241143870086745 -0.28287157780670086
-0.33527878163663993 0.8711070236165823 2.9857713902446843 -1.8664091352754837 -0.15132769134088875 -1.6904717540233642 0.6590794800688345 -1.0134345926071413
0.374111745769331 -1.163451439828105 0.6568940979993237 -1.808717406169086 1.1137738828524355 -1.047963129488115 1.1024004540017462 -0.5825246744662438
-2.5663161207720058 1.5495791430520005 -2.0997803372098005 -1.4009857492167386 -0.6984141559073415 0.17893272563500626 -0.6469590621021699 -1.9600445516208627
2.95036135532734 2.069148646136515 -0.7040279323704712 1.1107891604225189 1.365916322768323 0.16085586721880493 -0.5899525238317694 -0.3258100203872325
2.1944051350619707 -1.7599487262275284 1.2470911634975277 1.7782830478555285 0.27824833964947265 -0.26565539692383267 -2.218170757983687 -0.8710025034806115
-0.6687420532262616 -0.22567124853823028 -1.4150131819578067 2.039100232558388 -0.44407118551675073 0.7206910370113231 -2.0979656399622755 -3.1693904206925025
0.9486063269462202 -1.9112063280515899 1.7013224218182077 0.08237666692718434 -0.882010031213377 1.8983002344232722 -1.2804251784578984 -2.6810911651035028
0.4607579952167319 -0.5269145411554352 -0.7465055727109478 0.7351216540294587 -2.443862543414272 -1.7727674330663437 0.9602178120066917 0.7941460732265617
0.04162162697772387 -0.005529615338910351 -0.6587834099144201 -1.919838611274728 -2.9443857045203057 -2.04333954997461 0.2787728713413886 -1.5471951224295954
-0.031223782848647907 -0.6113525152640273 -0.670744669886568 -0.5380632036675864 1.197823004346977 -0.8823991453167312 -0.7443170713906392 -0.08215465756663831
-0.5270324034316252 -3.228505304558614 1.7358201087393321 -2.6631418645936655 2.2535854856383164 -0.05824738486337587 -1.267968021112515 1.4338086629235374
1.287769091584301 -1.1473470052556465 1.0102273396750325 -2.490138230676376 0.6979124805665596 0.678540495899053 0.013896600514580054 0.48052672112998934
-1.5080034275871872 -0.4532683898422363 2.8059404783804993 1.084655561831233 0.42484446489256833 -0.29605435836909344 0.44295836807032724 1.3678307371842051
2.053800694498179 0.8768816119260384 -0.13930892659708632 -1.6100891958588088 -0.3280340056397585 0.1914168934345472 -1.4185221521229372 1.641885309552662
-0.7102550356604624 0.848688514593323 -2.314146066344032 -3.1914801729201496 -0.7279665336263309 -0.8280092428021382 0.10990877113496822 2.5891016281761736
3.1797173396756673 1.3788550032645466 -0.6706602801169601 -0.11688171776713133 -0.7610272488024405 2.1591456038107566 -1.1444835206291182 -0.2736917009191681
