Darcy_Flow6D/dataset/Dim6/Beta6_8/DarcyFlow_HoumanC1000_B204_Trace.npz (npz, 356986 bytes, 6 tensors)

beta f8 []
0	0x4018000000000000	6.0

XTrain_Col f8 [1000, 6]
0	0x3fc712b60a0084af	0.1802585171545039
1	0x3fe3eaf1a53552b7	0.6224296786045532
2	0x3fab6e9caf9228a2	0.05357827799987659
3	0x3fd77fd85026a547	0.36717803790323383
4	0x3fcd4a05e4259c2b	0.2288215030668835
5	0x3fea61fa67573062	0.8244602220888846
6	0x3feff09b6e95fc51	0.9981209907417768
7	0x3fda509b9d6a5407	0.4111699139842248
8	0x3fcefbb0cb30c245	0.24205598756226912
9	0x3fee2ecc82a51a37	0.9432127525004209
10	0x3fe0a8c3c24a8688	0.520601157641253
11	0x3fe26c824ec609f3	0.5757457293078104
12	0x3fe8eb34c5c9292f	0.778711687374459
13	0x3fed12cf4a47b6c1	0.9085461092742763
14	0x3fd3d1c75ab0b128	0.30967887741532474
15	0x3f926f75aa927d68	0.01800330976095435
16	0x3fb2f493ff274191	0.07404446582154935
17	0x3fea9b3c1a394354	0.8314495575124092
18	0x3fb9b19f457db939	0.10036654898224108
19	0x3fd4875dd1cc44de	0.3207621144111509
20	0x3f88140275434a2e	0.011756915286615568
21	0x3fce6f3eaf693382	0.2377699238299123
22	0x3fe8fb46925f97e6	0.7806732996802992
23	0x3fc24dc5e9353498	0.14299844634152659
24	0x3fed44df883053da	0.9146573696076488
25	0x3fe02b6660093a1f	0.5052978397087066
26	0x3fb69624e3370382	0.0882285170291777
27	0x3fec60be21bbe5ec	0.8868094118944874
28	0x3fe5b593d0671c85	0.6784152098051811
29	0x3fd28427b188fad4	0.28931610429201027
30	0x3fee0149a5baaae3	0.9376571881196835
31	0x3fd2d888e3aa2458	0.2944662307059551
32	0x3faa15c44d916835	0.050947317570447494
33	0x3fd92fcde4fd9827	0.3935427414165837
34	0x3febb8dc92f63c26	0.8663161154125916
35	0x3fc9b6f295134705	0.20089561728541852
36	0x3fef35135a5ab9a6	0.9752289547666819
37	0x3fda07560b608625	0.40669776068725333
38	0x3fe30119d8d0a9e5	0.5938843950910352
39	0x3fbce129635daca6	0.11281069446492839
40	0x3fe2d4deb13f3e61	0.5884850942474708
41	0x3fd207c4f8a622c7	0.2817242077076511
42	0x3fc53f915bf55457	0.16600243559028868
43	0x3fd33d44784f341b	0.30061446904147865
44	0x3fd81beb64cfc5ca	0.3767040714729687
45	0x3fefdfb70a201ece	0.9960589597476088
46	0x3fe759b3b5a5cd6d	0.7296999500089619
47	0x3fe7670cc07fe4a1	0.7313293227918117
48	0x3fe9e66b43f1a372	0.8093773200063039
49	0x3fe845f850c8256c	0.7585412576456014
50	0x3fe8f3c27be84b4c	0.779755823141707
51	0x3fe8cc4983b031f8	0.7749373981510521
52	0x3fd32d4a14c1d59f	0.29963924433772066
53	0x3fe11222603d865b	0.5334636573499653
54	0x3fcbef82f017dd06	0.21824681018163278
55	0x3fe5122e52a0afbc	0.6584693540403275
56	0x3fdf295ae96a4256	0.48689911646309747
57	0x3fd2209707a6069d	0.2832391333287008
58	0x3fe6b1b4982919ea	0.70919255942209
59	0x3fa5606417d5841b	0.041751029881887024
60	0x3fef449d3b246156	0.9771257548446026
61	0x3fe9bd005c5dfbe3	0.8043214611096768
62	0x3fdcded7c4620d35	0.45110124757794107
63	0x3fe957faff0d9866	0.7919898015504827
64	0x3fe78995f75dbb19	0.7355451423044058
65	0x3fe4c53adadce0f3	0.6490759157814224
66	0x3fdfcb546af6e6de	0.49678526349781105
67	0x3fd0b06da2c119f0	0.26076832670187766
68	0x3fe8324c656e6aca	0.756139944179574
69	0x3fe745fec376b70a	0.727294332280253
70	0x3fd1e569f858e06f	0.2796273160233857
71	0x3fd11d4d5aced698	0.26741346233334573
72	0x3fe8e10de4a09aca	0.7774724450472033
73	0x3febdf54789ecf04	0.871011958681692
74	0x3fc6cb62efeb6adc	0.17808186259102043
75	0x3fb88d5edb543df4	0.09590714316095
76	0x3fdc403160c5c7f8	0.4414180226368667
77	0x3fe5162544191e47	0.6589533166924831
78	0x3fea6cebecbe2351	0.8257960914498687
79	0x3fef57b3eda119b1	0.9794559136578781
80	0x3fcc9107e2639e9f	0.2231759887138098
81	0x3fe59bdb173358f5	0.6752753689895871
82	0x3fd7383e2862b005	0.3628077883138306
83	0x3fd87d54e305f5fe	0.3826496331238046
84	0x3fcd7a7c2a257074	0.23030044610903
85	0x3fe2007ed9151aba	0.5625604858294857
86	0x3fe37466c0f07206	0.6079591530174759
87	0x3fe294612a73902f	0.580612738526275
88	0x3fe53c9e1f235499	0.6636496170200586
89	0x3fd9c0330da7e433	0.402355922065513
90	0x3fb16ebc2cdd824c	0.06809593291610233
91	0x3febb622e218e923	0.8659834304774318
92	0x3fed76695b9be97e	0.9207045354117296
93	0x3fe5d84a1434868b	0.6826525110847838
94	0x3fd7ef1083497585	0.3739663393115154
95	0x3fdb0cdcdd8e38b3	0.42266008030209007
96	0x3fcdcb6cf33906f6	0.23277055622207116
97	0x3fe1d39ea4860f71	0.5570824826577178
98	0x3f88d93cbe05de83	0.012133097218551164
99	0x3fe18c366a35d11d	0.5483657907884979
100	0x3fa06c82ba4334f0	0.03207787059509737
101	0x3fe0cf5cd2857aec	0.525312815832732
102	0x3fa8ea56578a0125	0.04866285151092801
103	0x3fa9d924bf1e51c5	0.05048479874600135
104	0x3fd7bfe08430f8f4	0.3710862437182094
105	0x3fe47737de153932	0.639553006892845
106	0x3fe550b10cf3aa5a	0.6661000493016431
107	0x3fd3b53e6517af76	0.3079372393829013
108	0x3fe86c332ebefc2b	0.7632079995163442
109	0x3fe69408c1c428d3	0.7055705818650274
110	0x3fa7494e2b504e65	0.045481150424305374
111	0x3fe27f7461556809	0.5780584240958443
112	0x3fe53577168be085	0.6627765121802588
113	0x3fd73bbb9b8e3f51	0.36302080336553383
114	0x3fdcbda0d55255e3	0.44907399017514943
115	0x3fe9d87d105e3eb2	0.8076768226328197
116	0x3fe88fc14d9328c7	0.7675482287534344
117	0x3fed5d120b55d9e2	0.9176111432450933
118	0x3fe6940fac60035a	0.7055738798809259
119	0x3fe45a8ee0248d81	0.6360544564999345
120	0x3fed378ae2fc1bab	0.9130300935074634
121	0x3fde4dad21144326	0.47349098425279335
122	0x3fe982df66f5775e	0.7972256670870868
123	0x3fe4e539759718bd	0.6529815003093727
124	0x3f8e56b3a2186e27	0.01481380785394666
125	0x3fe7f0760e3a854e	0.7481031682874943
126	0x3fe18d68fde03c98	0.5485119780077126
127	0x3fe22c040f919245	0.5678730300974811
128	0x3fea5f24ef61099b	0.8241142917034269
129	0x3fb6eac64aa87287	0.08951987574296015
130	0x3fcb97f0395ec4ff	0.2155742912414453
131	0x3fc713f081f9a83e	0.18029600473829704
132	0x3fb46a9267c05171	0.07975115807523082
133	0x3fe14ffe9e7417a8	0.5410149664683006
134	0x3fe93897c2767a3f	0.7881583021260851
135	0x3fe34f58b2fcde38	0.6034358497481156
136	0x3fea4e67bfed6374	0.822070956094747
137	0x3fedf5dd8c7b4e3d	0.9362628692419502
138	0x3fe5d62ca504054e	0.6823943350756652
139	0x3feecf61d6b77f31	0.9628152078330229
140	0x3fe9469fb43c357e	0.789871074697359
141	0x3fc8d40967a542f0	0.19397084770982742
142	0x3feadb37578ff063	0.8392597875786233
143	0x3fa74429f01a0c46	0.04544192367486537
144	0x3fe5e73f3e07d174	0.6844783984693508
145	0x3fe6345c8d4cd926	0.6938917884606652
146	0x3fc9c80b7c02ab37	0.20141738467403922
147	0x3fdee55417ef6384	0.4827471002332049
148	0x3fe20e18707af5a0	0.5642206379777015
149	0x3fc8449f23224723	0.18959416595003473
150	0x3fe6b8f2ea05d434	0.710076767993661
151	0x3fef35b5207bc36c	0.9753060945932766
152	0x3fc8dfb9ecb9663d	0.19432758387374519
153	0x3fd6f3d494d990ab	0.35863222633475783
154	0x3fa890720f4e203a	0.047977032059009564
155	0x3fd9b5fa9c4f58cd	0.4017321135010093
156	0x3fe5a1afd27e5d8b	0.6759871588900962
157	0x3fe8e4440573634f	0.7778644663295412
158	0x3fe337e739d2f857	0.6005741242768278
159	0x3fe4036368e79c4c	0.6254136132164461
160	0x3fe3ec44dc0ed0b4	0.6225914285664857
161	0x3fec764faf9488b3	0.8894422940541261
162	0x3fee6442dfefad18	0.9497389196161832
163	0x3fee49618a9dba1e	0.9464576442094914
164	0x3fee64436ba1ffb9	0.9497391798213278
165	0x3fe93e9aed0d1ff5	0.7888922338397594
166	0x3fec726b36506f8e	0.888967138369013
167	0x3feab110967e1d9f	0.8341143550214162
168	0x3fe71a53421148c2	0.7219635286694699
169	0x3fda37ebb479c88d	0.40966313004094773
170	0x3f9af0cc5f51d9b8	0.026309197728971973
171	0x3fdaa015592f7cdc	0.41602071485062964
172	0x3fda520e0ebfccbc	0.41125823440888687
173	0x3fdc577e6a0ef868	0.4428401981093715
174	0x3fd07ce5fea469ed	0.25762319438368203
175	0x3feaec34fbc2c00e	0.8413338582231533
176	0x3fd0026478369346	0.25014602412766285
177	0x3fdb017c49edb7fa	0.421965667911422
178	0x3fe23e6d09fa3bfe	0.570120353209745
179	0x3fefbb5ce8420126	0.9916214500699752
180	0x3fe633f239cbf234	0.6938410881844619
181	0x3fdee261144c00f6	0.4825670908176244
182	0x3fd88add3674d541	0.38347559278493654
183	0x3fe6bc7c54586992	0.7105085036630945
184	0x3fd595c938983c19	0.3372672131235404
185	0x3fee1d839a30b551	0.9411027919319769
186	0x3fe2fc2da05e916e	0.5932834751334164
187	0x3fc5fdaf26c52466	0.17180432694502484
188	0x3fd2ddb0994d60e5	0.2947808739750271
189	0x3fe7bc6f5f74ee0e	0.7417523254766267
190	0x3fef6a62692b257f	0.9817363790581765
191	0x3fe6b987aeac1359	0.710147706181128
192	0x3fc8c15c9daaab73	0.1934009332520322
193	0x3fe410fb24567b70	0.627072878811175
194	0x3fef905dc3cefd7c	0.9863728355775687
195	0x3fa70fda6e537f6a	0.04504282566790503
196	0x3fdcd10ad9a966c2	0.4502589345553184
197	0x3fecd722cc0c1712	0.9012617097184565
198	0x3fd674a91a98b942	0.35087039563486055
199	0x3fc3c660b87f65fa	0.15449151047395998
200	0x3fd7f4f41ef1cc31	0.37432578107763265
201	0x3fe47d7032d1469d	0.6403122894791583
202	0x3fee55cd4163da74	0.947973849978395
203	0x3fe248f309ff8e9e	0.5714049525526723
204	0x3fd9600136bbcca8	0.3964846643932085
205	0x3fe00d1185f3d849	0.5015952698001992
206	0x3fcec162e3005939	0.24027668079424716
207	0x3f86feeed1aa4867	0.011228433392975924
208	0x3fe7d7aa72ac4706	0.7450763930994249
209	0x3fe5fd843d8b8e90	0.6871968462041469
210	0x3fe591c34bc42e2b	0.6740433196841357
211	0x3fe4d5232aebf7bf	0.6510177458110248
212	0x3fe60198aff369d6	0.6876948772945137
213	0x3f48cf67852409e1	0.0007571464032312647
214	0x3fdc9a0e03d7241a	0.4469027554992536
215	0x3fb8ceb17c600fb4	0.09690388952736734
216	0x3fe940c73bc932cf	0.7891575019544578
217	0x3feb97a512b47ee4	0.862261330159495
218	0x3fe9f23ad36b95f6	0.8108190659810919
219	0x3fe358e9a0aece18	0.6046035898529594
220	0x3feea3c96c9900ab	0.9574935074852154
221	0x3fdcf36d6fd27341	0.45235763473629126
222	0x3fe865ef75e72ee4	0.7624432852548719
223	0x3fecea3db554f46f	0.9035938779485501
224	0x3fe5cd546cbf48ff	0.6813146709412478
225	0x3fe6b061c023c9da	0.7090309860926098
226	0x3fe086df13ad32f2	0.5164637932117258
227	0x3fd1a9068ce629f1	0.2759415031402162
228	0x3fb14fcbabc7dd4a	0.06762383407464259
229	0x3fab7e414b88e9b9	0.05369762465530265
230	0x3fee103d15c96a33	0.9394822526476844
231	0x3fee135d0937b554	0.9398636989623506
232	0x3fd8f6e7a00c3a42	0.39006987218536804
233	0x3fefca5c3af86973	0.9934521819844079
234	0x3fe5eed79727234e	0.685405535908197
235	0x3fe1302ecdc1e617	0.5371316927623323
236	0x3fe8fe8b836f31f8	0.7810723845555563
237	0x3fda5a47957bf103	0.4117602309995762
238	0x3fbfd601d94308f5	0.12435924104923742
239	0x3fcf875e0b953e5a	0.2463185841138394
240	0x3fb780bc6481ffab	0.09180810407451527
241	0x3fb1fcf7dcf35e6d	0.0702662386350938
242	0x3fe76c164448001a	0.7319442113512225
243	0x3fe6e71ff4a6ff86	0.7157134798398921
244	0x3fac795a6f68f6f4	0.05561335191712927
245	0x3feba553e17f57bd	0.8639315990683297
246	0x3fdadc90dfc83cc9	0.41971227506378433
247	0x3fe9b92347aedb91	0.8038498306330998
248	0x3feebc0094278ff4	0.9604494947093358
249	0x3fb04add04f63bec	0.06364232417239152
250	0x3fd18808a5348320	0.2739278424578959
251	0x3fcfc7c7e93cfd87	0.24828432930551633
252	0x3fb28577662adb50	0.07234903568574436
253	0x3fd0811228848e76	0.2578778644258145
254	0x3fe22ecea7225e1b	0.568213774141387
255	0x3fe8e6cc98890658	0.7781737307743226

FTrain_PDE f8 [1000, 6, 6]
0	0x402bec8ed544f94d	13.962027229947717
1	0x4025e8f7220d057f	10.955010475244078
2	0x40240448e10e7974	10.008368523613832
3	0x40251be250ef5758	10.554461030212835
4	0x4024a2e84f276f12	10.318178628505425
5	0x40267359db57bdc4	11.225294928036313
6	0x4025e8f7220d057f	10.955010475244078
7	0x403061beb926e4b9	16.381816455836745
8	0x402472ae213b4154	10.223984755023288
9	0x4027ffe7d3626209	11.999815564880025
10	0x40267680e1664d79	11.23145202993213
11	0x402c5cd233a285d0	14.181291211690137
12	0x40240448e10e7974	10.008368523613832
13	0x402472ae213b4154	10.223984755023288
14	0x402b73bd062fd800	13.726051514950086
15	0x4024356bf9f3b705	10.10433941936527
16	0x40241149242897e6	10.033761148410075
17	0x40249c043325cf5a	10.304719541898226
18	0x40251be250ef5758	10.554461030212835
19	0x4027ffe7d3626209	11.999815564880025
20	0x4024356bf9f3b705	10.10433941936527
21	0x402d788867ebb8b8	14.735415694737057
22	0x40257308e025cc66	10.724677090276781
23	0x402914ff509a0034	12.541010397719312
24	0x4024a2e84f276f12	10.318178628505425
25	0x40267680e1664d79	11.23145202993213
26	0x40241149242897e6	10.033761148410075
27	0x40257308e025cc66	10.724677090276781
28	0x402c3c02a01715aa	14.117207529848049
29	0x40272596c08aa9ec	11.573415772368172
30	0x40267359db57bdc4	11.225294928036313
31	0x402c5cd233a285d0	14.181291211690137
32	0x40249c043325cf5a	10.304719541898226
33	0x402914ff509a0034	12.541010397719312
34	0x40272596c08aa9ec	11.573415772368172
35	0x4031dc8e21b2e95c	17.861543756656246
36	0xc0232934e8c90edd	-9.580481791060658
37	0xc00cb5aa1bd0ef44	-3.5887033627640523
38	0xbffd2201524b4ee1	-1.8208020414939983
39	0xc0203bd4fffebd92	-8.116859435888532
40	0xc012ac9b8ab6bafb	-4.668562095072725
41	0xc014c11d1ab1443c	-5.188587586469165
42	0xc00cb5aa1bd0ef44	-3.5887033627640523
43	0xc009596c390b6bff	-3.1686634499178576
44	0xbfdba011f286ed26	-0.431644903986767
45	0xc00b67f762afe84b	-3.425764819138782
46	0xbffc931715562417	-1.7859106858688898
47	0xc0004404456433f3	-2.0332112714008814
48	0xbffd2201524b4ee1	-1.8208020414939983
49	0xbfdba011f286ed26	-0.431644903986767
50	0xbffef92998ccd872	-1.9358306854969922
51	0xbffb91c0491cd06b	-1.7230837684592426
52	0xbfe7aafd3a63fb65	-0.7396227016869089
53	0xbfec69f69ce3e011	-0.887934976984072
54	0xc0203bd4fffebd92	-8.116859435888532
55	0xc00b67f762afe84b	-3.425764819138782
56	0xbffb91c0491cd06b	-1.7230837684592426
57	0xc02200d0eaf9841b	-9.001593916853428
58	0xc011dcf70833cbca	-4.465786102448826
59	0xc013ddd381f63114	-4.9666271502030845
60	0xc012ac9b8ab6bafb	-4.668562095072725
61	0xbffc931715562417	-1.7859106858688898
62	0xbfe7aafd3a63fb65	-0.7396227016869089
63	0xc011dcf70833cbca	-4.465786102448826
64	0xc010e0e94b40d69e	-4.219639945824069
65	0xc005dcb24f03255c	-2.7327619717440665
66	0xc014c11d1ab1443c	-5.188587586469165
67	0xc0004404456433f3	-2.0332112714008814
68	0xbfec69f69ce3e011	-0.887934976984072
69	0xc013ddd381f63114	-4.9666271502030845
70	0xc005dcb24f03255c	-2.7327619717440665
71	0xc0133828e7e0a614	-4.804843543135139
72	0xc0045c4f0e523264	-2.5450726622423634
73	0xc00621e2c3077620	-2.766545795121388
74	0xbff099f73366eebc	-1.0375892646688234
75	0xbf8a862a98ba4c64	-0.012951214586143851
76	0xbfcb42628de12437	-0.21296340873439742
77	0xc004b62a540d6968	-2.5889479223816814
78	0xc00621e2c3077620	-2.766545795121388
79	0xc0097ff6afd994fc	-3.187482236697745
80	0xbff2bdafd5bb5721	-1.1713102673433655
81	0xbf9559ccd3201d94	-0.02085037268264285
82	0xbfcf6a08327ce971	-0.24542334046584416
83	0xc0074e2c275e02f1	-2.9131701541485815
84	0xbff099f73366eebc	-1.0375892646688234
85	0xbff2bdafd5bb5721	-1.1713102673433655
86	0xbfe1304e3d4dd032	-0.53714668248586
87	0x3f980720b26c71f0	0.023464690103638774
88	0xbfb035bb8a5e923a	-0.06331989410552633
89	0xbff1820d85f0b436	-1.0942511779824264
90	0xbf8a862a98ba4c64	-0.012951214586143851
91	0xbf9559ccd3201d94	-0.02085037268264285
92	0x3f980720b26c71f0	0.023464690103638774
93	0xbfb2735416459d2c	-0.07207227271793631
94	0x3fa6d5e92daa3d92	0.044600760292378486
95	0xbf90b0834e464ab0	-0.01629834332704644
96	0xbfcb42628de12437	-0.21296340873439742
97	0xbfcf6a08327ce971	-0.24542334046584416
98	0xbfb035bb8a5e923a	-0.06331989410552633
99	0x3fa6d5e92daa3d92	0.044600760292378486
100	0xbfb91353ec502924	-0.0979511691986415
101	0xbfcd05162d36c95d	-0.22671773154940925
102	0xc004b62a540d6968	-2.5889479223816814
103	0xc0074e2c275e02f1	-2.9131701541485815
104	0xbff1820d85f0b436	-1.0942511779824264
105	0xbf90b0834e464ab0	-0.01629834332704644
106	0xbfcd05162d36c95d	-0.22671773154940925
107	0xc00677a1b1259e00	-2.8084138717274527
108	0x4015c840eac6216c	5.4455601390294355
109	0x402495f18dd454e9	10.292858535928149
110	0x40238718b716b858	9.763860436938714
111	0x40244ec72673ed4c	10.153863145495642
112	0x4025f0943fd5cb41	10.969881052825828
113	0x4023fbc562d2ddac	9.991740310898273
114	0x402495f18dd454e9	10.292858535928149
115	0x401cd398251dd894	7.2066350745646055
116	0x40239d9dcb8ac015	9.807844505965514
117	0x402611f25c9dd6c1	11.035052198665086
118	0x402b34a07906627a	13.602786809949283
119	0x40250cc07b7f4a97	10.524906024254319
120	0x40238718b716b858	9.763860436938714
121	0x40239d9dcb8ac015	9.807844505965514
122	0x4015010d85a4b3ce	5.251028145005831
123	0x40239544284a03fe	9.79153562453757
124	0x4023c649dbd9e915	9.887282247877502
125	0x40238b86d68ed8ec	9.772513108193799
126	0x40244ec72673ed4c	10.153863145495642
127	0x402611f25c9dd6c1	11.035052198665086
128	0x40239544284a03fe	9.79153562453757
129	0x40195be078327fd8	6.339723470766295
130	0x402940c8899aa922	12.62652997982929
131	0x4024a7887bde8ac7	10.327213164249214
132	0x4025f0943fd5cb41	10.969881052825828
133	0x402b34a07906627a	13.602786809949283
134	0x4023c649dbd9e915	9.887282247877502
135	0x402940c8899aa923	12.626529979829291
136	0x402e5438f2d011ce	15.164496982478251
137	0x4026f9c558fbfe0e	11.487833767662803
138	0x4023fbc562d2ddac	9.991740310898273
139	0x40250cc07b7f4a97	10.524906024254319
140	0x40238b86d68ed8ec	9.772513108193799
141	0x4024a7887bde8ac7	10.327213164249214
142	0x4026f9c558fbfe0e	11.487833767662803
143	0x401696fce38a7105	5.647449069332883
144	0xc0144cf6a0ba4be6	-5.075159560557017
145	0xc0064dbb24db7122	-2.787954605051838
146	0xbfdab6e4f644384b	-0.41741298722707104
147	0xc0121ed14694ff8a	-4.530095198482636
148	0xc00d2d1ce34ae95d	-3.647027755473728
149	0xbff9911d8ec2867e	-1.5979285790021147
150	0xc0064dbb24db7122	-2.787954605051838
151	0xc0025974cba99ba5	-2.2936798010955095
152	0xbfcb282b5b8866f1	-0.21216337174774183
153	0xc005cc2ffddba7f4	-2.724700911775466
154	0xc0017b513d0fa2de	-2.1852135439297475
155	0xbfedde28c2252b68	-0.9333690444849312
156	0xbfdab6e4f644384b	-0.41741298722707104
157	0xbfcb282b5b8866f1	-0.21216337174774183
158	0xbfe56c4f8c22de0d	-0.6694715249095126
159	0xbfd9fa3fe69748d9	-0.4058990241875456
160	0xbfd3b14ef6b34338	-0.3076970490629267
161	0xbfb46f787de3e8a6	-0.07982590745442283
162	0xc0121ed14694ff8a	-4.530095198482636
163	0xc005cc2ffddba7f4	-2.724700911775466
164	0xbfd9fa3fe69748d9	-0.4058990241875456
165	0xc0138b6862fd51c8	-4.886140391074555
166	0xc00c852b3650d669	-3.565023826925245
167	0xbff8f86a9a2aa6af	-1.5606485387929003
168	0xc00d2d1ce34ae95d	-3.647027755473728
169	0xc0017b513d0fa2de	-2.1852135439297475
170	0xbfd3b14ef6b34338	-0.3076970490629267
171	0xc00c852b3650d669	-3.565023826925245
172	0xc00b6ecafd0a93f6	-3.4290981072285787
173	0xbff3e20deef31e87	-1.242689069173055
174	0xbff9911d8ec2867e	-1.5979285790021147
175	0xbfedde28c2252b68	-0.9333690444849312
176	0xbfb46f787de3e8a6	-0.07982590745442283
177	0xbff8f86a9a2aa6af	-1.5606485387929003
178	0xbff3e20deef31e87	-1.242689069173055
179	0xbff32d3f367fba23	-1.1985466126312836
180	0xc013b8df53007ade	-4.93053941431455
181	0xbffde7a70a81d2d8	-1.869055787127925
182	0xbfce560f95f9e23e	-0.23700136969616098
183	0xc0040a0e531883cd	-2.504910134492525
184	0xc0145840fb3ff730	-5.086185384539746
185	0xbff4027861be2691	-1.2506030862881838
186	0xbffde7a70a81d2d8	-1.869055787127925
187	0x3fc192a0850df95e	0.13728720185094806
188	0xbf8e28374f5e3958	-0.014725143537159965
189	0xbfea991c7b807dcf	-0.8311903392931813
190	0xbffc2ae28d25cbe2	-1.7604699624614502
191	0xbfd84bdae40de93e	-0.37962982436114945
192	0xbfce560f95f9e23e	-0.23700136969616098
193	0xbf8e28374f5e3958	-0.014725143537159965
194	0x3feb86bc27b049dc	0.8601971411865708
195	0xbfac1abc6d2f5c88	-0.05489147980522896
196	0xbfcbe5ba9c92bbc0	-0.21794827122854876
197	0x3f98ed18637e6e88	0.024341946671127462
198	0xc0040a0e531883cd	-2.504910134492525
199	0xbfea991c7b807dcf	-0.8311903392931813
200	0xbfac1abc6d2f5c88	-0.05489147980522896
201	0xbfdadf6f9bc586b4	-0.4198874493796254
202	0xc002e43bb889e6b0	-2.3614420334896167
203	0xbfe12f41d645333a	-0.5370186982123422
204	0xc0145840fb3ff730	-5.086185384539746
205	0xbffc2ae28d25cbe2	-1.7604699624614502
206	0xbfcbe5ba9c92bbc0	-0.21794827122854876
207	0xc002e43bb889e6b0	-2.3614420334896167
208	0xc01133cfd9d78935	-4.300597575931808
209	0xbff2d0ab9a290540	-1.1759449025997384
210	0xbff4027861be2691	-1.2506030862881838
211	0xbfd84bdae40de93e	-0.37962982436114945
212	0x3f98ed18637e6e88	0.024341946671127462
213	0xbfe12f41d645333a	-0.5370186982123422
214	0xbff2d0ab9a290540	-1.1759449025997384
215	0x3fe0fbcf362bf65a	0.530738454631954
216	0xc01481d7c688d671	-5.126799680807026
217	0xc004be0d7085dde9	-2.592799071393291
218	0xc00db098cdaef5bf	-3.7112289494532145
219	0xbfe5360b3418f8aa	-0.6628471391229784
220	0xc00d71fcbb98b949	-3.680657830808887
221	0xbffca83044cbed34	-1.79106165765445
222	0xc004be0d7085dde9	-2.592799071393291
223	0xbfe0387b3ab2dac3	-0.5068946978052157
224	0xbffb7fb011e89931	-1.7186737727693748
225	0xbfd0c4b08c0f0498	-0.2620049827347173
226	0xbffb43da0c32cb62	-1.7040653683186169
227	0xbfe9a2cadbab3e57	-0.8011221208962053
228	0xc00db098cdaef5bf	-3.7112289494532145
229	0xbffb7fb011e89931	-1.7186737727693748
230	0xbffdd0cf1201cbfa	-1.863478727664868
231	0xbfda80819b0932a8	-0.41409340038516484
232	0xc003a1d9ab5ed25e	-2.4540284527122784
233	0xbff2d3dfde633880	-1.1767271697058561
234	0xbfe5360b3418f8aa	-0.6628471391229784
235	0xbfd0c4b08c0f0498	-0.2620049827347173
236	0xbfda80819b0932a8	-0.41409340038516484
237	0x3fe776b9afe900de	0.7332428394074915
238	0xbfda3c652235b17c	-0.4099362215117919
239	0xbfc394e6edc98e2a	-0.15298163042744878
240	0xc00d71fcbb98b949	-3.680657830808887
241	0xbffb43da0c32cb62	-1.7040653683186169
242	0xc003a1d9ab5ed25e	-2.4540284527122784
243	0xbfda3c652235b17c	-0.4099362215117919
244	0xbffd1f1bde4a715f	-1.8200949366792754
245	0xbff2a9d2604b8540	-1.166460395958282
246	0xbffca83044cbed34	-1.79106165765445
247	0xbfe9a2cadbab3e57	-0.8011221208962053
248	0xbff2d3dfde633880	-1.1767271697058561
249	0xbfc394e6edc98e2a	-0.15298163042744878
250	0xbff2a9d2604b8540	-1.166460395958282
251	0x3fc69915d1c2ffda	0.1765467905261165
252	0xbfdd0769dd1eb783	-0.4535774859785919
253	0xbfcbd8fdf066656c	-0.21755956877022287
254	0xbfd24c0b7988b95d	-0.28589140766680093
255	0xbfe78457064c3292	-0.7349047778130446

XTrain_Boundary f8 [204, 6]
0	0x0000000000000000	0.0
1	0x3fd5f932a4e4b242	0.3433348284040997
2	0x3fd70b31e1299a18	0.3600582789280522
3	0x3fe1d49aa6c936df	0.5572026498354851
4	0x3fee7ae89c448b20	0.9525034954170657
5	0x3fcb89afff3e0277	0.2151393886852195
6	0x0000000000000000	0.0
7	0x3feb8bc1e8942d38	0.8608102362208347
8	0x3fcfd76f4817cf00	0.2487620450989354
9	0x3feec5b1c09e4de6	0.9616326105191859
10	0x3fe229fce7fa9d69	0.5676254778708599
11	0x3fdd236a29e1f83d	0.45528654184443323
12	0x0000000000000000	0.0
13	0x3feda562ad499100	0.9264386543768808
14	0x3feded80ef4453c9	0.9352421448880871
15	0x3fe7ed89aeb176ad	0.7477463161446473
16	0x3fc96de2369093c8	0.19866588272375751
17	0x3fd3a70152d361be	0.30706818664978275
18	0x0000000000000000	0.0
19	0x3fdab235d6ee8a1b	0.4171270941680249
20	0x3fe7317ea2c5a4a8	0.7247918299809912
21	0x3fd48417586ef0ce	0.3205622066123056
22	0x3fa0729116b679e1	0.032124074957426314
23	0x3fe758d3dcee18ad	0.7295932116546929
24	0x0000000000000000	0.0
25	0x3fe6ad12724a60ba	0.7086269600140647
26	0x3fe88de5dba82d67	0.7673215189146675
27	0x3fd04c72d15cd520	0.2546660465771584
28	0x3fe9add9ae876aa7	0.8024719628113716
29	0x3fbe2360146eae71	0.11772728442036297
30	0x0000000000000000	0.0
31	0x3fb8f48ec450b7fc	0.09748165409902748
32	0x3fe0417ca136d1f4	0.5079939984048552
33	0x3fc86fafe073ada7	0.1909084173160924
34	0x3fc52fdcc79f7584	0.16552314517222666
35	0x3fd03fb57ff21afa	0.2538884877653086
36	0x0000000000000000	0.0
37	0x3f6c6962acb9a2f1	0.0034682204475767688
38	0x3febd4c1efa91cc8	0.8697213822241787
39	0x3fe0da72001fe5cb	0.526665687793121
40	0x3fe447ec61004e1c	0.6337797064356354
41	0x3fe9af438d3eff64	0.8026445158684337
42	0x0000000000000000	0.0
43	0x3fe1068e93705809	0.5320504073777111
44	0x3fcc0a8517a4afda	0.21907104162653362
45	0x3fdd0c8208d271a2	0.45388842450645417
46	0x3fd5d21180ca9566	0.3409465558746291
47	0x3fa86a8cb92aa2fe	0.047687909701670236
48	0x0000000000000000	0.0
49	0x3fd740332fae3950	0.36329345375351796
50	0x3f98e7afbc331040	0.02432131372621904
51	0x3fc1d53aa570d4b2	0.13931973531876946
52	0x3fe68a514410c708	0.7043844537167567
53	0x3fd763a1afa3939f	0.3654560294365243
54	0x0000000000000000	0.0
55	0x3fc8d4aedb4de46f	0.19399057110038906
56	0x3fe55625f30c9fdd	0.6667661425644799
57	0x3fecaf782c404a08	0.8964196075706363
58	0x3fda701e6d941148	0.4130931921102001
59	0x3fb735a38e088ddc	0.09066221444714223
60	0x0000000000000000	0.0
61	0x3fe99a2868a76228	0.8000680965442983
62	0x3fd2ed7d5f481e17	0.29574522309164436
63	0x3fbaa100e26c8b6b	0.1040192177575087
64	0x3fd0cdea58827312	0.2625680794097188
65	0x3fedab7c1a86f89a	0.9271832006559351
66	0x0000000000000000	0.0
67	0x3fc4c20909776389	0.16217148744797452
68	0x3fc614fcbef3dbf3	0.17251548122268864
69	0x3fe88911fe24cc1a	0.7667322124237927
70	0x3feafdfbc368b664	0.8435038391668965
71	0x3fe360a835291e0d	0.6055489576619394
72	0x0000000000000000	0.0
73	0x3fe30f6c2d89308d	0.5956326379178037
74	0x3fe35784dc44e92b	0.6044334699757078
75	0x3febdf9ca3cf0bd9	0.871046371401799
76	0x3fe77a15d066bf96	0.7336529798831062
77	0x3fef6541b6a72d3e	0.9811104361955711
78	0x0000000000000000	0.0
79	0x3fef53442f31e1d8	0.9789143487715206
80	0x3fe263f431b0b938	0.5747014017595466
81	0x3fd9a2abbcf04016	0.400553640852196
82	0x3fec41ff7b14462a	0.8830563930407085
83	0x3fe4dc276de05fba	0.6518742700600264
84	0x0000000000000000	0.0
85	0x3fe4e63d4fe5e5df	0.6531054077633448
86	0x3fba49e3a0bf761c	0.1026899592829626
87	0x3fe4174656e81476	0.6278411576646608
88	0x3fbc607434475f0b	0.1108467700608992
89	0x3fe18945889468be	0.548006788975975
90	0x0000000000000000	0.0
91	0x3fd0d367dac93b79	0.2629031788427976
92	0x3fdd74e0dad1a997	0.4602586876777876
93	0x3fe64055ae6c803d	0.6953533560481514
94	0x3fd826c0b6ea48a6	0.3773652826577155
95	0x3feb360cb84fc94a	0.8503478622281275
96	0x0000000000000000	0.0
97	0x3fdf1b9701e2b357	0.4860589521802487
98	0x3feefec93713b484	0.9686018062326558
99	0x3f9a74c2c9cebfd5	0.025836032454833308
100	0x3fde5413946ce855	0.4738816213099473
101	0x3fe0cdca39d57de0	0.5251208428925871
102	0x3ff0000000000000	1.0
103	0x3fd5f932a4e4b242	0.3433348284040997
104	0x3fd70b31e1299a18	0.3600582789280522
105	0x3fe1d49aa6c936df	0.5572026498354851
106	0x3fee7ae89c448b20	0.9525034954170657
107	0x3fcb89afff3e0277	0.2151393886852195
108	0x3ff0000000000000	1.0
109	0x3feb8bc1e8942d38	0.8608102362208347
110	0x3fcfd76f4817cf00	0.2487620450989354
111	0x3feec5b1c09e4de6	0.9616326105191859
112	0x3fe229fce7fa9d69	0.5676254778708599
113	0x3fdd236a29e1f83d	0.45528654184443323
114	0x3ff0000000000000	1.0
115	0x3feda562ad499100	0.9264386543768808
116	0x3feded80ef4453c9	0.9352421448880871
117	0x3fe7ed89aeb176ad	0.7477463161446473
118	0x3fc96de2369093c8	0.19866588272375751
119	0x3fd3a70152d361be	0.30706818664978275
120	0x3ff0000000000000	1.0
121	0x3fdab235d6ee8a1b	0.4171270941680249
122	0x3fe7317ea2c5a4a8	0.7247918299809912
123	0x3fd48417586ef0ce	0.3205622066123056
124	0x3fa0729116b679e1	0.032124074957426314
125	0x3fe758d3dcee18ad	0.7295932116546929
126	0x3ff0000000000000	1.0
127	0x3fe6ad12724a60ba	0.7086269600140647
128	0x3fe88de5dba82d67	0.7673215189146675
129	0x3fd04c72d15cd520	0.2546660465771584
130	0x3fe9add9ae876aa7	0.8024719628113716
131	0x3fbe2360146eae71	0.11772728442036297
132	0x3ff0000000000000	1.0
133	0x3fb8f48ec450b7fc	0.09748165409902748
134	0x3fe0417ca136d1f4	0.5079939984048552
135	0x3fc86fafe073ada7	0.1909084173160924
136	0x3fc52fdcc79f7584	0.16552314517222666
137	0x3fd03fb57ff21afa	0.2538884877653086
138	0x3ff0000000000000	1.0
139	0x3f6c6962acb9a2f1	0.0034682204475767688
140	0x3febd4c1efa91cc8	0.8697213822241787
141	0x3fe0da72001fe5cb	0.526665687793121
142	0x3fe447ec61004e1c	0.6337797064356354
143	0x3fe9af438d3eff64	0.8026445158684337
144	0x3ff0000000000000	1.0
145	0x3fe1068e93705809	0.5320504073777111
146	0x3fcc0a8517a4afda	0.21907104162653362
147	0x3fdd0c8208d271a2	0.45388842450645417
148	0x3fd5d21180ca9566	0.3409465558746291
149	0x3fa86a8cb92aa2fe	0.047687909701670236
150	0x3ff0000000000000	1.0
151	0x3fd740332fae3950	0.36329345375351796
152	0x3f98e7afbc331040	0.02432131372621904
153	0x3fc1d53aa570d4b2	0.13931973531876946
154	0x3fe68a514410c708	0.7043844537167567
155	0x3fd763a1afa3939f	0.3654560294365243
156	0x3ff0000000000000	1.0
157	0x3fc8d4aedb4de46f	0.19399057110038906
158	0x3fe55625f30c9fdd	0.6667661425644799
159	0x3fecaf782c404a08	0.8964196075706363
160	0x3fda701e6d941148	0.4130931921102001
161	0x3fb735a38e088ddc	0.09066221444714223
162	0x3ff0000000000000	1.0
163	0x3fe99a2868a76228	0.8000680965442983
164	0x3fd2ed7d5f481e17	0.29574522309164436
165	0x3fbaa100e26c8b6b	0.1040192177575087
166	0x3fd0cdea58827312	0.2625680794097188
167	0x3fedab7c1a86f89a	0.9271832006559351
168	0x3ff0000000000000	1.0
169	0x3fc4c20909776389	0.16217148744797452
170	0x3fc614fcbef3dbf3	0.17251548122268864
171	0x3fe88911fe24cc1a	0.7667322124237927
172	0x3feafdfbc368b664	0.8435038391668965
173	0x3fe360a835291e0d	0.6055489576619394
174	0x3ff0000000000000	1.0
175	0x3fe30f6c2d89308d	0.5956326379178037
176	0x3fe35784dc44e92b	0.6044334699757078
177	0x3febdf9ca3cf0bd9	0.871046371401799
178	0x3fe77a15d066bf96	0.7336529798831062
179	0x3fef6541b6a72d3e	0.9811104361955711
180	0x3ff0000000000000	1.0
181	0x3fef53442f31e1d8	0.9789143487715206
182	0x3fe263f431b0b938	0.5747014017595466
183	0x3fd9a2abbcf04016	0.400553640852196
184	0x3fec41ff7b14462a	0.8830563930407085
185	0x3fe4dc276de05fba	0.6518742700600264
186	0x3ff0000000000000	1.0
187	0x3fe4e63d4fe5e5df	0.6531054077633448
188	0x3fba49e3a0bf761c	0.1026899592829626
189	0x3fe4174656e81476	0.6278411576646608
190	0x3fbc607434475f0b	0.1108467700608992
191	0x3fe18945889468be	0.548006788975975
192	0x3ff0000000000000	1.0
193	0x3fd0d367dac93b79	0.2629031788427976
194	0x3fdd74e0dad1a997	0.4602586876777876
195	0x3fe64055ae6c803d	0.6953533560481514
196	0x3fd826c0b6ea48a6	0.3773652826577155
197	0x3feb360cb84fc94a	0.8503478622281275
198	0x3ff0000000000000	1.0
199	0x3fdf1b9701e2b357	0.4860589521802487
200	0x3feefec93713b484	0.9686018062326558
201	0x3f9a74c2c9cebfd5	0.025836032454833308
202	0x3fde5413946ce855	0.4738816213099473
203	0x3fe0cdca39d57de0	0.5251208428925871
204	0x3fe2e4378354def2	0.5903585019177326
205	0x0000000000000000	0.0
206	0x3fe044592e3e1168	0.508343305890361
207	0x3fe496965534b0a4	0.6433822311569384
208	0x3fcfd7c83b6e6797	0.248772648829626
209	0x3fe4b79ae905a5aa	0.6474127341472713
210	0x3fd5e470eabd2deb	0.34206793712357236
211	0x0000000000000000	0.0
212	0x3fd818429d482999	0.37648072585639053
213	0x3feebcb62037c446	0.9605360631231938
214	0x3fbaa9992fdaba20	0.10415036600418448
215	0x3fdb53066e9f95e3	0.42694245150627647
216	0x3fb205e99ae42fc1	0.07040271789099874
217	0x0000000000000000	0.0
218	0x3fb7f88456fdca6e	0.09363581775486704
219	0x3fe99d32d22d5cd7	0.8004392724059483
220	0x3fdb029c09829817	0.4220342724678416
221	0x3fe26bb7b7efb04f	0.5756491272454783
222	0x3f97b072b0b19a77	0.023134033236056752
223	0x0000000000000000	0.0
224	0x3fe1cb881e0a8438	0.5560951792468876
225	0x3fd317a6519d6e60	0.2983184620877406
226	0x3fe436cb88fcdf33	0.6316888499777406
227	0x3feb2aac83b236ba	0.8489592144194014
228	0x3fe1bc8a10f154bb	0.5542650538360684
229	0x0000000000000000	0.0
230	0x3f9b6364a830603a	0.026746342435302696
231	0x3fdb5d126129e6ec	0.4275556515564023
232	0x3feb80aa02a1e4eb	0.8594560672201202
233	0x3fd384bc93bcbfc8	0.30497660090895495
234	0x3fe908d74d8f36af	0.7823292269547063
235	0x0000000000000000	0.0
236	0x3fe520065956c362	0.660159277429653
237	0x3fba865601cbc0be	0.10361230415196851
238	0x3f9a8da12aab0ff5	0.025930898885022164
239	0x3fd8612acb928628	0.3809306133281063
240	0x3fef79395a225fc8	0.9835478554186858
241	0x0000000000000000	0.0
242	0x3febb274fb32cbb7	0.8655342966288718
243	0x3feaaa397e40264d	0.8332793680030562
244	0x3fe12d29d2e2f6d5	0.5367631071928495
245	0x3fe7de653179c26d	0.7458978620835076
246	0x3fd1e9e4e5d23e6e	0.27990076488001747
247	0x0000000000000000	0.0
248	0x3fe9f839d85fd977	0.8115510202467665
249	0x3fe0a1df498f38b9	0.5197597920139493
250	0x3fc36829a377b7ca	0.15161629182642705
251	0x3fefa4fd388c7802	0.9888902763811986
252	0x3fe0644ccae06fd1	0.5122436487613361
253	0x0000000000000000	0.0
254	0x3fe3b923f1e459a2	0.6163501476719839
255	0x3fec3ecd163720c8	0.8826661523717343

YTrain_Boundary f8 [204]
0	0x3ff51db1a038689f	1.319749475346306
1	0x3fd837835458f6e4	0.37838824498235923
2	0x3fdd623666e036e7	0.45911941572636156
3	0x3fff0ffa38a2dfac	1.9414007389404828
4	0x3fe216191587da3a	0.5651975079079599
5	0x3fe87021e8b48101	0.7636880440732342
6	0x3fd81885c61b0be0	0.37649673792128446
7	0x3ff99db4304da555	1.601001919445783
8	0x4000c4e3550755ec	2.096136726652494
9	0x3ff7b24cb3353267	1.4810301780991268
10	0x3febff804a24f94b	0.8749391029485108
11	0x3fe6eac3d9d2e502	0.7161578420993069
12	0x3ffec91f99ebe6a0	1.9241024029310339
13	0x3fe9e80502cc3763	0.8095727018969509
14	0x4004b763f010857d	2.589546084884829
15	0x3fecdd186a9ea371	0.9019891817489293
16	0x3feaa81bad6637ff	0.8330210100846215
17	0x3fe1456e4cca70f8	0.5397254466838879
18	0x4005848600b0cae4	2.689708714862137
19	0x4004d35be5f784f8	2.6032026258623056
20	0x3fda259b49568f0d	0.40854532396245774
21	0x3ff3f9d9c8c52034	1.2484987108782777
22	0x3ffd74506867a124	1.8408969953835106
23	0x400245740b73c7f4	2.2839127440174654
24	0x3fecc52b6b351f6b	0.8990685552498524
25	0x3fe4b77f999a49e5	0.6473997116138973
26	0x3fdf85394fe76a99	0.49250634005663013
27	0x3fe90035cc49c95c	0.7812756528858631
28	0x3feea72f32010072	0.9579082466734816
29	0x3fe72444af8798bb	0.7231772831262541
30	0x3ffc0de22c6fff6f	1.7533895240630633
31	0x3fd79a6200715553	0.3687977794955561
32	0x3fe845914d4e9aba	0.7584921369460382
33	0x3fea3e1788289ef8	0.8200795802449354
34	0x3ff3bc735fe83ec5	1.2335084673285774
35	0x3ffe171238ef1ffe	1.8806326126086783
36	0x4004842104bca7ec	2.564516102797816
37	0x3ff3e7c468434054	1.2440837929498416
38	0x400034c8c4233851	2.025773556065396
39	0x4003a250914477e8	2.454255232717504
40	0x40059ea4badcdbf1	2.7024626349116194
41	0x3fda75f8ad761d6b	0.41345040263737215
42	0x3fddf62c73b39161	0.4681502466103407
43	0x4003f4154b73c7d9	2.4941812414844944
44	0x3fec9712cdca0512	0.8934415835684908
45	0x3fd995f8f18cdc6c	0.3997785910500571
46	0x4005ba12b4bbdbb1	2.7158559913472904
47	0x3fdae25799f74338	0.42006483112077175
48	0x3fe51c18ecc38938	0.6596798538487638
49	0x3fe613ff5e2254d1	0.689941104751279
50	0x3fe63c9aa217ca04	0.6948979535939661
51	0x3fe24594c768328f	0.5709937948864353
52	0x3fdaa89924cc4d37	0.4165404185634602
53	0x3fd79045da4243e4	0.36818071665135066
54	0x3fe223f1df28bb93	0.5668877943588647
55	0x3fd983a9a92c16ec	0.3986610557625301
56	0x3fd79b3adfc88d9a	0.36884948591088007
57	0x3fda80c44e8b8251	0.4141093031921957
58	0x3ffe747b6d0be214	1.9034380206704826
59	0x3ff95a38cdaad782	1.5845268281823057
60	0x3fd78eea0ec520e5	0.3680977958906751
61	0x3ff9c24a62365566	1.609934219018521
62	0x4005bcf81fb90fbd	2.717270133814934
63	0x3fd8f0e2c0c98c55	0.38970249964603926
64	0x3ffdb067c0a527dd	1.8555676961136591
65	0x3ff0bf3093d8dea5	1.046677186515731
66	0x3ffff30b4bd68f12	1.9968369448114953
67	0x3fefa788ba0bb606	0.9892009385782223
68	0x4005bede828fa2ba	2.7181978416523096
69	0x3fec3870d0972a8a	0.8818897317917884
70	0x3ff06b31671abd5a	1.0261701610105178
71	0x3fe58a66c0e2822e	0.6731446997910717
72	0x3fe4bf1cef011027	0.6483292263078554
73	0x3ff1aaac649f4020	1.1041683130788513
74	0x40056d17c7e4fdda	2.6782680145986264
75	0x3fdee8bb7869fb71	0.4829548526685619
76	0x3fdd7c082f9c62b0	0.46069531106472095
77	0x3ff2e00b5aa7051a	1.1796983281240672
78	0x3fe0a768fabadb76	0.520435800272806
79	0x3ffde8bd78a259e3	1.8693213188431563
80	0x3ffae489e8855eed	1.6807955820894975
81	0x3fe9007ae91468dc	0.78130860827812
82	0x3fd85c7488fd8b64	0.3806430185124354
83	0x3fdb2f570e1ad564	0.4247644078962678
84	0x3ff057130eeae84f	1.0212584097594293
85	0x3fd9647f8858acba	0.3967589217670128
86	0x3fe8cef514d1552b	0.7752633482547585
87	0x3ff6b47eae4ce818	1.4190661247835177
88	0x40004815274c762c	2.035196597119258
89	0x3ff1120b3ad14db2	1.0669052407800845
90	0x3fe41e1e1c016a18	0.6286764666541016
91	0x3fdb5e8ff4d8e1d1	0.4276466265760322
92	0x3ff8505c35fa2950	1.5196191891178223
93	0x3ff9eb071d67ec0c	1.6198798321408985
94	0x3fe2fb9dd9c2fe0a	0.5932149174840913
95	0x400375f2302ec946	2.4325908436086676
96	0x3fdac2617b112646	0.41811406152973907
97	0x3fdcb8874e0498c8	0.4487627279180626
98	0x3ffce7553246351f	1.806477733978063
99	0x4001c8e61724c453	2.223095112618958
100	0x400578d74a680ec6	2.6840043843274968
101	0x3ff6cea95b26be5d	1.4254544792746835
102	0x3fe714a0e696e572	0.7212681297016117
103	0x3ffdbc49f02655da	1.8584689503526222
104	0x3ff6608389e40275	1.3985629450181964
105	0x4002e1d7c8dcbb7c	2.3602748577463313
106	0x4004d72d6a3f9b2f	2.6050670910512035
107	0x3fd7978aea3d3748	0.3686244285098508
108	0x3fe45d5aeaff38ee	0.6363958921226904
109	0x3ff4dd7a4e70060b	1.3040717185944029
110	0x3fe3411f3ad0cbec	0.6016994618170179
111	0x3fda6b61c4e4441e	0.41280407169057465
112	0x3fe685241a5c9f02	0.7037525668028766
113	0x4004a01abd212dbb	2.5781760001898113
114	0x3fdf6a0e1a6f0a76	0.49084808904095867
115	0x4004a25d806ea1ad	2.5792799028169697
116	0x3ff4a2c5d7866c35	1.2897394579838537
117	0x3ff3834b302415aa	1.2195541267877652
118	0x3fdb049bb761377b	0.42215626629046427
119	0x3fee6c5b48940a4e	0.9507271211189818
120	0x3fe828174e7f3751	0.7548939259665791
121	0x3fe07b430a382568	0.5150466155620679
122	0x3fe17a7bc6bb3ec4	0.5462015992615865
123	0x3fd7a425bfc5f7f2	0.36939376571524385
124	0x4004abd72c3c2758	2.5839065032823036
125	0x3ff16d44666dbf9d	1.0891765595551768
126	0x3ff1f0a0d0171637	1.121247113086964
127	0x4001af9f1a09823f	2.2107526811744544
128	0x3ffe8872a1528652	1.9083124448447006
129	0x3fff752c9699c480	1.9661069758260794
130	0x3fd79501c006807c	0.3684696555374172
131	0x3ff7cd0c2dc79a38	1.4875604427594578
132	0x3fd7957805263230	0.36849785330631146
133	0x3fe19a0cf8e05385	0.5500550137390837
134	0x3ff3346506c4327e	1.2002916588127444
135	0x400582f80b975ffb	2.688949671322914
136	0x3fe7aea3eaebdf0a	0.7400683964069412
137	0x3ff816a6de2feb8a	1.5055302313982986
138	0x3fef2e7a69252862	0.9744236043563996
139	0x400390331520fc25	2.445409932202454
140	0x40028e9f664eb375	2.3196399681823388
141	0x3fd81274796adb08	0.3761264024464457
142	0x40007ad70b949e03	2.059980478737772
143	0x4005191eb239294b	2.6372655795759434
144	0x3ffab790deba804a	1.6698158932049574
145	0x3fdae170201ecaf8	0.4200096429514555
146	0x3fe86c5b6d90ae5d	0.7632271900124113
147	0x3fda823b5b9b81be	0.41419872232475174
148	0x3fe768d022affd75	0.7315445592393376
149	0x3fd78b5e7fdf520d	0.3678814171555878
150	0x3fdbf5e42389d816	0.43688300581504913
151	0x3fe0d6b8a48f145e	0.5262110914269547
152	0x3fd80e452a3b2c88	0.3758709824002797
153	0x3fed9c8960321f81	0.9253584746193014
154	0x3fdf20bffa1973fd	0.4863738958718498
155	0x3ff7d2358b84e715	1.4888205957381093
156	0x3fd79efe95f32be8	0.3690792526583082
157	0x3fe1f3166ddf1578	0.5609237810064505
158	0x40056d14c6ec4003	2.6782622853133957
159	0x3fd9484593215de6	0.39503611915776415
160	0x3fd7c3e5fa08ccd9	0.3713316861860228
161	0x3feb6c8caa020d0b	0.8570006676167464
162	0x3ffdb1fb95a04555	1.85595282027892
163	0x3ffd780f162600aa	1.8418112626241432
164	0x40059e5eaf4634ad	2.7023290341663455
165	0x3fedf920bb00a847	0.9366611149209881
166	0x40043f8005d0dc80	2.5310059027065677
167	0x3ffbf646ed53c63d	1.7476262350650267
168	0x4003548c9a98c579	2.416283805644238
169	0x40025a42cf7abcae	2.294072743352067
170	0x40053a0561ed63e7	2.6533305788584474
171	0x3fec57e8ad2b7369	0.8857310659619603
172	0x3ff100eecdb976d6	1.0627277408706752
173	0x3fed5e8435b5701e	0.9177876519202106
174	0x3ff5035c752a1488	1.3133205963834218
175	0x3fdb11c0bd0a370f	0.4229585500805663
176	0x3fe06b525683788d	0.5131007852285322
177	0x4001a09506db28f8	2.203409246028169
178	0x4004620524465ac9	2.5478613695116548
179	0x3fe1270b8ea3f3a6	0.5360162530847574
180	0x3fe51a0578fabf1a	0.6594264376526298
181	0x3fdbcd1560584a64	0.4343923035495776
182	0x4005624373fffcb0	2.672980219125371
183	0x40059d61201db4b7	2.701845408350518
184	0x400345a88446850d	2.4090128263493455
185	0x3ffa2d4c4c1b98da	1.6360590908966999
186	0x3ffd32ee2a9cd536	1.8249341644817156
187	0x3fd7dbcb1e72f906	0.3727901265482533
188	0x3ff9f4f8d45267f6	1.6223076146911786
189	0x3fe4d1fad3b793a6	0.6506322989558739
190	0x3ff9265c9d7a6f78	1.5718656684393562
191	0x3fe1572de8acfc60	0.5418920082519314
192	0x3ffd5ef890009ed0	1.8356862664312992
193	0x3ff67beb050915ee	1.4052534290980208
194	0x3fd874ccbd52c4e1	0.3821288918362154
195	0x3fdeb0baff0a6f07	0.479536770880927
196	0x40031c14ee61b595	2.3887117980545534
197	0x3ff0c0fff4e17395	1.0471190992022674
198	0x3ffc335bdc95919d	1.7625387779781712
199	0x3fdb88517d0a0991	0.4301952096067448
200	0x3fda877f81dc9fad	0.4145201461965325
201	0x3fd7b204dd27c2ba	0.3702404174537538
202	0x3fdd4650e8773a01	0.4574167509244092
203	0x3fdb2c0001933806	0.4245605483419016
