Darcy_Flow6D/dataset/Dim6/Beta6_8/DarcyFlow_HoumanC2000_B408_Trace.npz (npz, 712410 bytes, 6 tensors)

beta f8 []
0	0x4018000000000000	6.0

XTrain_Col f8 [2000, 6]
0	0x3fde2cbda87c8381	0.4714807649016209
1	0x3fef47b2c5ac81de	0.9775022373979103
2	0x3fc697599fc15048	0.1764938383154251
3	0x3fda8500dcac910a	0.4143678813000099
4	0x3fe8f6f5239a2053	0.7801461882927562
5	0x3fd00980f35fc710	0.25058006064419747
6	0x3fd5826aa05dc6e3	0.3360849920346551
7	0x3fe9c09a2c29d5d8	0.8047610151831419
8	0x3fcb78eea4a707a6	0.21462805785818978
9	0x3fee04aa76852e62	0.9380695643280428
10	0x3fbfcf91f561d30e	0.12426101914190843
11	0x3fefcf88f95b70b7	0.9940838690049735
12	0x3fd5387c28c50270	0.33157257062342804
13	0x3fc4a56ebde9effc	0.1612986018479886
14	0x3fc015769c89207e	0.12565500872938523
15	0x3fed96f835789dca	0.9246789020880268
16	0x3fd70daa39cba0b9	0.3602090420158777
17	0x3fe4740449b94b5b	0.6391622009199226
18	0x3fc99400ed498cbd	0.19982921205801132
19	0x3feefbd1a1555439	0.9682396079102836
20	0x3fc5f288913f6b47	0.17146403400587415
21	0x3fdbea00dfca6872	0.4361574349837901
22	0x3fcd2d25121a8908	0.22794021018950894
23	0x3feadeaf396b51a2	0.8396831628293067
24	0x3fe6d3f8a525a5da	0.7133753991631082
25	0x3fe3c1b69e5a5901	0.6173966496305924
26	0x3fea04a01a369f50	0.813064624021516
27	0x3fd34898c4602201	0.30130595376297725
28	0x3fe414f10c91dad4	0.6275563474181021
29	0x3fb3c8cfdd3836dd	0.07728289748066737
30	0x3fe46c31fbe601a1	0.638207427968201
31	0x3fee8c4811d60f4b	0.9546242092478477
32	0x3fef523837f39278	0.9787865727235632
33	0x3fe555b53070989e	0.6667123743143468
34	0x3f9424c30c4da7f0	0.019671485544144163
35	0x3fe3a42e06007a7f	0.6137914769386298
36	0x3fb763dd7b1ddfdc	0.09136757140902269
37	0x3fe893c43e01cec2	0.7680379115176594
38	0x3fe080bbd1769338	0.5157145587041674
39	0x3fe382ac51129361	0.609701307625624
40	0x3fc75a99b1658e55	0.18245240365932838
41	0x3fd1d80a1637a275	0.27881099862728514
42	0x3fe7aa11c42d3af2	0.7395104247642321
43	0x3fd474202ca82dd9	0.3195877491095565
44	0x3fdb0e87647f3cb9	0.4227617722908224
45	0x3fe51a3187b53749	0.6594474459213667
46	0x3fe1f1caf13b31f8	0.5607657157466397
47	0x3fb871bb90b2f864	0.0954854229230207
48	0x3fc209b5ef9b797e	0.14092134666038797
49	0x3fdaf6efec397165	0.4213218504790091
50	0x3fe72b15c308f377	0.7240094002987537
51	0x3fd39a11a1ae6db2	0.3062786177558464
52	0x3fbb6a7a7af33ecd	0.10709348203385645
53	0x3fed4ba346b847f2	0.9154831296202686
54	0x3fe374c97d7725a4	0.6080062342163512
55	0x3fe43a04da738363	0.6320823923707447
56	0x3fea928c80baba06	0.8303892626043428
57	0x3fa18520d7f6316a	0.034218813288222474
58	0x3fc6502627ffe3b6	0.17432095482925342
59	0x3fe323d20b303cba	0.5981226175807912
60	0x3feb7fbd8b9fe6e3	0.8593433119815156
61	0x3fe81d543f2f8762	0.7535802110762513
62	0x3fde73cfc2a9c831	0.4758185769088668
63	0x3fdfb853c2009ca2	0.4956254381708708
64	0x3fd6142086dab159	0.3449784581123559
65	0x3fe13da4231def71	0.5387745557668336
66	0x3fef951b9ab0d251	0.9869516392996706
67	0x3fe92c30b4024132	0.7866443172261255
68	0x3fd81652bcf4659d	0.3763624997387412
69	0x3fe264633f6256c6	0.5747543561908166
70	0x3feae483d4331bd7	0.8403948921703613
71	0x3fe6fdc8f6f9f659	0.7184796165235624
72	0x3fdf7413b4f12fb6	0.49145977659349727
73	0x3fdd77076403094d	0.4603899456671073
74	0x3fbde8e405516f96	0.11683488015972751
75	0x3fe302753a43f9d9	0.5940500391005187
76	0x3fe0b5c70f8db19e	0.5221896461276179
77	0x3fe4c095d60aed19	0.6485089474221325
78	0x3fd9f3d336805884	0.40550690004727863
79	0x3fefa76e7584587d	0.9891884131673262
80	0x3fa9a03618abaa6a	0.05005044032244117
81	0x3fc71e8fc9af5d7d	0.18062016818906193
82	0x3fdfb7c109523fdc	0.49559045706064153
83	0x3fdb6f0b2c0eba14	0.42865256597988943
84	0x3fec9710f14a817a	0.893440696021613
85	0x3fe5c496289b45a5	0.6802473824592893
86	0x3fe71a49577a835f	0.7219588001790774
87	0x3fdd5e969762e061	0.45889820846378454
88	0x3fd1f3bab12fa282	0.280501053841853
89	0x3fe72c027edc88b7	0.7241222837222016
90	0x3fd471c39297b3ad	0.31944360080415884
91	0x3fe4ae46a3a74c50	0.6462739178044874
92	0x3fe8ce9448fc264d	0.7752171922194947
93	0x3fcccd9db0e363a8	0.22502490174408973
94	0x3fea06b9e5dca48c	0.8133210649003941
95	0x3fed2c577786627f	0.9116628012153142
96	0x3fe88e956e02bc85	0.7674052380224486
97	0x3febf86c62679f7d	0.8740751192062671
98	0x3fcaf6e9c20b27b1	0.21066019034179598
99	0x3fd8d0454fb41e74	0.38771183761171035
100	0x3f957e2641a898c6	0.020989034421426543
101	0x3fed5a5a3920108e	0.9172793498733129
102	0x3fd6c1ee67bb803f	0.3555866253864259
103	0x3fb13b3af0835801	0.06731003162289541
104	0x3fddfae25530742e	0.4684377510000698
105	0x3fdc8cde3f83f8de	0.4460979099529946
106	0x3fd966bb836e2c7d	0.39689529261585915
107	0x3febda05c10c19cf	0.8703640718893498
108	0x3fe2d51119ded379	0.5885091309815912
109	0x3feda8a8d93ba38a	0.9268383257705051
110	0x3fec9bc33b5de667	0.8940139922626259
111	0x3fca9ed69dfa60ba	0.2079723616959706
112	0x3fe5caa0ba98e11e	0.680984844634654
113	0x3fe0e57ae2949112	0.5280126977345694
114	0x3fdc2911b6e22aa1	0.4400066648455923
115	0x3fea8cd28ba197b9	0.8296902396366398
116	0x3fe0181e25855864	0.5029440625028312
117	0x3feabf32208c98e4	0.8358393321730344
118	0x3fb34f275417863f	0.07542653849625312
119	0x3fd92c3383f82eb7	0.39332282912867406
120	0x3feeecfa7bbe0f24	0.9664280335277664
121	0x3fe90c3cc0a141ca	0.7827438127806599
122	0x3fb954bb17fe128a	0.09894913993600532
123	0x3fcef30c522ad7ca	0.241792240258006
124	0x3fe729634a7995fd	0.723802228411557
125	0x3fd951349e1e7496	0.3955813926821262
126	0x3fa5fd50b92ee496	0.04294826756035623
127	0x3fd804f82e530bf8	0.37530331157557795
128	0x3fc17e60245bc989	0.13666917586631325
129	0x3fd568c5ef9bf955	0.3345198478636083
130	0x3fea77ad4e7061d7	0.8271090061198788
131	0x3fc6cda2e1198516	0.17815052024074224
132	0x3fe103feb4bf0941	0.5317376642417814
133	0x3fedf8b11a582871	0.9366078867472095
134	0x3fdcfe5ede05232f	0.453025547806237
135	0x3feb4c7eb8a4dbc2	0.853087769158144
136	0x3f832567acd6448d	0.00934868808943381
137	0x3fc486bf900c66fb	0.16036219152083916
138	0x3fda7e8aaf9572c1	0.41397349497655617
139	0x3fee88db1f958423	0.9542060486675193
140	0x3fed0ab228bda077	0.9075556560246828
141	0x3feef87af0ccfb81	0.9678320601595801
142	0x3fdb2c6b9300aa77	0.4245861945698048
143	0x3feeb5b8ee3c0b0e	0.9596829083460265
144	0x3fdccb0cbce24b8c	0.44989317365360004
145	0x3fe2db154ada6406	0.5892435514425649
146	0x3fd067674544708a	0.25631124271763694
147	0x3f875e376d44f1c8	0.011410172483572803
148	0x3fd4c6d2ba0d9397	0.3246352021145013
149	0x3fcb40438f18151a	0.21289867865576967
150	0x3fef5719814b837d	0.9793822789471133
151	0x3fe77f0bad6365ac	0.7342584978570605
152	0x3fd4915243a2b2a6	0.32136971097024014
153	0x3fc0bb4f03f35edf	0.1307162064829219
154	0x3fd16de53b16d6d3	0.27233248491698453
155	0x3fa21ed09fe48d59	0.03539134933296379
156	0x3fd1406a4399973d	0.26955658532675725
157	0x3fea4b1da8c289f9	0.8216694160549302
158	0x3fe140b13ff4e60c	0.5391470193055183
159	0x3fd68685459f461b	0.35196048544921305
160	0x3fe8179cc3808948	0.7528823679352081
161	0x3fd837300f1a6c35	0.37836839175151066
162	0x3fecfec8bea3df85	0.9061015819015529
163	0x3fd5e3e8b1e79bbc	0.3420354592657835
164	0x3fddecf0cab952b4	0.4675867061353458
165	0x3fcc35f856c49f6d	0.220397035948959
166	0x3fedc82343a44874	0.9306808777930784
167	0x3feb54d6c89a824b	0.8541063230550859
168	0x3feedcdd909080c8	0.9644611190342625
169	0x3fd79e337811158e	0.3690308258558951
170	0x3fc751456dffe792	0.18216770049167202
171	0x3fe74b70913ced30	0.7279589497260641
172	0x3fcedfb6875dcd9c	0.24120217904747399
173	0x3fadfc4e65ad833b	0.05856556883987315
174	0x3fe6fdba89cf5a3d	0.7184727374649992
175	0x3fe1bbc43df54e30	0.5541707239266938
176	0x3fd81cb0b65a94ff	0.3767511158751659
177	0x3fe55c1c54b8a1f5	0.6674939779960015
178	0x3fc209bb67b9a74c	0.14092199864108534
179	0x3fe0f3bf68a40217	0.5297543567431288
180	0x3fd2036e10ce54e1	0.2814593471642422
181	0x3fd7dff1597f8e96	0.3730433820730722
182	0x3fd82dfe9701231e	0.3778072809841876
183	0x3fdfcb471f8b9569	0.4967820938166683
184	0x3fc1328dfeae3504	0.1343553060109245
185	0x3fe223680fc2d379	0.5668220813591766
186	0x3fb6abba083895b7	0.08855784130772447
187	0x3fce6eb172d83b0b	0.23775308711670848
188	0x3fc62c750989389f	0.1732317253649329
189	0x3fea441a733f52f9	0.820813393681049
190	0x3f9a9ed5e5c8ee18	0.025996534490543594
191	0x3fe0184fb5bdc161	0.5029676961549222
192	0x3fdfaffae35dbaca	0.4951159687397363
193	0x3fe12f457f1368e6	0.5370204431485746
194	0x3fa142d284ae5555	0.033712938972864016
195	0x3fe67eebbff0a5a0	0.7029932736233384
196	0x3fa1fc4c87a78a09	0.03512801319063292
197	0x3feff8e66e0c63b5	0.9991333150274985
198	0x3fc145b850736bfa	0.13494018486275633
199	0x3fe4de1787c92813	0.6521108295503403
200	0x3fe72a4aad52b081	0.7239125619139629
201	0x3fda57036db8f020	0.4115608760364484
202	0x3fe78a79a316fea5	0.7356537041996104
203	0x3fd920ead5192c1d	0.3926341134107945
204	0x3fed27baab185d59	0.9110997525885224
205	0x3fc86e4ec37084e3	0.19086632292695702
206	0x3fe6658ce32ff6e5	0.6998962819340845
207	0x3fb357ac136e8a49	0.0755565211716568
208	0x3fe6e413b65469c2	0.7153414307716093
209	0x3fe244f44864a0af	0.570917264359215
210	0x3fdaf5295fb89002	0.4212134775900723
211	0x3fe0b64a84abb8d3	0.5222523299433085
212	0x3fd472aa5516ebd8	0.3194986182167532
213	0x3fe6b0239f6ff554	0.7090013612757198
214	0x3fa3124ed6cc4871	0.03724905368848475
215	0x3fcd261478d468e9	0.22772460842026668
216	0x3fcdbc74b1ca6512	0.23231371575528975
217	0x3fd489be87a53a42	0.32090724226592127
218	0x3fbadca1e27938c2	0.1049290826715348
219	0x3fec3f08e8de40f5	0.882694678135549
220	0x3fe25f30dcb95dff	0.5741199790017503
221	0x3fc90078733740f8	0.19532685876630018
222	0x3fca3d8db8d9dd24	0.20500346685342052
223	0x3fe975cbe4aa256a	0.7956294504266854
224	0x3fe4eb28f382a557	0.6537060504971731
225	0x3fb439a891a6a6d7	0.07900479846889695
226	0x3fa975e709d37b55	0.04972764964053648
227	0x3fe8c2ccd0173124	0.7737793030042082
228	0x3fefc9773407b2d1	0.9933429733478879
229	0x3fd39e08feeff1d1	0.3065206994649801
230	0x3fc7ea53a36edefc	0.18683858375674578
231	0x3fd1934c14531a41	0.27461530670953854
232	0x3fd349082747cc59	0.3013325103376637
233	0x3fe09c11d56f8e20	0.519051472536777
234	0x3fee8f33db8c587d	0.9549807823230051
235	0x3fc56dec20645c1c	0.1674170644916736
236	0x3fdf2b0b215e0b87	0.4870021653988989
237	0x3fd37d9889342fdc	0.3045407619363212
238	0x3fd4758b36024e8d	0.3196743037635564
239	0x3fd6d3fa83fa3805	0.35668814552707345
240	0x3fe86b1ac2b12a87	0.7630742838458254
241	0x3fd8cb7b2d080e53	0.38741950414280274
242	0x3facd32510e3762f	0.05629840689810483
243	0x3fef97434daa66dc	0.9872147099406123
244	0x3fe7d0706761c4f1	0.7441942233255344
245	0x3fe4166861abb8a3	0.627735319865469
246	0x3fb11ee55b50efb2	0.06687768439672828
247	0x3fc02b13ed42c99f	0.12631463131908746
248	0x3fc51132214cfc0b	0.1645872747994591
249	0x3fd49dfb34cc8f22	0.3221424117675601
250	0x3fe2380fca60a0cf	0.5693434670147556
251	0x3fd7e8e9d5064c76	0.3735909061735535
252	0x3fd6a628334bec86	0.353891420454325
253	0x3fd958a81162ac1f	0.39603616426274074
254	0x3fec0e2daf8ae3fd	0.8767307690205822
255	0x3fef955cb0a2ad97	0.9869826745902398

FTrain_PDE f8 [2000, 6, 6]
0	0xbfebe72e6cadf69a	-0.871970379128203
1	0xc000ef31ea5fe000	-2.1167944250591972
2	0xbfd9bb967925f697	-0.40207444983375623
3	0xbfefedac8ec032dd	-0.9977629459477516
4	0xbffc97435f2180b1	-1.786929484944306
5	0xbfe2f1b1af9904cd	-0.592003672565761
6	0xc000ef31ea5fe000	-2.1167944250591972
7	0xc00dfcd5cc1c5f15	-3.7484546610029477
8	0xbfe908c2bbbf7756	-0.782319418616434
9	0xbffdea398562b07e	-1.869683762585765
10	0xc00a7b553b4b67d5	-3.310221160162636
11	0xbff210717f001b25	-1.1290144883111648
12	0xbfd9bb967925f697	-0.40207444983375623
13	0xbfe908c2bbbf7756	-0.782319418616434
14	0x3fc5a5d488d88a67	0.16912323648382996
15	0xbfd6623445172c7e	-0.3497439074241767
16	0xbfe4f42bc6e1958d	-0.6548060306928832
17	0xbfc8b0b49925ad1a	-0.19289262273682867
18	0xbfefedac8ec032dd	-0.9977629459477516
19	0xbffdea398562b07e	-1.869683762585765
20	0xbfd6623445172c7e	-0.3497439074241767
21	0xbfe38068f95b37ef	-0.6094250555267972
22	0xbff93c938e5852a1	-1.5772891579009995
23	0xbfe09443521bad76	-0.5180985072778828
24	0xbffc97435f2180b1	-1.786929484944306
25	0xc00a7b553b4b67d5	-3.310221160162636
26	0xbfe4f42bc6e1958d	-0.6548060306928832
27	0xbff93c938e5852a1	-1.5772891579009995
28	0xc004ba679e199c1e	-2.5910179473462582
29	0xbfee5da3495f5ff9	-0.9489304001863267
30	0xbfe2f1b1af9904cd	-0.592003672565761
31	0xbff210717f001b25	-1.1290144883111648
32	0xbfc8b0b49925ad1a	-0.19289262273682867
33	0xbfe09443521bad76	-0.5180985072778828
34	0xbfee5da3495f5ff9	-0.9489304001863267
35	0xbf89c6dafaee9a14	-0.01258631780895051
36	0xc004030d5ad92769	-2.501490316154492
37	0xc0036505d8b93cbf	-2.4243275577096877
38	0xbfd3ecf208abcd2a	-0.3113370022467331
39	0xc0063ff876c8dc5d	-2.7812356262252664
40	0x3fae5797dc64d580	0.05926203313212408
41	0xc0074f629dc29856	-2.913762314320631
42	0xc0036505d8b93cbf	-2.4243275577096877
43	0xc01cec26fd7d960e	-7.230617485799952
44	0xbff5ca92671190f2	-1.3619560266607178
45	0xc01b0965dde989e2	-6.759177653674188
46	0xbfe1aafe26843536	-0.552123141505638
47	0xc01c31f20df30dcf	-7.048774927100978
48	0xbfd3ecf208abcd2a	-0.3113370022467331
49	0xbff5ca92671190f2	-1.3619560266607178
50	0xbffc2cbb5e710444	-1.760920876419065
51	0xbff97aadb65e94c8	-1.5924508212859099
52	0x3fcef8e74aab9c7a	0.2419709314919805
53	0xbffad93e3f751a90	-1.67803787982999
54	0xc0063ff876c8dc5d	-2.7812356262252664
55	0xc01b0965dde989e2	-6.759177653674188
56	0xbff97aadb65e94c8	-1.5924508212859099
57	0xc02166051077916a	-8.699257387729364
58	0xbfe5f5cc487c5b50	-0.6862546363580382
59	0xc01fd2e56da6ba69	-7.955953324605255
60	0x3fae5797dc64d580	0.05926203313212408
61	0xbfe1aafe26843536	-0.552123141505638
62	0x3fcef8e74aab9c7a	0.2419709314919805
63	0xbfe5f5cc487c5b50	-0.6862546363580382
64	0xbff68e8ed2b96f18	-1.4098041755123116
65	0xbfe78dce17bb98bf	-0.7360601867228737
66	0xc0074f629dc29856	-2.913762314320631
67	0xc01c31f20df30dcf	-7.048774927100978
68	0xbffad93e3f751a90	-1.67803787982999
69	0xc01fd2e56da6ba69	-7.955953324605255
70	0xbfe78dce17bb98bf	-0.7360601867228737
71	0xc0228dd35b8fcd63	-9.277003155998221
72	0x4006884c79e4323e	2.816552116657731
73	0x3feafcd64a69fd71	0.8433639005087753
74	0x3ff075127d4a9aef	1.0285820860096313
75	0xc0040b8599fadbb2	-2.5056259183579295
76	0xbfc5004c2c6164b8	-0.16407158057226012
77	0xbff720c813383ab0	-1.4455033064620402
78	0x3feafcd64a69fd71	0.8433639005087753
79	0x4010eff92d7a13b6	4.234348974777211
80	0x3ff5caa5e5c3b505	1.3619746184515986
81	0xbfd86c852bbc2600	-0.38162354727737124
82	0x3fe8c12afa432009	0.7735800636228315
83	0x3fc218f7983ff448	0.14138693746636677
84	0x3ff075127d4a9aef	1.0285820860096313
85	0x3ff5caa5e5c3b505	1.3619746184515986
86	0x4011a63b31dd5df3	4.412335185180825
87	0x3fb299e33b04d000	0.07266063872231143
88	0x3fef2c0a8e2858f1	0.9741261269107594
89	0x3fdec54fba9878cc	0.4807929346296873
90	0xc0040b8599fadbb2	-2.5056259183579295
91	0xbfd86c852bbc2600	-0.38162354727737124
92	0x3fb299e33b04d000	0.07266063872231143
93	0xc01b26ac5f4d5ba0	-6.787766923042824
94	0xc006d209f62fda28	-2.8525580628732037
95	0xc017fb6a3f78b149	-5.995522491208541
96	0xbfc5004c2c6164b8	-0.16407158057226012
97	0x3fe8c12afa432007	0.7735800636228313
98	0x3fef2c0a8e2858f1	0.9741261269107594
99	0xc006d209f62fda28	-2.8525580628732037
100	0x4003f13f1d4e077b	2.4927961625516537
101	0xbffb4677df89a1fb	-1.7047041637362088
102	0xbff720c813383ab0	-1.4455033064620402
103	0x3fc218f7983ff448	0.14138693746636677
104	0x3fdec54fba9878cc	0.4807929346296873
105	0xc017fb6a3f78b14a	-5.995522491208542
106	0xbffb4677df89a1fb	-1.7047041637362088
107	0xbffa4958b8aa1e74	-1.6429068768938153
108	0x3fda189e767c853f	0.40775262423456476
109	0xbff25c70a489554e	-1.1475683619695078
110	0xbfc550b3a01a4711	-0.16652531926643424
111	0xbfe16e575e06569c	-0.544719394342525
112	0xbfcff44577f6a644	-0.24964207036582498
113	0xbff073ae42341d6d	-1.0282423578335866
114	0xbff25c70a489554e	-1.1475683619695078
115	0xc012c1eb4652377c	-4.689374064224349
116	0xbfef29728b290555	-0.9738095014546767
117	0xc004591f96f0343f	-2.5435172836355657
118	0xbff519c1f6c57d0c	-1.3187884940633152
119	0xc012339b1760d279	-4.550396313938671
120	0xbfc550b3a01a4711	-0.16652531926643424
121	0xbfef29728b290555	-0.9738095014546767
122	0x3fdf4a0659e9da36	0.4888931158124338
123	0xbfdd28ea82926d67	-0.4556223178021441
124	0xbfc9daa0eb77183c	-0.20198451516461258
125	0xbfebe1352f7c0c4d	-0.8712411811287751
126	0xbfe16e575e06569c	-0.544719394342525
127	0xc004591f96f0343f	-2.5435172836355657
128	0xbfdd28ea82926d67	-0.4556223178021441
129	0xbfe61a4ebe627118	-0.6907113760421764
130	0xbfe43d8f7ac2fca1	-0.6325147054375472
131	0xc00251065d000baf	-2.2895629182471207
132	0xbfcff44577f6a644	-0.24964207036582498
133	0xbff519c1f6c57d0c	-1.3187884940633152
134	0xbfc9daa0eb77183c	-0.20198451516461258
135	0xbfe43d8f7ac2fca1	-0.6325147054375472
136	0x3fd435de9487a0b9	0.31578793053496274
137	0xbff2ed5c9bd15275	-1.182949646628143
138	0xbff073ae42341d6d	-1.0282423578335866
139	0xc012339b1760d279	-4.550396313938671
140	0xbfebe1352f7c0c4d	-0.8712411811287751
141	0xc00251065d000baf	-2.2895629182471207
142	0xbff2ed5c9bd15275	-1.182949646628143
143	0xc00d7714346cbf5a	-3.683144006317815
144	0xc0012ddeb4326e9e	-2.147397430218759
145	0xc0006fedbec76f45	-2.054652681790602
146	0xc004bd092c8fe6b8	-2.592302654401319
147	0xbff06ad4325b281a	-1.0260812727960968
148	0xc000ad8dc7c0a507	-2.0847430806794622
149	0xbfcce29ac506e1b2	-0.22566542263463202
150	0xc0006fedbec76f45	-2.054652681790602
151	0xbff9d5325e4512c4	-1.6145499880232572
152	0xc0024b87525ad5f7	-2.2868791994067084
153	0xbfecd775d03b0e36	-0.9013012949948862
154	0xbffd67dffb379801	-1.8378600896044193
155	0xbfc8bae1293c94f7	-0.19320311082370953
156	0xc004bd092c8fe6b8	-2.592302654401319
157	0xc0024b87525ad5f7	-2.2868791994067084
158	0xc005be446f5094e9	-2.717903966566713
159	0xbff25270b8aeacfe	-1.1451270307687191
160	0xc0028fef4d4ea7df	-2.3202806510571317
161	0xbfd06cb926b68cb3	-0.2566359403665032
162	0xbff06ad4325b281a	-1.0260812727960968
163	0xbfecd775d03b0e36	-0.9013012949948862
164	0xbff25270b8aeacfe	-1.1451270307687191
165	0xbfca2c9675ac15e8	-0.20448570962632506
166	0xbfed473fb6c1e25a	-0.9149473733405771
167	0xbfb264cc63874e50	-0.07185056142707791
168	0xc000ad8dc7c0a507	-2.0847430806794622
169	0xbffd67dffb379801	-1.8378600896044193
170	0xc0028fef4d4ea7df	-2.3202806510571317
171	0xbfed473fb6c1e25a	-0.9149473733405771
172	0xbffab6ac8c725daf	-1.6695981489373073
173	0xbfc92f35aecae0a5	-0.19675322565831724
174	0xbfcce29ac506e1b2	-0.22566542263463202
175	0xbfc8bae1293c94f7	-0.19320311082370953
176	0xbfd06cb926b68cb3	-0.2566359403665032
177	0xbfb264cc63874e50	-0.07185056142707791
178	0xbfc92f35aecae0a5	-0.19675322565831724
179	0x3fd0d66924057c85	0.2630865909358778
180	0x40310463001001f8	17.01713562384427
181	0x40358ee2191a0951	21.558137482506314
182	0x4035b4220ce229d1	21.70364456674162
183	0x4033765150e7e303	19.46217828427599
184	0x402a3a809b31b95b	13.11426243764861
185	0x4033032492e6b893	19.012276822403305
186	0x40358ee2191a0951	21.558137482506314
187	0x40372bf3aa3c3e71	23.171686782558428
188	0x4038f521f390ddb6	24.957549307697
189	0x4035e3179eba9fb4	21.88707916313406
190	0x402a61fe561edf7f	13.191393557804757
191	0x40354551fa61c047	21.270782135834704
192	0x4035b4220ce229d1	21.70364456674162
193	0x4038f521f390ddb6	24.957549307697
194	0x4037a0d6ade507b0	23.62827574578813
195	0x403609c21a77c9e4	22.038118032689354
196	0x402a6474098bc3b8	13.196197794257259
197	0x403569553b6b49de	21.411456788724415
198	0x4033765150e7e303	19.46217828427599
199	0x4035e3179eba9fb4	21.88707916313406
200	0x403609c21a77c9e4	22.038118032689354
201	0x40318dd5310aa0b5	17.554034295172375
202	0x402a3e8fccb7a87c	13.122190854472358
203	0x40333e9314ae9c99	19.24443177474004
204	0x402a3a809b31b95b	13.11426243764861
205	0x402a61fe561edf7f	13.191393557804757
206	0x402a6474098bc3b8	13.196197794257259
207	0x402a3e8fccb7a87c	13.122190854472358
208	0x402455f0a55ff84c	10.167851608243062
209	0x402a36f4cadd2063	13.107336368077261
210	0x4033032492e6b893	19.012276822403305
211	0x40354551fa61c047	21.270782135834704
212	0x403569553b6b49de	21.411456788724415
213	0x40333e9314ae9c99	19.24443177474004
214	0x402a36f4cadd2063	13.107336368077261
215	0x403090b6b07a970c	16.56528761856957
216	0x402506da95d84e31	10.513386423735115
217	0x401a1fc5719e589b	6.5310266259095
218	0x401a3be8c6e9674b	6.5585051612814125
219	0x401a30d0f34578f5	6.547672082057251
220	0x401a676c54d09011	6.600999188642178
221	0x401a5a554c61c14b	6.588216012445922
222	0x401a1fc5719e589b	6.5310266259095
223	0x4021717587484b1a	8.721599795889734
224	0x401874923ad384f3	6.113839072380176
225	0x4018201b29b6adf0	6.031353618407124
226	0x4019bfe540aca8b9	6.437397966898225
227	0x40195c39bfb7eacc	6.340064044571317
228	0x401a3be8c6e9674b	6.5585051612814125
229	0x401874923ad384f3	6.113839072380176
230	0x402356be21ea7748	9.669419345733004
231	0x4018d0b3101fb006	6.203808071073587
232	0x4019f7d9e054a640	6.492042069593992
233	0x4019b1197b2fc121	6.42294876555414
234	0x401a30d0f34578f5	6.547672082057251
235	0x4018201b29b6adf0	6.031353618407124
236	0x4018d0b3101fb006	6.203808071073587
237	0x4022b17318f650aa	9.346581249301682
238	0x4019e1ca91334c3e	6.4704992950019555
239	0x40198fa396192ba2	6.390272469793588
240	0x401a676c54d09011	6.600999188642178
241	0x4019bfe540aca8b9	6.437397966898225
242	0x4019f7d9e054a640	6.492042069593992
243	0x4019e1ca91334c3e	6.4704992950019555
244	0x4024db1e6fb683f3	10.427966586141315
245	0x401a345a3617f50a	6.551125378811102
246	0x401a5a554c61c14b	6.588216012445922
247	0x40195c39bfb7eacc	6.340064044571317
248	0x4019b1197b2fc121	6.42294876555414
249	0x40198fa396192ba2	6.390272469793588
250	0x401a345a3617f50a	6.551125378811102
251	0x40248e35cb8df754	10.277754174308633
252	0xc0129b3fd8712b99	-4.651610738665931
253	0xc004208b75506e4a	-2.5158909955187356
254	0xc00c97ac522a1626	-3.5740591448873316
255	0xc01735d72b25a700	-5.802578615353696

XTrain_Boundary f8 [408, 6]
0	0x0000000000000000	0.0
1	0x3f9792b2e453c81e	0.023020548997870198
2	0x3fc804230059d6dd	0.18762624280105103
3	0x3fe08340ca47911d	0.5160221052906625
4	0x3fe151c1765a38b8	0.541229945332609
5	0x3fa9c6f1c1b31656	0.0503459500264795
6	0x0000000000000000	0.0
7	0x3fc5cf609a91ce2b	0.1703911547407285
8	0x3fb81ec6c8b0cbf6	0.09421961211846494
9	0x3fe33f68edc2ebfb	0.6014904636170962
10	0x3fee5bd3937a3435	0.9487092857758684
11	0x3fe98aeeff8b20e9	0.7982096663554589
12	0x0000000000000000	0.0
13	0x3fe1664de7d428f8	0.5437383201508785
14	0x3fe52526a40dae6b	0.6607850269478609
15	0x3fe4418b16ca140c	0.6330008931259967
16	0x3fd467839cfb8819	0.3188180001290007
17	0x3fef571153241a31	0.9793783782814157
18	0x0000000000000000	0.0
19	0x3fd2c8415acdb930	0.29347261302509065
20	0x3fe13cce6ac8b491	0.5386726461052992
21	0x3fa3cccefda24e00	0.038671940289670914
22	0x3fe7d10c5b1a8e19	0.7442685870523206
23	0x3fc379f3c07601f0	0.15215918443210752
24	0x0000000000000000	0.0
25	0x3fc7d064721a8730	0.18604713031259612
26	0x3fe09694ca801e50	0.5183814959609183
27	0x3fbf6a671cd8e90b	0.12271732763557368
28	0x3fe04d3161d138a9	0.509422961282117
29	0x3feebe5615365408	0.9607344068814436
30	0x0000000000000000	0.0
31	0x3fb60befed251057	0.08611964740436072
32	0x3fe8390d07819bc1	0.756964220677098
33	0x3fd557fbac39c250	0.33349506205471346
34	0x3fe9dfeedc8bf046	0.8085855777312723
35	0x3fe43e559f8995cd	0.6326091876950898
36	0x0000000000000000	0.0
37	0x3fefb47eabcd0dbe	0.990783057736216
38	0x3fe30cbaff5e31a8	0.5953040111212902
39	0x3feef68cdd977944	0.9675964668238426
40	0x3fde86185792956f	0.4769345145417309
41	0x3fd3f6ecf80951b4	0.31194614622406935
42	0x0000000000000000	0.0
43	0x3fea9e9962d25d3a	0.8318602495300305
44	0x3fd1f05330ad23f9	0.28029327157543055
45	0x3fc5e9716c140f7d	0.1711866166807531
46	0x3fbe7e1d869dcc6f	0.1191118672993967
47	0x3fb2171c8f52aed8	0.07066515444847299
48	0x0000000000000000	0.0
49	0x3fdc19a44b5d5c95	0.43906504974206345
50	0x3feb7440124dac6e	0.8579407079208872
51	0x3fb67ed5a6f4e495	0.0878728420838278
52	0x3fcd9084b8598a92	0.23097285272077223
53	0x3fe87baea8928b72	0.7650979320936655
54	0x0000000000000000	0.0
55	0x3fddf03ef823694f	0.4677884505487286
56	0x3fc1488ea3cd2338	0.13502676962004911
57	0x3fb81e3143d359a3	0.09421070009134395
58	0x3febb7424d6151f1	0.8661204825717147
59	0x3fd5ddeb7bd6d5d0	0.34166991323158147
60	0x0000000000000000	0.0
61	0x3febaf3fffac9c0f	0.86514282165888
62	0x3fe64dac7753ff02	0.6969816523196359
63	0x3fc9e71b37fac80d	0.20236530526523247
64	0x3fed250c03c178f2	0.9107723306040312
65	0x3feaa50c8586382a	0.8326475723167779
66	0x0000000000000000	0.0
67	0x3fdf0c893fd3c4f3	0.48514014466407146
68	0x3fcd48ab05fa0948	0.22878015319663292
69	0x3fe4d7ad279356c1	0.6513276837310614
70	0x3f9628d0f2e81035	0.02164007647117235
71	0x3fe03b1655e84ead	0.5072127988700764
72	0x0000000000000000	0.0
73	0x3fe5b382023a3723	0.6781625789169293
74	0x3fda2bbe9e6fb622	0.40891995880415
75	0x3fec6f78728fd21b	0.8886072385344649
76	0x3fea8b3080b6a2f7	0.8294909013685289
77	0x3fd9bb375d442cb8	0.4020517741016181
78	0x0000000000000000	0.0
79	0x3fec548aa5fea73c	0.885320018967128
80	0x3fd435136ce481b8	0.31573949464839357
81	0x3fe637cebbe4e786	0.6943124456222314
82	0x3fe943829675eb95	0.7894909800228215
83	0x3fbc824bb9675182	0.11136315609411976
84	0x0000000000000000	0.0
85	0x3fd00a9eaf261fc9	0.2506481848181435
86	0x3fed235aa1e822ac	0.9105656778566149
87	0x3fe10335c700eba1	0.5316418539799664
88	0x3fc512632aee33d9	0.16462363811697747
89	0x3fdde21fcf5e75ea	0.46692652941587076
90	0x0000000000000000	0.0
91	0x3fe539026c0e13be	0.663209162754917
92	0x3fea27e573f3b30a	0.817370153874067
93	0x3fdfd93bee0205be	0.4976339172645473
94	0x3fef126242fb1c4b	0.9709941204281533
95	0x3fccd271dab87db7	0.22517226390571718
96	0x0000000000000000	0.0
97	0x3fe82ef1d0b00dde	0.7557305408412807
98	0x3fe25e72aa222f99	0.5740292857094459
99	0x3fe254689730b6d0	0.5728037789283125
100	0x3fe745453d05160b	0.7272058669847764
101	0x3fe4c38f7105890f	0.6488721091703001
102	0x0000000000000000	0.0
103	0x3fe00db3cea5a8e5	0.5016726528240524
104	0x3fe773ad0abd3ee6	0.7328705987692643
105	0x3fe9053ff1af917c	0.7818908424783753
106	0x3fe460e84aef4f74	0.6368295157976562
107	0x3f70ad1eb128a2da	0.004071349993446128
108	0x0000000000000000	0.0
109	0x3fe4a321a934a183	0.6449135117336912
110	0x3fdd443a4469a872	0.4572892826169045
111	0x3fdd0d8eb7a46ca8	0.4539524834996862
112	0x3fb24a31fbd9eafe	0.07144462965690576
113	0x3fecd6f367e029b3	0.9012391117878934
114	0x0000000000000000	0.0
115	0x3fbdd3f71816fc6c	0.11651558244828814
116	0x3fd4ca738a00fe7e	0.32485664822522853
117	0x3fea180fa0b3ba13	0.8154371393882819
118	0x3fd50fa842f01a55	0.3290806440058181
119	0x3fe78a8898155aec	0.7356608362559576
120	0x0000000000000000	0.0
121	0x3fa374cd261e2f0a	0.038000498679222686
122	0x3fe43a6405c05200	0.6321277725533605
123	0x3fcb92ffff03612a	0.21542358352486107
124	0x3fa44e73d690381a	0.03966104501897423
125	0x3fd75d2bb0f25ef0	0.3650616863246645
126	0x0000000000000000	0.0
127	0x3fd513116b07c5ef	0.32928882076438887
128	0x3fceb8ba1336c931	0.24001241625007588
129	0x3fd24e02325db6b5	0.2860112659317154
130	0x3fe37b161547c1cb	0.6087751784926295
131	0x3fe699cc0d8d8cbb	0.7062740578370702
132	0x0000000000000000	0.0
133	0x3fd8ae1c227054b4	0.3856268249813397
134	0x3fdfe55cf93c864b	0.49837421741003557
135	0x3fef116365c4b32b	0.9708725917495021
136	0x3fed9641cdc9acad	0.924591924599914
137	0x3fe15705a0b19dca	0.541872800688844
138	0x0000000000000000	0.0
139	0x3fe3401d066aa664	0.6015763402294394
140	0x3fa8f487cd7de79a	0.04874061950154314
141	0x3fce49759166aac4	0.23661679839763938
142	0x3fe4b536b5b5423e	0.647120814226646
143	0x3fdf553fbc52437a	0.4895781840396506
144	0x0000000000000000	0.0
145	0x3fe9f5de8e3a43dc	0.8112633493311665
146	0x3feaa9b609f946be	0.8332166857528234
147	0x3feae47280e8b6c1	0.8403866307978306
148	0x3fbb6be352c5d306	0.10711498995608446
149	0x3fe29030ed672654	0.5801014553810071
150	0x0000000000000000	0.0
151	0x3fd43e8543539852	0.31631595206124985
152	0x3fe8d5b1ce04b946	0.7760857604787723
153	0x3fe6dc21d5395577	0.7143716015367961
154	0x3fd9ce768d97cde7	0.40322650744857785
155	0x3fd10411e17c95d6	0.2658734037416627
156	0x0000000000000000	0.0
157	0x3fcbb3312572e8c8	0.21640600517804942
158	0x3feef6213f68a2bc	0.9675451506091899
159	0x3fec3535fac99ae5	0.8814954660600419
160	0x3fe67d2d1cc6a2a5	0.7027803003339456
161	0x3fec0b690b25eb04	0.876392862104098
162	0x0000000000000000	0.0
163	0x3fed40bc34b4f7ff	0.9141522435600108
164	0x3fedc30a8d735ecf	0.9300587427814778
165	0x3fd7bd74a707d03f	0.37093845664572095
166	0x3fe228ba75eb72cc	0.567471723854021
167	0x3fdc277956f4fc87	0.43990930072681816
168	0x0000000000000000	0.0
169	0x3fd6a412cfdbc426	0.35376425074270157
170	0x3f9868dd9ba66738	0.02383753073227199
171	0x3fed516005ed968b	0.9161834827215939
172	0x3fc8375524a09f9c	0.18918861664246556
173	0x3fcf68a93c591e1a	0.24538150259671526
174	0x0000000000000000	0.0
175	0x3fe93e1405897b06	0.7888279064316925
176	0x3fd78190fed01da1	0.3672831047446952
177	0x3f9d338b42ae0bab	0.028516937203231823
178	0x3fdadca7ed78f8cb	0.41971777144125316
179	0x3fe364764a0e3a87	0.6060134359739359
180	0x0000000000000000	0.0
181	0x3feef3e18c40a495	0.9672706355387556
182	0x3fc34f6363253fa4	0.15086023655976277
183	0x3fdbbeaad5daee7c	0.4335124100141241
184	0x3fcf7eadca02a217	0.24605343211921202
185	0x3fe623ca5e9e454f	0.6918689582836722
186	0x0000000000000000	0.0
187	0x3fbfc257b7ff25f5	0.12405918352228425
188	0x3fda90e34c3bb177	0.4150932545151344
189	0x3fd8cfa6608bd993	0.387673944743619
190	0x3fd0f9bdc575e38e	0.26524299891712466
191	0x3fc7824b3058029f	0.1836637483647978
192	0x0000000000000000	0.0
193	0x3fe2a02c8618c01e	0.5820524806094942
194	0x3fefa50a8bdcedf5	0.9888966304492316
195	0x3fd32ccd7454809d	0.2996095310245524
196	0x3fd85eed0d29e5a5	0.3807938221503611
197	0x3fbe638405b58795	0.1187059892595513
198	0x0000000000000000	0.0
199	0x3fe74ecd3d1dbe37	0.7283693498301947
200	0x3fb137512962e6a1	0.06725032101067054
201	0x3fe8476b466b30d8	0.7587181449285039
202	0x3fdd380a70a34298	0.45654545783785627
203	0x3fee077bf5071b3d	0.9384135995577264
204	0x3ff0000000000000	1.0
205	0x3f9792b2e453c81e	0.023020548997870198
206	0x3fc804230059d6dd	0.18762624280105103
207	0x3fe08340ca47911d	0.5160221052906625
208	0x3fe151c1765a38b8	0.541229945332609
209	0x3fa9c6f1c1b31656	0.0503459500264795
210	0x3ff0000000000000	1.0
211	0x3fc5cf609a91ce2b	0.1703911547407285
212	0x3fb81ec6c8b0cbf6	0.09421961211846494
213	0x3fe33f68edc2ebfb	0.6014904636170962
214	0x3fee5bd3937a3435	0.9487092857758684
215	0x3fe98aeeff8b20e9	0.7982096663554589
216	0x3ff0000000000000	1.0
217	0x3fe1664de7d428f8	0.5437383201508785
218	0x3fe52526a40dae6b	0.6607850269478609
219	0x3fe4418b16ca140c	0.6330008931259967
220	0x3fd467839cfb8819	0.3188180001290007
221	0x3fef571153241a31	0.9793783782814157
222	0x3ff0000000000000	1.0
223	0x3fd2c8415acdb930	0.29347261302509065
224	0x3fe13cce6ac8b491	0.5386726461052992
225	0x3fa3cccefda24e00	0.038671940289670914
226	0x3fe7d10c5b1a8e19	0.7442685870523206
227	0x3fc379f3c07601f0	0.15215918443210752
228	0x3ff0000000000000	1.0
229	0x3fc7d064721a8730	0.18604713031259612
230	0x3fe09694ca801e50	0.5183814959609183
231	0x3fbf6a671cd8e90b	0.12271732763557368
232	0x3fe04d3161d138a9	0.509422961282117
233	0x3feebe5615365408	0.9607344068814436
234	0x3ff0000000000000	1.0
235	0x3fb60befed251057	0.08611964740436072
236	0x3fe8390d07819bc1	0.756964220677098
237	0x3fd557fbac39c250	0.33349506205471346
238	0x3fe9dfeedc8bf046	0.8085855777312723
239	0x3fe43e559f8995cd	0.6326091876950898
240	0x3ff0000000000000	1.0
241	0x3fefb47eabcd0dbe	0.990783057736216
242	0x3fe30cbaff5e31a8	0.5953040111212902
243	0x3feef68cdd977944	0.9675964668238426
244	0x3fde86185792956f	0.4769345145417309
245	0x3fd3f6ecf80951b4	0.31194614622406935
246	0x3ff0000000000000	1.0
247	0x3fea9e9962d25d3a	0.8318602495300305
248	0x3fd1f05330ad23f9	0.28029327157543055
249	0x3fc5e9716c140f7d	0.1711866166807531
250	0x3fbe7e1d869dcc6f	0.1191118672993967
251	0x3fb2171c8f52aed8	0.07066515444847299
252	0x3ff0000000000000	1.0
253	0x3fdc19a44b5d5c95	0.43906504974206345
254	0x3feb7440124dac6e	0.8579407079208872
255	0x3fb67ed5a6f4e495	0.0878728420838278

YTrain_Boundary f8 [408]
0	0x3ff5b96ed66ada75	1.3577717185668494
1	0x3fdd4646029d6c6b	0.45741415267338564
2	0x3fd7a56cec9f32c8	0.36947177035908085
3	0x400518e8a7e0f49e	2.63716250567684
4	0x3ff5f91f6e3652ea	1.373320990101258
5	0x3fe52f59e7244380	0.6620301737294625
6	0x3fe529a13cdffbf6	0.6613317669833794
7	0x400176f652aa6dc7	2.1830870111714122
8	0x3ff1680dd62ae3bc	1.0879038206023628
9	0x40056ce65f18aaa0	2.6781737737085933
10	0x3ff34c659754e61e	1.2061515723602336
11	0x400566545e815be1	2.674965608904572
12	0x3fd8b45e514cb7da	0.38600881518766317
13	0x3fda127928dfd235	0.40737751952773077
14	0x3ffa687c9706b4d4	1.6505094432316598
15	0x3fdaaae54752adfc	0.4166806408418038
16	0x3fd7c27d35c9aa2e	0.3712456727286363
17	0x3fe1fb1857d0840b	0.5619012560965769
18	0x3febecbac0f4faa8	0.8726476448717522
19	0x3ff925fc6cc0037d	1.5717739341782526
20	0x3ff4b0caf498d13b	1.2931623034065314
21	0x4005244ade09eed2	2.642720923116806
22	0x3fe0da39692abc51	0.5266387037317007
23	0x40058ea65c34f917	2.694653244368179
24	0x3fdd9ffce7add0a0	0.4628898870935334
25	0x3ff7d286933756bf	1.4888978720313586
26	0x40001f6de86de2d3	2.0153463514837795
27	0x3fdacf6b84f1aa10	0.41890991194546334
28	0x4005beedd2d47303	2.7182270499309893
29	0x40009f8b43f17064	2.0779023464256614
30	0x3fea625d3ede792c	0.8245073535834186
31	0x3fec15f58084f516	0.877680541052231
32	0x3ff2a940b1728f4d	1.1663214618246969
33	0x3fd7a687f5fce778	0.3695392515397695
34	0x3ff1341094e23c54	1.0752111259241888
35	0x3ffa2d59e91fadf5	1.6360720735927974
36	0x4004dab5d2a3fb81	2.6067921119969815
37	0x3fdc87c1be60576d	0.44578593818129414
38	0x3fe0b90d65df92f3	0.5225893964494318
39	0x3ff0ae7c7c8701b2	1.0425991882658363
40	0x400080af3bd0028f	2.062834231648885
41	0x3fe3991790edc4aa	0.6124379950180316
42	0x3fe462d11c35dc8b	0.6370626021370226
43	0x3fd81234e9ffab75	0.3761112485068943
44	0x3ff36b13e0f4907d	1.213642004710919
45	0x3fdb78d11fa058f3	0.4292490776873727
46	0x4005b0a5bb185809	2.711253606491486
47	0x3fff366b58987aad	1.9507859669462662
48	0x3fdd177433a39d2c	0.4545565132416012
49	0x4005967315177b60	2.69846168973838
50	0x400516dbcbbb6862	2.6361614147727304
51	0x3ff41d8c47a91946	1.2572138594856184
52	0x3fe910a6cf1470b5	0.7832826656845301
53	0x3fde23e73cac71f7	0.47094136166722883
54	0x3ff2187ce1bfb4e6	1.1309784715952502
55	0x3fd7cb45417467ae	0.3717816485601543
56	0x4003521477ac447a	2.415078101105391
57	0x3fd84b75abb007ec	0.379605691589062
58	0x4004beec3a1944ed	2.59322400464645
59	0x3fdf6486a8f89274	0.4905106210810921
60	0x3fe5d11d3fa5385e	0.6817766421388674
61	0x40058ed4f00515dd	2.6947420836975042
62	0x3fd960c1bb1f1b32	0.39653056405625187
63	0x3fd92a8dd6e3ca10	0.39322229371387696
64	0x3fea836311be9cf6	0.8285384508680227
65	0x3ffa2a930dae76dc	1.6353941473420752
66	0x3fe32be646ba82f3	0.5991088277260971
67	0x4004ddad78b6a511	2.608241026948811
68	0x4005b6ac85d66a79	2.7141962486323874
69	0x4000b277605d3aec	2.087141754956397
70	0x400503c32b5ce2e4	2.626837099811711
71	0x3ffaf2cbb2d65068	1.684276293356584
72	0x3fe23a7793abde79	0.5696370968061749
73	0x3fd8a9fe3e51edba	0.385375557765396
74	0x3fe24f4f4236f359	0.572181348157396
75	0x3fd833d868c6d7e8	0.3781643889627717
76	0x3fd8efffea78c3f5	0.38964841745024553
77	0x3fd7ded90df064be	0.37297655450090506
78	0x40056ad5f0eb517b	2.6771658727467957
79	0x3ff010427bc1e84f	1.0039696535373144
80	0x3fe386bff370ad2b	0.610198951214817
81	0x3ffb6f96b4bb8fd9	1.7147433338040996
82	0x400248dd46f9f9f0	2.2855783028637617
83	0x3ff5a947979c8769	1.3538280412980959
84	0x3fd7f8c22b186a4e	0.3745580120900386
85	0x3fdbccf54efe0574	0.4343846579941648
86	0x3fda5a389cce3741	0.41175666153946017
87	0x4004de53e2723f97	2.6085584345928043
88	0x3ff2cad01e2f29c0	1.1745148829528347
89	0x3ff4d84a4d4be185	1.30280523485098
90	0x3ff04054632f376d	1.0157054781334083
91	0x3ff28527261a736b	1.1575080383692817
92	0x400082f7cd9e203a	2.063949209583396
93	0x40001a77bea0e9d8	2.012923707280816
94	0x3fdad6c02eb65ae0	0.4193573433089295
95	0x40005744c74ff03c	2.042611653449084
96	0x40035ab747b98b34	2.4192948916910613
97	0x3ff4d41971dfda53	1.3017820785732013
98	0x3fd7a43a6899abca	0.3693986913191877
99	0x3ff73c1b80d0d1ae	1.4521746665824184
100	0x4004089a17f19569	2.504200160083816
101	0x3fdd6ec664133df2	0.45988616726842146
102	0x3fd9e0c2baf156f2	0.40434330230833304
103	0x3fd91b9aea6cc0a0	0.3923098840050532
104	0x3fd7b799f7672389	0.37058114204824527
105	0x3fdcade59812244f	0.4481138215128952
106	0x3ff3caab244c9aa0	1.2369796197832912
107	0x40014e4d732bf8af	2.163233661441232
108	0x40024fe2205be370	2.2890055206339
109	0x400210de47691c1b	2.258236463446804
110	0x4005b9f99d6d8fee	2.7158081339894045
111	0x40053d9f70205396	2.6550892600884692
112	0x3fdb6764b05b7404	0.42818562719713804
113	0x3ff72c5244b19324	1.4483206446977386
114	0x3ff245f3e49f69a1	1.1420782976698336
115	0x3fdc5332513dc475	0.44257791455954215
116	0x3fd816d1e6399af1	0.37639281733429103
117	0x3ff1417f2d334ae9	1.0784904256476529
118	0x4005582ea78218f7	2.668057736070405
119	0x40054fa89328c473	2.663895749742147
120	0x4005a587669d4772	2.7058246628520743
121	0x3fdd40af13f260ba	0.45707299182823713
122	0x3fe30e2cc13c59f1	0.5954803251395885
123	0x3ff1f53a4991844b	1.122370040299091
124	0x3ff6ec7a48d9925f	1.432733807153589
125	0x3ff43a01134f4a25	1.264161181858648
126	0x3fd9419bcb7ca2a6	0.39462942954791413
127	0x3fd99ae3e9335e68	0.40007875226499445
128	0x3ffdc4b2e45c2f60	1.8605221672359775
129	0x3fe5703fbaf6b176	0.6699522639878939
130	0x3fe0cdf9e8fea95f	0.5251435805014742
131	0x3fe1778c2d681cff	0.5458432089662039
132	0x4003796202d13c09	2.4342689724067026
133	0x3fe0006412a0eba4	0.5000477184142835
134	0x3fd78d23d1987dfe	0.3679894968826999
135	0x3ff9fb3b10731c68	1.6238356249393977
136	0x3fffc949e286f2c1	1.9866427277294607
137	0x3fdb913c2a1a2c7d	0.4307394419817639
138	0x4003d70b654018d7	2.4800022039590703
139	0x3ff085081b8419fd	1.0324784350246994
140	0x4005841ef4ac4659	2.6895121684145065
141	0x4003011ae310ab86	2.37553956408141
142	0x3fd7971f40a6af18	0.36859875978073964
143	0x40049027536b6735	2.5703875081207124
144	0x400588279e719aad	2.6914818170947314
145	0x3fe919e9fe92f2c1	0.7844133350514185
146	0x4005720d36cd84be	2.680689266344955
147	0x4001b9bdf5cef783	2.2156943515573757
148	0x3ff3737c37b355eb	1.2156946349908775
149	0x3fe49f02e23cdf0e	0.6444105547625172
150	0x3fe25e48eeadad62	0.5740093862236046
151	0x3fdae4651900a5a7	0.4201901191869077
152	0x4000d344d7396d4a	2.1031586470032027
153	0x4000f857b3547003	2.1212610254424376
154	0x3ffdab7b2ae41639	1.8543655085972104
155	0x3fe9ba5dee418cb3	0.8039998677671946
156	0x4002a4afa3da77bd	2.330413131813627
157	0x3febd757affe687d	0.8700369298342278
158	0x3fee070dee309a49	0.9383611347337332
159	0x3ff4be2155d3314c	1.296418509725373
160	0x3feffcca04187e38	0.999608047484748
161	0x3ffba3e6a807a444	1.7275148929277444
162	0x3ffc4457f0a77ac3	1.766685428672347
163	0x3fe3aa733293340d	0.614556883601496
164	0x3fe22ff4c12e2090	0.5683540127802349
165	0x400491582a3c87f1	2.570968942615757
166	0x3fddf1bb7b04c2f9	0.4678791715005413
167	0x3fe5f4a60a777422	0.6861143307138529
168	0x3fdebb7a21952ef8	0.48019269256177166
169	0x3ff40e1142f7c142	1.253434430687847
170	0x3fd9cbfbb8dceee7	0.40307515194920857
171	0x3ffc8f83288affeb	1.7850371917447727
172	0x3fd7925d978b3b50	0.36830844687658715
173	0x3fe55fe64a97afc9	0.6679564911732935
174	0x3fdaff9b3a7c9423	0.4218509741934346
175	0x3fd7c8211a07bd21	0.3715899233056508
176	0x4003b86e54b6fdbd	2.4650541895241234
177	0x3fde2aa5645948fd	0.47135290908512656
178	0x3fd83e53e3c7f376	0.37880418056720744
179	0x3febe234a07798e8	0.8713629850506353
180	0x3fd81976b2f94c28	0.37655417898094123
181	0x3fe3318df04ddf36	0.5997991269532352
182	0x3ff3440ad1fde94f	1.204111881523733
183	0x4000d3b9ec3ef372	2.103381963416205
184	0x400245c67b639c0b	2.2840699805997295
185	0x40058a41ff6ef821	2.6925086932888154
186	0x3fd9024938d2b7f3	0.3907645277894282
187	0x3fe46316cb71021a	0.6370958302941887
188	0x3fdae52b0c635c0c	0.42023731431749023
189	0x3feb318f4d5bcd4e	0.8497997771177468
190	0x3fd7ec44a0ce5fa6	0.3737956591007737
191	0x3ffa5e209d6eef63	1.64798032281302
192	0x3fe75e7b29d33d67	0.7302833382508823
193	0x3fe186d28bbb41b1	0.5477078179483695
194	0x3fe6057eca471fb6	0.688170809816248
195	0x3fdc2e67886f7d76	0.44033230136661616
196	0x3fdbc1e6295847b9	0.4337096599348303
197	0x3ff220397382c71c	1.1328672897474865
198	0x4002651ead07aeff	2.299374915883049
199	0x3fd79249d66ed81e	0.36830373707505426
200	0x4004a37c16ef9bc2	2.579826525866765
201	0x40000b3959938a5b	2.0054804800177357
202	0x3ff87ff1d5787c88	1.531236490125396
203	0x3fe206c06e96286f	0.5633241805928842
204	0x3fd797dc1be9c692	0.3686437866773328
205	0x3ff7f5df7ce1231d	1.4975275877097325
206	0x3fe44cf787f0dede	0.6343953757377354
207	0x3ff113fa300bc8e6	1.0673772694395267
208	0x40046f619422d1a9	2.554385335266677
209	0x3fdcfbcbb6986a33	0.45286839324549816
210	0x4005a3dad40a69d7	2.7050072255781106
211	0x4004a7d90118836f	2.581956871567335
212	0x3fdce2ec986888bd	0.4513503540384923
213	0x3ff2063807895ad0	1.1265182775875253
214	0x4003d7a0716cf984	2.480286489618438
215	0x3ff1fadb00bbd6e9	1.1237440136587173
216	0x3ff63d77b40e3dcb	1.3900067361281454
217	0x3fd9a3bfe18f38d1	0.40061947848597607
218	0x40032d93ac3deca4	2.3972543198011227
219	0x3ff5ad80beb7f134	1.354859108919368
220	0x3ff0aa6b8599f993	1.0416064471060948
221	0x3fe896d355cbbbdd	0.7684113193225773
222	0x3fe5cfe60fbb7fbc	0.6816282565377985
223	0x3fe686017201e575	0.7038581110675027
224	0x3ffb2dedb00adcf9	1.6987130047471608
225	0x40027a5c5862edba	2.309746447104513
226	0x3fe48177a375dd5f	0.6408041184030643
227	0x3ff8a53ef45e1f6d	1.5403432412731164
228	0x400412df41daf6a2	2.50921489190553
229	0x400372c507540106	2.4310398647795664
230	0x40034ce915363c37	2.4125539452720903
231	0x3fe031f0ea482c76	0.5060963226145663
232	0x3fdce6df7e3db2b9	0.45159137085174056
233	0x3fddb92e317f7685	0.4644275172594024
234	0x4005a1cc4299119d	2.7040028765643016
235	0x3fd95f1ba8dc3f4e	0.39642993440883323
236	0x3fe01c0651cee559	0.503420982152572
237	0x3ff906c26a953942	1.5641502536196445
238	0x4003b43b4c2779cb	2.463003725962357
239	0x3feefbd9fd5ce1c3	0.9682435940258575
240	0x3ff17cfeadb74840	1.0930163179186962
241	0x3fe4bcfdf22f5677	0.648070309655579
242	0x3fd78dd9db53040c	0.36803289812456863
243	0x4004f48eb39c32a7	2.6194128067057423
244	0x3fd88269c7f6ecb3	0.3829597904948045
245	0x3fd796a42d9fb4e2	0.36856941657499764
246	0x3ffaac6cf936ef80	1.6670961127228736
247	0x3fe3c37394ef37ca	0.6176088246227149
248	0x3fe01d64a83b7a11	0.5035880361354562
249	0x3fe3ce7a987c12ed	0.6189549425331201
250	0x3fe08fe93c454b2e	0.5175672700082481
251	0x4005bc195103b174	2.7168451623203342
252	0x3fe10e1b218ac662	0.5329719214552819
253	0x3ff13dfa955fcf0e	1.0776315531665577
254	0x3fe53410978ac383	0.6626055679135877
255	0x3fec7aa7a3ee2a71	0.8899725152744634
