Allen_Cahn4D/dataset/Dim4_1/Allen_CahenC16000_B3200.npz (npz, 769050 bytes, 4 tensors)

XTrain_Col f8 [16000, 4]
00000000: cacc 5aac 4e9d e73f 7b92 5746 887d b73f
00000010: 5315 2e79 4367 e03f b078 f6d2 2e2f d73f
00000020: 6f39 9570 0d05 ee3f 06a4 39b5 8770 e23f
00000030: f065 733a 321e db3f f048 8a5a 73f3 af3f
00000040: b322 b143 6abf d93f a5e2 6516 b6d1 e43f
00000050: 330f e9a5 70f1 eb3f f102 1c34 ed5f eb3f
00000060: e30a fd84 cf5a ec3f 6f73 4b68 c59e e13f
00000070: 32ee b24c 5540 d33f 3579 e5f9 dab5 863f
00000080: 5b79 5c3d 063a ed3f fd06 3638 a2fd e93f
00000090: 0ee8 36ad 9a7b ec3f 9cb4 4431 1faf e33f
000000a0: 1b8f 246e d651 ec3f 65d6 2aee f6fe eb3f
000000b0: 2ce2 1f28 6206 e73f d243 7552 9061 ea3f
000000c0: 0f37 6e19 09f1 a23f 22a5 7069 81d6 d83f
000000d0: 43e6 eef5 2e05 ed3f 2d07 83a9 433a c43f
000000e0: 5198 fd6d bd0d df3f d6dc 69c5 bf5e c63f
000000f0: 7844 3bc4 850a e93f 0d12 ed4f e336 e23f
00000100: f187 71c7 2e8f d63f 4b30 63a1 5106 ed3f
00000110: 1d6e 7d9b b11b ec3f 93ca 8021 e7fb ea3f
00000120: 46ab 8e47 0636 df3f b9d5 3a42 d026 e83f
00000130: 7f39 6091 6b45 e03f 283d edf7 c193 d23f
00000140: d07a b491 a4da e93f f8ef 29f7 ec23 da3f
00000150: 36b4 57b7 2de3 ea3f 8f7e 6386 c99c df3f
00000160: d7d7 39e3 457d cb3f 4665 9d23 85c0 e53f
00000170: b441 b760 31ba e83f 9dc3 9b80 206f ea3f
00000180: 94cd 06c0 f879 da3f 02cc 7144 492f e73f
00000190: 820d f397 721a bd3f 0329 6b2d 436c c23f
000001a0: b7ca 3be8 a6f0 7b3f 7450 abd3 d3ac e63f
000001b0: a94c 9a53 c65f d43f 3b15 94d8 a801 e43f
000001c0: 5a1f 4c1d 66e4 e83f 8f28 553b 26a6 ec3f
000001d0: e17a f84a 3a58 d63f 547f ef54 5620 e73f
000001e0: 24e1 dfd4 6730 d53f 6e98 cc7a 70c1 c23f
000001f0: 74c8 5636 558b eb3f 6a45 9044 37b6 d43f
00000200: 2b51 bc4d 4bd0 e23f 5e7a 2d73 4182 eb3f
00000210: 9274 9746 24db dd3f 9ee3 65b0 164e e83f
00000220: 72bb 5f8c 4354 ee3f 0222 0408 594d ed3f
00000230: 330d 8933 2e8d e13f 43c4 3293 ad31 ee3f
00000240: e89d 2d10 73a9 de3f d030 7f9c 6aec e43f
00000250: 3a77 7bc9 4f85 b03f 6d0c 3349 11f9 a13f
00000260: e256 280b 951c d63f 38fe b5c7 03d1 e93f
00000270: fc78 44fa 30cb e03f 5ba0 e68f ec45 d03f
00000280: 7fc7 1ebf 7c6a ef3f f44e 6e2f f39d e53f
00000290: bd7d 2642 3e9d ee3f 19a3 dbff 5b18 e53f
000002a0: b4d7 675f abdc e13f 2488 54ff f031 e03f
000002b0: deb9 189c 1927 a23f bc40 3a76 cdd6 e03f
000002c0: d470 be91 855d e63f d36e 2c23 d5bb 863f
000002d0: fc11 6833 d354 d03f 6e01 1d56 6445 ef3f
000002e0: 65e3 82a3 7f6c cf3f 29dd 5b94 4e88 e93f
000002f0: 8404 82c1 8aed ab3f ed09 04d6 1d8d cc3f
00000300: 4ea1 9e98 90cd c43f 8fd2 fc77 554b d63f
00000310: 1a6d f393 dca4 e83f cd8e c8f1 3416 ed3f
00000320: bb54 6ad4 a3ba d03f 844a 62b2 16ca d93f
00000330: b738 ecbe bb14 d83f 8d01 b5b6 4abc e03f
00000340: 9de4 89d9 4c5b dc3f 266c 9d37 becc d03f
00000350: d616 5278 5310 e43f cf2b 5b2d 4b61 e33f
00000360: ff24 fc60 ba3a db3f c731 14a0 7582 ca3f
00000370: 5313 01b8 cfdf c53f 21d5 bfff d8ca ea3f
00000380: 16c7 821e a4c3 df3f d66b a978 4f95 d33f
00000390: 0a1b b0a9 8cae b23f ec8a cce0 a17f df3f
000003a0: a94e 5379 0b46 e13f f381 d85f 3377 da3f
000003b0: 485f 7b6d 816d e23f a728 067d 1108 da3f
000003c0: 612a 58c4 4c24 e13f 31b4 ab36 120c cf3f
000003d0: eadb 8799 c0b9 963f 0947 b822 b360 e43f
000003e0: cdbb 13c8 4aa5 ca3f 12cd 8e58 5ac8 c53f
000003f0: e8f6 c7e1 fb3d e63f 2fac 423f 55d5 c03f
00000400: 623a 6b78 1fd8 da3f 1170 172e ce7c ed3f
00000410: a64d 855a cc23 d33f 4999 5659 093d ba3f
00000420: 5aa6 7747 094a e83f dea4 e3fc b1ac d93f
00000430: 7802 fbf7 3564 cc3f 38d9 f516 6b8f e53f
00000440: 5cd1 463b 74c1 aa3f 8672 f907 b95f de3f
00000450: e806 ccab f4ae d93f 1ed8 adc1 b38e e03f
00000460: eef2 63b3 4252 e33f 8586 4d3a 68ed ed3f
00000470: 470f 68db 3ce4 ed3f d38f e138 6257 e83f
00000480: 0cfc a3ce 7e40 d33f b3e6 46d9 b2cb ef3f
00000490: 08c9 5e83 b07b db3f b4e2 8cf9 f13c ea3f
000004a0: 862f 18af 08f4 e93f e873 8cb3 09fd ec3f
000004b0: 8555 dcf2 e0c0 ec3f 568e a87d 97e8 e13f
000004c0: 792f 8d3b fa43 e43f 2df5 fec7 54d0 ab3f
000004d0: cf3b 85cb e5f5 eb3f 7c1e 43e6 8078 cf3f
000004e0: d19a 0777 7c33 e93f e475 a39b 5e12 e63f
000004f0: 3dc6 369b 8f1d e53f 29f8 f343 7547 9c3f
00000500: 0b1d 052c aac9 ab3f 7479 d79b fe49 e13f
00000510: 5257 7ad2 d609 ed3f 384a 07d8 2782 d63f
00000520: 4d98 3f3e c00d dd3f 2807 de7f 7e32 e13f
00000530: 1279 3e9a d05d e83f 2260 9231 f0c9 dd3f
00000540: 51ec 1f76 64e5 e33f a1b6 c9a6 28d6 e23f
00000550: 0dd7 1bfb 5f06 a03f 8e2b 0a19 6282 ec3f
00000560: e811 2253 e103 e63f 6277 558f 00d5 e93f
00000570: 0c7e 42ba 2e81 ec3f 668a 14f7 4dbf d23f
00000580: 0ec2 0b4e e22d ca3f 8c80 1ccd 08b1 d73f
00000590: cee2 d3c6 39d6 e83f c73b 7043 0ee3 dc3f
000005a0: 0c2b 20ff 1af7 e63f 907d 4d9e eb42 e53f
000005b0: 0455 abee 9778 e33f 0953 5a7b 23a2 e53f
000005c0: 1722 2105 0905 b63f 7bba 4c42 caf4 923f
000005d0: e561 7e19 d855 ea3f 4e7e 228f 3eb3 d83f
000005e0: 8eb3 903d 2c58 ee3f 4fec 0b10 fc1b e33f
000005f0: 3702 b524 bea5 da3f 0615 f3e1 cd45 d63f
00000600: 3bc5 07b3 bc9a d93f 484c fb1b d0a8 c03f
00000610: 53d9 da01 8525 893f 9f7a 12e3 8320 d53f
00000620: 772a 310b 5d72 dc3f 2887 1c38 b725 ea3f
00000630: 501f 78aa 5ab5 923f 0074 bc87 aafe ec3f
00000640: 6007 cb63 3816 a93f 046f f472 31ee e03f
00000650: 7797 2edb 2d6f da3f 86fb 7d01 da1d ef3f
00000660: 632f 62d7 9446 ad3f e808 0bee 0242 e23f
00000670: f62e 7ed1 136c c83f f298 8ae8 5985 cf3f
00000680: 0422 d8a1 9792 ec3f f452 5928 1898 df3f
00000690: 0fa6 b503 efdd d53f 0993 30ea 88e8 e53f
000006a0: c516 3503 8c56 e53f d1bf 63d5 92dc d73f
000006b0: b149 f741 9884 e83f 5475 43a0 4f65 b13f
000006c0: 1b90 002b a07f ef3f e241 35a0 49aa e93f
000006d0: 23fa 66d8 817e e13f ce6b 1cc8 cd19 e03f
000006e0: a021 c4a7 74bd ee3f 36ca f5b1 5647 c43f
000006f0: 1a76 c45d f669 ab3f e8c7 f8b4 8468 e93f
00000700: 5aea 281d c1b6 b33f e3d9 9b8a a2ba d53f
00000710: a953 3a3a 1bfe ef3f cc2b eab3 24d1 e83f
00000720: 1909 cd43 88fe bc3f b3a1 56bb 5054 d73f
00000730: 17fc 4890 cd58 e13f 9070 d2f2 5b2b ee3f
00000740: 857f 406e 0678 c73f 03c0 65e4 a116 c23f
00000750: 7461 1ee4 1acf ba3f fc38 36eb bea6 eb3f
00000760: 6946 55a0 f768 ec3f d4b0 9c7a ba8a d73f
00000770: 4ae3 24da 5543 cd3f 14ee 7b06 bcc9 c03f
00000780: 6f00 78ba 7ec1 df3f 7600 cbac eb7e e03f
00000790: 5343 ff6b 1d88 ef3f bbba 9670 71a7 5c3f
000007a0: 68f3 1e4e 0fbe eb3f 4fa4 072f fc41 ea3f
000007b0: 8061 4a57 9c77 e83f 63bd 82f0 42a0 b63f
000007c0: 3dc0 872a e6b0 d53f 88b4 50a5 560d dd3f
000007d0: 9e3d 7165 73ca c83f 7c78 4892 b42b e33f
000007e0: fed3 7b4c dbeb e13f f63b f2e0 3b76 8b3f
000007f0: a134 8c25 b0ed ee3f 7896 db4a 53ea bb3f
0.7379525533964622 0.09175922124229345 0.5126054159924628 0.3622548160727872 0.9381167601475634 0.5762365855745208 0.4237180300529806 0.062404255678432
0.4023080502561626 0.6505995213947996 0.8732226601063985 0.8554597871553523 0.8860852811270344 0.5506312405592392 0.3008015870106845 0.011089049102051088
0.9133330534421406 0.8122111413833576 0.8900884039969712 0.615127178408915 0.8849899436213237 0.8748736049371472 0.7195292266542928 0.8244096384533981
0.0369952052634358 0.38809237763287474 0.9068827441580612 0.15802808548874606 0.485213620579434 0.17476651324589082 0.7825344879767178 0.5692001877837939
0.35248918034460447 0.9070213462923759 0.8783805882371244 0.8432498602254149 0.48767239559190434 0.754737977366566 0.5084741439221004 0.2902684136542626
0.8079398008156549 0.4084427274426612 0.8402317601118117 0.4939445316685828 0.21476052851693225 0.679750985679825 0.7727286232930539 0.8260653030284747
0.4136945605525508 0.7245222412879004 0.11368480882361179 0.1439289066095811 0.006821300488570151 0.7085971006549827 0.31834562458352395 0.6252025823638755
0.7778807232107099 0.8952819022026847 0.34913499184942337 0.7226974162003708 0.331079442868502 0.14652830120138866 0.8607584058102149 0.32362157531414104
0.5879265325807287 0.8596503495753713 0.46650034803116924 0.7595323033593677 0.947786115806464 0.9156918675008117 0.5484839445638613 0.943564212319082
0.4790923746099609 0.6538594299868468 0.06453417462350056 0.03510335939929452 0.3454945191345883 0.806764497814533 0.5248036277805848 0.25426782658406005
0.9817489369217894 0.6755309988388647 0.9566947261809485 0.6592235562539798 0.5581871856108962 0.5060963618200316 0.03545455961681275 0.5262210187084047
0.6989162298737264 0.011100449691688585 0.2551773073212471 0.9772206956768466 0.24549861415814714 0.7978890321382198 0.05454667675167804 0.22305653524388394
0.16252334072238245 0.3483480140451229 0.7701247110048002 0.9089607927639577 0.2613915991181092 0.40295951290423937 0.37626546520995013 0.5229848450181166
0.4430725216294123 0.26249652320047046 0.6269929265988263 0.6056266675817542 0.42545947524247646 0.2071063071856669 0.17089268192844517 0.8372616763214503
0.4963159845311663 0.30598818572405884 0.07297591345568946 0.49216505959536394 0.5398003930699434 0.4135254322045789 0.5758673799818803 0.40674245080357213
0.5356811365939614 0.24255588216274895 0.022192963953752733 0.6368041685220486 0.20816931504620442 0.17017678569900646 0.6950663957393006 0.13151040638817466
0.4194410968747545 0.9214850330567989 0.29905995216287307 0.10249384337530389 0.7590376277777964 0.4011654824849539 0.22180819137976804 0.6737571190304044
0.05225718711463642 0.474592454707626 0.40130345131920686 0.5174196989817152 0.6037915710181474 0.9352303637244438 0.9341110501559137 0.7606669531783105
0.3008114831899895 0.9936155551615314 0.429424408236756 0.8199396013288465 0.8110392970861404 0.9058884150323339 0.8985447638867049 0.5596425489679386
0.6332980311503739 0.05432381574017096 0.873766801358096 0.24586497538824748 0.7875349354552218 0.689742378217201 0.6598585158846572 0.02761634089710455
0.054272954820186646 0.5402825397284645 0.9074510680099854 0.35169406982928164 0.4539642913717941 0.5374138352783335 0.7614520084933096 0.46545033303255157
0.6217520053027191 0.588642431028081 0.031298636820720295 0.8909159173066301 0.6879736541455346 0.8072512435426058 0.8907693517575708 0.2929263031857431
0.2045252686580316 0.3701803210297008 0.7761505969384304 0.45135838113577303 0.7176642401621804 0.6644189922189288 0.6084708844670392 0.6760423096880867
0.08601433158140313 0.018511925026525305 0.8229790208743536 0.38594020822526864 0.9482632830091562 0.5971660912904414 0.4163661344973976 0.3480105120218727
0.4000694034903806 0.13015176168718967 0.012278594130617526 0.3301095693113129 0.4444801911637692 0.8171039672781477 0.01826993623220058 0.9060871745201666
0.048997652227184885 0.5290763135157879 0.4130358353089529 0.9723939923422769 0.05717911843484449 0.5705580376891506 0.19079826096673685 0.24625705580292095
0.8928945694943313 0.49365810337376037 0.341670755026457 0.6846355985659055 0.6668148100513568 0.372837742222143 0.7661858833692375 0.06795213377650572
0.9843293037306496 0.802037060648271 0.5466927744490174 0.5031498821657523 0.9606269146616349 0.15842708291491342 0.053542803713053824 0.7940085920911288
0.07700736009511769 0.3395162919618128 0.9997688424360734 0.7755301965674959 0.11325885443969631 0.36452120108381364 0.5420902078693669 0.9427928679101729
0.1833503759708003 0.14131568577022344 0.10472267216971948 0.86410470905119 0.8878133899217576 0.36784231160960457 0.22861741210524605 0.13115644756895561
0.4961849995597793 0.5154932379591759 0.9853655919379015 0.0017489059267565127 0.8669506574438914 0.8205548208762908 0.7646009163754997 0.0883828961548168
0.3389220633826005 0.45393911499088135 0.19367830708732198 0.5990851265994617 0.5600410932371458 0.013409107019723959 0.9665146573403441 0.1090442712553229

FTrain_PDE f8 [16000, 1]
00000000: ad4f e32b f86a c6c0 f378 1541 e28f c4c0
00000010: 7dba 647b 1fc1 d740 e0ae bb63 78a3 d640
00000020: fba5 be40 b280 d340 aece 4122 a284 d8c0
00000030: 2ffc a198 5236 b5c0 12a5 e7d3 add6 b8c0
00000040: ef36 1c31 6c0a d840 5423 6a80 d569 cf40
00000050: ea6c 652c 1b77 ccc0 ddb9 e845 6d4e 90c0
00000060: a78c 13da 1d71 c3c0 849b 9500 3d7f c9c0
00000070: d9ae 6501 4eaf dec0 4ed9 c8e0 68c1 b840
00000080: 36c4 8afd a33c d240 9d9d 6a2c de62 c1c0
00000090: 9d08 748d 2cd5 bf40 ce57 9f0c dce6 c0c0
000000a0: 0289 aa45 715f bb40 fd31 9d73 441a adc0
000000b0: 41cc 8a38 abbf dec0 f5ab b397 39d1 cb40
000000c0: 55a1 c401 5bc9 76c0 4cc0 f613 3848 df40
000000d0: e785 eac2 aa75 b040 dd0f 6961 bd95 c4c0
000000e0: 2cab c809 c2d0 de40 7178 e70f 4e25 c440
000000f0: b8a0 fc7a 8ada ce40 3a4e d1fa cbdf 8b40
00000100: ef82 c3b6 f17c d6c0 6e12 aac9 76ed ccc0
00000110: f112 903c d854 b140 a467 234d 41ac d0c0
00000120: c26f 493a 2765 c440 b06c 62f3 cde2 6940
00000130: 08ac 33b3 392f 8340 c938 3a10 2470 e0c0
00000140: 8be0 6129 9960 c840 d3fd 6528 b887 ca40
00000150: e00f 76f9 8356 ccc0 cc6d b8ec 4fde c340
00000160: c80a b05b c29b d440 808f 3e1a 7954 c440
00000170: 1a56 fb45 f993 b240 67da 64d2 1279 d6c0
00000180: c2b0 477f 1818 c0c0 6c5d 221a 7673 c740
00000190: 1145 f215 6255 df40 ce73 119b 7822 a8c0
000001a0: 9b7d 139e 5309 d140 9cfa f435 ff52 c8c0
000001b0: 9c85 98e0 260f e040 3822 6fa1 bd73 c140
000001c0: 597b b552 9d14 cdc0 0e7d d23e 971b d6c0
000001d0: 776d f3ab fe86 de40 71c5 25c6 9670 b440
000001e0: 2171 c09e c76f d740 8ef5 1721 e0fc a140
000001f0: 6cbe 08ea 9b49 d540 b87b 4d39 5cef a840
00000200: db82 3c36 11d8 c540 ad35 932d 29ba dfc0
00000210: c3d4 4c82 fc72 d8c0 859b 421b 57a5 af40
00000220: 48e0 a00b 257d c3c0 a4b3 6b6e 1b92 79c0
00000230: 9ffc a388 5a1a 91c0 50bb e2d9 01f8 b440
00000240: b57a 0c34 a6b2 c540 ad36 6fe8 007a a6c0
00000250: a3c9 6afa 36aa dd40 84a1 01c7 d28b bbc0
00000260: b9fb a4b4 b54e d9c0 097a 7485 8605 dac0
00000270: d1a0 c3ae ed4a d040 ddba dc00 f927 c840
00000280: 43f8 d2bd 10af db40 8c7e af0b eb25 d6c0
00000290: 63f8 7169 0f3d 6040 b2ae b7f0 cbc4 b1c0
000002a0: 7baf 86a3 ca6a db40 8aea a365 efde 8f40
000002b0: becf 39ac 141d e140 9a6f 2003 0db4 c1c0
000002c0: 11b0 0cde d5ed c8c0 4535 221a c33e a740
000002d0: f7cc a9cc eaf7 c040 b11f 6799 6305 abc0
000002e0: 1913 cc10 a72e b440 8b47 24a1 2b23 a7c0
000002f0: 0b56 97ce b0aa cbc0 3aef ac1a c974 d0c0
00000300: ab44 e7be 9295 a840 1e46 b702 0d7b c140
00000310: 60ab a6d9 9fcf e040 4735 3872 1574 c3c0
00000320: b32f 9c7c b594 a6c0 8642 ca0d b35d d8c0
00000330: 5998 1552 82c1 b340 697f 49ec c6e2 d240
00000340: 0f72 ea34 34ef cb40 73e7 2a4f e656 d6c0
00000350: 887d 5584 f643 c140 fad3 0d2f 8025 b740
00000360: df32 1db5 e2b6 c740 488d 98f4 e9d0 d340
00000370: de8e cdb5 5009 b640 2faa ccaf 815f c040
00000380: d316 97b5 bdda d440 5a69 2571 2b25 dac0
00000390: 7ddf 2a42 7411 d440 ced6 c908 fbab a3c0
000003a0: 5386 3d03 3467 d540 ec32 b3c3 b6ef c3c0
000003b0: 27e1 b009 b335 bcc0 70af 64da 344e c040
000003c0: fe86 1587 0ed7 9440 17a8 0a77 d294 a840
000003d0: bd0d f086 d02a c740 8780 db88 f3ea d040
000003e0: 69cb 9b9b 7565 d340 0217 aae1 9fd8 cd40
000003f0: edcf 9c03 22ae 9640 fcc3 05ec c583 d3c0
00000400: ff1a a8d4 5a8d bfc0 ec82 5264 a829 e040
00000410: 42aa 887c ee7f bdc0 41db 51b1 5ff8 c440
00000420: 9947 6f22 0a83 bb40 bb7b 7b2e 0088 c540
00000430: 27af ed3f 493b bbc0 015e 7445 aef7 b540
00000440: 6ca5 19bf cdd9 d7c0 4bd8 2b69 e4ae df40
00000450: ddeb 8a4a 7090 a840 625b f90c 11ad d540
00000460: 4324 4ae5 0a1a df40 9753 c91b 4164 c340
00000470: 3689 344f b672 cf40 b1e7 4c6b 8fd2 c3c0
00000480: a39c da74 7820 c140 23c3 f7e9 0551 d3c0
00000490: 321b 85b4 627a d0c0 ce3d d411 8904 c2c0
000004a0: b664 8886 3fb2 9ac0 1e81 377e cfa8 db40
000004b0: 64b1 5d3d 5625 d140 ac62 abac 47dc d840
000004c0: 4118 94ba 5519 c640 9df7 b051 5c2c d340
000004d0: db69 c7f1 3406 d440 6f05 d6d4 b197 c740
000004e0: 715b a2ec ef90 d0c0 a3f4 1d55 e3a0 cfc0
000004f0: 469f d019 31f0 9e40 d01c b95b c311 d440
00000500: db0a 3bd1 cd52 b1c0 3525 b8fc e37a d8c0
00000510: 5d6a 54b1 9807 e1c0 8a5b 9525 f8c2 c340
00000520: cd63 c8ea 3cd1 d4c0 d6fc 8cc5 9e6a cb40
00000530: f669 31c0 593e b1c0 8055 8a6e 31d2 c840
00000540: 7cf7 816a 1b3a c540 b916 b353 f8fd d940
00000550: 86a6 4164 72e2 af40 fc90 4c29 10cd bbc0
00000560: 51bc e440 9d2a d0c0 b22e ce92 a99b bac0
00000570: 7ffe a00c a1c3 c840 b505 f758 d9c5 9740
00000580: ad3f 4c5c 0cfb b4c0 2904 f859 3d87 9ec0
00000590: 3bda a5c1 5c54 db40 60db bf60 0051 d540
000005a0: 775a c6f6 90d3 d740 d59d f8e7 6573 c1c0
000005b0: 1912 ea1c 5a50 c3c0 cfdc ab00 d273 c040
000005c0: 4b30 4b4d 8c87 cbc0 be9b ee4c ba97 d4c0
000005d0: 0daf 48fd 1e9e c7c0 db46 1650 e25e d2c0
000005e0: aae5 5e63 af17 d840 8ee9 d67a 164f bcc0
000005f0: 8319 1437 9694 c8c0 eef2 c16a aeeb de40
00000600: 70b1 124d d7b9 d840 27dd 9199 182b d240
00000610: 115a f5a1 3431 c6c0 4165 9650 482e 6d40
00000620: 2963 479d 74c2 ba40 2cfd 6cb4 1c21 dd40
00000630: aa02 4c17 f8d5 a6c0 5ac6 6a6a 9284 da40
00000640: 70ef e97d 0f17 b340 ed04 5c7d 1035 cd40
00000650: e674 5aec e890 d8c0 b003 fcfa 1ae5 da40
00000660: 42ac 65c1 cb0e d140 c6b6 3785 4932 d840
00000670: 38c4 9e58 ce21 c640 37d0 3ca6 f9ae d640
00000680: 29d0 9f32 043b dcc0 d0a7 458f 2bb5 b9c0
00000690: bab9 2d1e 5cc3 bd40 2052 9ee8 79a8 d140
000006a0: 4f44 594f 1e96 dc40 6167 6f0f 005c d3c0
000006b0: 960b ed42 bad8 d840 7b59 2176 0c44 db40
000006c0: 41f8 4432 0abc c4c0 2ad8 709e b4b8 df40
000006d0: f574 0925 5c2e d540 cb96 3e29 8abf b340
000006e0: 3c6f 3b0f 1d51 ccc0 2fb3 aee5 cf9f 94c0
000006f0: 7c57 7636 6eb6 a5c0 ee3e 1aae 987f ba40
00000700: b7bb 6490 fbbe ba40 77e5 25c6 79cb d340
00000710: 6ace 4f0b 0360 8240 b29f 49c3 8663 d640
00000720: 4f7c 24ca 06af 9340 8c7f 2ba4 1772 d240
00000730: 5894 9634 5eb2 bf40 77c1 6404 78f7 d140
00000740: 1ef4 a8a8 4f42 c2c0 7390 e199 e907 9ec0
00000750: ff7c a107 9976 8ac0 2ae8 bd2f abfb d1c0
00000760: f128 d7bc 16a1 d9c0 4c30 6260 45c1 b640
00000770: 5a1d 81dd 7809 d4c0 9b07 ec0e e436 c240
00000780: c30b 85ba 4255 d240 db0d 325d 4cce d4c0
00000790: d77c 4b9e e388 7940 84c8 05de f765 b6c0
000007a0: a517 300c 9ff7 8540 31c2 5346 5f31 dac0
000007b0: e922 9c5b bfbc cdc0 add8 aed6 88d9 c0c0
000007c0: bb5b a616 14d4 d940 59f7 7371 543f d240
000007d0: a975 d74b 495f d040 2eac f285 44c6 d940
000007e0: 48b8 4237 c353 b740 4b45 24d4 20d9 d0c0
000007f0: a2b8 ffd8 28f1 dcc0 9aa7 78fd c8bd c8c0
-11477.93883935347 -10527.767611202295 24324.491906339757 23181.881087227608 19970.78520170411 -25106.533340885006 -5430.322641491001 -6358.679014661599
24617.690497449537 16083.667981402636 -14574.212292364293 -1043.6067119944994 -9954.233217662504 -13054.476580334602 -31421.218835278272 6337.409679940274
18674.56234997903 -8901.735730483017 8149.174033405402 -8653.719135206102 7007.4424692711345 -3725.133694565155 -31486.67532606074 14242.449942072833
-364.5847184830539 32032.87621849803 4213.667036683742 -10539.47953522944 31555.03184715954 10314.609860357103 15797.081878260113 891.9745994903562
-23027.776780012002 -14810.928029307364 4436.844674114823 -17073.020333148204 10442.30646627385 207.08764046882197 613.9031738316417 -33665.126980887326
12481.196575388565 13583.43873286146 -14509.031050451042 10172.624411634075 21103.03684617093 10408.94611341483 4755.973724087258 -23012.294091428073
-8240.19138427859 12006.92267255365 32085.5325894999 -3089.2355580762733 17445.30652320162 -12453.993834135406 32889.214916478115 8935.481489078244
-14889.229086575726 -22638.363209364055 31259.97924504938 5232.588960991577 23999.119064436414 2302.4377524840593 21798.436159311255 3191.68012468467
11184.13446766271 -32488.643406679552 -25035.945452888274 4050.6701298537105 -9978.289417371285 -409.13169710227 -1094.5884118674219 5368.007230921488
11109.298463401714 -2877.001773333954 30376.85903424922 -7051.823349096234 -25914.839150663207 -26646.10189544599 16683.713791758582 12367.945338813059
28348.261585943645 -22679.672588227826 129.90813133487526 -4548.796641807699 28075.166230841987 1019.8668930822325 35048.64602366042 -9064.1016579194
-12763.670838914843 2975.381058758738 8687.834370827752 -3458.694529745692 5166.652600054419 -2961.585213788732 -14165.381304661763 -16851.142253144855
3146.7866127272914 8950.101645383107 34428.99531873199 -9960.167548204436 -2890.354466324637 -24950.79771667954 5057.509065007872 19339.10817182009
14302.407864862149 -22875.598582006478 8839.925913511557 5925.500717987301 12141.771152162399 20291.655553949327 5641.315274093036 8383.013177474115
21354.964208385743 -26772.67878089226 20549.816538542033 -2517.9903014254296 21916.8126977741 -10207.42784728991 -7221.699366621941 8348.412914834655
1333.7641871799128 3146.4110644655407 11861.629117972096 17323.80522811462 19861.83762259354 15281.249074231371 1451.5332169057758 -19983.092530671493
-8077.354807383147 33101.26224637576 -7551.931587735717 10736.747598869379 7043.039587931614 11024.001418528953 -6971.286131720793 5623.680747292471
-24423.21478882937 32443.568919144844 3144.219318715374 22196.266416873208 31848.170244727527 9928.508660474601 16101.424292151449 -10149.120462048655
8768.941066099627 -19780.09240526253 -16873.542268063124 -9225.070856599978 -1708.5620366393537 28323.24207866296 17557.347495482667 25457.119913908347
11314.6697564238 19633.442486039934 20504.82725701654 12079.38930773988 -16963.748818005846 -16193.776035065128 1980.047950038644 20551.05247333349
-4434.803973856116 -25067.562299763045 -34876.77164669775 10117.938646955201 -21316.951830003225 14037.240403769927 -4414.350588882799 12708.38618592429
10868.214187856523 26615.880108616057 4081.22342114599 -7117.063130174061 -16554.45708578482 -6811.662396322632 12679.258197902933 1521.4622534367784
-5371.048283353372 -1953.8099135162868 27985.449319327465 21828.005905117257 24398.265061939568 -8934.796141697947 -9888.704007395589 8423.64064548761
-14095.0961088167 -21086.910945560543 -12092.242104611849 -18811.536138123698 24670.740440105707 -7247.087811882038 -12585.173555862862 31662.725265967594
25319.364079163817 18604.384373155564 -11362.411192578295 233.44632748960615 6850.4555248849 29828.448512313116 -2922.984552741361 27154.28774518366
4887.060515042263 14954.128825666814 -25155.639425863417 27540.42156887398 17467.18367902586 24777.148755959024 11331.612079473314 23227.900771334967
-28908.06558986023 -6581.170154908628 7619.359835489124 18081.90482290287 29272.473593060215 -19824.000942088085 25442.910334836306 27920.194710099586
-10616.07965910074 32482.822170458887 21689.439760555473 5055.539691840949 -14498.227027348818 -1319.9530246064057 -2779.2152592641633 6783.59640659367
6846.982672019795 20269.90271899613 588.0014864191883 22926.105669408753 1259.7566304875252 18888.36939513641 8114.367989932267 18397.87526816266
-9348.622334593962 -1921.978126072351 -846.8247215858718 -18414.674788929675 -26244.3552759075 5825.27100194625 -20517.888519552864 9325.781705383028
18773.042634259687 -21305.193188203364 408.5555708836304 -5733.968231545881 702.9526599652496 -26821.488667430534 -15225.494983212515 -8627.069051605033
26448.313882436352 18685.319424621153 16765.145254006293 26393.070675533432 5971.762561960211 -17252.512948100728 -29636.63824456244 -12667.570235330426

XTrain_Boundary f8 [3200, 4]
00000000: 0000 0000 0000 0000 bd5b bfb0 40bd e03f
00000010: 5254 0dd2 6ae1 e53f 1469 1fb3 6b9f e43f
00000020: 0000 0000 0000 0000 dd1b 895c 23c4 e93f
00000030: 2e77 8175 4d0b d33f ff0f debf 531d eb3f
00000040: 0000 0000 0000 0000 5c29 373f 1769 9d3f
00000050: 9d97 d476 4e28 ef3f d7d8 5009 d329 dd3f
00000060: 0000 0000 0000 0000 0a46 f58e 8b2d de3f
00000070: e847 34de e37a b53f 6607 955a d3f3 e43f
00000080: 0000 0000 0000 0000 887e 8f66 e520 e13f
00000090: 8e3c fd7e 0b02 ec3f 7fa3 2f54 087b d23f
000000a0: 0000 0000 0000 0000 d48f 7d3d 3db5 d43f
000000b0: db18 fe19 33ee be3f 1b25 242a 96f4 e93f
000000c0: 0000 0000 0000 0000 4aa1 3b47 e0d3 d23f
000000d0: 3aa2 97fc a519 ec3f 3e56 8565 9eab e13f
000000e0: 0000 0000 0000 0000 d3e0 dd81 d8f4 dc3f
000000f0: 5bbd 61ab bc65 eb3f facb 8515 c071 ee3f
00000100: 0000 0000 0000 0000 fb5a 08fa 4163 de3f
00000110: 6f91 37c1 fa6a af3f 88a8 9b4e d1e3 e23f
00000120: 0000 0000 0000 0000 1f52 3267 a51c d73f
00000130: 6694 1779 4727 eb3f bb2f e5ab a60f ed3f
00000140: 0000 0000 0000 0000 17f0 4c80 8a15 e53f
00000150: 3b51 511d c6f3 c23f d35c 0bd3 0a52 e33f
00000160: 0000 0000 0000 0000 2d5e 4d4b bce9 d93f
00000170: 6cbd a704 987b ee3f ec21 34ea 643d e43f
00000180: 0000 0000 0000 0000 aaed 1abf 8e7b 8d3f
00000190: 131a 7758 532f cd3f a8f1 3113 5e9b e03f
000001a0: 0000 0000 0000 0000 3e3c 599e c92a d13f
000001b0: 0af3 28ed 12b9 e63f 2ca6 ba1f 32fc d73f
000001c0: 0000 0000 0000 0000 6f80 8bd3 ea80 e03f
000001d0: 6ecb 41a4 f0cd df3f 43f0 fd2c f673 d93f
000001e0: 0000 0000 0000 0000 afc9 f1b7 9fd9 b33f
000001f0: 35e3 461b 391c e33f 7bb9 b2a7 d652 ee3f
00000200: 0000 0000 0000 0000 3886 017d d0cb cd3f
00000210: a33a 7597 5cf0 e93f 712d 690c ae14 e73f
00000220: 0000 0000 0000 0000 2e5d bb1b 026b d53f
00000230: 1ca5 bb84 c37d ea3f afc2 8531 27d8 e53f
00000240: 0000 0000 0000 0000 dfe5 6dc8 1b7c de3f
00000250: 5b4c 9e66 25fd d83f b3e2 d4e3 f805 e93f
00000260: 0000 0000 0000 0000 dffe 54a9 77d7 dd3f
00000270: 6f13 79c8 02b3 e03f 250e c8d4 3f03 ec3f
00000280: 0000 0000 0000 0000 b646 658f ec0b e13f
00000290: 0623 b04e 1825 c83f 9224 3a96 a4a8 e63f
000002a0: 0000 0000 0000 0000 01f1 939e 10a1 e33f
000002b0: 09f8 bc6c b49f c73f 5800 6039 811e aa3f
000002c0: 0000 0000 0000 0000 c644 f87f 9385 cb3f
000002d0: 84f1 7c1b f152 c93f c5ed 5773 c7e7 d83f
000002e0: 0000 0000 0000 0000 6f27 49b1 2620 ef3f
000002f0: 7f86 3a81 d684 d23f 8206 7ec2 14ec e33f
00000300: 0000 0000 0000 0000 f1cf 0708 3ca0 b83f
00000310: 611b f421 f0d1 ed3f ee20 36bc 5b67 eb3f
00000320: 0000 0000 0000 0000 68c3 f964 0a21 c83f
00000330: 168d 01e3 f954 cf3f 406c 8bdf eed6 e83f
00000340: 0000 0000 0000 0000 8443 42dd 9ce8 e73f
00000350: 9f72 56f6 99fb e63f 0fac e5dc 4620 d13f
00000360: 0000 0000 0000 0000 77b9 afbf 9a6a e93f
00000370: ef34 c644 0a80 e53f 0f86 289e d00b e83f
00000380: 0000 0000 0000 0000 6605 5367 6e00 df3f
00000390: 167d 120e a728 e23f 0ad5 9d9b 6154 e73f
000003a0: 0000 0000 0000 0000 5a4f e239 169b df3f
000003b0: ccdb 1c25 57d3 d23f 1b69 6c73 6f0c ee3f
000003c0: 0000 0000 0000 0000 11ce 876a e606 ef3f
000003d0: 9446 99c2 10ea d63f 7c50 a87e cf03 c93f
000003e0: 0000 0000 0000 0000 6d5e 262b 58e7 b53f
000003f0: 78af c177 477a cb3f 1807 9999 345a ed3f
00000400: 0000 0000 0000 0000 65ee 86c4 028d cf3f
00000410: 2d9c 1cef 6fd8 ec3f 9116 bbb2 00ab cf3f
00000420: 0000 0000 0000 0000 4edd b665 2f61 d83f
00000430: 4040 8830 e1ac d63f 4e8e d960 66c6 db3f
00000440: 0000 0000 0000 0000 77ae 22d8 9d84 ce3f
00000450: 8d24 dbe2 e6d7 ce3f 1f50 aba2 997d d63f
00000460: 0000 0000 0000 0000 c43f 1925 a9cb ea3f
00000470: 72e9 e83b 9adb e63f 2d77 9d11 ca21 e43f
00000480: 0000 0000 0000 0000 5721 bd6a 3307 ea3f
00000490: 2037 f0f4 ba22 e33f 651d 9af2 12e7 e63f
000004a0: 0000 0000 0000 0000 c872 a153 b0cc b73f
000004b0: a1df ef80 5734 e93f 2642 879f fa3b e13f
000004c0: 0000 0000 0000 0000 8aaf 807b deb7 ed3f
000004d0: c092 1915 914a ec3f 2617 d1c1 97be eb3f
000004e0: 0000 0000 0000 0000 12d5 315e 7e64 ed3f
000004f0: f6e7 125a c1ee e23f dc1b 16ff 7b76 ec3f
00000500: 0000 0000 0000 0000 bf49 e783 c77c cb3f
00000510: 689f 32f2 27b4 d43f 0f2f 7982 2691 e23f
00000520: 0000 0000 0000 0000 d18b 96b0 76da b93f
00000530: f3cd ad25 9b6d d53f 46d2 f4b7 db73 d03f
00000540: 0000 0000 0000 0000 d256 3470 b73e ec3f
00000550: 1e9b 158d 029d e13f e533 6f18 cc3f d23f
00000560: 0000 0000 0000 0000 dbb9 b2df fd8f 873f
00000570: f3f8 7795 2ba2 dc3f bbdb 4317 2dfc ee3f
00000580: 0000 0000 0000 0000 0ed7 d14e ef03 b13f
00000590: b414 4aa2 54e7 dc3f 14d8 498b 9fd7 d33f
000005a0: 0000 0000 0000 0000 a527 0a32 a049 eb3f
000005b0: 7287 9f32 1c6b da3f 5496 eddc 7e51 ef3f
000005c0: 0000 0000 0000 0000 1a83 b72a a858 d43f
000005d0: 3ab2 af15 ef8d d53f 1e1e fa96 2ed0 e33f
000005e0: 0000 0000 0000 0000 ed81 559f 3e27 db3f
000005f0: 6cca 2a41 ede9 ab3f 5031 5d68 44f9 e13f
00000600: 0000 0000 0000 0000 17f7 71c6 d35a c73f
00000610: 65f2 45f5 23df c13f 081b cea9 3010 e03f
00000620: 0000 0000 0000 0000 4001 638b 6001 dc3f
00000630: 0188 a263 29af ac3f 5a45 4e9d 467f e83f
00000640: 0000 0000 0000 0000 5648 bfaa 44a8 e53f
00000650: 7314 46de f048 de3f e818 572f 94b3 e83f
00000660: 0000 0000 0000 0000 7858 07de ca47 ea3f
00000670: 5421 19ba 7e1a e53f 8cc5 8840 0d00 b03f
00000680: 0000 0000 0000 0000 f411 abad 2053 ed3f
00000690: d28f 3328 7c0f da3f 0d0e 3d88 5119 e53f
000006a0: 0000 0000 0000 0000 2572 d222 d221 d83f
000006b0: 9dc8 0c6e 2978 e73f 0ed4 fd1e 40c4 c93f
000006c0: 0000 0000 0000 0000 aebd 6f00 7dab e23f
000006d0: 3c23 5651 741b eb3f 8c35 089d 607d df3f
000006e0: 0000 0000 0000 0000 f63c bdf5 e743 bd3f
000006f0: 4b2b ff48 c456 c23f ae42 e995 2bfe dc3f
00000700: 0000 0000 0000 0000 0973 9383 fe48 d13f
00000710: ace3 74b3 c0ef c43f ef7a 6c62 f4cd d73f
00000720: 0000 0000 0000 0000 f6e6 6c53 416d e73f
00000730: aa09 425c 4d94 e43f 18a7 e15f b207 bd3f
00000740: 0000 0000 0000 0000 bbf0 eaf8 f6b2 c13f
00000750: 134e 7d7c a9f8 d73f 49cd 08f3 7a4c b73f
00000760: 0000 0000 0000 0000 2f7f c3d0 06b8 ee3f
00000770: a587 9541 a167 aa3f 649d 4173 bf2f e03f
00000780: 0000 0000 0000 0000 3d9d 8d83 952c eb3f
00000790: 7644 4aab 92ee cb3f 7bc3 d9f8 04b9 e73f
000007a0: 0000 0000 0000 0000 7d53 a076 d135 ea3f
000007b0: fa9c 2801 425d da3f a40f ca7c 9dd4 d43f
000007c0: 0000 0000 0000 0000 e2cd b0db c9ca d13f
000007d0: 4005 3dbd fa81 b43f a0c6 ba23 d518 ee3f
000007e0: 0000 0000 0000 0000 1bd4 47bf d863 a23f
000007f0: 630c 3466 8f07 ea3f e50a 640d 7cda e13f
0.0 0.5231021358584865 0.6837667563037348 0.6444605349054506 0.0 0.805192642911489 0.29756485438507496 0.8473299739275716
0.0 0.028721202119223008 0.9736702271372796 0.4556777564024634 0.0 0.47152985535385084 0.08390640425594109 0.6547638673002723
0.0 0.5352656367430919 0.8752496223695674 0.2887593099717875 0.0 0.3235619640820435 0.1208221376856246 0.8111067603178158
0.0 0.29418189007130435 0.8781309064334615 0.5521995528058097 0.0 0.4524441974858863 0.8561690661717124 0.9513855381359229
0.0 0.474808210537432 0.06136306389433598 0.5903097663224495 0.0 0.3611234195498429 0.8485448231773602 0.9081605298356331
0.0 0.6588795190687077 0.1480643885757987 0.6037649270973823 0.0 0.4048910842297769 0.9525871363565961 0.6324944090165991
0.0 0.01439582367617372 0.228006761737746 0.5189657568840191 0.0 0.2682365461705024 0.7100920326261939 0.3747678098539804
0.0 0.5157369739281544 0.49694458046649614 0.39770273584122523 0.0 0.07753942719299432 0.5971951992752113 0.9476121211389875
0.0 0.23278242210203515 0.8105910261309258 0.7212743990325362 0.0 0.3346562643832439 0.8278520195428061 0.6826358763920178
0.0 0.476324983340957 0.3904508115894651 0.7819790315471294 0.0 0.46627608810739035 0.5218519130217895 0.875396648014832
0.0 0.5327055741019737 0.18863204805554562 0.7080862936137626 0.0 0.6134112450813803 0.18456130322914557 0.05101398301485521
0.0 0.2150139212467705 0.19784368364515725 0.38914667381297036 0.0 0.9726747000324688 0.28935778255445394 0.6225684927632786
0.0 0.09619498439843689 0.9318771994738705 0.8563669849400222 0.0 0.18850831919146604 0.24478076538353183 0.7762369505029554
0.0 0.7471451112233898 0.7182130633624019 0.26759502002704577 0.0 0.7942632430911506 0.6718798964735962 0.7514422501591883
0.0 0.4844013222719553 0.5674624705169744 0.7290504493127241 0.0 0.49384074833618785 0.294149194949054 0.9390179876675434
0.0 0.9695922928498836 0.35803622249395883 0.1954287880367963 0.0 0.08556128552879168 0.21466916415681303 0.9172614097553575
0.0 0.2464908084492549 0.9014205618049168 0.2474060890873955 0.0 0.3809317105583049 0.3543017362544596 0.4339843698309992
0.0 0.23842213681688282 0.240963803071541 0.3514160240713426 0.0 0.8373609280188181 0.7143069429505842 0.6291246742291371
0.0 0.8133790096990577 0.5979895385696388 0.7157072771378067 0.0 0.09296705285801032 0.7876393812466526 0.5385716548717638
0.0 0.9286949550782861 0.8841023838145574 0.8670157227977355 0.0 0.9185172881831554 0.5916449317221566 0.8894634229808349
0.0 0.2147454637584598 0.32349585201381226 0.5802185581501095 0.0 0.10098974047882271 0.33481482200224305 0.2570714279602594
0.0 0.8826558295720253 0.5504162555269863 0.2851438749901816 0.0 0.011505111111856195 0.44739808651492224 0.9682832197566918
0.0 0.06646629022892744 0.45161929939815626 0.3100355968703081 0.0 0.8527375199639563 0.412787484585457 0.978698188305041
0.0 0.3179111878544504 0.3367879592686084 0.6191628407258951 0.0 0.4242703014370182 0.054519094662642015 0.5616781271324189
0.0 0.18245932759958158 0.13962220646125725 0.5019763294702395 0.0 0.4375840531538593 0.05602387753721417 0.7655366012933584
0.0 0.676790555468197 0.47320195871754506 0.7719212460149523 0.0 0.8212637268541263 0.6594842562417775 0.06250078988593638
0.0 0.9163974182088723 0.4071951286880423 0.6593406353862875 0.0 0.3770642604884265 0.733418192807466 0.20130158913858093
0.0 0.5834336288952977 0.8471013630488424 0.49202742896235274 0.0 0.11431741475574939 0.14327291073126455 0.4530133213020616
0.0 0.2700802121087667 0.16356667292145965 0.3719454728288118 0.0 0.7320868138696983 0.6431032945550232 0.11339869347434861
0.0 0.13827407030283276 0.37455212742972427 0.09101074632126428 0.0 0.9599641873755668 0.051571883445617396 0.5058285952663195
0.0 0.8491923875234658 0.2182181679131962 0.7413353786815685 0.0 0.8190696064872182 0.4119420062365432 0.3254770010610122
0.0 0.2780022282997533 0.08010832901074583 0.9405313203662509 0.0 0.0359180196282198 0.8134228702696301 0.5579204808749095

YTrain_Boundary f8 [3200, 1]
00000000: 041b b25d 0bf8 f7bf 0838 c095 169e f7bf
00000010: abfe 41b3 34a6 ecbf 9080 e9c4 e627 f7bf
00000020: 30c0 1a40 980c fa3f c8d5 2012 9752 b43f
00000030: 78b9 34e9 db8e 0040 fc55 cce1 4958 d3bf
00000040: 2d48 ee61 7df0 f2bf 3ddb b9c9 cfbb eabf
00000050: 52d7 a62b 7525 e3bf 191b dc1b e3ff efbf
00000060: a837 67b6 a98e 06c0 b322 c3b7 e89c ee3f
00000070: ccdd 0b33 f334 fb3f e83a 7234 da7b df3f
00000080: d05f 9182 cf23 efbf b4c6 09cb cfe4 e83f
00000090: 23b3 8ea1 c5e6 f5bf 248d 780a efa7 ecbf
000000a0: f5bb 1b23 16e0 f5bf a00b dc2b a8e0 acbf
000000b0: 6056 8162 ee7d ce3f a281 52d8 9f0c e5bf
000000c0: 06f4 d06f 6947 f1bf 2039 c91b 589c e3bf
000000d0: 0875 d49d 7459 e13f c388 99a5 f0e8 b4bf
000000e0: 0792 2dd2 d6d7 03c0 cee6 f677 d505 f03f
000000f0: a3c2 8806 9c09 fc3f 58da caf7 d90e d3bf
00000100: 3df1 6338 75dc fc3f 95f3 1441 3f4d f5bf
00000110: 00f0 cfb7 8f13 fb3f d5ae a378 7f0e f83f
00000120: 8028 f689 447e c2bf 392d 8537 24b4 e73f
00000130: 3ede d413 75dd dcbf 0ce6 d3e2 fe27 bebf
00000140: 6384 8a54 5d64 fdbf 6a22 913f d2f9 c0bf
00000150: 82ac a9c6 edac 0340 cc99 f43d fc9d e43f
00000160: 2e1a bc24 dd32 c93f fc22 1317 75a1 e2bf
00000170: f3ba 637c ee27 fdbf 9a85 ae28 831a f53f
00000180: 1b06 ca38 2c27 fcbf 1022 1cba 80e7 c03f
00000190: 2460 105f cfb6 d9bf 52c8 7909 6403 c5bf
000001a0: a38c 3a4f 766f fabf 20ab 35d4 3667 bebf
000001b0: 18a7 8f76 48e7 0140 d456 8367 c7c9 f5bf
000001c0: 2742 a5ce 7530 d9bf 907a 5fc7 0efd a33f
000001d0: a245 8d2e 3e74 f73f c04e bd9a 7351 c7bf
000001e0: c444 3fe5 87a3 d53f 6af3 9483 9253 fd3f
000001f0: 0cf7 448c 49a2 0440 5e20 6fac f564 e33f
00000200: 6492 17a1 f1e1 e0bf e601 8bb9 66a7 b2bf
00000210: 70d2 040b 8387 ebbf 89e2 5134 4d4d ed3f
00000220: a0ed 122a 97c2 c8bf 48c9 644c 7900 f7bf
00000230: 2e22 7f49 2df3 00c0 686e f7e2 2365 ce3f
00000240: c7a7 6fb5 b33d e73f 1cc7 2bb6 637c d73f
00000250: d383 5668 114f 08c0 8d4c 04e4 29ed f8bf
00000260: 0539 8716 4240 e2bf fc9c 544b a3a5 bc3f
00000270: 0c0a 5d41 6fca f73f b83e 032c dad8 f1bf
00000280: f0d2 fce7 7153 b23f 0148 22fc 0700 e0bf
00000290: 0420 9b42 3d14 f9bf f9fc 01dc 9eef 0040
000002a0: 6247 bebb 729f f7bf 3cc9 6d3d fac2 e53f
000002b0: 506b 027a 8c3d bcbf b292 0608 80ef d7bf
000002c0: a578 e7df e0fc d63f 248f 4bd2 2643 cbbf
000002d0: 802e 41fb 02fb d7bf 1e88 d553 50d6 c6bf
000002e0: f250 89a1 a913 ec3f f287 5f09 5f8c da3f
000002f0: 1807 7f35 40b1 0a40 1dee 500b c43f fc3f
00000300: f8fd 0e21 c242 dabf fb1f 0710 ce1d febf
00000310: bac1 1f4a 961c d8bf b51e 25b4 c8b0 f6bf
00000320: fcf8 277c 2ca1 f73f 1bef f342 2014 ea3f
00000330: 0626 881d 22a0 fb3f 8453 55bc 05b2 b23f
00000340: 00cb 0ef7 787e 71bf f84a a111 acf4 f9bf
00000350: c2d0 9b72 3096 0140 d4e4 fb45 6e6c e9bf
00000360: da53 936d d3d1 e7bf f53c f801 d065 f4bf
00000370: e840 a1a4 8e55 b2bf 30e6 671f 8bd4 dabf
00000380: 3027 0982 cce5 b73f bbe9 eb4c 48d4 e93f
00000390: d27d 84e2 b541 f03f ce6e 61d9 690b e63f
000003a0: 840b 965e 82e8 bfbf 30a7 c595 71da c23f
000003b0: 78bc aae8 765d c53f 1096 42f0 4ea1 d83f
000003c0: 5bf8 11b8 c9a6 f53f 1b98 cfce a6e3 e7bf
000003d0: 1356 e1e0 6f34 fc3f 2be4 9ba5 c624 eb3f
000003e0: 2f51 5406 9b45 fabf c90e 9681 3832 0240
000003f0: f425 8161 0c01 f0bf 784c e45e f9d0 b53f
00000400: c082 6b71 ac76 cf3f 999e c7ed ef05 edbf
00000410: a183 f4b3 1d8f fb3f cd3b d452 db40 eb3f
00000420: 13a0 9add f2d0 00c0 58ef d1eb 9334 e2bf
00000430: c073 4ee2 f1bc fb3f 665e 88a9 73b9 f13f
00000440: 8c23 c46d 8b14 f73f d00f 0f0c 16c2 e8bf
00000450: cacd 338d 5912 f43f fd49 9faf c05d ffbf
00000460: c04c cf33 4030 a3bf e69a 72d1 ee8d 02c0
00000470: 5e86 c084 7c84 f53f 2424 58f1 1137 e9bf
00000480: 84f5 dd5e b9af 05c0 4db2 a34b a3f1 da3f
00000490: b0a3 9605 3951 b23f e2cd 5242 4961 0940
000004a0: 78b8 c670 53cb 09c0 d0de e34a 76d7 f13f
000004b0: 32bb d765 7c71 0440 f84b 353b 8523 ed3f
000004c0: 4e04 dd11 0560 fe3f dad1 c3e8 3f7e 0840
000004d0: a8bb c114 17a7 e53f f4ae fc4f bff9 efbf
000004e0: 7d20 c936 c131 0540 f870 b2a0 4217 ee3f
000004f0: 6883 982f d599 e0bf 1f83 c6c0 e31a e43f
00000500: 08c6 10c4 17d3 d63f e434 e281 3d27 d43f
00000510: 1649 e343 1d23 cd3f d271 e6fc dda6 f0bf
00000520: a87a 38d5 4ee9 0940 8989 bf8a c664 d0bf
00000530: b0ef 04a0 8acb ba3f a34d 716e 6ed8 ec3f
00000540: 08d5 afcb 3f08 f33f 7046 ba75 3968 cf3f
00000550: 4796 e047 7d13 e3bf 5a46 9235 55b5 00c0
00000560: ff03 b3d9 b164 febf ec08 8f81 7882 d03f
00000570: d521 a12b 5d53 ec3f eae1 e8e2 b6c1 dbbf
00000580: cd34 6a3e be95 0940 0cee 1d7b c102 e2bf
00000590: 0916 bbd6 1d93 f9bf b0d5 fad9 58b6 fa3f
000005a0: d804 b956 a1a3 e5bf 95fe c245 6aed de3f
000005b0: 1ea9 9353 cb24 04c0 2c8a a107 47fb f03f
000005c0: d47d b186 47dd e83f 2632 fbe8 2b4b e8bf
000005d0: 6fbf 420d 0b05 eabf 921e 2a6e 3a1f d83f
000005e0: ae99 0e4f f92b f2bf 36ed 7c34 6327 c8bf
000005f0: 6c96 b845 e69f f3bf 167c 1973 c32a f33f
00000600: 6867 e63b c712 d9bf 1522 6655 3fc6 0540
00000610: 16eb 3ecd f369 f13f 2f79 dd2f 703c e5bf
00000620: 4e66 aed4 5a75 e83f c858 a037 c67f f23f
00000630: a840 b2db 07f5 cd3f 38de b008 9af9 e7bf
00000640: f0bb dd9b 0232 b33f 1981 ef9d 9612 db3f
00000650: 5e40 49e0 dce0 fe3f 7d4b ee58 b7cf 04c0
00000660: a09a e73d b052 a6bf 7e46 d405 8f5c f23f
00000670: 0c9b ad6d a9cd dfbf 04da 9e8e 0fb8 0140
00000680: c8e0 e107 5559 fa3f 4434 d289 6e57 d8bf
00000690: 764f 8603 bc78 02c0 0a39 2a62 629e fc3f
000006a0: f69d c3b1 b7a1 c93f 6bfc d3e6 1432 e5bf
000006b0: 079d ca8b 4e64 f03f f02b 57ab 41b1 02c0
000006c0: d0d0 1e38 5584 0040 8bd8 47aa 7b25 d23f
000006d0: d0c3 1455 40db 0340 df0f 9656 6bcb f1bf
000006e0: a09e 1348 f193 d8bf 7acc 499a b958 f43f
000006f0: a6bf d606 87d7 ed3f 7415 6c38 bc6b edbf
00000700: 1090 1408 170c a4bf 98af 952f 2412 f03f
00000710: ff44 bfbf 483e 00c0 d1b1 5980 d6bb f3bf
00000720: 60e6 0fe8 71ef 01c0 24c3 830e 00a2 dabf
00000730: 28c2 73ee c04d fabf 12e0 3354 1c46 f6bf
00000740: 9e6d 01ae 3ead 0140 04de 4785 1463 03c0
00000750: d6f2 2548 291b e6bf ca9d 0d2b f088 02c0
00000760: 6618 8728 4ad5 ec3f 3df5 6d82 740f f9bf
00000770: 2080 516d 3fe5 0340 804a 95f7 6fb8 973f
00000780: 82d2 f99f bd01 f93f 5301 7dca 281d f1bf
00000790: 4308 e576 5d82 0240 6041 94aa b33b 9ebf
000007a0: bfc0 8a24 49f0 e93f c489 5a08 b53a df3f
000007b0: db18 a2fa 21e2 debf a869 1508 4749 c13f
000007c0: 0891 2f5a cbae d0bf 0424 5575 ad3e ebbf
000007d0: ae84 b44f d773 f43f aa01 3b99 c40e e03f
000007e0: cee8 99de 2eb2 ea3f 4f77 3907 d673 e3bf
000007f0: 7628 be38 e69e 0240 ecbd e236 d47a eb3f
-1.4980577144612548 -1.4760957574503681 -0.8952888013008836 -1.4472415630225761 1.6280748848039472 0.079385225225301 2.0697553843703496 -0.3022637085972233
-1.1837133241101683 -0.8354262294732063 -0.5983224728176799 -0.999986223615312 -2.819659638428636 0.9566539372545634 1.7004272455213707 0.4919343483133347
-0.9731214094308545 0.7779311147298444 -1.3688408194386248 -0.8954997257718884 -1.3672086116237072 -0.05640149627108504 0.2382181149466076 -0.6577910637898194
-1.0799345367261153 -0.612834982175432 0.5421698649039692 -0.08167938273394086 -2.480390207305621 1.001424282656831 1.7523460631602255 -0.29778145979381554
1.8038227274656287 -1.3313591520556873 1.6922757320562596 1.5035395348049196 -0.14447838531879498 0.7407399258021662 -0.45101668297454356 -0.11779778516565659
-1.8370030691515005 -0.13262394050458975 2.459437896779094 0.6442853174274261 0.1968647412652031 -0.5822091532400857 -1.8222489222495681 1.3189727391366888
-1.7595636576010125 0.13206490600011067 -0.4017828396185925 -0.16416597807580274 -1.6522124380942749 -0.118762423333163 2.237931181200917 -1.361762432430102
-0.39358277492741184 0.039040052258987434 1.4658796137267491 -0.18217320495261013 0.3381061304799682 1.8329033985057444 2.5792418440386253 0.6060741775372767
-0.5275810381250037 -0.07286684064730017 -0.8602919783794061 0.9156862279770205 -0.19343843035117647 -1.4376156791809809 -2.1187387220309324 0.23746155340528508
0.7262819808649902 0.36696713247430224 -3.038607421055056 -1.5579012782007198 -0.5703440132145096 0.11190243329166444 1.4869225075968897 -1.1154424399609706
0.07158576883086787 -0.5000038074961141 -1.5674412347598272 2.117002219019579 -1.4764277776452777 0.6800509643347037 -0.11031415919061982 -0.37399292739636814
0.35918447366374046 -0.21298680561368954 -0.37469553505500386 -0.17841533750021282 0.8774002223022122 0.4148175803694577 3.3365482501402646 1.7655678216968973
-0.4103246043050315 -1.8822765947425057 -0.3767448161952661 -1.4181601559557013 1.4768490648125967 0.8149567897484958 1.7265950349413983 0.07302890632611364
-0.004271004218866947 -1.6222344101594768 2.19833459413539 -0.7944861761926867 -0.7443635120531511 -1.2748565747204428 -0.0716179992607554 -0.4192226225564779
0.09335020231915503 0.807163381802915 1.0160425995198819 0.6888932462420259 -0.12464155968886642 0.1472913724240299 0.166914809805778 0.38484548056507695
1.3532197180025125 -0.7465395011211088 1.7628020080932216 0.8482392534780322 -1.6419935462227604 2.27452183951559 -1.0002559479493103 0.08521994177526604
0.2458091310318391 -0.9069747585426341 1.7224404363152888 0.8516670816187514 -2.1020257294476408 -0.5689181905613436 1.7336291160674904 1.1077763197298736
1.442515782140819 -0.773692153503811 1.2544799342839377 -1.9603888378375125 -0.03747749931758326 -2.3193031657314007 1.3448453126551594 -0.7879724229579819
-2.710802785061505 0.420998405329361 0.07155186067997366 3.172503011848435 -3.2242802439350804 1.1151030469317682 2.5554130512677142 0.9105859905633897
1.898442334917735 3.06164533469767 0.676646748104635 -0.9992367326971974 2.6492943077210485 0.9403393877614965 -0.5187784127811996 0.628282429232147
0.3566340841963158 0.31489503559062215 0.22763410391650812 -1.0407390479004914 3.2389198930607854 -0.25615085172298585 0.10466829687805901 0.9014198453027585
1.1895139652745588 0.24536817787570753 -0.5961290744641666 -2.088541430021718 -1.8995836738470186 0.25796330120296207 0.885176263059345 -0.43369838866376986
3.19811676751724 -0.562836399519655 -1.5984171283647604 1.669518329127964 -0.6762243932536434 0.48324066937127813 -2.51796593946814 1.0613470361792094
0.7770116453866032 -0.759176211396668 -0.8131156214712812 0.37690602072005064 -1.1357358062901812 -0.18870201170816764 -1.226537964198907 1.197940301520935
-0.39177113389597773 2.7218004867356833 1.0883672730839797 -0.6636277136674716 0.7643255380564342 1.156194894113968 0.2340402434097133 -0.7492189569229089
0.07498184495283033 0.42300954268832097 1.929898143880585 -2.601423926136191 -0.04359961276695867 1.1475973346427106 -0.4969276019168525 2.2148734228351277
1.6468096073058849 -0.3803364129933622 -2.3089523578036575 1.7886680445258798 0.20024772815598596 -0.6623634823189496 1.024488969860444 -2.3365510354974433
2.0646156677631566 0.28353778485269093 2.4820562979661887 -1.1121629125855106 -0.38402969397291464 1.271661379517154 0.9325595029422302 -0.9194012739177837
-0.039154739128463345 1.0044290407922514 -2.030412195229132 -1.2333588613210973 -2.2419164781429544 -0.4161377088303644 -1.6439828218973478 -1.392116860310129
2.209592208307824 -2.423378983741488 -0.6908155831475493 -2.316864334443129 0.9010363380009607 -1.5662732214835409 2.4869373836991286 0.02316451023700461
1.5629249810273511 -1.0696189794253612 2.3136548317570784 -0.029524619375537298 0.8105817521773345 0.48795820060527384 -0.4825520465459598 0.13504875082692291
-0.26066860015113535 -0.8514010707523316 1.2782815087778476 0.5018027298720444 0.8342508647613387 -0.607890142545992 2.327587550452388 0.8587437698351414
