Allen_Cahn4D/dataset/Dim4_1/Allen_CahenC8000_B1600.npz (npz, 385050 bytes, 4 tensors)

XTrain_Col f8 [8000, 4]
0.47394082902263723 0.7056715692397144 0.6118402672629342 0.07044205999434722 0.2693868085478759 0.841497842285398 0.5640914819517167 0.255979245515988
0.7980969605580644 0.42662777396241525 0.11302139474426748 0.3787021646269101 0.37808926200396836 0.9916177821496375 0.8489096933051474 0.5279704920059605
0.5827915504433373 0.7574529741009569 0.9431086263883268 0.7261298233542295 0.9027592150662737 0.7925625350784208 0.9683632358863129 0.7963810137915326
0.9649144231147634 0.32108558234798684 0.024618322894048524 0.0025123812298935007 0.9572566580631725 0.12000168081458094 0.9182355388184315 0.5242199236957269
0.8152281678566802 0.6679317130401962 0.8666161134186339 0.6407416548892998 0.6659552375234042 0.8385676077714803 0.6206858476493687 0.8610666337563627
0.07765502052322829 0.39177648190580683 0.81973622681016 0.5823287341124226 0.42547332626355855 0.7675441692177738 0.9008974589745873 0.8378914217306512
0.5213115855723953 0.7902255543082698 0.9457225182135917 0.2673502071554703 0.7721296777495635 0.4635279323983418 0.01491216221386402 0.8021070160609108
0.6261014348010376 0.31412943485136274 0.6304097654866024 0.04910350444131921 0.7123551617503051 0.9436898069266695 0.9120947596260038 0.6154703363302587
0.8770996649116295 0.6655885844758134 0.6809882267076998 0.17880475385191189 0.13869481747586265 0.6424518902893719 0.39856048689540613 0.8612453139747737
0.6984573894255091 0.3861362149898937 0.46395445431477567 0.48492993360477377 0.5951790509844461 0.6011179061515226 0.41522922505226645 0.3485139741634295
0.12300603509126123 0.29441000289537994 0.9213206317296764 0.23166438895317865 0.04073301268936105 0.6551653957870027 0.009888702418152345 0.5344009096709195
0.18401442925100372 0.9635771871468971 0.18658826062877767 0.06499591822392385 0.353600729083393 0.7830047324071322 0.2583286566236731 0.3748343137562426
0.013675894157559721 0.6735698688435576 0.455856086938607 0.19502975763179714 0.1252952519139757 0.8325860481463752 0.1431642972279289 0.4188110112353655
0.04565388586723348 0.07273158875472494 0.7535732122692841 0.5242633245634591 0.7878769687929262 0.6762312483201715 0.07553238370795211 0.8648767854581948
0.39542989498655157 0.05954702244026082 0.662491587722156 0.9477556959516228 0.9995172109744557 0.3937763062365632 0.7067877985356813 0.06208199564670027
0.6677206642751427 0.9071626931039236 0.122666162722959 0.002229606316175276 0.34621003936158395 0.27958379146237017 0.6923942039812908 0.43588385307217564
0.010653072162506421 0.03787342307453185 0.19955784155335893 0.7936120852544368 0.40161689369244136 0.08518870801213312 0.776219646620985 0.8939750620709367
0.6918303987440987 0.1623229797422858 0.8549856183132721 0.31365782518320334 0.7733780214460105 0.7105701205017433 0.27483531665063804 0.4824387534722831
0.227380677162525 0.8235531960714213 0.7159452533229325 0.9757697655359437 0.7822149965758703 0.0994601119239199 0.3192131426530448 0.42481598703326956
0.22380139427448134 0.38647153613743074 0.8284938855344786 0.6921706599457921 0.9085070642330549 0.6900284324255499 0.2840534336046552 0.44126817221542025
0.3149763634912932 0.1547363654246055 0.4246795978883119 0.15454248912343668 0.7062773606492638 0.8794807490638685 0.052392650900919976 0.6463961560602208
0.41189251849654435 0.2953298536800734 0.39602422100684587 0.7068987683852532 0.7592689667534854 0.7997275673123087 0.5830390849203834 0.07564004739880165
0.3086542147688338 0.49530900981254466 0.33002274340962773 0.38169967517944975 0.4873077954524126 0.7328432157944402 0.9463864634836502 0.1945649737905244
0.647639538486311 0.2534619854820603 0.803008519579898 0.6956301748379745 0.5726764076359299 0.9473412217668241 0.118596818043087 0.295088148230103
0.414553126642196 0.6130674356657507 0.6409830773795113 0.8386527801951831 0.8397497253786429 0.25323323013342963 0.5988439167063223 0.6945004983967916
0.8955309306397615 0.9046599842210588 0.7862479265572058 0.8192574724978938 0.8228103069728167 0.8771823790295629 0.7022185982962541 0.7643517943665784
0.7788279407541029 0.1673346575167372 0.42964499010297796 0.8752683755481616 0.12191079730088708 0.6902304226589697 0.8362626925804868 0.49245210811706547
0.6225690430401728 0.3774290817113968 0.7227146178019033 0.07289859603580692 0.9155894924193769 0.6008650554770723 0.6407633520857817 0.010892276016413878
0.903511409063823 0.0222308521367796 0.2375505705869575 0.006348853679859115 0.16895022036912824 0.6613691265148814 0.8998912930413524 0.6635836027648192
0.5301818092062385 0.51669536306027 0.3768803121556731 0.1430987448144617 0.1628966423823409 0.2935567154525705 0.1261037825527785 0.3791097615351034
0.8035364476816513 0.5998426472547451 0.41175689704601576 0.1464331188502872 0.3580160737234842 0.3852465057253496 0.748445062311719 0.7954179608288968
0.9125642943124274 0.783698513570745 0.8361647598855846 0.01654561563878344 0.7385043669890555 0.3961478630882621 0.13972103466805705 0.8091244338276227
00000000: f40b 39ea 0b55 de3f 1640 f38a dc94 e63f
00000010: 7ea5 480a 3294 e33f 8447 f0a7 7d08 b23f
00000020: d4f6 2b2b a23d d13f b6a6 08e2 8ced ea3f
00000030: dce9 5d94 090d e23f 018a fcc5 f661 d03f
00000040: d148 14a3 028a e93f 76f7 2e94 de4d db3f
00000050: 8cc8 2c5a f8ee bc3f a2ce ff00 a83c d83f
00000060: 07a7 d14d 9d32 d83f 32df 0e37 55bb ef3f
00000070: 9018 40a9 442a eb3f 6a65 8d5f 22e5 e03f
00000080: af41 3177 3aa6 e23f 7fb0 0005 0e3d e83f
00000090: 223a 5d24 f22d ee3f 109d 7e9c 743c e73f
000000a0: afe9 1b4b 67e3 ec3f 1f4b 061b ac5c e93f
000000b0: 6df9 98e5 d4fc ee3f 887a 2c09 f47b e93f
000000c0: 83ee 5636 94e0 ee3f c1b5 d98a aa8c d43f
000000d0: df66 d9ae 8b35 993f ff91 f566 d894 643f
000000e0: 7c4e 08b7 d8a1 ee3f bf4b 901e 6eb8 be3f
000000f0: d500 287f 2f62 ed3f 93e9 85dc 68c6 e03f
00000100: 3a1e f761 5916 ea3f 3901 ef53 b25f e53f
00000110: a63a 2ab7 51bb eb3f 1be7 9da4 f480 e43f
00000120: f369 b85b 814f e53f 7ea1 5bbc 8bd5 ea3f
00000130: 7bcf 1791 a8dc e33f e521 f59c db8d eb3f
00000140: 3279 840d 33e1 b33f ee26 48aa dd12 d93f
00000150: dadf af77 473b ea3f fe15 91de 6fa2 e23f
00000160: 1fd4 6779 f43a db3f 96d3 20ca b88f e83f
00000170: 240d 6be8 26d4 ec3f b0d3 bdab 01d0 ea3f
00000180: 24e6 61a2 95ae e03f aff5 061a 8749 e93f
00000190: 352e dade 5b43 ee3f c4f0 130b 441c d13f
000001a0: 9792 464c 49b5 e83f 72bc 9b0f 71aa dd3f
000001b0: 3267 2b88 448a 8e3f d5f5 3b55 dcaa e93f
000001c0: 4c5f 4ee0 0509 e43f b771 5958 b21a d43f
000001d0: f101 bb19 512c e43f d68f 6333 1824 a93f
000001e0: d756 5b0d 9dcb e63f f831 4af7 b432 ee3f
000001f0: 1a4b 6e59 e12f ed3f 664a c6d8 eeb1 e33f
00000200: a318 0451 3311 ec3f 0244 5d6e 804c e53f
00000210: 9775 55d2 a7ca e53f bde6 14fd 12e3 c63f
00000220: 907d 9774 c0c0 c13f bc7a 4144 f78e e43f
00000230: 0a64 2cd8 0382 d93f 615b 2b55 528f eb3f
00000240: 586d a74f c359 e63f 4cb3 cbab 74b6 d83f
00000250: 2664 0706 6eb1 dd3f eac5 6b8f 1709 df3f
00000260: aac2 e7ef b40b e33f c4be 7e9e 5b3c e33f
00000270: 9c58 7c99 1d93 da3f 5fc7 4e8e 0d4e d63f
00000280: e476 edd1 527d bf3f 4f42 830d 9dd7 d23f
00000290: b116 cd67 757b ed3f 28d2 19bf 2da7 cd3f
000002a0: 8499 bc1a f5da a43f ca08 8c6b 1df7 e43f
000002b0: 5000 e32b 8740 843f eea7 bfef cf19 e13f
000002c0: 7705 d0e9 c88d c73f 89f6 3ed3 9fd5 ee3f
000002d0: 81eb 9bc6 1fe2 c73f ab2e 258f 92a3 b03f
000002e0: c250 d0f3 64a1 d63f dfa8 c9f0 5f0e e93f
000002f0: dc5e f4ea 7488 d03f 471b c00f 49fd d73f
00000300: 27c4 3371 1b02 8c3f 8021 c865 e28d e53f
00000310: cc5d 4502 bf2c dd3f 7e3f 632f bcf6 c83f
00000320: 0b45 a8c0 ac09 c03f 42a0 fc7e 8ba4 ea3f
00000330: 5c3e 462b 3553 c23f 337a 1db3 cccd da3f
00000340: fb5c 7835 f25f a73f 3671 1693 899e b23f
00000350: dfd2 ba91 451d e83f d8c0 2fe1 c3c6 e03f
00000360: 6597 c7c2 4936 e93f 4330 02b7 afa3 e53f
00000370: 2788 d01d 1756 b33f 0d9a 9314 12ad eb3f
00000380: 30fd b430 b94e d93f a602 e983 f27c ae3f
00000390: 6c89 e48e 2133 e53f d3b7 d6c0 0354 ee3f
000003a0: d894 9d84 0bfc ef3f 3172 4e89 a133 d93f
000003b0: d785 fd71 019e e63f 032c f219 36c9 af3f
000003c0: b19a fdb9 f75d e53f 5c0b 610e 7a07 ed3f
000003d0: 6c8e 38b5 0c67 bf3f c1eb bfc6 d243 623f
000003e0: 49b6 2627 4e28 d63f e3a4 346a b3e4 d13f
000003f0: 6144 c1e3 1728 e63f 692a 7363 85e5 db3f
00000400: 76b3 5124 47d1 853f 5941 fc32 2564 a33f
00000410: 3ee6 9081 1c8b c93f f819 fc2b 4565 e93f
00000420: 7c87 fb57 17b4 d93f 0b8e e65a edce b53f
00000430: 6cfe 9795 cad6 e83f 8518 e196 719b ec3f
00000440: 6181 1f81 7923 e63f 17f2 b0d8 ffc6 c43f
00000450: 4396 a6cc 0a5c eb3f 4bf7 5245 f812 d43f
00000460: 21c9 b143 83bf e83f 873b a28c fdbc e63f
00000470: 0738 33de e696 d13f 3322 1fcb 46e0 de3f
00000480: 75e3 135e cf1a cd3f b493 743b 8c5a ea3f
00000490: 24f3 1705 06e9 e63f 01e1 ec83 8139 ef3f
000004a0: df7d 97be e707 e93f 9840 f8c7 3776 b93f
000004b0: 467c 09f6 fc6d d43f f90d c864 2f30 db3f
000004c0: fda2 9a2a 86a5 cc3f b1e3 221c f3bb d83f
000004d0: 48cf e99b 0583 ea3f 27f9 7615 4326 e63f
000004e0: 331c 2268 7d12 ed3f 047e d281 b614 e63f
000004f0: 0c81 e973 ee2d d23f 4a94 1bdc bc3d dc3f
00000500: b851 0d9f 9228 d43f 3213 80b6 66ce c33f
00000510: d65b 0d56 f32d db3f 1355 505c 0cc8 c33f
00000520: e499 bcfa d299 e63f d61b d6cf b424 ec3f
00000530: f623 57a4 35d3 aa3f 873d d1fd 46af e43f
00000540: 1139 1a70 725c da3f 07a8 c52f afe6 d23f
00000550: 687d 69f9 7558 d93f d283 792a ea9e e63f
00000560: a55d a26e ee4b e83f b51c 6a44 5e97 e93f
00000570: e3ba 4095 41a8 e23f 9c82 d869 255d b33f
00000580: d419 8d9b fdc0 d33f 06c7 a38f 24b3 df3f
00000590: f15a 78b6 171f d53f 2588 7279 c46d d83f
000005a0: 3d74 2309 0d30 df3f cad7 9d9d 7373 e73f
000005b0: 9142 c143 cc48 ee3f a04e b04b 81e7 c83f
000005c0: cca5 ac8d 76b9 e43f e32d 9b9e b838 d03f
000005d0: 4529 40ec 3eb2 e93f 8e46 6136 9a42 e63f
000005e0: 3096 3f79 5d53 e23f a784 b489 9e50 ee3f
000005f0: d29b e76e 5c5c be3f b678 8566 b9e2 d23f
00000600: 707f 58d6 0988 da3f d9a9 4d99 3f9e e33f
00000610: 524d 54f1 ee82 e43f c268 f45a 3ed6 ea3f
00000620: a970 ead0 3adf ea3f d3be 6b26 f934 d03f
00000630: c330 b5b7 ba29 e33f fd6f f51b 5939 e63f
00000640: 5fef 747b 30a8 ec3f 9e56 c77e f9f2 ec3f
00000650: 628d 6369 f128 e93f f239 6c72 5b37 ea3f
00000660: a951 e847 7654 ea3f 01e7 d1c7 e011 ec3f
00000670: 7469 4a23 9378 e63f 1930 eee4 9175 e83f
00000680: 29ff d792 28ec e83f 9ac8 c2d8 386b c53f
00000690: 707b 58b3 4d7f db3f 107a 06d3 3202 ec3f
000006a0: b2c4 6fc7 8b35 bf3f f8c8 801c 5e16 e63f
000006b0: 60f0 6ffa a9c2 ea3f 1d61 cdd8 5584 df3f
000006c0: 8181 ebe9 15ec e33f ec9f a04e cc27 d83f
000006d0: 2c9c f967 7a20 e73f 46ea e57d 7ba9 b23f
000006e0: 2f14 d055 824c ed3f fea9 525a 493a e33f
000006f0: 69e1 3525 2281 e43f 11f1 278a b04e 863f
00000700: 72be 2fc2 90e9 ec3f 4d08 8f3b afc3 963f
00000710: 7497 e89d 0e68 ce3f 50db c06e 4101 7a3f
00000720: 4996 912b 29a0 c53f 65e5 1e96 ef29 e53f
00000730: 192b 32d3 e8cb ec3f 162d 01ae 133c e53f
00000740: 6e32 6fd7 3ff7 e03f aed6 cab6 c488 e03f
00000750: b6c0 cd99 ce1e d83f 5bd3 8946 0f51 c23f
00000760: bb86 d413 ccd9 c43f 3df5 181b a2c9 d23f
00000770: 7aa8 fb32 2b24 c03f e5ce d896 5543 d83f
00000780: 82f9 7d11 92b6 e93f f490 1635 e931 e33f
00000790: d1c3 ad99 395a da3f a8b2 4108 52be c23f
000007a0: 8e6b 0540 bce9 d63f 1846 bff5 e0a7 d83f
000007b0: 9368 2f0f 43f3 e73f e727 0d5e 1074 e93f
000007c0: d736 f208 ba33 ed3f a6b9 b6e7 0e14 e93f
000007d0: 46d7 3899 dcc1 ea3f 2338 3e78 55f1 903f
000007e0: 457a 05e9 d3a1 e73f 2e0a 1691 7c5a d93f
000007f0: 0f36 3bfd 60e2 c13f 9ae4 b5ec 58e4 e93f

FTrain_PDE f8 [8000, 1]
-6069.69851499853 3389.0422068147814 9674.535559991724 20968.957937353836 -31236.52054708191 -10745.86935628529 -20862.037550993904 1152.8023651588474
-18114.138961109133 -9500.917857922324 -3854.335949286016 3685.708915602442 -1364.4227798931624 -4992.461732535908 -27197.47972140825 24128.480179553597
1747.230218665305 28639.652333793765 32633.476351709378 -10762.459799927397 -34013.37208238943 1973.7319660687242 -1755.3727347350132 1.750639292522293
-3630.1292635559607 -22679.594627182236 450.67779251595937 -11049.440603146852 1672.3585796972695 9899.646966700284 18339.097846120632 19609.602380709726
27051.118508411048 -9864.614086470783 -8535.136117539394 18277.878481196207 -16268.534270460581 -28363.889248148993 -6051.990538025924 -1948.776138503987
11368.408032262345 -19761.283156499157 6950.238646758917 10547.341251541462 -31649.869200619796 -33865.65634611085 27736.978596248522 -9553.907332543133
-1832.3129288367443 25512.12922457011 20338.44782252401 4972.996713753713 -15984.873655088082 -5041.167369580277 33804.757445209696 26182.2700374115
26397.162115672738 -10221.389180405882 -14821.787941796892 -22509.716952977225 -26897.212982323552 -20805.507905282986 -9699.215029727207 -21140.279433130905
-3572.6570201055297 5461.314674425557 4769.744817958209 11723.393479340459 -34184.996354646166 -16792.81158313356 -28623.536244099283 -19298.590701922654
1212.9021557158867 -21077.93492841933 -13310.913527068251 11495.432755073587 -6195.800819435229 -23157.329701661787 7622.073180419186 28218.57366607774
-30139.08588789177 32447.929279340293 2913.87408036112 -9050.250274380445 -23969.5518129536 -18374.122709218576 29389.136122921536 -23421.595819696027
-12371.659669561315 14868.969895913648 -9324.92492800788 -17532.12050613364 -17918.85803634123 22726.277979932514 -5563.525804245975 -19413.148480554035
11397.801881888621 -22624.12039486304 -17133.217189416562 -5319.189354630789 19733.04030483789 -10159.243708312002 10280.675067781352 -7220.992906814842
3644.376132253558 -2607.289278065923 -15913.401799284129 28236.60387777118 10230.83944711012 3194.4419636876496 10833.016590962503 -1615.1879976760501
-14136.46640491039 27267.47478186221 -18105.563797638762 -5807.516893834742 -8190.121354054741 33050.38608986067 -33039.51446028731 -5938.610331205471
29773.784604343324 -21970.947384008916 -13843.420955687125 -23908.61305850803 27228.231975449125 -378.8184090434205 18452.825609905445 495.95372563858547
20935.951485265734 -16494.49860830597 -9268.821238830136 14279.989686799643 10115.311642782492 -26634.023566936306 -702.6160443920883 -16036.736353555056
29006.842603181205 -13291.841535880447 -4518.88254216581 -6921.225137932991 33325.12463759478 17191.938841149065 22503.716719545744 -2053.777190313141
14514.86398964599 -31824.006183184192 20622.962889283943 -16745.553544502145 33346.86755348734 2236.859620186616 -21286.12536113455 23885.16811441811
18903.90429715711 -22109.75967697724 -31383.172275268924 -12378.113472176849 8201.920631827245 -3404.4394926872187 -29759.388368584623 3070.3322768003454
-6094.57140846922 -15791.62319318067 -15812.355778966916 -19978.163788143876 -31381.688110732786 748.7097558933808 15097.211433541557 20879.84892921823
-15392.363359809695 28766.291702648352 8492.072082968023 -16812.9855984425 -2015.3588609674725 -27234.48063680953 22363.822759773273 -2101.7325867395207
6738.51476899249 21963.82104988453 -137.16221097148852 13409.515990706983 28519.94721855107 -7149.574848718729 -6316.4387914793515 -9652.144825154835
-7075.6737061084705 -8926.712799732542 4852.857851849777 -17578.306699011344 -5525.877260045352 -10625.006559894266 22543.556470017684 -2968.865058481404
-2513.826570612213 1939.1228349647647 11724.338517644528 4736.640365304675 -2840.3646800153183 14508.976129912102 6912.939444905043 -17018.434769949516
25327.439348825115 93.96900378376931 6439.529682081531 -6519.94043016705 -14772.872957082485 -20118.792261492938 25573.741660716387 14791.67431588233
6643.013438280207 544.219361967321 -14069.762064375931 28306.50479728408 349.87532891268967 -12035.177337605819 -17832.241485184422 -17199.666636025886
6966.32843946355 23408.890618729274 -26782.599581155315 -2177.3309981464713 -41.035770130692754 20076.213825396186 -30818.027042530317 -7614.6767022353715
9656.573705667493 -1681.2900882252516 613.9722568867804 28585.72882760973 -20376.358809373847 5728.345187645279 3979.112296482566 -18224.038357307454
-14627.738727874274 1526.4540850360943 -11247.528908197428 14850.071936093287 14247.976570198633 -33416.51675696755 8991.448377363706 -23115.765145375546
7081.5902830266705 -6259.725619076839 31088.52281286651 -3077.318986347772 -19158.579369291772 -16542.583259372936 7606.953818632742 -8189.598227081308
-5973.048961405537 -17660.278635462408 2697.4605574506313 -3216.788190072152 -24086.73044693356 14980.453760486544 103.99730300518466 28927.686455716008
00000000: 7402 e1d1 b2b5 b7c0 4fb2 219c 157a aa40
00000010: c0d4 3a8d 44e5 c240 9679 d84e 3d7a d440
00000020: 35b5 a450 2181 dec0 f216 1147 effc c4c0
00000030: b048 3c67 825f d4c0 cc52 369f 3503 9240
00000040: c922 bde4 88b0 d1c0 614f 5e7c 758e c2c0
00000050: 1b79 8b01 ac1c aec0 3a60 fcf6 6acb ac40
00000060: 285a 36ed b051 95c0 397d 1a34 7680 b3c0
00000070: e86b c1b3 5e8f dac0 ba05 43bb 1e90 d740
00000080: a819 71be eb4c 9b40 933d d6bf e9f7 db40
00000090: 4be1 8b7c 5ede df40 7059 b9da 3a05 c5c0
000000a0: c153 19e8 ab9b e0c0 cf5b 8388 edd6 9e40
000000b0: dca3 2cae 7d6d 9bc0 fb9c c758 9e02 fc3f
000000c0: d532 d52e 425c acc0 412b 5f0e e625 d6c0
000000d0: 4e18 f73c d82a 7c40 1f15 af65 b894 c5c0
000000e0: 2123 842f 6f21 9a40 a909 cecf d255 c340
000000f0: 0a60 1c43 c6e8 d140 01d2 678d 6626 d340
00000100: 704d a495 c76a da40 77ae 629a 4e44 c3c0
00000110: 0eae 4c6c 91ab c0c0 f731 0939 78d9 d140
00000120: b575 f962 44c6 cfc0 7d11 71e9 f8b2 dbc0
00000130: ca6a e693 fda3 b7c0 2a4f 0dc4 1a73 9ec0
00000140: 3eb3 663a 3434 c640 e26f 3c1f 524c d3c0
00000150: d838 f417 3d26 bb40 2569 21ae ab99 c440
00000160: eca2 fba0 77e8 dec0 1f8f c900 3589 e0c0
00000170: d928 52a1 3e16 db40 ad07 7923 f4a8 c2c0
00000180: 2bbf 6a70 40a1 9cc0 9e21 3745 08ea d840
00000190: c2cd 1fa9 9cdc d340 acef a128 ff6c b340
000001a0: a60f eed3 6f38 cfc0 a399 bbd8 2ab1 b3c0
000001b0: 85bc fd3c 9881 e040 c6fe 4a48 9191 d940
000001c0: 256a 1a60 4ac7 d940 c1dd a9d0 b1f6 c3c0
000001d0: 67dc 46db e4f2 ccc0 7dbd 8ee2 6dfb d5c0
000001e0: 929c 80a1 4d44 dac0 f928 8581 6051 d4c0
000001f0: 0317 1886 9bf1 c2c0 aa7f 3be2 11a5 d4c0
00000200: 2174 f064 50e9 abc0 a8ce 808e 5055 b540
00000210: fbc3 63ac bea1 b240 76f1 875d b2e5 c640
00000220: 9023 23e2 1fb1 e0c0 2862 faf0 3366 d0c0
00000230: 46c5 d251 e2f3 dbc0 df6f 0fce a5d8 d2c0
00000240: 883e b5ce 9bf3 9240 4802 ded5 7b95 d4c0
00000250: 1379 74ee 74ff c9c0 1eac 8464 b773 c640
00000260: 4fa4 8002 cd33 b8c0 b4ff d419 559d d6c0
00000270: 1db3 f3bb 12c6 bd40 aeec f1b6 a48e db40
00000280: 92ed 2f7f c56e ddc0 da0d 5079 fbaf df40
00000290: 2c0a 7687 bfc3 a640 85ab fd08 20ad c1c0
000002a0: 4e47 e750 6368 d7c0 2dc4 77da 87f1 d1c0
000002b0: 0fea 3cb6 48b3 dc40 30ef e821 66df d6c0
000002c0: 025c 0d70 d429 c8c0 d29e 8c25 7c0a cd40
000002d0: 807c 0a64 7636 c2c0 bd5b 5fb6 071f d1c0
000002e0: 1742 11ea b67f d1c0 c657 6cca 9131 d640
000002f0: 9068 1b9b 86bb b5c0 eb94 b480 49f5 d2c0
00000300: 71d3 10a4 e642 c640 d7a7 8cb4 0718 d6c0
00000310: 4b70 6ee6 4dbb d0c0 968a 8b79 30c7 b4c0
00000320: 27be 5a94 4245 d340 e87e d531 9fd7 c3c0
00000330: bffd 9e68 5614 c440 b919 242f fe34 bcc0
00000340: 0120 6894 c078 ac40 2e31 411c 945e a4c0
00000350: 72b0 286e b314 cfc0 80f3 eea5 2693 db40
00000360: 58be 0073 6bfb c340 f380 1049 e2f4 a840
00000370: ae14 a71f 8228 c540 7079 7682 c03c 99c0
00000380: 69f6 27b3 3b9c cbc0 bb76 d362 dea0 da40
00000390: 03b1 4215 64ae d1c0 b983 2753 84af b6c0
000003a0: 5930 0f11 1ffe bfc0 9d1f d95a 4c23 e040
000003b0: a36b 7576 f021 e0c0 3a77 aa3e 9c32 b7c0
000003c0: b822 f536 7213 dd40 c389 f0a1 bc74 d5c0
000003d0: a23e e0e1 b509 cbc0 a1c0 593c 2759 d7c0
000003e0: de8d afd8 0e97 da40 dec3 1434 18ad 77c0
000003f0: c9ed cad6 3405 d240 4db1 d075 42ff 7e40
00000400: bd74 22e5 fc71 d440 eacf 32e9 9f1b d0c0
00000410: d29e 5a1e 691a c2c0 e09a 0eae fee3 cb40
00000420: 6b23 e9e3 a7c1 c340 2de5 1e82 8102 dac0
00000430: 3aa7 aea8 edf4 85c0 a152 d540 5e52 cfc0
00000440: b2e4 35ed b553 dc40 779e 72b7 ebf5 c9c0
00000450: 7f8b 48ee e1a6 b1c0 49bb a3a2 3909 bbc0
00000460: 2efb 07fd a345 e040 d82f f915 fcc9 d040
00000470: 58a8 bbde edf9 d540 6b83 e3eb 8d0b a0c0
00000480: ce74 3697 6e59 cc40 7927 4e65 0014 dfc0
00000490: 0d60 fa9f bd23 d440 66eb 456d 635a d0c0
000004a0: f587 ffc2 5b48 e040 ff18 2320 b879 a140
000004b0: 45b5 ea05 88c9 d4c0 f1f9 62c2 4a53 d740
000004c0: ea2e 01e0 f975 d240 312f 8c9e 7097 d5c0
000004d0: 7cd9 8e06 cba5 dec0 499c 4186 0e2d c8c0
000004e0: d682 43d7 f504 c040 df7c 2f05 e198 aac0
000004f0: 70e8 07db d80f ddc0 684d 2f20 aafc a740
00000500: f54f d347 92ce b7c0 094d cbc4 cfd7 cec0
00000510: c149 2a8a 2de2 cec0 5b44 817b 8a82 d3c0
00000520: 5699 010a 6ca5 dec0 b671 7f94 ad65 8740
00000530: 2219 4110 9b7c cd40 3b37 db54 f663 d440
00000540: a901 9382 2e10 cec0 b595 41ab 9217 dc40
00000550: 21c3 033a 0996 c040 627d 0b14 3f6b d0c0
00000560: 6cdc 3f79 6f7d 9fc0 8ce4 c0c2 9e98 dac0
00000570: ab9b 18a8 f4d6 d540 73ef 9b15 776b a0c0
00000580: bd93 e6c7 8352 ba40 9cd0 148c f472 d540
00000590: 0f33 10d5 3025 61c0 c4c5 fb0b c230 ca40
000005a0: c18e 3a9f fcd9 db40 171f 4929 93ed bbc0
000005b0: 946d a354 70ac b8c0 d473 a189 12da c2c0
000005c0: ffe6 0078 aca3 bbc0 ef89 053d 5b6f c1c0
000005d0: 9bc7 2d9c dbf4 b240 dce3 f4a0 932a d1c0
000005e0: e044 1d94 e095 b5c0 ab61 f4d6 80c0 c4c0
000005f0: ca6b 349d e303 d640 84fd f1e8 ba31 a7c0
00000600: 9466 4334 a7a3 a3c0 e1f1 72c8 7d4c 9e40
00000610: 2fd2 8b54 2be6 c640 1209 fbee a380 b240
00000620: 98c6 56b7 ba30 a6c0 9030 d3f1 7c56 cc40
00000630: 8e17 767f f000 bb40 9d56 45d3 9b9e d0c0
00000640: da88 4a1e dcbb d840 533f 7228 047e 5740
00000650: 74b1 3e99 8727 b940 a70b 08c0 f077 b9c0
00000660: 0bc4 0ebd 6fda ccc0 838c 69b4 b2a5 d3c0
00000670: 6782 5e77 6ff9 d840 e49a fb4f d6e3 cc40
00000680: 01ee b070 03f3 b940 0add d840 c101 8140
00000690: 0952 538b e17a cbc0 8f44 994e a0a4 db40
000006a0: edd3 e358 01de 7540 aca8 ffb2 9681 c7c0
000006b0: 6446 7e74 0f6a d1c0 6126 2aaa eacb d0c0
000006c0: aad2 9b14 5436 bb40 dcb2 e5ff 38dc d640
000006d0: 58a3 895f a627 dac0 43cc 9678 a902 a1c0
000006e0: e0bf 9a1d 9484 44c0 ebb6 50af 0d9b d340
000006f0: d497 10bb 8118 dec0 0d92 5b3c adbe bdc0
00000700: b5f3 2f6f 49dc c240 a441 e30c 2945 9ac0
00000710: 4360 9e2e c72f 8340 0e8f 1ca5 6eea db40
00000720: 8b97 bbf6 16e6 d3c0 75af 375e 5860 b640
00000730: 27b0 ec7e 3916 af40 4535 7274 02cc d1c0
00000740: 538e a28e de91 ccc0 83ee aafb d0d9 9740
00000750: 4589 43b3 c3f7 c5c0 09b0 3335 0901 cd40
00000760: b094 4000 fdd3 cb40 73e8 4589 1051 e0c0
00000770: b1f0 6d64 b98f c140 2a4f 24f8 f092 d6c0
00000780: efd6 c91c 97a9 bb40 61fc 2bc2 b973 b8c0
00000790: e618 c475 215c de40 1ab7 2d52 a30a a8c0
000007a0: 1ef0 6214 a5b5 d2c0 f61e 1f54 a527 d0c0
000007b0: f139 752d f4b6 bd40 cdf5 6825 99fd bfc0
000007c0: 8c13 bc88 0c55 b7c0 a3d5 29d5 113f d1c0
000007d0: c8a8 2fce eb12 a540 d92d a68d 9321 a9c0
000007e0: c77e a4bf ae85 d7c0 f6d8 d214 3a42 cd40
000007f0: 1fde fbcf d3ff 5940 9af4 e3ee eb3f dc40

XTrain_Boundary f8 [1600, 4]
0.0 0.9169411246320004 0.9118627695885729 0.05531713914873139 0.0 0.329187999214511 0.8894568121223279 0.6256112431852922
0.0 0.3085415753379768 0.6541698206395187 0.7488784223225778 0.0 0.5051109584966091 0.5108557897706995 0.9863334160621805
0.0 0.5585704801587352 0.2811607078708902 0.5305628113214503 0.0 0.563819680238423 0.6152371126571488 0.878084324682618
0.0 0.8303400516340599 0.895192934169181 0.17645590972391922 0.0 0.8383441105927651 0.6617164117295563 0.6848602290139815
0.0 0.05094384143227645 0.4000033622820205 0.3649136914159237 0.0 0.6251685724921248 0.7079640891752377 0.3200672325832382
0.0 0.2357996041191175 0.3512008209291313 0.7551909804521492 0.0 0.43226852160784995 0.029222925678379558 0.6249757247011584
0.0 0.6222649380634838 0.08770431085921367 0.9574339059747504 0.0 0.45779030230759576 0.4137969478290779 0.40609442597055273
0.0 0.6044490724063996 0.9370032511321302 0.8409051137423137 0.0 0.9644247325308851 0.08311763016411368 0.04318173943335311
0.0 0.08400828621881214 0.09597506571114987 0.15781013291729892 0.0 0.4432795287359766 0.34993404640034886 0.005215026321597439
0.0 0.1614864885545608 0.7725922770667795 0.8285259292041208 0.0 0.5464017030992868 0.9094770282854705 0.319879391283945
0.0 0.2892064700122063 0.8107586701394149 0.1650002419364955 0.0 0.39603638683677694 0.43150537096984254 0.08854337903253472
0.0 0.05952906830798658 0.2513617218798302 0.9352353712913497 0.0 0.3880756115748777 0.4647291981952057 0.7765945457909693
0.0 0.9332955770203627 0.2245006254425192 0.016809700943246127 0.0 0.9767667687109518 0.9663906194640981 0.47711193535528484
0.0 0.08624379770069086 0.49555896653718096 0.7258656952936364 0.0 0.731400115815198 0.5828252691870561 0.3465755581271456
0.0 0.949320507574442 0.09477350175888381 0.6538413867222822 0.0 0.6552612857591064 0.9311851320115656 0.09308748587588507
0.0 0.49243444792483887 0.6298367289569542 0.16316890367029468 0.0 0.04518929628528909 0.8937076141721854 0.6577943471229978
0.0 0.48657692459053636 0.9227947537423052 0.5046661955719907 0.0 0.07522708650100013 0.7171957994620628 0.5434419258550048
0.0 0.2249369229812741 0.2724404494146216 0.7191267142672076 0.0 0.6999769049878312 0.4410599978778448 0.27053298253836816
0.0 0.6600787517170497 0.29950138014715777 0.9297906588413634 0.0 0.45387629475371827 0.747586248498585 0.9956517216540941
0.0 0.6823507089103874 0.1790221723307911 0.42068843897822605 0.0 0.7569251943779988 0.9498401871334076 0.39791918969143125
0.0 0.851795255708089 0.5515077241569472 0.49664650891835926 0.0 0.3232212875347786 0.9934015744633564 0.2983516584948064
0.0 0.11478957142814272 0.3695238979052861 0.5748125589909495 0.0 0.0910071200015533 0.21481537300687006 0.3402758818406294
0.0 0.4690684392990077 0.5366620177334925 0.2547685464320448 0.0 0.8479221007870497 0.22821594976394777 0.40042252596119604
0.0 0.016457907266052254 0.8315903954233815 0.5878119924257436 0.0 0.8642169063587872 0.39271965788175545 0.4686557195819109
0.0 0.04452654732378227 0.5459097363851082 0.3291401776527683 0.0 0.8219135314939272 0.8585998630348154 0.7934044769567958
0.0 0.6320960773830844 0.007639481330781025 0.11887193277549093 0.0 0.22812934395647566 0.5597554213791419 0.0676303476380318
0.0 0.43576815925163376 0.8411372970219982 0.14876187578678382 0.0 0.4481071782496875 0.4190545396517301 0.8875305994222294
0.0 0.5843329449450375 0.5288727217234801 0.04605927623227104 0.0 0.4776331609054889 0.9568529136003783 0.3058462424088335
0.0 0.8173766703611883 0.06065346595081726 0.5152295157179582 0.0 0.8678226237973026 0.8242806424364357 0.9241026924923461
0.0 0.7765633968153354 0.704861253740946 0.8556163025389975 0.0 0.7384894197542726 0.7797112859855008 0.6179870071779887
0.0 0.0023118180965054857 0.25925188616530725 0.8304585393460086 0.0 0.6393046625292939 0.5421278428568541 0.6427332384015426
0.0 0.2124122789126676 0.5013130073281329 0.4420563054371949 0.0 0.9532991555716732 0.9966995649374673 0.8164859089242867
00000000: 0000 0000 0000 0000 61dc d4e9 9457 ed3f
00000010: 3b55 bad4 fa2d ed3f 92aa 1a2f 8752 ac3f
00000020: 0000 0000 0000 0000 fb2a b78a 6a11 d53f
00000030: 52a2 e821 6e76 ec3f 15b4 afde 0105 e43f
00000040: 0000 0000 0000 0000 891b e229 25bf d33f
00000050: 51a9 358c f5ee e43f 0dc7 91e1 cff6 e73f
00000060: 0000 0000 0000 0000 4603 f374 de29 e03f
00000070: 6d32 c13d ee58 e03f 810c 9e18 0b90 ef3f
00000080: 0000 0000 0000 0000 7e5e 1933 cfdf e13f
00000090: 9871 4e7b 89fe d13f ad2e 63dc 5efa e03f
000000a0: 0000 0000 0000 0000 f4e2 ee91 cf0a e23f
000000b0: c6bb c4bd 05b0 e33f 008c 344c 4419 ec3f
000000c0: 0000 0000 0000 0000 bd78 ca4c 2592 ea3f
000000d0: c1bd fba6 6ba5 ec3f e49e b974 1b96 c63f
000000e0: 0000 0000 0000 0000 c648 3907 b7d3 ea3f
000000f0: 775b 73e5 c72c e53f 9f46 beff 5fea e53f
00000100: 0000 0000 0000 0000 bbba c4a9 4f15 aa3f
00000110: f4a4 d2b3 a799 d93f 299e 9ff4 be5a d73f
00000120: 0000 0000 0000 0000 dce6 aa85 6101 e43f
00000130: 9a00 384e a4a7 e63f c6d6 1d46 fb7b d43f
00000140: 0000 0000 0000 0000 40f9 0c72 ae2e ce3f
00000150: a003 0e02 137a d63f 45d6 6846 862a e83f
00000160: 0000 0000 0000 0000 d157 d996 49aa db3f
00000170: 780c 5458 9dec 9d3f fd54 4c17 cdff e33f
00000180: 0000 0000 0000 0000 9dc3 cd28 98e9 e33f
00000190: 4dc9 db2a ca73 b63f 69c7 476e 4ca3 ee3f
000001a0: 0000 0000 0000 0000 ac92 35b2 6f4c dd3f
000001b0: 8f12 8731 a67b da3f 2369 a879 73fd d93f
000001c0: 0000 0000 0000 0000 1ea8 c294 a557 e33f
000001d0: 2a76 fb3d eefb ed3f 29ff 51d7 b1e8 ea3f
000001e0: 0000 0000 0000 0000 f18e b541 91dc ee3f
000001f0: d1a0 466f 3247 b53f 5d21 4dbd ea1b a63f
00000200: 0000 0000 0000 0000 451e e729 9181 b53f
00000210: 97f9 7568 d291 b83f 1fb9 ed57 1f33 c43f
00000220: 0000 0000 0000 0000 6511 ba19 b15e dc3f
00000230: f4f8 42c5 5165 d63f 8e11 fcf7 595c 753f
00000240: 0000 0000 0000 0000 4f3a 8bd9 96ab c43f
00000250: 8e9b 6470 13b9 e83f 113b 3acf 4883 ea3f
00000260: 0000 0000 0000 0000 d148 a96c 1f7c e13f
00000270: 2e61 9e91 6f1a ed3f cfa6 0e69 e778 d43f
00000280: 0000 0000 0000 0000 339e 9fda 5b82 d23f
00000290: c84f a62a bcf1 e93f d783 7959 ba1e c53f
000002a0: 0000 0000 0000 0000 895b 5f00 a958 d93f
000002b0: da48 17b4 c89d db3f 7fd9 3865 c7aa b63f
000002c0: 0000 0000 0000 0000 259b 1613 987a ae3f
000002d0: e62a bc79 4f16 d03f cc47 b8ba 72ed ed3f
000002e0: 0000 0000 0000 0000 12b7 0517 3bd6 d83f
000002f0: 57a9 ef88 1fbe dd3f f292 0dce dcd9 e83f
00000300: 0000 0000 0000 0000 9bb9 99af 8edd ed3f
00000310: 6684 1abe 6fbc cc3f 2f25 3aef 8f36 913f
00000320: 0000 0000 0000 0000 3cdc ed61 ac41 ef3f
00000330: ae4d 3805 acec ee3f 3476 b87f 0089 de3f
00000340: 0000 0000 0000 0000 7d78 9bd2 1214 b63f
00000350: 7112 a1f4 3cb7 df3f 0e62 d2b1 4a3a e73f
00000360: 0000 0000 0000 0000 bff0 3637 a167 e73f
00000370: 0e1b ce2d 81a6 e23f 3af0 ef3f 4b2e d63f
00000380: 0000 0000 0000 0000 068a ae66 d560 ee3f
00000390: 23f1 9482 1343 b83f adca 97c5 44ec e43f
000003a0: 0000 0000 0000 0000 df72 1584 e6f7 e43f
000003b0: 125b 10c3 44cc ed3f 45f8 80db 94d4 b73f
000003c0: 0000 0000 0000 0000 31b4 50c6 0b84 df3f
000003d0: 4e12 165b 9f27 e43f bc79 7ef8 b7e2 c43f
000003e0: 0000 0000 0000 0000 5c61 592b 0d23 a73f
000003f0: 7ac8 e1b5 4099 ec3f df61 0cbb a60c e53f
00000400: 0000 0000 0000 0000 f6b1 868a 1324 df3f
00000410: 5dcb 07dd 8887 ed3f 2e1c acb8 3926 e03f
00000420: 0000 0000 0000 0000 848f 4b14 1542 b33f
00000430: 8e94 f09a 44f3 e63f f151 5a52 e063 e13f
00000440: 0000 0000 0000 0000 6008 efab bbca cc3f
00000450: 51f9 1511 aa6f d13f 9ba4 ee06 1603 e73f
00000460: 0000 0000 0000 0000 db18 5cf7 3566 e63f
00000470: 1663 9db6 533a dc3f df76 1f92 6950 d13f
00000480: 0000 0000 0000 0000 6e18 6d79 5d1f e53f
00000490: a4b0 35d6 072b d33f c832 fb56 d8c0 ed3f
000004a0: 0000 0000 0000 0000 6c66 9928 4f0c dd3f
000004b0: 3db4 07ff 39ec e73f d6bb d6ff 60dc ef3f
000004c0: 0000 0000 0000 0000 5d85 6527 d1d5 e53f
000004d0: 3cb6 b5d3 32ea c63f 9adf cd33 8fec da3f
000004e0: 0000 0000 0000 0000 ffe6 6b2f bb38 e83f
000004f0: a143 853f 1765 ee3f ae3b 8b0c 8277 d93f
00000500: 0000 0000 0000 0000 34ef c41f e841 eb3f
00000510: f3da d786 f3a5 e13f f285 5e70 0ec9 df3f
00000520: 0000 0000 0000 0000 034e d556 a8af d43f
00000530: 48ae 4319 f2c9 ef3f ce52 fc8d 3118 d33f
00000540: 0000 0000 0000 0000 a8aa 346f d962 bd3f
00000550: 4ffe 2590 47a6 d73f 4347 c64e dd64 e23f
00000560: 0000 0000 0000 0000 171d 1c1c 3e4c b73f
00000570: d10b dff4 117f cb3f 46e0 077e 14c7 d53f
00000580: 0000 0000 0000 0000 fdff 97a1 3705 de3f
00000590: 8f76 e5d2 552c e13f df67 bebb 204e d03f
000005a0: 0000 0000 0000 0000 aaf3 8d87 2d22 eb3f
000005b0: b8b3 5424 2e36 cd3f 6d71 65cd 85a0 d93f
000005c0: 0000 0000 0000 0000 c788 df75 57da 903f
000005d0: 315b 0076 639c ea3f 0f49 7518 5bcf e23f
000005e0: 0000 0000 0000 0000 dac2 ae36 aaa7 eb3f
000005f0: fa4c c6a1 5122 d93f 8602 2c8f 74fe dd3f
00000600: 0000 0000 0000 0000 136f 1e01 2fcc a63f
00000610: d6f1 0ab2 1778 e13f 895e b4f6 a110 d53f
00000620: 0000 0000 0000 0000 4600 3d9b 1d4d ea3f
00000630: 23b5 826b a679 eb3f 0af1 20c9 9163 e93f
00000640: 0000 0000 0000 0000 9649 898d 213a e43f
00000650: 49f1 95a7 934a 7f3f fadb ae17 646e be3f
00000660: 0000 0000 0000 0000 1c87 c6a3 5733 cd3f
00000670: ada0 9233 84e9 e13f 928c 52f3 3850 b13f
00000680: 0000 0000 0000 0000 c3ed 2722 a0e3 db3f
00000690: 63f8 c4c3 98ea ea3f 3dab b20f a10a c33f
000006a0: 0000 0000 0000 0000 24db ebba c9ad dc3f
000006b0: 5ad9 c221 cad1 da3f d3f7 5692 a666 ec3f
000006c0: 0000 0000 0000 0000 2f75 1001 dbb2 e23f
000006d0: 3a90 717c 86ec e03f 53a8 30da 1495 a73f
000006e0: 0000 0000 0000 0000 60bf 64ad 8a91 de3f
000006f0: bade 5f00 8a9e ee3f 0407 301e fc92 d33f
00000700: 0000 0000 0000 0000 a1de 761e f327 ea3f
00000710: b6ad 4b99 f80d af3f 5b29 fe9b c27c e03f
00000720: 0000 0000 0000 0000 c406 7ef3 33c5 eb3f
00000730: 0ab1 3fcc 8160 ea3f 34ce 4ccf 3f92 ed3f
00000740: 0000 0000 0000 0000 0ef6 127b 9bd9 e83f
00000750: 121e 2130 398e e63f bd8a aa70 3561 eb3f
00000760: 0000 0000 0000 0000 f82b 4990 b4a1 e73f
00000770: 8f27 3415 65f3 e83f 0cd6 25b0 8cc6 e33f
00000780: 0000 0000 0000 0000 f324 cde3 3bf0 623f
00000790: 6067 2039 9597 d03f e599 65c9 1d93 ea3f
000007a0: 0000 0000 0000 0000 d9cb 370d 2f75 e43f
000007b0: 6647 6a7d 1c59 e13f d793 df4b 4591 e43f
000007c0: 0000 0000 0000 0000 3d70 9957 5330 cb3f
000007d0: 6414 7193 c10a e03f 44f9 b587 a64a dc3f
000007e0: 0000 0000 0000 0000 1883 0f3b 6d81 ee3f
000007f0: d200 6b7c f6e4 ef3f 4d30 8f0e a720 ea3f

YTrain_Boundary f8 [1600, 1]
-1.44960106121183 0.6634896883128114 -0.9017740750831794 -1.0788928467259407 -0.25543758938244676 0.5079288136958322 -1.3816961848066671 0.5163812996917925
-0.7244469230370579 -0.17194957419633225 -1.122983252057376 -0.08078373207095535 -0.5235629111687655 1.0574003153082223 -2.140557795540057 -0.8389742343571489
1.1276041613359467 1.985181903410163 -0.7130472853413333 -0.8861207377464224 0.51714077564603 1.490573551776588 -0.3579367746883291 -3.1644407274504367
2.0145256814431294 1.8701385706825047 -2.7250686601640757 2.6069511209736866 -3.04778570133202 -0.6443990947229403 -0.15704508599085276 0.10015713765114787
1.3643040828846889 0.8520766582826769 -1.5566166134708106 1.5645790161344828 0.9901707037289145 -0.7466898003464525 0.16792630002353537 0.694664043049644
0.6092295692107954 1.9295803241573424 -1.1094210435252858 1.958021024951996 0.26521779639850623 1.0434755242710643 -1.5629820930845817 -0.4409864643218333
0.8929823942480484 -2.2441449337207 -0.7774453197497064 -0.5235097131792206 1.6016633054097897 0.20803337056379756 -1.0829802128170738 -0.5549577184619733
-1.388665251234813 -1.934595060398561 -1.46926364800348 0.8172329489641893 0.6606848544094825 -1.4784215807848797 -2.170635692764053 0.6894048371182674
0.39232750864351884 -1.6519812310610362 -2.0606746212441065 -1.5749861581454172 0.03800711724105432 0.43538543606214575 -1.9456091213678426 0.7759806459974445
-0.5695153398114722 2.7223410781817234 1.80357079193907 1.1107280999857014 1.6542808336936905 3.3502947077403835 0.6051846452396535 1.3250303952398303
0.32769006449402704 -0.2085978974958761 -0.9025264250062186 1.8778495523008485 2.0726962039628174 -1.3338689277339701 -2.174893321932561 2.016321325417445
0.8414676249732592 0.4951614647078074 0.6796156951075739 2.1177107985446697 -3.5977119968534454 1.1471482933770103 -1.8513596457657489 -0.49078764264740327
1.4858348093529565 -1.4840421758310267 2.200606265483794 -0.05121250493981644 2.8036472428829713 0.620135260288358 -1.4925918608977145 -0.45023198482523386
-2.3045023751559213 -2.005101568045183 -2.992968768945413 -2.1154416742991593 0.3166664471653322 -1.6410137898103359 0.015839199994907904 2.0156206285619276
-0.8467307026640184 -1.731477617862646 -1.117347731098547 1.217018038678973 -0.2032822438695272 0.13166147079797563 -0.6073095786065118 1.4596987936035786
-1.4219682689944086 -2.100846978145093 3.157607671599915 0.46890624718836005 -2.2177826170806494 -0.9261001685646064 0.5971220094852704 -0.28146850396673906
-2.0696394258699944 1.6500522701032043 0.5268557471393402 0.46681391375200243 2.4765324225104117 0.2666896526550937 1.3007323484730628 -0.2774082096613869
-1.4637234731449982 1.878563304306387 0.09974266255392844 1.6012218037100665 0.39446286064674746 -0.2678286692667752 -1.3463265196658816 1.2613609615926813
0.921538961802638 0.18643145403066375 1.8056310374469877 1.8698411562785335 3.040955324435923 -1.3510842884136192 0.8567779987437566 1.0391050029223063
-0.5143361075869496 -0.6508001213918122 3.450044741201652 -0.6830641902617232 1.8972024097807736 -2.4878865030011976 -0.422372906295683 -1.4838364601386382
-1.2653429940972911 -0.5110179563563614 -2.126015415310346 -1.1666572548655132 0.518726524642904 1.4165575320755557 -0.31197020768953265 -0.13735845646934405
-0.2987006533497436 -2.095273231795561 0.5977886976712979 1.4456461312370616 -0.6574860438335617 -1.3717255033603422 0.5917602102634121 -1.9367817220917691
-0.6791283999578381 3.352041131333037 -1.3746039450910827 -2.870404156653426 0.08786789848278631 2.3416409143127472 1.5626711010802214 -0.38173629311893253
-0.0824107635074025 1.5531017172366621 1.273195150390623 0.15335645080522475 0.2790027991838363 -1.4255597570849399 0.7914068756135304 0.026983773053163407
0.4641859640380731 1.8430026995910824 -0.30655766259436634 -1.9334808519596098 -1.8457047838491853 -1.9477204464150377 -1.9040990916204932 1.2014230550535117
-1.4496010612118304 0.6634896883128015 -0.9017740750831719 -1.0788928467259309 -0.2554375893824387 0.5079288136958428 -1.381696184806657 0.516381299691802
-0.724446923037059 -0.1719495741963243 -1.1229832520573653 -0.08078373207094441 -0.52356291116876 1.0574003153082154 -2.140557795540067 -0.8389742343571386
1.127604161335947 1.9851819034101692 -0.7130472853413239 -0.8861207377464257 0.5171407756460358 1.4905735517765781 -0.35793677468833773 -3.164440727450441
2.0145256814431183 1.8701385706825104 -2.725068660164073 2.606951120973676 -3.047785701332021 -0.6443990947229452 -0.15704508599084432 0.1001571376511523
1.3643040828846922 0.8520766582826692 -1.556616613470803 1.564579016134494 0.990170703728906 -0.7466898003464562 0.16792630002353448 0.6946640430496507
0.6092295692107934 1.9295803241573362 -1.109421043525284 1.9580210249520031 0.26521779639849596 1.0434755242710663 -1.5629820930845821 -0.44098646432184396
0.8929823942480535 -2.244144933720695 -0.7774453197496956 -0.523509713179211 1.6016633054098004 0.2080333705637997 -1.0829802128170745 -0.5549577184619786
00000000: 616d e2e1 9031 f7bf 202d 11ba 4e3b e53f
00000010: e99c 1b4e 55db ecbf 5838 4925 2543 f1bf
00000020: 9444 24e7 1659 d0bf 30a1 70ed f340 e03f
00000030: ae0a 6c75 6d1b f6bf b226 4e13 3286 e03f
00000040: 4939 4450 ab2e e7bf ebff dd92 7102 c6bf
00000050: aaac 5849 bdf7 f1bf 0828 4b1f 3eae b4bf
00000060: f1c9 9b01 07c1 e0bf 6376 d097 1ceb f03f
00000070: d656 f8c3 dc1f 01c0 de04 587e e0d8 eabf
00000080: a657 3ca9 aa0a f23f 761f 7c19 4ec3 ff3f
00000090: 095d 618a 48d1 e6bf 72b4 9de0 195b ecbf
000000a0: 1c7d dacf 6a8c e03f ae9b 12a7 63d9 f73f
000000b0: 309d 54a5 6fe8 d6bf 983d d44c c650 09c0
000000c0: ba00 f6a3 bf1d 0040 d81c 016c 16ec fd3f
000000d0: ee12 36cc f0cc 05c0 f8d1 7630 09db 0440
000000e0: e67f 4378 dd61 08c0 6e06 add9 ea9e e4bf
000000f0: 2003 2aaa 0d1a c4bf d032 acee e5a3 b93f
00000100: cb9f 9c84 30d4 f53f 424a a044 3644 eb3f
00000110: 4a47 74d2 e6e7 f8bf 2ae3 a401 8408 f93f
00000120: c222 bf78 7aaf ef3f 43d5 1702 e2e4 e7bf
00000130: a0a3 5ee7 9b7e c53f 165f 5316 b03a e63f
00000140: 7487 7002 cf7e e33f 802c 349e 8fdf fe3f
00000150: f8f6 b647 30c0 f1bf 9ec9 b0da 0d54 ff3f
00000160: 4352 7610 54f9 d03f 16bb 2e64 13b2 f03f
00000170: b082 e082 f901 f9bf a46b 8f4a 1f39 dcbf
00000180: 685f 66d0 4f93 ec3f 1584 4e42 02f4 01c0
00000190: a41a d801 d5e0 e8bf 6ac7 2771 97c0 e0bf
000001a0: 4e03 bfb3 69a0 f93f 182a 8665 d6a0 ca3f
000001b0: 323b 440f e353 f1bf 579f 6eb0 36c2 e1bf
000001c0: 8452 f20d f937 f6bf b2a3 36f3 19f4 febf
000001d0: 9006 5699 1a82 f7bf 7d79 a0b6 c526 ea3f
000001e0: 08d7 5490 5424 e53f 34bf 3263 9da7 f7bf
000001f0: 849d ff3e 765d 01c0 bd11 a4bb 9a0f e63f
00000200: 0a7c bcd6 e41b d93f 2035 10df 836e fabf
00000210: 6686 cff9 427c 00c0 2e32 8eaf 2433 f9bf
00000220: e091 213b ab75 a33f d2a9 42e0 5add db3f
00000230: d62f b107 3721 ffbf 506a 1c5d d5d4 e83f
00000240: 6ff0 e13b 7839 e2bf 76c8 5ac2 5ac7 0540
00000250: d262 f60b 6ddb fc3f 28fd 02d4 8ac5 f13f
00000260: 02d3 f12d ef77 fa3f 94a7 cd4f 67cd 0a40
00000270: c30f 6b30 ac5d e33f 292d 5c12 5333 f53f
00000280: 6876 8ebf dff8 d43f c42b e1fd 55b3 cabf
00000290: 20ae e518 7fe1 ecbf d20b dff8 ab0b fe3f
000002a0: 5982 54bf e194 0040 af49 dcf1 8657 f5bf
000002b0: c7e9 4f78 2e66 01c0 9329 3713 6d21 0040
000002c0: e5e4 3c83 4ded ea3f 1a35 4ab6 b9b0 df3f
000002d0: 15bb 0a6a 69bf e53f 4d15 f15b 12f1 0040
000002e0: 9a4c 373a 1dc8 0cc0 ac76 3b2b b85a f23f
000002f0: 282b bb4a 2b9f fdbf e6e5 9c92 1069 dfbf
00000300: 97de 96b8 fac5 f73f 5843 3102 a3be f7bf
00000310: 3501 2d75 d79a 0140 60ba b983 8638 aabf
00000320: 9a9f 0d9b de6d 0640 451e c1e6 25d8 e33f
00000330: ae4d cd00 a8e1 f7bf c800 9cd0 99d0 dcbf
00000340: c3ca f6f0 9e6f 02c0 8e4c dfb0 720a 00c0
00000350: 378f 249c 99f1 07c0 d8ae 3daf 6cec 00c0
00000360: 0433 9458 4344 d43f 9a53 f8ac 9741 fabf
00000370: 8048 e4b7 2638 903f 1388 46b5 fd1f 0040
00000380: ffc0 8efc 6a18 ebbf e79d e7df 21b4 fbbf
00000390: bd3f b503 a8e0 f1bf c34a 2ce8 e778 f33f
000003a0: 8878 a30e 2705 cabf 743b 9c77 48da c03f
000003b0: 4733 557f 146f e3bf bf9b 481f ed5a f73f
000003c0: d07d b4cc 61c0 f6bf d144 48dc 88ce 00c0
000003d0: 76f6 98cf c742 0940 301a 2459 8f02 de3f
000003e0: 4cfd 0fd0 04be 01c0 26c3 19d2 9ca2 edbf
000003f0: d3c0 ce9d 9f1b e33f 4409 d978 9403 d2bf
00000400: a1fd 841d 9f8e 00c0 888a 8c35 9d66 fa3f
00000410: 228a 7595 00dc e03f c47c 3877 47e0 dd3f
00000420: b553 113b f0cf 0340 5c74 157a 7111 d13f
00000430: 44a8 18b9 cccf f43f eacd 085d 0ec1 d1bf
00000440: 8eb9 f84d 696b f7bf d462 3765 980e fe3f
00000450: d461 af31 bc88 b93f d93a 09c1 9a9e f93f
00000460: 7fb8 7d27 e13e d93f e2a5 dbdb 1a24 d1bf
00000470: 493d 3bad 8d8a f5bf eadd e7d4 882e f43f
00000480: f4d3 dd46 3f7d ed3f 68f3 0063 fcdc c73f
00000490: 48a3 e75e dde3 fc3f e5e5 6e8f deea fd3f
000004a0: 1665 9862 e053 0840 cb03 0e8f 0a9e f5bf
000004b0: 2b2d 91b1 b96a eb3f a594 4a91 2ca0 f03f
000004c0: c39c 27ff 7075 e0bf 8e8a b3c6 5ad3 e4bf
000004d0: 4295 a90e b199 0b40 34c5 c76e a9db e5bf
000004e0: bb69 fee9 f05a fe3f 4c66 f409 31e7 03c0
000004f0: 5e69 d05e 2808 dbbf 9786 ce4c cbbd f7bf
00000500: eced 9d4b d83e f4bf bb04 4754 425a e0bf
00000510: fa65 bc5e 1402 01c0 c39d 34cc a0aa f2bf
00000520: 9e16 5d5e 6899 e03f f6ab 123b 38aa f63f
00000530: 6e95 d6e3 51f7 d3bf 23b4 2e3f f694 c1bf
00000540: 3495 5b58 e91d d3bf 24f8 b59c 1ec3 00c0
00000550: 3f55 4dc3 1521 e33f 9e08 74d6 5d21 f73f
00000560: 24ee fa2b 200a e5bf 5359 0071 96f2 f5bf
00000570: 5af9 c41b b3ef e23f cffe bdd4 0efd febf
00000580: b251 737b 6bbb e5bf bd60 cff0 fad0 0a40
00000590: 86e6 d1b4 60fe f5bf 0a08 5974 96f6 06c0
000005a0: 9010 5ab6 827e b63f 1e97 4f3b aebb 0240
000005b0: a8b3 9869 b300 f93f ec17 a90f 5e6e d8bf
000005c0: 8049 1a2e df18 b5bf 5549 ae2f 81d9 f83f
000005d0: 0ca8 c5e0 015f f43f c066 6b26 2fa1 c33f
000005e0: 8a2b 7f8e 2edb d13f bec6 72bf 17cf f6bf
000005f0: 70de 1283 3453 e93f 30e3 245b a2a1 9b3f
00000600: 8291 b30b 39b5 dd3f 41ef 1266 f07c fd3f
00000610: 9a95 cb07 a49e d3bf 68bd 299e 89ef febf
00000620: 7d3f 4bbd 0188 fdbf 54a6 31ea dc29 ffbf
00000630: 39a7 ed9b 3077 febf 06d8 a161 0739 f33f
00000640: 636d e2e1 9031 f7bf c72c 11ba 4e3b e53f
00000650: a59c 1b4e 55db ecbf 2c38 4925 2543 f1bf
00000660: 0344 24e7 1659 d0bf 8fa1 70ed f340 e03f
00000670: 800a 6c75 6d1b f6bf 0827 4e13 3286 e03f
00000680: 5339 4450 ab2e e7bf cdfe dd92 7102 c6bf
00000690: 7aac 5849 bdf7 f1bf f424 4b1f 3eae b4bf
000006a0: bfc9 9b01 07c1 e0bf 4476 d097 1ceb f03f
000006b0: ec56 f8c3 dc1f 01c0 8104 587e e0d8 eabf
000006c0: a857 3ca9 aa0a f23f 921f 7c19 4ec3 ff3f
000006d0: b45c 618a 48d1 e6bf 90b4 9de0 195b ecbf
000006e0: 507d dacf 6a8c e03f 829b 12a7 63d9 f73f
000006f0: cc9d 54a5 6fe8 d6bf a23d d44c c650 09c0
00000700: a100 f6a3 bf1d 0040 f21c 016c 16ec fd3f
00000710: e812 36cc f0cc 05c0 e0d1 7630 09db 0440
00000720: e87f 4378 dd61 08c0 9a06 add9 ea9e e4bf
00000730: f001 2aaa 0d1a c4bf 1034 acee e5a3 b93f
00000740: da9f 9c84 30d4 f53f fd49 a044 3644 eb3f
00000750: 2847 74d2 e6e7 f8bf 5ce3 a401 8408 f93f
00000760: 7622 bf78 7aaf ef3f 64d5 1702 e2e4 e7bf
00000770: 80a3 5ee7 9b7e c53f 525f 5316 b03a e63f
00000780: 6287 7002 cf7e e33f 642c 349e 8fdf fe3f
00000790: f0f6 b647 30c0 f1bf bec9 b0da 0d54 ff3f
000007a0: 8a51 7610 54f9 d03f 1fbb 2e64 13b2 f03f
000007b0: b282 e082 f901 f9bf 646c 8f4a 1f39 dcbf
000007c0: 965f 66d0 4f93 ec3f 0a84 4e42 02f4 01c0
000007d0: 421a d801 d5e0 e8bf 14c7 2771 97c0 e0bf
000007e0: 7e03 bfb3 69a0 f93f 652a 8665 d6a0 ca3f
000007f0: 353b 440f e353 f1bf 879f 6eb0 36c2 e1bf
