Darcy_Flow6D/dataset/Dim6/Beta6_7/DarcyFlow_HoumanC1000_B204_Trace.npz (npz, 356986 bytes, 6 tensors)

beta f8 []
0	0x4018000000000000	6.0

XTrain_Col f8 [1000, 6]
0	0x3fef94b3e538cac7	0.9869021870602744
1	0x3fc3faf7713080db	0.15609639193372157
2	0x3fb12a2adb06ba9b	0.06704967353173645
3	0x3febc1db8f800d01	0.867414264940095
4	0x3fd0d5ab12d84ef8	0.26304127540900835
5	0x3fe9de4ab5cd2f3e	0.8083852339563931
6	0x3fe6b3e8c15103b4	0.7094615722381747
7	0x3fe26c4858376b47	0.5757180903413904
8	0x3fe63663f2f17096	0.6941394562704939
9	0x3fe2766158b78d07	0.5769507153276273
10	0x3fe202e75f9da61c	0.5628544681068806
11	0x3fe95f5feda04ac7	0.7928924218307082
12	0x3fe8756cdbbd9082	0.7643341342741368
13	0x3fcfd0108a826406	0.2485371280970698
14	0x3feb707e31ac22be	0.857482049003998
15	0x3fec024b90605e3a	0.8752801723339367
16	0x3fc65e51747d4108	0.1747533625407487
17	0x3fbc683c25c82112	0.11096549913793677
18	0x3fdfb809383bd363	0.49560766688892083
19	0x3fedb6b94453f41c	0.9285551390199802
20	0x3fcd306f08b3812f	0.22804058003294744
21	0x3fd9a0df9c534ac2	0.4004439379324759
22	0x3fd8ca2f09f27e04	0.3873403164998026
23	0x3fd5071a79a0aa6c	0.3285585582513366
24	0x3fdc8a83bb101c64	0.4459542586122949
25	0x3fe6223678caf90c	0.6916763648257827
26	0x3fdddcfa2b338405	0.46661237925405913
27	0x3fe79c7d35e4c1ee	0.7378526737793984
28	0x3fdb96d33442351c	0.43108062842732564
29	0x3fe46fd7b21502da	0.6386526563802264
30	0x3fe4ea85f71ba4c5	0.6536283327415268
31	0x3fe97671b3580fc4	0.795708513528091
32	0x3fc1deeb7f1d24d2	0.13961547571879024
33	0x3fbb1e56ce8265bf	0.10593168775303406
34	0x3fd921b8c371387d	0.3926832111946011
35	0x3fd701693fb6df0e	0.3594611284456598
36	0x3fd233a500de307e	0.28440213284262217
37	0x3fec391daf97867b	0.8819721631554808
38	0x3fb097d949a27e79	0.06481702850077821
39	0x3fe1c453ad396aaa	0.5552156813895028
40	0x3fe7e58dbc3e9c91	0.746771686234654
41	0x3fe5b65c640edc82	0.6785108522662002
42	0x3fecc58132e60951	0.8991094583619007
43	0x3fe5b40375b21863	0.6782243059867706
44	0x3febd25293e164ef	0.8694241417207688
45	0x3fdfc01f57d38fba	0.49610122277067215
46	0x3feaa57b1c20989b	0.8327003049241911
47	0x3feb1fe34e14fb61	0.8476425671613975
48	0x3fe5cc1616dc2282	0.6811628767473652
49	0x3fede9b95672ce1b	0.9347807587095674
50	0x3f9ece796d0b6f6a	0.03008451202445831
51	0x3fe760010c4d1d35	0.7304692497499788
52	0x3febe14e785f7037	0.8712532378226631
53	0x3fe019b4f8cca542	0.5031380519259658
54	0x3fea55731c12b318	0.8229308651258149
55	0x3fe86fb52dad4f31	0.7636361972931579
56	0x3fe9eb90548cfa38	0.8100053454762195
57	0x3fe2c04ca59fb10e	0.5859740481223825
58	0x3fa95cf037dc6189	0.04953718835730842
59	0x3fc9bb81ca46a722	0.2010347592998239
60	0x3fda3a2b6ecb9d52	0.40980039424762993
61	0x3fd558928ebd7cf4	0.3335310357997081
62	0x3fee615fe6a1ba09	0.9493865494276302
63	0x3fd02acbe5722479	0.2526120892221751
64	0x3fe6c0cef7db63e0	0.711036190124215
65	0x3fea4ceb2e192421	0.8218894863467804
66	0x3fe8a1ed2a4a5c1d	0.7697664094911293
67	0x3fe97b6ef737b60a	0.7963175610036057
68	0x3feba42bbda45fe2	0.8637903884837181
69	0x3fca6b4de8ec85c1	0.20639966843832094
70	0x3feb4f7d7dfed3ef	0.8534533940170358
71	0x3fd86c5418349768	0.38161184657871283
72	0x3fe249e05a32fad6	0.571518112344928
73	0x3fc50540d8d49bd8	0.1642228182547274
74	0x3fe6e3ed3230c73e	0.7153230648311604
75	0x3fd36433eeed28d2	0.302990897490088
76	0x3fc93270555a4da8	0.19685177009214994
77	0x3fa4861a9df71a9b	0.04008563211714496
78	0x3fc0c602294970b0	0.1310427381130288
79	0x3fcb08155f194ffe	0.21118418830394597
80	0x3fc08b78aa278226	0.12925632770840528
81	0x3fdb6d6355a6d2a0	0.42855151523989754
82	0x3fce16e33884684e	0.23507347354535785
83	0x3fe3fbe900063e4e	0.6245007515407879
84	0x3fe803a5a7daeef5	0.7504452017232938
85	0x3fe726314a87df00	0.7234121757200853
86	0x3fe3cde6c5e84ade	0.6188844552401311
87	0x3fd862bea4c09d64	0.3810268982801601
88	0x3fb29bafd4a06a0c	0.07268809262351555
89	0x3fd7b717954ed7cf	0.3705500562749621
90	0x3fca006e8350e476	0.2031381741706217
91	0x3fef841226a98e55	0.9848719363330455
92	0x3fbedf9fd13f9731	0.12059973581889662
93	0x3fea80bc8569c888	0.828214893887222
94	0x3fe95bc20a08667a	0.7924509235337631
95	0x3fc9b0631b5c072f	0.20069540820991835
96	0x3fc7c547be71b0e7	0.18570801543263046
97	0x3fece022d951e49b	0.9023603672532262
98	0x3fe734b0b1f81f16	0.7251819110833562
99	0x3fcfd48cfd914edb	0.24867403393965656
100	0x3fd2e40e022861e5	0.2951693554946629
101	0x3fe70b45e4c23e8a	0.7201261012978233
102	0x3fcccdc43fc866dc	0.2250294982375668
103	0x3fe95288f24d5c80	0.7913250668015195
104	0x3fe37259c630ecb1	0.6077088232917928
105	0x3fe98cae3253fbf3	0.7984229071588501
106	0x3fd9bc05c5a3c81e	0.4021009855342771
107	0x3fde36d4c81fc7f1	0.47209662955640314
108	0x3f6b0645b1d9aed5	0.0032988892769959346
109	0x3fe3fd072b368bd0	0.6246372074132243
110	0x3fe44f092c38c660	0.6346479285914022
111	0x3fe570b3d608f149	0.6700076275224457
112	0x3f948f350fd99faf	0.020077542393124478
113	0x3fe7ee5cc7318dd6	0.7478469744204925
114	0x3fd9b25b0d787e7f	0.4015109664487468
115	0x3fecc960fefe971a	0.8995823841439432
116	0x3fe5eba17603379d	0.6850135140355068
117	0x3fb5621b0393f0b2	0.08352822148657671
118	0x3fbcb59b4c581c9a	0.11214609731551875
119	0x3fe8fd7edfba8842	0.7809442872715027
120	0x3fe75143a2e20dda	0.7286699467953739
121	0x3fec4a541e0360a3	0.884073313350218
122	0x3fdb6a1a74f61677	0.4283510343742373
123	0x3f6dcdd2991f80f2	0.003638182949529883
124	0x3fe178b419f489d8	0.5459843165338567
125	0x3fe26e9380ac0abd	0.5759980691076049
126	0x3fe72f74706058b9	0.7245428271151219
127	0x3fd97890e6b98411	0.39798376590448564
128	0x3fd2cb142eef8df4	0.2936449488026647
129	0x3fef6d06dc18d58d	0.9820589350480745
130	0x3fddd200dafabf88	0.4659425867530378
131	0x3fead6ad4e589fa1	0.838705685634512
132	0x3fda82dcb5d006aa	0.41423719172608264
133	0x3fbf4e8090b77e7a	0.1222915986359058
134	0x3fdd519518e4fd3e	0.4581043952093359
135	0x3fe06457da8891cb	0.5122489231330801
136	0x3f859ed681315e71	0.010556865518238841
137	0x3f9c2c111dd149c9	0.027511851735036594
138	0x3fe0df846dee8219	0.5272848269560796
139	0x3fcf58f49fa6a276	0.24490220828490167
140	0x3fe3e2efa0c38c7b	0.6214521541518389
141	0x3fea2a123d9db6d5	0.8176356509627235
142	0x3fbf034152fc7155	0.12114341999080598
143	0x3fdf9d0610012cbb	0.49395896494815944
144	0x3fc7751c4fabde39	0.1832614316006003
145	0x3fe51b1097e80cde	0.6595538107798367
146	0x3fe0d17ba451c743	0.5255716523517794
147	0x3fe61f95077ad819	0.691355242356397
148	0x3fe94ba33778b8f9	0.7904831012181425
149	0x3fc832f7734bd976	0.18905537728978644
150	0x3fdaeed5d5a890b6	0.42082734932979393
151	0x3fd615ace512c8ba	0.34507295961806117
152	0x3fe9aa25a2b43897	0.8020198991596484
153	0x3fe4c118f31515fa	0.6485714671804879
154	0x3fe6e0e2e67f9e16	0.7149519445346779
155	0x3fcc983f6e579ee2	0.2233962334423643
156	0x3feada01ab60859a	0.8391121241767678
157	0x3fc1d4baacada6a6	0.13930447989996714
158	0x3fce7df910986ecd	0.23821938810657742
159	0x3feb876b5a8224c8	0.860280682348411
160	0x3fdc34105e211963	0.4406777304870017
161	0x3fa79b950170ca90	0.046108871866086365
162	0x3fdd985d15c882fb	0.4624245369650876
163	0x3fdb0880bcd80df8	0.42239397470277096
164	0x3fe3026b10dc3afa	0.594045193605637
165	0x3fcdef6187acceac	0.23386782765156988
166	0x3fddefc427e73a2e	0.4677591695480342
167	0x3fe9094015117bee	0.7823791896333867
168	0x3fe75e017bf38860	0.7302253170894453
169	0x3fe188d7fc8a289b	0.5479545528808275
170	0x3fbf82f539ff5b1a	0.12309200921968647
171	0x3fecf14d05c7a187	0.9044556725394138
172	0x3fa5dc1a5dd17335	0.042694877579128855
173	0x3fe2bd30050e7304	0.5855941866644518
174	0x3fe01fee975e0e98	0.5038979488749247
175	0x3fe8b1c7c548bde7	0.7717017033773431
176	0x3fd7870575bd02c7	0.3676160478390042
177	0x3fb3601432cdbd6e	0.0756847976715471
178	0x3fee12f56fb5c2ed	0.9398142988048598
179	0x3fcffaae148a170d	0.2498376465120419
180	0x3fe1e8062019d14c	0.5595732333154415
181	0x3fea0bcf7ab060f4	0.8139417072552804
182	0x3fd10be451b03f70	0.26635082223309947
183	0x3fd006ae08e76918	0.25040770406271085
184	0x3fd19a33cdc8e877	0.27503676506206126
185	0x3fda0c62bb36e23a	0.40700596125273913
186	0x3feaa26c882e2741	0.832327142693636
187	0x3fdf4f56c986989d	0.48921746902704816
188	0x3fe57e8a53b8f582	0.6716968188481334
189	0x3f9be927b86a502a	0.027256603842559603
190	0x3fed27004496080d	0.9110108699389926
191	0x3fc426e1bf2ef51b	0.1574365790856199
192	0x3fefc0997a0371fe	0.992260683352981
193	0x3fe7384932d0ee1f	0.7256208412649733
194	0x3fe0fce9021361b9	0.5308728256741723
195	0x3fe6598c54cfe81c	0.6984311729895611
196	0x3fef7de8ec127ede	0.9841198550020314
197	0x3fe841876e65d79a	0.7579991489608233
198	0x3fbe46be6b5452b9	0.11826696510645264
199	0x3fe406813e2651e7	0.6257940496312216
200	0x3fe530d8f71b4004	0.662212832097794
201	0x3fe0acc8290e18bb	0.521091537652658
202	0x3fe8e6373261a830	0.7781024917615067
203	0x3fe380362c74be76	0.6094008320123538
204	0x3fc601ce773907c4	0.17193013020920322
205	0x3fa01768b53777af	0.031428596612144026
206	0x3fe91e3ec1b871b2	0.78494203411133
207	0x3fe376d8899e79a2	0.6082575500366156
208	0x3fe5138cf5c365fc	0.6586365509094203
209	0x3fec5481003ada66	0.885315418671621
210	0x3fb15efd22cbbaba	0.06785566424853587
211	0x3f75302d01fcc396	0.005172897159170816
212	0x3fec6d79a105eeb2	0.8883636612876755
213	0x3feee0b02d102a31	0.9649277572764899
214	0x3fd4ba227d506b20	0.3238607620020719
215	0x3fe37baae87ffdd3	0.6088461438193299
216	0x3fe37f03a203d668	0.6092546619754104
217	0x3fdd983653599455	0.4624152959789332
218	0x3fd64d323524d29f	0.3484616774542619
219	0x3fe41a8a2cf41bce	0.6282397153853425
220	0x3fe2ebe8715d6752	0.5912973608167056
221	0x3fdebb3551409458	0.48017628607550966
222	0x3fc20a0c96c2db0b	0.14093167649635804
223	0x3fed75f05095ba5b	0.9206468175814949
224	0x3fc00dbeafe69c05	0.12541946019084108
225	0x3fbe610f50043203	0.11866851523900128
226	0x3fdba930630f7b90	0.4322014777553074
227	0x3f9b043aa331cfca	0.026383320055586336
228	0x3feed2f8be2bfbcb	0.9632533754628353
229	0x3feb8ebe0b5b5af2	0.8611746045888522
230	0x3fdc5cf8654e9690	0.4431744565320992
231	0x3f9824a82afb8fe7	0.023577334998563428
232	0x3fc4e170e1e07a41	0.16312991170066662
233	0x3fef2c64ec9e0d7f	0.9741692182000604
234	0x3fe69e2a7d91d09f	0.7068073704272314
235	0x3fbf7da26a196090	0.12301077928839477
236	0x3fc7f036f4838638	0.18701826991223114
237	0x3fd04f77ea0119a5	0.25485036708814796
238	0x3fdcb603e325a431	0.44860932524040026
239	0x3fe109b6e6b7b986	0.5324358469204504
240	0x3fdb8611c32aa369	0.4300579458163641
241	0x3fe217b7eaf963a1	0.5653953160609612
242	0x3fc21f0ddb5db49c	0.1415726967929104
243	0x3fde4a471fc684e7	0.4732835588748245
244	0x3fee25c19a2e7239	0.9421089183193266
245	0x3fe086ce69bb7714	0.516455847271319
246	0x3fed32750f20a007	0.9124093337495659
247	0x3fefdd6060af33d6	0.9957734955183877
248	0x3fe1797d3127eac3	0.5460802040173224
249	0x3fdf5f4dba1d05ea	0.49019187140592513
250	0x3fe8ce67b924de16	0.7751959434598941
251	0x3fe60936897c36d1	0.6886246381052051
252	0x3fef323368485e1a	0.9748780285617074
253	0x3fec10ff15254df1	0.8770747578623156
254	0x3fd278dd7a9686b1	0.28862702342494645
255	0x3fd17948ded58e50	0.27302762757446875

FTrain_PDE f8 [1000, 6, 6]
0	0xc01789b53591fa42	-5.884480320963634
1	0xbfed30cc0ce29e6d	-0.9122066737808844
2	0xbfd49a5b20173448	-0.3219211400399371
3	0xc013daecef71eed5	-4.963794461563983
4	0xbff9c2007825ecf4	-1.609863728836726
5	0xc012cd2030b11931	-4.700318108376721
6	0xbfed30cc0ce29e6d	-0.9122066737808844
7	0xbfeb8dfee4da1015	-0.8610834569703935
8	0x3fa56bbddeda78ca	0.04183762879732596
9	0xbfea56dff708496e	-0.8231048416949258
10	0xbfc95d02092746b7	-0.19815087744659873
11	0xbfe8c4b0afb84915	-0.7740100318935982
12	0xbfd49a5b20173448	-0.3219211400399371
13	0x3fa56bbddeda78ca	0.04183762879732596
14	0xbfe6c5ce2205475a	-0.7116461433854326
15	0xbfd22536458d7a00	-0.28352124016046787
16	0xbf8d0e19d07328f0	-0.0141870514620632
17	0xbfd0ca8e487406ac	-0.26236302447805815
18	0xc013daecef71eed5	-4.963794461563983
19	0xbfea56dff708496e	-0.8231048416949258
20	0xbfd22536458d7a00	-0.28352124016046787
21	0xc0142ef78df07419	-5.045866220284574
22	0xbff75f970ae6fcf9	-1.4608374048110007
23	0xc01124b36450518e	-4.2858405756018225
24	0xbff9c2007825ecf4	-1.609863728836726
25	0xbfc95d02092746b7	-0.19815087744659873
26	0xbf8d0e19d07328f0	-0.0141870514620632
27	0xbff75f970ae6fcf9	-1.4608374048110007
28	0xbff30ceec8d73508	-1.1906574101770406
29	0xbff60f415169f849	-1.378724401496145
30	0xc012cd2030b11931	-4.700318108376721
31	0xbfe8c4b0afb84915	-0.7740100318935982
32	0xbfd0ca8e487406ac	-0.26236302447805815
33	0xc01124b36450518e	-4.2858405756018225
34	0xbff60f415169f849	-1.378724401496145
35	0xc012728a6fd7f916	-4.6118562198228314
36	0xc0180e3d30469536	-6.013905290897403
37	0xc00ef0274017e0c4	-3.867262364128779
38	0xc01285f5673a529a	-4.630818951544507
39	0xc00f011d4a695c53	-3.875544148769714
40	0xc00e3e57c3d038b1	-3.780440835754313
41	0xc014da305d934682	-5.213075124849299
42	0xc00ef0274017e0c4	-3.867262364128779
43	0xc0124dfefcb6aa8a	-4.57616801133066
44	0xc00e4fa9e12c19da	-3.788898238333087
45	0xc00942e724f4ff2d	-3.157667435385426
46	0xc008a01eb8b4f8aa	-3.0781835966327735
47	0xc0111a239b8620dd	-4.275526456891581
48	0xc01285f5673a529a	-4.630818951544507
49	0xc00e4fa9e12c19da	-3.788898238333087
50	0xc017612620252aa6	-5.8448719999966325
51	0xc00e6051ed47948a	-3.797031263110118
52	0xc00da10c07500619	-3.7036362239166576
53	0xc0147130a40b2978	-5.110537112408899
54	0xc00f011d4a695c53	-3.875544148769714
55	0xc00942e724f4ff2d	-3.157667435385426
56	0xc00e6051ed47948a	-3.797031263110118
57	0xc0125b041c9afae9	-4.588882872542606
58	0xc008ae036b8165d5	-3.0849674605239934
59	0xc0112369cb01937d	-4.284583255740356
60	0xc00e3e57c3d038b1	-3.780440835754313
61	0xc008a01eb8b4f8aa	-3.0781835966327735
62	0xc00da10c07500619	-3.7036362239166576
63	0xc008ae036b8165d5	-3.0849674605239934
64	0xc011c6eee411aabb	-4.444270671442321
65	0xc010b8e9feaf42ff	-4.180580119559408
66	0xc014da305d934682	-5.213075124849299
67	0xc0111a239b8620dd	-4.275526456891581
68	0xc0147130a40b2978	-5.110537112408899
69	0xc0112369cb01937d	-4.284583255740356
70	0xc010b8e9feaf42ff	-4.180580119559408
71	0xc01bc26cc9618f9f	-6.939868113116886
72	0xc00327bb3f0f195e	-2.394400112770355
73	0xbfe9d1291c0d6232	-0.8067822978874288
74	0xc004abdc94686aab	-2.583916816174072
75	0xc004fe146f6f6183	-2.6240624147287135
76	0xbfe1c7450876c215	-0.5555749097166564
77	0xbfd57c01b57e9905	-0.335693766823525
78	0xbfe9d1291c0d6232	-0.8067822978874288
79	0xbfd333c9b2bd56e8	-0.3000358815673807
80	0xbfec5bafb3f52fb4	-0.8861921801376327
81	0xbfecd094e9d94871	-0.9004616324766755
82	0xbfc5265ce245a836	-0.16523324058954508
83	0xbfb64ac0ae94ab5b	-0.08707813513016786
84	0xc004abdc94686aab	-2.583916816174072
85	0xbfec5bafb3f52fb4	-0.8861921801376327
86	0xc006debd3beb131e	-2.8587593728174303
87	0xc006f9a705645d85	-2.8719005986455977
88	0xbfe3931122be55b9	-0.6117025068839929
89	0xbfd7c5b68686944c	-0.37144244324946807
90	0xc004fe146f6f6183	-2.6240624147287135
91	0xbfecd094e9d94871	-0.9004616324766755
92	0xc006f9a705645d85	-2.8719005986455977
93	0xc007927b1bbd3406	-2.9465238730540504
94	0xbfe3e5b089120517	-0.6217882802158411
95	0xbfd82ef5f0841afd	-0.3778662537373945
96	0xbfe1c7450876c215	-0.5555749097166564
97	0xbfc5265ce245a836	-0.16523324058954508
98	0xbfe3931122be55b9	-0.6117025068839929
99	0xbfe3e5b089120517	-0.6217882802158411
100	0xbfc2fd8e76284a14	-0.14836293000605905
101	0xbfa800e1e5492dc3	-0.046881732214923776
102	0xbfd57c01b57e9905	-0.335693766823525
103	0xbfb64ac0ae94ab5b	-0.08707813513016786
104	0xbfd7c5b68686944c	-0.37144244324946807
105	0xbfd82ef5f0841afd	-0.3778662537373945
106	0xbfa800e1e5492dc3	-0.046881732214923776
107	0xbfade1fd3009488d	-0.05836478434925239
108	0xbfc53695f22b24d8	-0.16572832417140293
109	0xc01455e714bf5bf9	-5.083889316730159
110	0xbfe26229ebc8cf8e	-0.574482880131187
111	0xbffdc04bb5b890e3	-1.8594472025370627
112	0xbffc3b6576ea3508	-1.764501060973375
113	0xbff55223beb74f16	-1.332553620323727
114	0xc01455e714bf5bf9	-5.083889316730159
115	0xc01f1370abb066ad	-7.768984491960208
116	0xbffc9976d9c2b631	-1.7874668604157586
117	0xc00f9bd06c56624c	-3.951081129442434
118	0xc00e5466abfc1b0a	-3.791211455947068
119	0xc00882deaaaba1c0	-3.0639012654903297
120	0xbfe26229ebc8cf8e	-0.574482880131187
121	0xbffc9976d9c2b632	-1.7874668604157589
122	0x4007d042f4617032	2.976690205787258
123	0xbfd04c7cd9254d74	-0.2546684380115132
124	0xbfcad202d0751860	-0.20953402689537182
125	0xbf7133ccfd0bc300	-0.004199791656660734
126	0xbffdc04bb5b890e4	-1.859447202537063
127	0xc00f9bd06c56624c	-3.951081129442434
128	0xbfd04c7cd9254d74	-0.2546684380115132
129	0x3ff2b5c694895abd	1.1693788339813829
130	0xbff3aea7698eafcc	-1.230140125592686
131	0xbfec08bf596d410a	-0.876067804967563
132	0xbffc3b6576ea3508	-1.764501060973375
133	0xc00e5466abfc1b0a	-3.791211455947068
134	0xbfcad202d0751860	-0.20953402689537182
135	0xbff3aea7698eafcc	-1.230140125592686
136	0x3ff560dd73df7076	1.3361486936837799
137	0xbfe9f8ffc128c7bc	-0.8116453907625707
138	0xbff55223beb74f17	-1.3325536203237272
139	0xc00882deaaaba1c0	-3.0639012654903297
140	0xbf7133ccfd0bc300	-0.004199791656660734
141	0xbfec08bf596d410a	-0.876067804967563
142	0xbfe9f8ffc128c7bc	-0.8116453907625707
143	0x400038bf26be3c3f	2.027708342247507
144	0xbfe8960132a4c314	-0.7683111180432172
145	0xbff7575245f913bf	-1.4588186963385252
146	0xbff03429e95fbb1f	-1.0127352825326807
147	0xbff8aa4bc89b05b5	-1.5415761791376614
148	0xbfedf9ff4f3691a2	-0.9367672488338494
149	0xbff5c1d2a99f7135	-1.3598200441256953
150	0xbff7575245f913bf	-1.4588186963385252
151	0xc000198cb6b45b6c	-2.0124754213133453
152	0xbff861e4dd80e0b6	-1.523899903533715
153	0xc00272925dcf5769	-2.3059432343388164
154	0xbff695bf3a25cf37	-1.4115593215364706
155	0xc0004c1cea369a3b	-2.0371645257867192
156	0xbff03429e95fbb1f	-1.0127352825326807
157	0xbff861e4dd80e0b6	-1.523899903533715
158	0xbfeb87205f99aa43	-0.8602449290459123
159	0xbff9c371570d6acc	-1.6102155113682555
160	0xbfef57451703e0a2	-0.9794030618204668
161	0xbff6baf6166cbc5c	-1.4206448436705363
162	0xbff8aa4bc89b05b5	-1.5415761791376614
163	0xc00272925dcf5769	-2.3059432343388164
164	0xbff9c371570d6acc	-1.6102155113682555
165	0xc0022a4ab8f8521f	-2.270650334432744
166	0xbff7de2375bd5a2c	-1.4917330359654768
167	0xc001365b538a871e	-2.151541378655465
168	0xbfedf9ff4f3691a2	-0.9367672488338494
169	0xbff695bf3a25cf37	-1.4115593215364706
170	0xbfef57451703e0a2	-0.9794030618204668
171	0xbff7de2375bd5a2c	-1.4917330359654768
172	0xbfe6871544b7a4de	-0.7039896337638785
173	0xbff50ce8970d660d	-1.3156515026552171
174	0xbff5c1d2a99f7135	-1.3598200441256953
175	0xc0004c1cea369a3b	-2.0371645257867192
176	0xbff6baf6166cbc5c	-1.4206448436705363
177	0xc001365b538a871e	-2.151541378655465
178	0xbff50ce8970d660d	-1.3156515026552171
179	0xbffb8d4077bc5b40	-1.7219853093317425
180	0x401b989a65d137a4	6.899026480574239
181	0x400c04ffa408471d	3.5024407210375004
182	0x4014dc939898ccce	5.21540678436868
183	0x401542849d319fd6	5.314959007409888
184	0x4011f5ff8295be80	4.490232506169946
185	0x401254399c5dc583	4.582251017783508
186	0x400c04ffa408471d	3.5024407210375004
187	0x401761d37b17054c	5.845533297805854
188	0x4014926586ab5db5	5.142965416154245
189	0x40150a2836b67d27	5.25991902817558
190	0x40112a0497f1fb89	4.2910331479496415
191	0x401198b727b88776	4.399136181485906
192	0x4014dc939898ccce	5.21540678436868
193	0x4014926586ab5db5	5.142965416154245
194	0x4022c102b4015ef4	9.376973748366687
195	0x40163b29a7f21044	5.557776092671762
196	0x401579e30e64a7d3	5.3690302132544785
197	0x40158f739c31bdc6	5.390089455162018
198	0x401542849d319fd6	5.314959007409888
199	0x40150a2836b67d27	5.25991902817558
200	0x40163b29a7f21044	5.557776092671762
201	0x4022ddbb81a49174	9.433071185435189
202	0x4015ba0a5433d19d	5.431680026686448
203	0x4015ca6cc58cb138	5.44768055602281
204	0x4011f5ff8295be80	4.490232506169946
205	0x40112a0497f1fb89	4.2910331479496415
206	0x401579e30e64a7d3	5.3690302132544785
207	0x4015ba0a5433d19d	5.431680026686448
208	0x4020fe8349150ba7	8.497095378703149
209	0x4013e1de718124cf	4.970575116641341
210	0x401254399c5dc583	4.582251017783508
211	0x401198b727b88776	4.399136181485906
212	0x40158f739c31bdc6	5.390089455162018
213	0x4015ca6cc58cb138	5.44768055602281
214	0x4013e1de718124cf	4.970575116641341
215	0x40214fa74b14bd72	8.655573221475354
216	0xbfdc023989c00961	-0.4376357884613267
217	0xbff0b79709bfa058	-1.0448217755129203
218	0xbfa516b4dc215251	-0.04118886172424097
219	0xbfe6507e1a9d40c6	-0.6973257560548738
220	0xbfed3942b034d73d	-0.9132398072749549
221	0xbfeae0f0532f1395	-0.8399583458600427
222	0xbff0b79709bfa058	-1.0448217755129203
223	0xc0082fac889ad9d4	-3.023278300500559
224	0xbfc9e0d68af6068b	-0.2021740129967394
225	0xc0000f472504eed3	-2.0074599163179783
226	0xc004cfeb3320baaa	-2.601522826610865
227	0xc00332fd525cbb41	-2.399897235350551
228	0xbfa516b4dc215251	-0.04118886172424097
229	0xbfc9e0d68af6068b	-0.2021740129967394
230	0xbfb072b35af1901d	-0.06425019235899794
231	0xbfbf3880731c0b30	-0.12195589838306087
232	0xbfc5fd80fc679820	-0.17179882358976872
233	0xbfc3d32d109229dd	-0.1548820811188553
234	0xbfe6507e1a9d40c6	-0.6973257560548738
235	0xc0000f472504eed3	-2.0074599163179783
236	0xbfbf3880731c0b30	-0.12195589838306087
237	0xbff6f397d07f4676	-1.434470953409258
238	0xbffc2a0604292ac7	-1.7602596437961198
239	0xbff9f61e1b46e42d	-1.6225873055939346
240	0xbfed3942b034d73d	-0.9132398072749549
241	0xc004cfeb3320baaa	-2.601522826610865
242	0xbfc5fd80fc679820	-0.17179882358976872
243	0xbffc2a0604292ac7	-1.7602596437961198
244	0xc002d0bf05716cc9	-2.3519268441428705
245	0xc000d8316bd4b57e	-2.105563013485777
246	0xbfeae0f0532f1395	-0.8399583458600427
247	0xc00332fd525cbb41	-2.399897235350551
248	0xbfc3d32d109229de	-0.15488208111885532
249	0xbff9f61e1b46e42d	-1.6225873055939346
250	0xc000d8316bd4b57e	-2.105563013485777
251	0xc0001e49139cc5fe	-2.0147878200739333
252	0x3feca788ed09cc78	0.895451033559211
253	0xbfd131ef7716ca70	-0.268672815606954
254	0xbff15f57cff5b410	-1.0857771037510737
255	0x3fe465718d233e2c	0.6373832470507685

XTrain_Boundary f8 [204, 6]
0	0x0000000000000000	0.0
1	0x3fe0c1ce8d852ea4	0.5236580623690839
2	0x3fd32fb9011a1929	0.29978776080715136
3	0x3fe44ead7e59d93b	0.6346042125503922
4	0x3f94eabb99d8722f	0.02042668463228575
5	0x3fecd7ea1ef913a1	0.9013567547741453
6	0x0000000000000000	0.0
7	0x3feec3ac4c4d7964	0.9613858690534411
8	0x3fe24267dff5e379	0.570606172011238
9	0x3fe0eb211c4092ee	0.5287023116876222
10	0x3fd4b56e20fca1ab	0.32357362004634166
11	0x3fe3e7dda74a82bf	0.6220539348033397
12	0x0000000000000000	0.0
13	0x3fd8d191f76164c2	0.38779114874121146
14	0x3fe78cc2490fd843	0.7359324862470732
15	0x3fef46b45c614aa9	0.9773809246347201
16	0x3fe098c53b8cb101	0.5186487353398946
17	0x3fdf08e178b021ef	0.4849170378297733
18	0x0000000000000000	0.0
19	0x3fbff200de86bfe8	0.12478642876408197
20	0x3fec8b257dafd701	0.8919856505224005
21	0x3fe7dea80124f39b	0.7459297201490814
22	0x3fc6123ef5ea7e0b	0.17243182189575665
23	0x3fe5546f61499f0f	0.6665570163868056
24	0x0000000000000000	0.0
25	0x3f78638409147588	0.005954280627773818
26	0x3fe4104415fb2c60	0.6269855908698325
27	0x3fe194ef0672b69f	0.549430382341331
28	0x3fdadf670b391f04	0.41988540740975133
29	0x3fb24e85f4d6e62f	0.07151066997075682
30	0x0000000000000000	0.0
31	0x3fd11933aadae8af	0.2671631973750079
32	0x3fc0413e546c570a	0.1269910728666946
33	0x3fe8a6c8127d5dbe	0.7703590737464123
34	0x3fecf822e5d60643	0.905290078066351
35	0x3fcc77860b66d8d8	0.22239757115102665
36	0x0000000000000000	0.0
37	0x3fe73890c0beef43	0.7256549610678821
38	0x3fda1b7dc8716cc3	0.4079279382182898
39	0x3fe56efa2bbfec76	0.6697970251547207
40	0x3fe58ac96d24da54	0.6731917506902598
41	0x3f9ad11d860a3649	0.02618833666433876
42	0x0000000000000000	0.0
43	0x3fe1cf269d3ecda1	0.5565369673917538
44	0x3fa7151b7acb1f25	0.04508291124289902
45	0x3fda3f86578463db	0.41012724444004584
46	0x3fe1f3c613050a3e	0.5610075351217529
47	0x3fdc2aef4c48703a	0.44012052964695025
48	0x0000000000000000	0.0
49	0x3fd2f24aa1197ef7	0.2960383008230418
50	0x3feaab53a2d093bf	0.8334139041877434
51	0x3fdac3d8550265f7	0.41820343305297975
52	0x3fe33ee9a1dd2229	0.6014297639276879
53	0x3feec94d7bc1a79a	0.9620730797880583
54	0x0000000000000000	0.0
55	0x3fc6e4ceb48a63db	0.17885764899690923
56	0x3fe0a983054e1ba2	0.5206923583617604
57	0x3fd17a57a5e0b374	0.2730921859645641
58	0x3fb6c67070109416	0.08896544204669996
59	0x3fd20721f8355746	0.28168534506891196
60	0x0000000000000000	0.0
61	0x3feb13fd89f8809d	0.8461902327290037
62	0x3fca104844d094cc	0.20362189636322225
63	0x3fee119ca52a1892	0.9396498895519179
64	0x3fcd9a719bafecdc	0.2312757501784749
65	0x3fd8d378ad79f45f	0.38790718976071575
66	0x0000000000000000	0.0
67	0x3fec8b4425d58c97	0.8920002688359031
68	0x3fef892656b9801a	0.9854919141616876
69	0x3fd360f9ab9d2c62	0.30279390105414994
70	0x3feb5d36eb7d0c3b	0.8551287269004954
71	0x3fd2fa9a72a4f7fe	0.29654561229460785
72	0x0000000000000000	0.0
73	0x3fe661556a7b985b	0.6993815498106061
74	0x3fe58a7f6b968483	0.6731564618422826
75	0x3feb573a4d2ea928	0.854397917505854
76	0x3fe8805e955671ef	0.7656701008559689
77	0x3fe983fb770e3588	0.7973611188223666
78	0x0000000000000000	0.0
79	0x3fea143943c0fdfd	0.8149687121694452
80	0x3fb51d4df9650a17	0.08247840250718529
81	0x3fc47732f6b38aa1	0.15988766714061334
82	0x3fd72c694923f873	0.36208564894321354
83	0x3fe762f9826112f2	0.7308318659275683
84	0x0000000000000000	0.0
85	0x3fdd5dbea28d1728	0.45884672044882047
86	0x3fdca80771bb42c1	0.4477556811007553
87	0x3fc8fab247e93306	0.1951506472709285
88	0x3fee44f8979b4720	0.9459193192544468
89	0x3febf32f2a562e18	0.8734355761420742
90	0x0000000000000000	0.0
91	0x3fbdfb06e545852b	0.11711161706400179
92	0x3fd1b3575b2ada2a	0.27657112029138153
93	0x3f9f356a0d709de6	0.03047719676047036
94	0x3fe82f83a959075e	0.7558000857900244
95	0x3fe1b188cac372b3	0.5529216728424075
96	0x0000000000000000	0.0
97	0x3fe3d818a5788d34	0.6201289398053746
98	0x3fe87b0be60a6fdb	0.7650203221305633
99	0x3fb9ff6f28652d0b	0.1015538667317523
100	0x3fd208ceae5d018b	0.28178755786577686
101	0x3fc3f3c15ae785e1	0.15587632120791198
102	0x3ff0000000000000	1.0
103	0x3fe0c1ce8d852ea4	0.5236580623690839
104	0x3fd32fb9011a1929	0.29978776080715136
105	0x3fe44ead7e59d93b	0.6346042125503922
106	0x3f94eabb99d8722f	0.02042668463228575
107	0x3fecd7ea1ef913a1	0.9013567547741453
108	0x3ff0000000000000	1.0
109	0x3feec3ac4c4d7964	0.9613858690534411
110	0x3fe24267dff5e379	0.570606172011238
111	0x3fe0eb211c4092ee	0.5287023116876222
112	0x3fd4b56e20fca1ab	0.32357362004634166
113	0x3fe3e7dda74a82bf	0.6220539348033397
114	0x3ff0000000000000	1.0
115	0x3fd8d191f76164c2	0.38779114874121146
116	0x3fe78cc2490fd843	0.7359324862470732
117	0x3fef46b45c614aa9	0.9773809246347201
118	0x3fe098c53b8cb101	0.5186487353398946
119	0x3fdf08e178b021ef	0.4849170378297733
120	0x3ff0000000000000	1.0
121	0x3fbff200de86bfe8	0.12478642876408197
122	0x3fec8b257dafd701	0.8919856505224005
123	0x3fe7dea80124f39b	0.7459297201490814
124	0x3fc6123ef5ea7e0b	0.17243182189575665
125	0x3fe5546f61499f0f	0.6665570163868056
126	0x3ff0000000000000	1.0
127	0x3f78638409147588	0.005954280627773818
128	0x3fe4104415fb2c60	0.6269855908698325
129	0x3fe194ef0672b69f	0.549430382341331
130	0x3fdadf670b391f04	0.41988540740975133
131	0x3fb24e85f4d6e62f	0.07151066997075682
132	0x3ff0000000000000	1.0
133	0x3fd11933aadae8af	0.2671631973750079
134	0x3fc0413e546c570a	0.1269910728666946
135	0x3fe8a6c8127d5dbe	0.7703590737464123
136	0x3fecf822e5d60643	0.905290078066351
137	0x3fcc77860b66d8d8	0.22239757115102665
138	0x3ff0000000000000	1.0
139	0x3fe73890c0beef43	0.7256549610678821
140	0x3fda1b7dc8716cc3	0.4079279382182898
141	0x3fe56efa2bbfec76	0.6697970251547207
142	0x3fe58ac96d24da54	0.6731917506902598
143	0x3f9ad11d860a3649	0.02618833666433876
144	0x3ff0000000000000	1.0
145	0x3fe1cf269d3ecda1	0.5565369673917538
146	0x3fa7151b7acb1f25	0.04508291124289902
147	0x3fda3f86578463db	0.41012724444004584
148	0x3fe1f3c613050a3e	0.5610075351217529
149	0x3fdc2aef4c48703a	0.44012052964695025
150	0x3ff0000000000000	1.0
151	0x3fd2f24aa1197ef7	0.2960383008230418
152	0x3feaab53a2d093bf	0.8334139041877434
153	0x3fdac3d8550265f7	0.41820343305297975
154	0x3fe33ee9a1dd2229	0.6014297639276879
155	0x3feec94d7bc1a79a	0.9620730797880583
156	0x3ff0000000000000	1.0
157	0x3fc6e4ceb48a63db	0.17885764899690923
158	0x3fe0a983054e1ba2	0.5206923583617604
159	0x3fd17a57a5e0b374	0.2730921859645641
160	0x3fb6c67070109416	0.08896544204669996
161	0x3fd20721f8355746	0.28168534506891196
162	0x3ff0000000000000	1.0
163	0x3feb13fd89f8809d	0.8461902327290037
164	0x3fca104844d094cc	0.20362189636322225
165	0x3fee119ca52a1892	0.9396498895519179
166	0x3fcd9a719bafecdc	0.2312757501784749
167	0x3fd8d378ad79f45f	0.38790718976071575
168	0x3ff0000000000000	1.0
169	0x3fec8b4425d58c97	0.8920002688359031
170	0x3fef892656b9801a	0.9854919141616876
171	0x3fd360f9ab9d2c62	0.30279390105414994
172	0x3feb5d36eb7d0c3b	0.8551287269004954
173	0x3fd2fa9a72a4f7fe	0.29654561229460785
174	0x3ff0000000000000	1.0
175	0x3fe661556a7b985b	0.6993815498106061
176	0x3fe58a7f6b968483	0.6731564618422826
177	0x3feb573a4d2ea928	0.854397917505854
178	0x3fe8805e955671ef	0.7656701008559689
179	0x3fe983fb770e3588	0.7973611188223666
180	0x3ff0000000000000	1.0
181	0x3fea143943c0fdfd	0.8149687121694452
182	0x3fb51d4df9650a17	0.08247840250718529
183	0x3fc47732f6b38aa1	0.15988766714061334
184	0x3fd72c694923f873	0.36208564894321354
185	0x3fe762f9826112f2	0.7308318659275683
186	0x3ff0000000000000	1.0
187	0x3fdd5dbea28d1728	0.45884672044882047
188	0x3fdca80771bb42c1	0.4477556811007553
189	0x3fc8fab247e93306	0.1951506472709285
190	0x3fee44f8979b4720	0.9459193192544468
191	0x3febf32f2a562e18	0.8734355761420742
192	0x3ff0000000000000	1.0
193	0x3fbdfb06e545852b	0.11711161706400179
194	0x3fd1b3575b2ada2a	0.27657112029138153
195	0x3f9f356a0d709de6	0.03047719676047036
196	0x3fe82f83a959075e	0.7558000857900244
197	0x3fe1b188cac372b3	0.5529216728424075
198	0x3ff0000000000000	1.0
199	0x3fe3d818a5788d34	0.6201289398053746
200	0x3fe87b0be60a6fdb	0.7650203221305633
201	0x3fb9ff6f28652d0b	0.1015538667317523
202	0x3fd208ceae5d018b	0.28178755786577686
203	0x3fc3f3c15ae785e1	0.15587632120791198
204	0x3fe5347a70ec341e	0.6626560407181648
205	0x0000000000000000	0.0
206	0x3fb754a2f0c74d62	0.09113520029432245
207	0x3feb12b41e092a54	0.8460331522595177
208	0x3fe951ecc68922a8	0.7912505986833667
209	0x3fd9988777ac9c69	0.39993464171352017
210	0x3fe82958af52ab12	0.7550471710468136
211	0x0000000000000000	0.0
212	0x3fe18babac596bb1	0.5482996336171394
213	0x3fee86ac7c4d41f7	0.953939669396333
214	0x3fd62c8b2a4b2057	0.34646872644635124
215	0x3fe613e8848f079c	0.689930209068041
216	0x3feb229029159cd5	0.8479691317014849
217	0x0000000000000000	0.0
218	0x3febe7d11143532e	0.8720479333083853
219	0x3fd7afeacad61f3a	0.37011213119739106
220	0x3febb91479e070e6	0.8663427715687504
221	0x3fe2cb2cb2bce0d8	0.587301587197568
222	0x3fe8e8d37ccb5ddb	0.7784211575880663
223	0x0000000000000000	0.0
224	0x3fd650415d6d7924	0.34864839671890224
225	0x3fb763bbbe8153c6	0.09136556054120523
226	0x3fe5ff4a4f650b26	0.6874133635213624
227	0x3fd3cfed02cffa40	0.3095657851662601
228	0x3fd72fd89eb81995	0.36229529857555437
229	0x0000000000000000	0.0
230	0x3fad5a120b477abe	0.057327808262689114
231	0x3fd44eade493c2f3	0.31730220148078486
232	0x3fe0d293d2cd6140	0.5257052533370725
233	0x3fe3527fce7b20b0	0.6038207085448644
234	0x3fe194f94fbe32c6	0.5494352872352344
235	0x0000000000000000	0.0
236	0x3fd21d0f948529d5	0.2830237341301232
237	0x3fc827e269599205	0.18871717590367623
238	0x3fa88c171fcb99da	0.0479438043892519
239	0x3fe88b2c2727e648	0.7669888272059291
240	0x3fe32075521919d8	0.5977121928670455
241	0x0000000000000000	0.0
242	0x3feffb07b4242d7c	0.9993933218369615
243	0x3fd15253c0b1992e	0.2706498510145988
244	0x3fdd4b9291b42198	0.45773758152838573
245	0x3fc5e3f52501c19e	0.1710192137429773
246	0x3fbfd195bc4e3c2d	0.12429176184944941
247	0x0000000000000000	0.0
248	0x3fc10dfccf0cfec4	0.13323936567211636
249	0x3fdb6fc93f113d68	0.4286978832141899
250	0x3fd6dd3fc6ad2b74	0.357253974933591
251	0x3fb5ffba7267a4bd	0.08593335431182232
252	0x3fec83c39f4d03fc	0.8910844909042903
253	0x0000000000000000	0.0
254	0x3fe44ab342d82b71	0.6341186814837397
255	0x3fe1dc9752ae70d3	0.5581776251670142

YTrain_Boundary f8 [204]
0	0x3ff1189943570829	1.0685055380313406
1	0x3fd952f66b3b0258	0.3956886336491485
2	0x3fd78e3a8daff27c	0.3680559524216631
3	0x3fe14eb4ca879e77	0.5408576923045548
4	0x4003aa4a4391c52d	2.4581494597302
5	0x3ff33f3f51a2d932	1.2029412449752042
6	0x3fef2401181ca52a	0.9731450529990628
7	0x40059bdccf965f1d	2.70110475709579
8	0x3fd81283d381d302	0.3761300626277234
9	0x3fedddba372ca904	0.9333163335443548
10	0x3fe1c878ff820ad2	0.5557217588796795
11	0x3fe9fe6af55d48a8	0.8123068611405602
12	0x3ffaa1b2d68d5b68	1.66447719392246
13	0x3ffe086a3260c743	1.8770544021503646
14	0x3fd7fb2e81ae660b	0.3747059122484592
15	0x400541dce086b7c2	2.6571595708000766
16	0x400599c27ce38d4d	2.700077987379393
17	0x3fe4b7ee526de39b	0.6474525079676029
18	0x40006deacd93bd45	2.053670507498881
19	0x4003fb43c7e245a3	2.4976878753593197
20	0x3ff50fe51be2880b	1.316380604672761
21	0x3fe05d6de0a7b6f8	0.5114049327655428
22	0x3fe2aaac171043d5	0.5833340120753926
23	0x3fe6945434b1f1b2	0.7056065587235507
24	0x3fda8f74712d1e52	0.41500578930251664
25	0x40056d1ff8b789b7	2.6782836371432626
26	0x3ff8c60bc238d223	1.5483510577006505
27	0x3ff4620e51304a25	1.2739394351416504
28	0x3ffbf965d55780c5	1.748388131491127
29	0x3feb8672a4e349d7	0.8601620884385807
30	0x3fdab0b4a0980dc9	0.4170352524090189
31	0x400282e560db402e	2.3139140669736866
32	0x3fdbfdd95f1aa167	0.43736871993544074
33	0x3fd8656b7b5759d9	0.3811901764396715
34	0x3fdbc28f962cfbf4	0.43375005403134925
35	0x3fdc3fb8cc6d9be9	0.4413892742508652
36	0x3fef1b342063d091	0.972070754300619
37	0x4000a5680360e10d	2.0807647956791073
38	0x4003be2eb4512d7a	2.467862519004197
39	0x4005a45883d6a56b	2.7052469539527713
40	0x3febf9024108daef	0.8741465826231812
41	0x3fe5b259a57afb94	0.6780212623633468
42	0x3ff2f0d7b9254b8d	1.183799479699448
43	0x3fdc3f46f74da61b	0.4413621344634479
44	0x3fd791c304510862	0.3682715932992605
45	0x400334a9837390a5	2.400713946308388
46	0x4005ac5dbe3f8617	2.7091631758819505
47	0x3fe439c323a30854	0.6320510574371476
48	0x3fe26f75fc0a0eb0	0.5761060640947644
49	0x3fe5dec1e8fd3b0e	0.6834420729227035
50	0x3fd9fa49458c9640	0.4059012583914843
51	0x3ffc4355e3c7ad76	1.7664393327384835
52	0x40052ea59c4efe3d	2.6477768146139895
53	0x3ff7dfbf2c017d7a	1.4921256751038912
54	0x3fd925e5536a1249	0.39293797632152355
55	0x3fe041561ea74b4a	0.5079756354046847
56	0x3fda61196bfe041e	0.41217647119634815
57	0x3fe905e28f930422	0.7819683841881935
58	0x4000310af55aa609	2.023946682766795
59	0x3fe2ed110a56f950	0.5914387895534592
60	0x3ffb8bc8f5b157b0	1.7216271970150778
61	0x40048e1fad2491ec	2.5693963553223877
62	0x3fe10405307eb84a	0.5317407557647666
63	0x3fd8a143e57b48ba	0.3848428479224243
64	0x400111d947ee2c62	2.1337152118263
65	0x3ff387b229a6ea63	1.2206288935691638
66	0x3ff01cfdb4b7d978	1.0070778903296667
67	0x4005b3b729bc422c	2.712751699502652
68	0x3ffb62dae7452d8f	1.7116345437997074
69	0x3ffe5b1bd60f1ee5	1.8972433435137017
70	0x3ffd37345debac2d	1.825977675320938
71	0x3fd7a1963fb478cf	0.3692374822729904
72	0x3ff09e2e89a37339	1.0386186005118374
73	0x3fe3606a2d577450	0.6055193791941154
74	0x3fdeae34d4281519	0.47938271253981807
75	0x3fd8f49be0eee8f0	0.38992974249016665
76	0x3fdbe6c5c6193022	0.43596023889108626
77	0x3ffc7b14618466df	1.7800487336411874
78	0x3fd7902e44433de9	0.3681750933291981
79	0x3ff7830fc47cc66e	1.4694974589623615
80	0x3ffe51977ea925c8	1.8949198672947762
81	0x40014c56a3ab476d	2.1622746264119344
82	0x3ff5f30fa1e494f2	1.3718410800877874
83	0x3fe88724ba797b25	0.7664970056610839
84	0x3fe711bda85c9148	0.7209156311333027
85	0x3feaa64501521f3e	0.8327965760990776
86	0x3fe78ce21b267e1f	0.7359476595192439
87	0x3fdb296f0c74d29b	0.4244039174693996
88	0x4004cfbbc9bd2a3a	2.6014323960164605
89	0x3ff673083911abb9	1.4030840138682221
90	0x40019b5ce555e822	2.2008607785073915
91	0x400462e51f677804	2.5482885793162513
92	0x4000e568293b9318	2.1120150777154656
93	0x3ffc0cbf17af2341	1.7531119275246996
94	0x3fdb9e545820a34f	0.4315386639232672
95	0x4004837570ff2c41	2.5641888454315738
96	0x3fefa097699a4a72	0.9883534491112427
97	0x3fda88abe0d0ee1e	0.4145917602033665
98	0x3fe3dc397ec8ef00	0.6206328846232907
99	0x3fe0bcc213edbdf5	0.5230417622787501
100	0x3fec8d694d1efa49	0.8922621256131801
101	0x3fee706199853631	0.9512184141582961
102	0x4001f4920b045a3a	2.24441917998345
103	0x3ff718c2156d25e7	1.4435444676367923
104	0x3ffea4cbf9c1b542	1.9152335888023377
105	0x3ff7303b961068be	1.4492755758169973
106	0x3fe3a8e5ee7b2884	0.6143674524148683
107	0x4003b022f59309cb	2.4610041795251383
108	0x3fe8852fb3da887f	0.7662580979124555
109	0x3ff246da015dd388	1.1422977498416191
110	0x3ff1f8ca2ec70826	1.123239691471562
111	0x3fe19c83b7e31366	0.5503557769339806
112	0x3fdb0202c2447164	0.4219977280752316
113	0x3fd78b934fb23ce8	0.3678940084727871
114	0x3fe085e9af665652	0.5163467813278635
115	0x3fe88b10b893b4a3	0.7669757466334385
116	0x3ff2e93848bd11c9	1.1819384423589432
117	0x3fd9e13ae8c192c5	0.40437195520489083
118	0x4002c7ccb09f620e	2.3475583838119354
119	0x3fd8435fbad04e75	0.37911217921757806
120	0x3fe01370d9457fab	0.5023731463988858
121	0x3fda5c7bf96a84e9	0.4118947921470651
122	0x3ff00d57a1d83936	1.0032574007087312
123	0x3ff221d989ab45db	1.1332641008087794
124	0x3fe0552c24e07db7	0.5103970260860738
125	0x3fec8fc29a5d1f67	0.892548848621101
126	0x3ff47d933149abff	1.280657951860803
127	0x3ff4d44744a5812a	1.3018257791046133
128	0x3ff49f4a7f451134	1.288889405391342
129	0x3ffd79bc77140029	1.8422207499970773
130	0x400427c765c9e406	2.519423289512363
131	0x40038da240de9834	2.4441571300440277
132	0x3ffd59af4145e044	1.8343956517910707
133	0x3fe2f3a7973e9000	0.5922429994575396
134	0x4005b69f7a47bd55	2.7141713669913465
135	0x3fd7ddb809584c24	0.372907647252932
136	0x3fdc89695db233d3	0.4458869376183518
137	0x3ff149bfad50d541	1.0805050630709305
138	0x3ff1c07a5dadd005	1.1094916972479052
139	0x3fe74f071d7f30bc	0.7283969474897485
140	0x4004eb4c5999def7	2.614891719826001
141	0x3fe79035ce047251	0.7363537811066384
142	0x3fdbc4fadfeedd43	0.4338977038236928
143	0x3fd96af87726bcc7	0.39715396533842945
144	0x3fda956a62c5a80f	0.41536960263931716
145	0x3ff92e88727420d0	1.5738605948300126
146	0x3ff27921cc7a3a7c	1.1545732486153204
147	0x4004d92fbb26731b	2.6060480710133453
148	0x400211226fcf31f9	2.258366464148136
149	0x3fdfadf1fe579936	0.49499177778342884
150	0x4001b6e5bf7c9827	2.2143053970239808
151	0x3fd8a699085cd26c	0.38516832176836746
152	0x400503db6bd98b1a	2.626883356644055
153	0x40051866c183c0b6	2.6369147413571126
154	0x3fe482dcd2ca4286	0.6409744374269202
155	0x3ff514478c42aea2	1.3174510458874598
156	0x3ffe9bdd2c77b900	1.9130527245538929
157	0x3fd7abffc6db90be	0.36987299365706494
158	0x3ffe57a65015b477	1.8963988426505958
159	0x3ffc3fa7792ce343	1.7655405743991686
160	0x4005bebc8bdcdef0	2.7181330611018595
161	0x3ffe3a1387ec8c73	1.8891787824184376
162	0x3fde1c5bcb47eac6	0.4704808697858137
163	0x3fe3575fbc01a7ad	0.6044157669068589
164	0x3fdd506f2df2ffda	0.45803431975582287
165	0x3fd833b3b4491189	0.37815563779829425
166	0x3ff78abb0b1d34f4	1.4713697847503768
167	0x3fe335ecf8cc96a1	0.6003327235564094
168	0x4005ada1e56cfec4	2.7097814487350167
169	0x3fd7b7a6b6eb1c73	0.37058418143391875
170	0x3fd7a47630036f30	0.36941294373331157
171	0x3fe9033c5bb019d9	0.7816449919490039
172	0x4005b0df529d519b	2.711363454271305
173	0x3fdd9b7cafa8365b	0.46261517671596203
174	0x40010b5b332fa6aa	2.130545043842024
175	0x4004450e1f0401d5	2.5337183402154815
176	0x3fe146ce155342a4	0.5398931900509365
177	0x3fd7e006bd25603f	0.37304848166741417
178	0x3ff38f95078a01e3	1.2225542349334482
179	0x40043c146b185520	2.5293358198929496
180	0x3fe81c58072a3be0	0.7534599437657299
181	0x3fd8615ea8341bed	0.38094297815444983
182	0x3fe041a60db17937	0.5080137507864383
183	0x3fdddfb6cf323a0f	0.46677942499164343
184	0x3febc4d45ed7b826	0.8677770473857478
185	0x3fdd1f851c8b4a3c	0.4550488260985366
186	0x3fe23973e1a453fe	0.5695132643764962
187	0x4003786a94d1e390	2.433797037749578
188	0x3febfc09b55da1ed	0.8745163481044621
189	0x3fda104883d24cc5	0.4072438514060191
190	0x4004c06bc58ba83b	2.5939555581326466
191	0x3fd8d8bbc57be8d0	0.38822836194561905
192	0x3fd78b73a0d6cb8b	0.3678864546483786
193	0x3ff51ba4f2da418c	1.3192491041591863
194	0x4002c21191ed3a95	2.344760074665212
195	0x3fe26922a343c3c1	0.575333899380091
196	0x3fdf1da515bc1c38	0.48618437883891685
197	0x3fed103f7c32faee	0.908233397079895
198	0x4005982a415a4806	2.69929934555785
199	0x3ff6c50c555d5f8a	1.4231074652252311
200	0x3ff97442e14747b6	1.5908840942324622
201	0x3ffa6d7e7d585307	1.6517319580354426
202	0x4004e9155e37918d	2.613810287543123
203	0x3ff3cbf88b8d53ba	1.2372975779773996
