Darcy_Flow6D/dataset/Dim6/Beta6_7/DarcyFlow_HoumanC2000_B408_Trace.npz (npz, 712410 bytes, 6 tensors)

beta f8 []
000000 00 00 00 00 00 00 18 40
       6.0

XTrain_Col f8 [2000, 6]
000000 d4 5b 44 fb d8 25 e5 3f 83 0d 9e 22 07 56 db 3f
       0.6608700664099794 0.4271257246075139
000010 a9 8a ff 0a 71 28 e8 3f 65 98 5c 9d c3 52 e4 3f
       0.7549367155846386 0.6351030419798575
000020 4b fa 40 4a c3 ac d7 3f 23 5e 68 7c c8 5b e4 3f
       0.36991960765218285 0.6362039975965142
000030 4d cc f1 c5 85 d0 e8 3f ed 18 01 a2 0c 99 e2 3f
       0.7754544130424478 0.581182781614897
000040 e3 8d 6a 64 2d 9f be 3f e0 b5 25 08 08 3f e5 3f
       0.11961635304992728 0.6639442595603064
000050 e1 69 2a 51 8c 18 cf 3f db 7f 38 27 bf 61 ca 3f
       0.24293664897125125 0.20610799231599128
000060 cf dd fd 12 b1 5d c8 3f 7a d4 87 8b 63 b6 ec 3f
       0.19035924365355902 0.8972642636496311
000070 06 45 80 8e 84 31 b7 3f 1c 8d d3 d2 09 82 e3 3f
       0.09059933165578479 0.6096238248541428
000080 b4 49 94 49 51 91 e1 3f 1d f5 4b e9 b1 ec a5 3f
       0.5489889561743468 0.04282146427974907
000090 56 45 3b 46 2d 86 d2 3f 9a 30 68 03 c9 b3 e5 3f
       0.28943950518176587 0.6781964365523152
0000a0 2c ff b5 01 56 8f df 3f 28 b6 f2 85 ef 32 e6 3f
       0.4931235329349757 0.6937177292035743
0000b0 2b 68 ce 5d ec 65 dc 3f b9 f5 34 1b 54 78 e0 3f
       0.44372090492982136 0.5146885424980417
0000c0 b8 18 7a f9 1c 7c e6 3f 9b ce a0 cd be af d6 3f
       0.7026505348774412 0.35447664337991974
0000d0 e9 56 75 44 cb 3c c9 3f cc 10 f1 e6 60 a3 ec 3f
       0.19716778605168564 0.894943667467055
0000e0 fd d6 a1 54 62 c1 c1 3f b5 1b 5d d8 c3 90 d5 3f
       0.138714114498434 0.3369607556273267
0000f0 a9 d8 e3 d2 fa d7 d4 3f f6 37 61 ac 8d 64 d2 3f
       0.3256823596451662 0.28738729318581535
000100 4b 35 24 b1 31 2f e6 3f 85 22 49 9e 41 36 d3 3f
       0.6932609996598925 0.3001865430601714
000110 ae 2a 81 41 08 16 85 3f 7d f0 d8 40 80 66 a2 3f
       0.010295929431000186 0.03593827048868634
000120 0a 70 5e bf 4f 3d ef 3f b7 a1 1b 06 89 eb e2 3f
       0.9762343156503459 0.5912518615050918
000130 f3 b0 26 d1 25 b1 ed 3f 16 5d 07 96 48 a9 b8 3f
       0.9278744778617053 0.09633306181728005
000140 1e 3e 5f dd f2 ae bc 3f 5c 77 4d 93 b9 10 d6 3f
       0.11204450516310557 0.3447708071233728
000150 f1 db b2 67 66 96 ec 3f c1 34 32 e5 78 33 bd 3f
       0.8933593774189587 0.1140666541634401
000160 b2 5b 01 0e 4d 33 e8 3f 25 30 02 7e a5 87 ec 3f
       0.7562623284855958 0.8915584050278126
000170 1a c9 16 30 c0 83 ae 3f 30 2c be a9 86 5b dd 3f
       0.059598928327789305 0.45871130539370863
000180 4e 2f 03 0e 01 dd e4 3f aa ea f4 86 f9 06 e3 3f
       0.6519780419998626 0.5946014057038458
000190 f5 27 ba da 72 03 d8 3f 9b 9d 61 5d 63 31 d5 3f
       0.3752104888923207 0.33113941306370415
0001a0 76 b0 54 a7 95 c1 d9 3f ef 8a 03 e8 34 90 d2 3f
       0.402440465363504 0.2900516763458389
0001b0 7c 56 a1 cb b0 75 b0 3f 87 54 df b3 c9 ee ef 3f
       0.06429581614914953 0.9978989136822215
0001c0 48 28 b1 1a d7 db d0 3f 75 40 ad 84 e9 c0 e8 3f
       0.26341798407213846 0.7735488501875937
0001d0 be 3b 7e 39 e0 f9 ea 3f 5e e8 b2 44 b4 4d e2 3f
       0.8430024264251796 0.5719853727125714
0001e0 8f 0d d4 33 4d 1f e4 3f 77 c6 b7 58 15 f8 d9 3f
       0.6288209926864726 0.4057668081651182
0001f0 23 87 0e f0 24 ad c0 3f cc 1d 24 93 14 25 dd 3f
       0.13028394433518384 0.4553882061886412
000200 9f 9e 45 25 5f 44 c5 3f 3a 5a a0 11 b5 46 c2 3f
       0.1661490375511123 0.14278281555807998
000210 42 6b 2e 0e b2 86 d8 3f 0a 7a 27 c4 6a 56 77 3f
       0.3832211626519674 0.005697648101401951
000220 d3 ed 99 48 25 72 e1 3f 22 bc e2 5e fb 4a d6 3f
       0.5451837938302851 0.34832653299503324
000230 1c 76 65 90 7e ee bd 3f 29 dc cd 08 da d9 e4 3f
       0.11692038560200796 0.6515932247119781
000240 1c b6 3d 2a 4e f1 e4 3f 22 69 fd d7 de 80 d1 3f
       0.6544562172909454 0.27349063008081675
000250 61 93 b3 f8 ed 41 e7 3f 63 8d 4d 41 2c 18 e0 3f
       0.7267980439615763 0.5029507899711628
000260 42 74 50 e0 17 1c cc 3f 3f db fe d3 7b 1b e6 3f
       0.21960733845563324 0.69085494428041
000270 6c d2 8c 1b a5 97 e9 3f 5e c6 cf 7a 85 7a e4 3f
       0.7997613466346372 0.6399562262215104
000280 65 68 9f 62 5d 6d ad 3f 7b 49 4b 39 62 30 d3 3f
       0.057475012101080115 0.29982810588003134
000290 6f cf ba f3 e0 d3 a4 3f 71 92 5f c7 2d cd e4 3f
       0.04067900634018328 0.6500462430963819
0002a0 16 63 7d 8a 73 f3 ee 3f 27 15 ce 0d 7b ba 44 3f
       0.9672181801680348 0.0006325817918059515
0002b0 7e 25 8f fb f6 50 89 3f 78 37 68 e4 da ba ee 3f
       0.012361459304787156 0.9603094540668584
0002c0 d7 0f 6a 54 e2 2c e0 3f fe 66 68 65 84 d6 ea 3f
       0.5054790161816481 0.8386861782666697
0002d0 d4 9b b5 8d 57 74 e0 3f 0e e8 8a 9a 02 f5 ac 3f
       0.5142019050371069 0.05655677925592793
0002e0 01 a4 bd 89 68 ae c2 3f 6c d5 97 16 1c 3c aa 3f
       0.14594752050041396 0.0512398507670849
0002f0 ab 7b 31 f0 bc 13 ef 3f b9 a3 f5 29 85 98 aa 3f
       0.9711594287181148 0.05194488656235969
000300 91 16 c5 6a d5 c4 dd 3f e3 69 9d 32 2c b5 e8 3f
       0.46513877321954405 0.7721158016750532
000310 8b 2a c1 e4 82 2c e3 3f e1 e0 b6 ba d1 71 e3 3f
       0.5991835086691294 0.6076439520611779
000320 a1 11 63 58 06 58 eb 3f 23 82 c0 92 eb 82 ec 3f
       0.8544952131565432 0.8909814707040521
000330 e3 96 d0 2f c1 bc db 3f 4c 80 4d 04 56 21 e1 3f
       0.43339566869177143 0.5353193363225812
000340 12 a6 19 bf 62 6b c3 3f 5b 55 f0 09 e3 8d ea 3f
       0.1517146523577116 0.8298201746098742
000350 1e d7 99 be 8b fa e6 3f 09 50 d8 8a f0 d8 e1 3f
       0.7180842135119041 0.5577318870368809
000360 10 0e ce 1e c9 70 e0 3f 1b f0 ce 87 d9 68 e3 3f
       0.5137677766474003 0.6065490391260967
000370 55 a4 e3 66 03 06 bd 3f cc 65 d9 94 61 53 ea 3f
       0.1133730055040741 0.8226783663951038
000380 2e f7 53 79 c3 ca e0 3f aa d0 5c 2f d1 43 e2 3f
       0.5247514123618424 0.5707784581232052
000390 7c a4 38 01 d7 f0 e5 3f 0f e3 2a 13 b9 84 ec 3f
       0.6856493972637874 0.891201531826569
0003a0 18 e9 2f ab cb d2 e8 3f db b6 67 ae a0 1c da 3f
       0.7757318824290307 0.4079972937750946
0003b0 db 4f 9f fe 7d 82 e6 3f 13 87 2c 1f af b2 c2 3f
       0.7034292195407902 0.1460780050484166
0003c0 84 70 51 2c f2 fb b9 3f c6 86 06 df 2e 38 e7 3f
       0.10150064069734027 0.7256082874266319
0003d0 81 94 08 32 f0 1c e9 3f db 84 3c 25 5f 5d de 3f
       0.7847825028626546 0.4744489539753666
0003e0 d6 b5 89 3d 12 34 b2 3f 0f f1 7e 82 cd ed da 3f
       0.071107044242772 0.4207643293737115
0003f0 bd d8 dd 3d 38 0a c8 3f 4a 15 ad 2a 9d f5 e2 3f
       0.18781188031034005 0.5924821694867799
000400 71 bb 77 36 fe 3a ee 3f 19 04 fc 2b 59 f5 e5 3f
       0.944701296217188 0.6861997469969793
000410 4d 10 36 d3 ef 14 e9 3f e3 78 4f b3 c7 2c de 3f
       0.783805763742302 0.4714831591681003
000420 94 8c 2c 25 ab 1f e3 3f f9 72 f2 3d d9 cb ed 3f
       0.5976157880835609 0.9311338624862336
000430 13 94 1d 8e 09 fe e3 3f 3a 17 08 9d dd b9 e7 3f
       0.6247604156202463 0.7414386813186191
000440 ce f7 73 04 20 de b7 3f 41 1d 2a c0 16 51 d3 3f
       0.09323310955730266 0.3018242718321354
000450 8d 6c 6a 47 b6 33 d0 3f 13 5c 95 da 55 23 eb 3f
       0.25315625166121764 0.8480633992393244
000460 e1 0d 6b fe 42 7f ed 3f aa 34 a3 4a 84 73 d8 3f
       0.9217848748307312 0.3820505837328009
000470 24 10 8d d8 76 1c d1 3f da 9f 57 24 56 30 be 3f
       0.2673623194461945 0.1179250563360478
000480 27 07 f7 82 4f eb c9 3f f9 a7 4b ed bc b0 e4 3f
       0.20249360937855806 0.6465744623831134
000490 47 08 65 97 5b 40 ea 3f 42 86 b8 df e3 ef dd 3f
       0.820356174175921 0.4677667317174362
0004a0 dc 65 5f fa 4a fd e1 3f 3b 8e 7a 30 6f e5 e2 3f
       0.5621695413676053 0.590507120785737
0004b0 ae da 54 80 26 c3 e9 3f 82 92 ec da 44 99 ed 3f
       0.8050720697854865 0.9249595905171903
0004c0 5b 7f 48 d5 e6 a4 c8 3f b8 51 63 cf 3b 11 ef 3f
       0.19253240026682303 0.9708537149950223
0004d0 0f c9 aa 15 b8 36 c9 3f 2b a5 ba 1c bd d5 e1 3f
       0.19698239381757118 0.557341152297487
0004e0 62 88 e1 fc 74 22 cb 3f dd 0d e8 b4 81 3b dd 3f
       0.21198904369072397 0.4567569986977256
0004f0 7d 21 d3 4e 14 10 a0 3f 02 63 dd 1d f8 60 b4 3f
       0.031372675535354035 0.07960463265534304
000500 7d ab c7 27 d7 6b ef 3f 9f 05 91 40 a5 2a eb 3f
       0.981914117522464 0.8489557515205667
000510 a0 4f 0c 39 27 40 e9 3f 9b ba 2d 1a c1 95 a7 3f
       0.789081202909518 0.04606440968097055
000520 2e 7b bc b4 2b df bc 3f 60 ea 14 50 89 2b dd 3f
       0.11278031504160133 0.45578224964598313
000530 53 90 5b 1a cb fa e5 3f 3e 4d dc 04 af 72 e9 3f
       0.6868644251631032 0.7952494711811722
000540 a4 18 ca 1d 9f 2a e1 3f 45 0b fd 4f 7b 90 ee 3f
       0.5364528257203074 0.9551369249605633
000550 92 ac c5 ad cf 30 e7 3f bd b1 ea 3e 2d 37 e4 3f
       0.7247084039676273 0.6317354420512441
000560 9c 18 87 d2 17 a6 ec 3f 79 c0 b5 32 a4 f2 e0 3f
       0.8952750312680737 0.5296193113736215
000570 25 bd 8e 9b 6c ea eb 3f f5 a3 8d 56 9f d9 e4 3f
       0.8723662412866459 0.6515652361387071
000580 ba 4f 02 1a a9 48 e0 3f 0e e9 ea 72 2e 52 e8 3f
       0.5088696964253281 0.7600319141850223
000590 70 26 6d 61 be 69 ec 3f 03 96 9b 7f c7 58 d7 3f
       0.8879081633433099 0.3647936578912267
0005a0 c4 ab 34 db d8 52 ef 3f 9c 64 3a 38 09 b2 ea 3f
       0.9788631707536912 0.8342329118924172
0005b0 02 b2 93 20 a9 da d5 3f fb cb 1e 76 0c 7c d4 3f
       0.3414709871420031 0.3200713304060511
0005c0 65 af 4b 6c ba 61 ee 3f 46 a8 f0 4a fa a5 e9 3f
       0.9494297137402837 0.8015109504388043
0005d0 90 a8 ee bd 1b a4 b3 3f b3 d3 80 4b b0 58 86 3f
       0.07672284495370918 0.010911347679305771
0005e0 f3 82 41 fd fd dc e1 3f b4 a8 67 2d ad 43 da 3f
       0.5582265802769072 0.41038064416955966
0005f0 81 a4 73 00 a0 74 d0 3f 37 92 9b 3c 25 22 ac 3f
       0.25711822551836155 0.05494800915565572
000600 99 5f f9 51 86 4b e7 3f bc c1 e0 4d a4 35 d2 3f
       0.7279693223053868 0.2845240364577213
000610 a2 9c 5a fa 69 0c ed 3f 03 e2 6a d8 2e 1e d8 3f
       0.9077653779721866 0.37684222349665236
000620 80 37 27 66 97 d7 c0 3f d0 ab 20 c5 84 b1 af 3f
       0.1315793274683834 0.06190123468726194
000630 cc 61 0f 9a 3b af 75 3f 5c f4 59 2b cf 00 b4 3f
       0.005294068164368015 0.07813734825499935
000640 f1 ef d7 e0 e6 d5 e7 3f 84 3a 26 f4 32 07 e8 3f
       0.7448610679125506 0.7508787888089761
000650 a5 48 f9 4a ed 47 ee 3f 7e 59 92 f5 c3 6b e3 3f
       0.9462801422435133 0.6069049640962445
000660 c4 69 ed a1 4d 70 c1 3f 18 da 24 47 e6 23 ef 3f
       0.13623972326861467 0.9731322659998254
000670 db 95 46 9f 5b 05 ed 3f 9c ba 32 ae 3f 4c e9 3f
       0.9069040404180514 0.7905577089603244
000680 5e dc fd f6 c3 cb e5 3f 2f cc 1f 48 b7 63 e9 3f
       0.6811237167411368 0.7934223564792598
000690 fe ef d0 bd 13 89 d5 3f d6 11 98 dd 11 48 ed 3f
       0.3364915231393296 0.9150475814827199
0006a0 d2 3e 42 21 cc 01 ea 3f 79 56 0f 7d 0e 08 e5 3f
       0.812719407042062 0.6572334711624556
0006b0 bc b4 13 6c 3d e7 ee 3f c8 e6 c7 32 ef eb ec 3f
       0.9657275305632065 0.9038005821050428
0006c0 54 2a 67 ba 1b 0b e1 3f e9 a0 fc 7c 56 27 d9 3f
       0.5326059952433959 0.3930259914946093
0006d0 3a c0 a1 8c 6c 95 b1 3f 83 79 8b ab 40 47 c5 3f
       0.06868627961534993 0.1662369573231893
0006e0 cf 9a 1a f1 c7 2a ba 3f 1d 40 43 70 9c da dd 3f
       0.10221528660131728 0.4664679619136239
0006f0 82 20 e7 74 05 35 e3 3f 4e 61 3b a2 50 d8 c3 3f
       0.6002223284967985 0.15503890916330437
000700 cd 71 ea d7 6d 1c d8 3f c3 fc ab 52 a4 f0 e2 3f
       0.37673517308737986 0.5918752302822202
000710 3b 4c a2 dc a3 25 e0 3f 0f aa 2e 76 28 ec ce 3f
       0.5045947369820917 0.24158197184199579
000720 2f cb 7e 96 c8 90 e0 3f bc f7 31 46 56 a9 ec 3f
       0.5176737727509585 0.8956710215568289
000730 9c 77 fe 81 2c 47 d6 3f 26 73 ad 7a 22 f8 e2 3f
       0.34809410757758896 0.5927898784681005
000740 21 82 3d 31 c1 db d3 3f 6d bf e1 74 26 48 e7 3f
       0.3102877598630887 0.7275574000213801
000750 bf d7 84 cb 48 04 d0 3f 2f 56 f8 05 32 8d eb 3f
       0.2502614963044571 0.8609857670405229
000760 f9 52 e3 09 fe 90 e2 3f 0b 82 64 5c bd ea d8 3f
       0.5801992600559905 0.38932737372127296
000770 5b 4e 0b 09 83 0f d9 3f 93 b8 71 6f c6 0b ef 3f
       0.39157176860064674 0.9701873947758649
000780 6a 39 ee c1 bd d4 9d 3f 8a 7a 23 bd 32 54 ec 3f
       0.029131855928022622 0.8852781004059846
000790 91 37 76 be b0 a8 94 3f a3 d9 66 81 31 26 e1 3f
       0.020174752831330137 0.5359122779253095
0007a0 90 bc 27 72 36 a9 ec 3f 89 3a 91 92 00 8c ee 3f
       0.8956558446497116 0.9545901167528693
0007b0 aa c8 c3 49 ca 7d d4 3f a8 61 af 2f 5e 88 c7 3f
       0.32017762378303394 0.1838491185033153
0007c0 86 8b 3e 9b 43 5f e6 3f 84 7a b3 5a 63 6c e3 3f
       0.6991289169421726 0.6069809695726041
0007d0 a5 ce 2e 0f 26 cf ab 3f 1b 11 1e 5c 20 34 e1 3f
       0.05431479392373476 0.5376130866211811
0007e0 37 02 f1 fc a4 87 e2 3f 24 ac 74 14 32 43 d0 3f
       0.5790581646215917 0.2541012954486084
0007f0 47 48 19 5c 15 64 e2 3f 73 b9 73 89 4d 9f d4 3f
       0.5747172163776292 0.3222230760865365

FTrain_PDE f8 [2000, 6, 6]
000000 99 fb 19 f5 81 d4 fd bf b8 44 2e 17 b6 ad f3 bf
       -1.864381749561039 -1.2299099832055571
000010 88 b1 61 1d 57 89 00 c0 77 24 c0 e6 c4 86 fc bf
       -2.0670606894911465 -1.7829026235288248
000020 62 28 52 16 a9 12 f1 bf df 9e 84 b3 fa 91 fc bf
       -1.0670557853614118 -1.7856394779609486
000030 b8 44 2e 17 b6 ad f3 bf bb e5 32 ac 4d b5 ea bf
       -1.2299099832055571 -0.8346317637689745
000040 ed 4b a6 6e cb 0f f6 bf b5 9c d8 3f 45 fe f2 bf
       -1.378856117463097 -1.1870777601232423
000050 0f fd 4f 75 c7 86 e6 bf dc 26 00 14 d6 05 f3 bf
       -0.7039525309809579 -1.1889248639367258
000060 88 b1 61 1d 57 89 00 c0 ed 4b a6 6e cb 0f f6 bf
       -2.0670606894911465 -1.378856117463097
000070 5e 83 a2 2e f6 a3 02 c0 28 8c 71 a0 79 f0 ff bf
       -2.3300593989701346 -1.9962097422910663
000080 d7 18 a7 a7 1b 27 f3 bf a1 0e e1 6e fd fc ff bf
       -1.1970478581366046 -1.999265130158996
000090 77 24 c0 e6 c4 86 fc bf b5 9c d8 3f 45 fe f2 bf
       -1.7829026235288248 -1.1870777601232423
0000a0 28 8c 71 a0 79 f0 ff bf 52 3a 4d 9d c2 d6 fb bf
       -1.9962097422910663 -1.7399316925617723
0000b0 45 4c 1a 9b 8b 79 f0 bf 34 4b c5 8f 5a 96 fb bf
       -1.029674154157662 -1.7242074600259913
0000c0 62 28 52 16 a9 12 f1 bf 0f fd 4f 75 c7 86 e6 bf
       -1.0670557853614118 -0.7039525309809579
0000d0 d7 18 a7 a7 1b 27 f3 bf 45 4c 1a 9b 8b 79 f0 bf
       -1.1970478581366046 -1.029674154157662
0000e0 00 f6 23 77 42 23 e4 bf 38 66 e8 f6 25 80 f0 bf
       -0.6293041541063644 -1.0312862057529752
0000f0 df 9e 84 b3 fa 91 fc bf dc 26 00 14 d6 05 f3 bf
       -1.7856394779609486 -1.1889248639367258
000100 a1 0e e1 6e fd fc ff bf 34 4b c5 8f 5a 96 fb bf
       -1.999265130158996 -1.7242074600259913
000110 38 66 e8 f6 25 80 f0 bf ac 19 e7 9d 62 ec fb bf
       -1.0312862057529752 -1.7452112358165364
000120 5e 30 6a 1a 74 dc 07 c0 51 a7 6c e6 22 6f 0d c0
       -2.9826433242470065 -3.6792657853992883
000130 ec ce 04 e1 70 07 ed 3f 94 2a d8 d3 3d 96 11 c0
       0.9071583170793622 -4.396720228260751
000140 d0 e2 7b d2 e8 c0 d8 bf 00 00 c8 21 10 1c 6d bf
       -0.3867742591387868 -0.0035534205510430183
000150 51 a7 6c e6 22 6f 0d c0 74 a2 ce 5c 79 61 d2 3f
       -3.6792657853992883 0.2871993452377304
000160 e1 b9 1b 33 4c e9 f2 3f 18 f0 af c8 3c d2 07 c0
       1.1819574352663198 -2.977654998654554
000170 40 09 72 b1 24 66 c5 3f 88 a7 f3 44 30 ef dd 3f
       0.1671796671326522 0.46772391065189156
000180 ec ce 04 e1 70 07 ed 3f e3 b9 1b 33 4c e9 f2 3f
       0.9071583170793622 1.1819574352663202
000190 6e d9 93 ea d6 b1 14 40 88 02 7b a4 5b f4 f0 3f
       5.173671403192527 1.0596577096004314
0001a0 09 85 58 c1 2c e4 fb 3f 52 5f e9 1d bf ef fc 3f
       1.7432067444390802 1.8085318725988668
0001b0 94 2a d8 d3 3d 96 11 c0 18 f0 af c8 3c d2 07 c0
       -4.396720228260751 -2.977654998654554
0001c0 88 02 7b a4 5b f4 f0 3f aa 11 3b 7c 13 02 f1 bf
       1.0596577096004314 -1.0630068638575758
0001d0 20 e7 22 2c d3 50 b4 bf 70 48 84 f0 c3 82 d0 3f
       -0.07935828998133987 0.2579812859340853
0001e0 d0 e2 7b d2 e8 c0 d8 bf 48 09 72 b1 24 66 c5 3f
       -0.3867742591387868 0.16717966713265242
0001f0 09 85 58 c1 2c e4 fb 3f 20 e7 22 2c d3 50 b4 bf
       1.7432067444390802 -0.07935828998133987
000200 c6 70 0f f2 1d bf 11 40 94 9d 1a 57 58 e2 f6 3f
       4.436637670700469 1.4302600290774068
000210 00 00 c8 21 10 1c 6d bf 88 a7 f3 44 30 ef dd 3f
       -0.0035534205510430183 0.46772391065189156
000220 52 5f e9 1d bf ef fc 3f 70 48 84 f0 c3 82 d0 3f
       1.8085318725988668 0.2579812859340853
000230 94 9d 1a 57 58 e2 f6 3f 94 be 80 db d3 d3 12 40
       1.4302600290774068 4.706862859471261
000240 b4 5e 96 1d c4 e5 11 40 58 2e b9 37 1a 57 d7 bf
       4.474380934050419 -0.3646913093732329
000250 5d 33 fd 76 58 00 fb 3f f8 a5 17 13 eb 63 d0 3f
       1.6875843666086532 0.25609852661599986
000260 40 87 e0 f8 23 08 da 3f 99 d4 bc 38 19 44 fd 3f
       0.40674685768509633 1.8291256157220117
000270 58 2e b9 37 1a 57 d7 bf 40 8b ac e7 1e b3 16 c0
       -0.3646913093732329 -5.674922580629584
000280 4f fe 7e f8 06 16 eb 3f e1 d2 04 8b 8f 44 14 c0
       0.8464388707579448 -5.066953823251169
000290 d8 30 a1 00 4e c7 11 c0 1a 42 af 4c f1 e5 f6 3f
       -4.444633493269258 1.4311383243076592
0002a0 5d 33 fd 76 58 00 fb 3f 4f fe 7e f8 06 16 eb 3f
       1.6875843666086532 0.8464388707579448
0002b0 d4 78 9d d3 63 ce 13 40 f6 bc b3 59 e2 4a f2 3f
       4.951552683340385 1.1432822708118784
0002c0 5a 01 75 24 f1 71 f3 3f e7 ed 61 32 cb 53 fe 3f
       1.2153178619483556 1.8954574554508044
0002d0 f8 a5 17 13 eb 63 d0 3f e1 d2 04 8b 8f 44 14 c0
       0.25609852661599986 -5.066953823251169
0002e0 f6 bc b3 59 e2 4a f2 3f 98 36 19 24 ec bc e3 bf
       1.1432822708118784 -0.6168118195580119
0002f0 1f 1d b8 14 4a dc 05 c0 d0 d0 ac 10 3b 25 f9 3f
       -2.7325631731688556 1.5715895320291118
000300 40 87 e0 f8 23 08 da 3f d8 30 a1 00 4e c7 11 c0
       0.40674685768509633 -4.444633493269258
000310 5a 01 75 24 f1 71 f3 3f 1f 1d b8 14 4a dc 05 c0
       1.2153178619483556 -2.7325631731688556
000320 84 95 80 cd c0 f3 d6 3f 24 e6 03 4a d6 b0 f9 3f
       0.35862751072485133 1.6056731120319307
000330 99 d4 bc 38 19 44 fd 3f 1a 42 af 4c f1 e5 f6 3f
       1.8291256157220117 1.4311383243076592
000340 e7 ed 61 32 cb 53 fe 3f d0 d0 ac 10 3b 25 f9 3f
       1.8954574554508044 1.5715895320291118
000350 24 e6 03 4a d6 b0 f9 3f d1 20 00 2f b7 3e 14 40
       1.6056731120319307 5.061245664961647
000360 ec 0e bc 6f f3 b6 e3 3f e5 60 b7 67 de 22 ff bf
       0.6160828764263591 -1.9460128833216512
000370 14 c7 68 42 e2 6f f6 bf 27 a9 83 3f 8a d0 ff bf
       -1.402315387164383 -1.988413093664869
000380 3f 70 ca 54 89 f2 f3 bf 20 e3 32 f9 f2 80 f7 bf
       -1.2467130005016 -1.468981717522361
000390 e5 60 b7 67 de 22 ff bf 00 52 c3 ea e5 fd 0b c0
       -1.9460128833216512 -3.498973688207343
0003a0 ac 7a 20 67 b4 3c 0b c0 db ea d2 bc 9c c5 12 c0
       -3.4046409661089765 -4.692980718968751
0003b0 fd 6f ba 0a 35 80 08 c0 1a 47 c5 77 d3 68 0c c0
       -3.062601169409389 -3.5511845929221524
0003c0 14 c7 68 42 e2 6f f6 bf ac 7a 20 67 b4 3c 0b c0
       -1.402315387164383 -3.4046409661089765
0003d0 a3 f9 31 7e 6c 1f f4 bf bf 77 48 2e ba cc 0b c0
       -1.2576718263149835 -3.4749644866815
0003e0 ea dd 65 0e 5d f5 01 c0 37 e9 9b 5b 5a e8 04 c0
       -2.2448063969456955 -2.6134535939173946
0003f0 27 a9 83 3f 8a d0 ff bf db ea d2 bc 9c c5 12 c0
       -1.988413093664869 -4.692980718968751
000400 bf 77 48 2e ba cc 0b c0 96 f9 30 f1 c5 9b 0d c0
       -3.4749644866815 -3.7010611384459464
000410 d2 e2 d4 db d1 02 09 c0 78 b7 8c 10 98 fe 0c c0
       -3.126376836237207 -3.6243134777968713
000420 3f 70 ca 54 89 f2 f3 bf fd 6f ba 0a 35 80 08 c0
       -1.2467130005016 -3.062601169409389
000430 ea dd 65 0e 5d f5 01 c0 d2 e2 d4 db d1 02 09 c0
       -2.2448063969456955 -3.126376836237207
000440 57 62 23 f7 19 7d e7 bf d9 c8 3c 24 ba c2 02 c0
       -0.7340211703222604 -2.345081599335668
000450 20 e3 32 f9 f2 80 f7 bf 1a 47 c5 77 d3 68 0c c0
       -1.468981717522361 -3.5511845929221524
000460 37 e9 9b 5b 5a e8 04 c0 78 b7 8c 10 98 fe 0c c0
       -2.6134535939173946 -3.6243134777968713
000470 d9 c8 3c 24 ba c2 02 c0 3b bb 35 26 93 f7 f7 bf
       -2.345081599335668 -1.4979430668424374
000480 f0 60 7a d6 c1 4d 0e c0 4f d4 35 a8 67 c3 04 c0
       -3.7879673725220684 -2.5954125539233597
000490 1e e2 0b 50 40 88 ef bf 5a b2 fa 1d b1 d3 1c c0
       -0.9853822291761991 -7.206730335642158
0004a0 28 15 75 b5 e2 cb d7 bf 86 cb 45 25 0b 5c 03 c0
       -0.3718191883129571 -2.4199431335377453
0004b0 4f d4 35 a8 67 c3 04 c0 37 f4 15 87 1d 07 f9 3f
       -2.5954125539233597 1.5642371441638383
0004c0 40 ca 4a 81 eb 54 94 bf c8 a6 23 50 14 e4 0a c0
       -0.019855193868986598 -3.361366869056699
0004d0 18 25 c9 90 fe d1 d3 3f d4 d9 cb f0 a8 4a e9 bf
       0.3096920408175534 -0.7903637602856244
0004e0 1e e2 0b 50 40 88 ef bf 40 ca 4a 81 eb 54 94 bf
       -0.9853822291761991 -0.019855193868986598
0004f0 8a 14 a7 03 f3 3a 08 40 82 26 d9 b9 c0 ae f6 bf
       3.02878382543219 -1.4176642665574097
000500 4e f6 77 92 fc ee e4 3f c0 02 82 df 2a 11 a1 3f
       0.6541731701578983 0.03333410242431034
000510 5a b2 fa 1d b1 d3 1c c0 c8 a6 23 50 14 e4 0a c0
       -7.206730335642158 -3.361366869056699
000520 82 26 d9 b9 c0 ae f6 bf 5b 55 4c 1d fa 2d 1d c0
       -1.4176642665574097 -7.294899423393271
000530 ba 2c be df 83 a9 e5 bf eb e6 78 e5 3d 32 09 c0
       -0.676942765233796 -3.1495321204682702
000540 28 15 75 b5 e2 cb d7 bf 18 25 c9 90 fe d1 d3 3f
       -0.3718191883129571 0.3096920408175534
000550 4e f6 77 92 fc ee e4 3f ba 2c be df 83 a9 e5 bf
       0.6541731701578983 -0.676942765233796
000560 8b 21 6e 33 f3 f8 0a 40 b0 9a 4a b7 1a 39 d6 3f
       3.3715576189026186 0.34723537349274647
000570 86 cb 45 25 0b 5c 03 c0 d4 d9 cb f0 a8 4a e9 bf
       -2.4199431335377453 -0.7903637602856244
000580 c0 02 82 df 2a 11 a1 3f ea e6 78 e5 3d 32 09 c0
       0.03333410242431034 -3.14953212046827
000590 b0 9a 4a b7 1a 39 d6 3f 9f 2f 77 4c 54 38 fc 3f
       0.34723537349274647 1.7637522684990257
0005a0 6e c7 64 a8 ee 91 13 40 7b dd 40 0a 63 6c 22 40
       4.8925119697104105 9.211693115633116
0005b0 89 e1 08 a7 83 ff 24 40 53 73 e5 29 18 83 22 40
       10.499051303705317 9.25604372907552
0005c0 8b ff 38 82 15 72 20 40 67 77 2c 7e 99 a1 20 40
       8.222820348222532 8.315624182632474
0005d0 7b dd 40 0a 63 6c 22 40 00 83 7c 05 1b 5b 12 40
       9.211693115633116 4.588970266079514
0005e0 d6 a7 ff b5 5b 78 24 40 6a 13 79 33 8e 44 22 40
       10.235074698884926 9.133897408036962
0005f0 ec 68 3a 11 e8 6f 20 40 53 75 40 1c 00 9a 20 40
       8.218567407970532 8.30078209196896
000600 89 e1 08 a7 83 ff 24 40 d6 a7 ff b5 5b 78 24 40
       10.499051303705317 10.235074698884926
000610 5c 1d 6c 42 93 62 22 40 90 db 94 4c b6 a5 24 40
       9.192529750535577 10.323656457110502
000620 c3 5b d3 ca 1d 85 20 40 02 34 80 fe 04 e4 20 40
       8.25999292211589 8.445350602292823
000630 53 73 e5 29 18 83 22 40 6a 13 79 33 8e 44 22 40
       9.25604372907552 9.133897408036962
000640 90 db 94 4c b6 a5 24 40 58 86 be 68 24 bf 12 40
       10.323656457110502 4.6866623274123285
000650 bc b3 45 20 a3 70 20 40 1d 86 7b ea 8c 9c 20 40
       8.219994553097301 8.305762603357886
000660 8b ff 38 82 15 72 20 40 ec 68 3a 11 e8 6f 20 40
       8.222820348222532 8.218567407970532
000670 c3 5b d3 ca 1d 85 20 40 bc b3 45 20 a3 70 20 40
       8.25999292211589 8.219994553097301
000680 da a1 cd a1 cb e8 0b 40 cb 6e 85 b1 24 61 20 40
       3.4886696473006227 8.189733073747808
000690 67 77 2c 7e 99 a1 20 40 53 75 40 1c 00 9a 20 40
       8.315624182632474 8.30078209196896
0006a0 02 34 80 fe 04 e4 20 40 1d 86 7b ea 8c 9c 20 40
       8.445350602292823 8.305762603357886
0006b0 cb 6e 85 b1 24 61 20 40 fe 5e ef 4f f5 09 0c 40
       8.189733073747808 3.504862427227521
0006c0 a6 d5 0d ae 23 ad 0e c0 c7 82 83 84 4c a6 03 c0
       -3.834540710255811 -2.456200633300202
0006d0 cf f1 71 76 bd 6a 0c c0 7a 41 d5 04 1c 0b d8 bf
       -3.5521191838763353 -0.3756780669400751
0006e0 d6 e7 d8 bd fd 8d dc bf 9c 17 c7 6b 6a 76 f7 bf
       -0.4461664537408273 -1.4664100847307742
0006f0 c7 82 83 84 4c a6 03 c0 50 38 ec 3d fd d5 fd bf
       -2.456200633300202 -1.864743463407212
000700 74 af 31 7d f4 f7 02 c0 d7 29 d7 84 43 eb cd bf
       -2.3710717945850153 -0.23374217974044484
000710 de 30 5b 5f b7 fe d1 bf 96 6f 30 cb 16 f7 ee bf
       -0.2811716490948707 -0.9676622360743632
000720 cf f1 71 76 bd 6a 0c c0 74 af 31 7d f4 f7 02 c0
       -3.5521191838763353 -2.3710717945850153
000730 9c f8 80 a8 27 c6 0c c0 6b b7 fa 00 6f 1a d7 bf
       -3.596755329547774 -0.3609883794368815
000740 98 37 04 12 37 76 db bf 80 ed f3 ff fc a2 f6 bf
       -0.4290902782384989 -1.4147920606763762
000750 7a 41 d5 04 1c 0b d8 bf d7 29 d7 84 43 eb cd bf
       -0.3756780669400751 -0.23374217974044484
000760 6b b7 fa 00 6f 1a d7 bf 08 40 69 ac cc 3a d1 bf
       -0.3609883794368815 -0.26921383702301727
000770 80 75 f6 b4 1f 83 37 bf 12 36 1e 36 e2 6a be bf
       -0.00035876773923767397 -0.11881841489067593
000780 d6 e7 d8 bd fd 8d dc bf de 30 5b 5f b7 fe d1 bf
       -0.4461664537408273 -0.2811716490948707
000790 98 37 04 12 37 76 db bf 80 75 f6 b4 1f 83 37 bf
       -0.4290902782384989 -0.00035876773923767397
0007a0 57 7c 5e 54 51 55 d2 bf c0 1e a5 9c d0 e3 c2 bf
       -0.2864573787609905 -0.14757735871011413
0007b0 9c 17 c7 6b 6a 76 f7 bf 96 6f 30 cb 16 f7 ee bf
       -1.4664100847307742 -0.9676622360743632
0007c0 80 ed f3 ff fc a2 f6 bf 12 36 1e 36 e2 6a be bf
       -1.4147920606763762 -0.11881841489067593
0007d0 c0 1e a5 9c d0 e3 c2 bf 95 69 db c3 d0 6c ea bf
       -0.14757735871011413 -0.8257831406911459
0007e0 99 d1 8c 68 98 80 11 c0 00 82 e7 b9 83 62 e0 bf
       -4.375581391901869 -0.5120257025665182
0007f0 c3 2d 41 21 42 33 0c c0 9e 8a bb 52 b1 08 10 c0
       -3.525028476525877 -4.008488934227584

XTrain_Boundary f8 [408, 6]
000000 00 00 00 00 00 00 00 00 cb bf ae 9c 73 e2 ef 3f
       0.0 0.9963930187423043
000010 cb 9d 66 fe 34 a2 de 3f 1a 45 1f 3f 10 b5 e8 3f
       0.47865033000786344 0.7721024735311943
000020 f2 8b 0a a1 d4 5e ed 3f 61 94 ef 87 24 bb e1 3f
       0.9178259988151451 0.5540945677754615
000030 00 00 00 00 00 00 00 00 15 6e 75 1a 0d f9 e8 3f
       0.0 0.7804017559787463
000040 78 5c f6 a8 74 87 bb 3f f5 79 45 97 9e cc ee 3f
       0.10753564000184379 0.9624779657859209
000050 55 b6 b5 ff f9 b8 e8 3f 3d d1 9f dc a1 24 da 3f
       0.7725801462490361 0.40848585648861385
000060 00 00 00 00 00 00 00 00 c2 a6 30 c0 f5 2c e1 3f
       0.0 0.5367382768356139
000070 8f a3 02 7d 64 8e ea 3f b7 32 ce ea 08 ba e2 3f
       0.8298819009406645 0.5852093301815192
000080 88 2c 99 5b ec 3a dd 3f c9 81 6f 5a a4 7c ce 3f
       0.45672139115476584 0.2381787721233322
000090 00 00 00 00 00 00 00 00 5c 37 96 b9 f0 73 b8 3f
       0.0 0.09551910906722355
0000a0 6b e0 21 d9 e9 36 ec 3f d9 b9 0f 34 ac 5e e4 3f
       0.8817033043733437 0.6365567223381802
0000b0 9e 51 de 4d e8 f1 ee 3f 9a 0c 2d 8c 6c 22 e4 3f
       0.9670297165744619 0.6292021501361831
0000c0 00 00 00 00 00 00 00 00 c4 b9 31 69 b6 46 e3 3f
       0.0 0.6023819021773353
0000d0 b2 54 4a 22 bf ad ed 3f 8d bb a7 6c a0 97 ed 3f
       0.9274593038304799 0.924759113518904
0000e0 22 c4 9d 6d 86 c8 ae 3f 5a f9 e0 16 5d 1b e3 3f
       0.060123635178463766 0.5970902869083077
0000f0 00 00 00 00 00 00 00 00 5e 61 be db 3a 40 c9 3f
       0.0 0.1972726414649157
000100 35 ed 3e a1 87 74 d3 3f 51 dd d1 ee 30 4c e3 3f
       0.3039874148050388 0.6030506767701046
000110 c3 70 6c 83 0c 8d e5 3f 9a 41 ff ba f8 e6 ef 3f
       0.6734678809039213 0.9969447757994658
000120 00 00 00 00 00 00 00 00 6e bb b1 de 4c 35 da 3f
       0.0 0.40950319049345907
000130 0b 1c b1 0b 51 09 e1 3f 38 f3 06 0a 0a 52 db 3f
       0.5323872784000526 0.426882276336801
000140 0a fb b2 0a cb c9 d2 3f 1f dd fd aa 11 17 ee 3f
       0.29356647534216107 0.9403160419159667
000150 00 00 00 00 00 00 00 00 64 82 5a 99 02 49 de 3f
       0.0 0.4732061860650332
000160 be dc 67 62 ad 34 e4 3f a5 23 3d 2d 32 36 eb 3f
       0.6314303323732913 0.8503657229967884
000170 a5 a8 8f c9 02 ac e1 3f 9d 18 4c cc 08 af e5 3f
       0.5522474228612465 0.6776164999180484
000180 00 00 00 00 00 00 00 00 e8 15 b7 cb bc 45 e0 3f
       0.0 0.5085128763973303
000190 13 8f 7b 75 57 64 cc 3f cc 5c 23 63 02 00 bc 3f
       0.22181218372781383 0.10937514229168527
0001a0 c8 65 ad fe 87 89 e9 3f eb 24 36 5e bb dc ec 3f
       0.7980384802023588 0.901944812781179
0001b0 00 00 00 00 00 00 00 00 be b5 80 30 61 58 ec 3f
       0.0 0.8857885310478009
0001c0 fa 14 a1 72 68 0f e3 3f f8 77 a8 33 1f d4 eb 3f
       0.5956308592655255 0.8696437844225775
0001d0 2d 86 f7 a3 b4 86 de 3f a6 ea 8b a2 e8 1c a2 3f
       0.47697177898780546 0.03537680610857778
0001e0 00 00 00 00 00 00 00 00 23 8f 1d 05 b8 70 d1 3f
       0.0 0.27250481128270304
0001f0 a4 04 a3 bb a9 27 d1 3f 01 6d 1e 19 1f 02 e0 3f
       0.2680458385839961 0.5002589693644098
000200 b2 94 04 de 5b 6e e8 3f 7e dc db 6d d6 80 c1 3f
       0.7634715400969496 0.13674431194496955
000210 00 00 00 00 00 00 00 00 e3 e5 f1 df ff 83 dc 3f
       0.0 0.4455566107713748
000220 9a 71 10 8b fa 77 ef 3f 28 85 72 be a1 43 d0 3f
       0.9833958355043706 0.2541279182278964
000230 d8 28 ed 9e 6a 6a d5 3f 5a 24 cf 16 87 99 c5 3f
       0.33462014694363296 0.16874779332855178
000240 00 00 00 00 00 00 00 00 64 50 1b 90 37 2f d0 3f
       0.0 0.2528818995754192
000250 b8 38 28 c3 32 46 e7 3f 77 65 17 4b 46 87 ef 3f
       0.7273191272413646 0.9852630106571912
000260 c4 e4 8f f9 6d 58 e0 3f 49 c2 f0 f6 3a b1 e9 3f
       0.5107946275958501 0.8028845618301342
000270 00 00 00 00 00 00 00 00 77 cc a3 f3 ce 0c dc 3f
       0.0 0.4382817630095767
000280 eb d4 4a e9 22 df a1 3f 70 27 29 97 d9 bd dc 3f
       0.03490552041822944 0.4490875221423414
000290 1e 48 14 32 f1 72 66 3f 21 66 e7 7c fd 0b c9 3f
       0.0027403555728904424 0.1956784114725432
0002a0 00 00 00 00 00 00 00 00 37 83 0e 94 e6 87 e5 3f
       0.0 0.6728394405109616
0002b0 64 6a 5c a7 27 1c d5 3f ef 36 12 a5 08 69 e7 3f
       0.3298434385666609 0.7315715049787438
0002c0 64 bf 2a 9b a0 04 d3 3f 7e 9f 83 b3 90 13 bb 3f
       0.29715743210817025 0.1057672918574308
0002d0 00 00 00 00 00 00 00 00 f8 08 f3 0a b6 5c e6 3f
       0.0 0.6988172735075571
0002e0 ab 10 c7 8a f1 06 ef 3f ad 83 90 08 58 3d de 3f
       0.9695975981235468 0.4724941333425317
0002f0 ed 86 3d fa b3 41 e4 3f 43 1f 9a c9 70 15 de 3f
       0.6330203902727739 0.47005862891863986
000300 00 00 00 00 00 00 00 00 d0 ff 3a 90 13 12 ee 3f
       0.0 0.9397065941811835
000310 15 1f 83 8c 44 c9 92 3f 2d 8f bd df 08 b2 c3 3f
       0.018345900608237892 0.1538706867678398
000320 34 ef 90 03 05 f8 db 3f 40 bb 32 e7 12 fa e4 3f
       0.43701291416413146 0.655526591833997
000330 00 00 00 00 00 00 00 00 c1 13 eb 9e 3c 8f a7 3f
       0.0 0.04601468505783358
000340 8c 93 28 8d 7a 4c e8 3f ec b9 d5 60 f2 de d5 3f
       0.7593357808114987 0.34173259216814134
000350 0b e5 d4 e1 0a 4b e7 3f 53 70 17 3a 73 77 db 3f
       0.7279104624532534 0.42916565583232574
000360 00 00 00 00 00 00 00 00 dc ca bb 92 e9 5d e8 3f
       0.0 0.7614639154329228
000370 0b cf 11 b2 af ef d0 3f ba 4d 5d ad 5b 8c e5 3f
       0.26462929143529895 0.6733835588478805
000380 28 03 f3 78 bf 7d d7 3f 68 41 c5 08 c6 8c ea 3f
       0.36705004512264106 0.829684273843708
000390 00 00 00 00 00 00 00 00 95 5d 70 04 15 7d ea 3f
       0.0 0.8277688109109699
0003a0 88 6a 59 53 df 42 e0 3f d8 bb 24 8f 24 81 a1 3f
       0.5081631305614147 0.03418840644223281
0003b0 2d f4 77 d4 54 8c e2 3f 64 02 36 8f 5b 4e d5 3f
       0.5796302938248395 0.33290757165381124
0003c0 00 00 00 00 00 00 00 00 ad e4 a6 4e 83 c2 ee 3f
       0.0 0.9612442527933546
0003d0 56 42 1d 1e a3 36 ca 3f fd cc d3 9d 3d 4f d9 3f
       0.20479239435600743 0.395461467865246
0003e0 20 9a ef 06 a6 65 bb 3f 28 ba 4c a9 b2 a1 d3 3f
       0.10701978368124587 0.306744256335977
0003f0 00 00 00 00 00 00 00 00 e4 ed 6b 94 b8 42 d4 3f
       0.0 0.3165723275594401
000400 90 a4 a8 be b7 02 d8 3f 98 a7 d6 04 7f d8 ec 3f
       0.3751658784772838 0.9014277548314906
000410 5b 1a fa 13 80 5e cc 3f 83 6f 7c 11 52 f6 d6 3f
       0.22163392043531158 0.35878421504616415
000420 00 00 00 00 00 00 00 00 f9 79 e6 d9 18 f1 cd 3f
       0.0 0.2339201988188078
000430 62 04 bb 76 23 e8 dc 3f 55 ef f7 f0 4b 61 e8 3f
       0.4516686114766967 0.7618770319381648
000440 d3 80 59 f3 00 72 a7 3f 86 da f4 65 76 c0 e8 3f
       0.045791654306187056 0.7734939566933725
000450 00 00 00 00 00 00 00 00 75 db 99 d2 f9 17 b2 3f
       0.0 0.0706783427393541
000460 53 f8 59 dc 59 6c b6 3f ab 89 08 82 0c 59 ea 3f
       0.08759080533670387 0.8233702220643883
000470 d6 69 7d 75 1b e9 e2 3f c8 75 f0 a3 1e 3c d1 3f
       0.5909554762577567 0.2692944146127414
000480 00 00 00 00 00 00 00 00 7f 68 ed 54 9a 4b eb 3f
       0.0 0.8529788645494277
000490 3a c5 53 38 e8 6b ec 3f 48 9e f7 ec 01 40 cb 3f
       0.8881722545758415 0.2128908545557684
0004a0 27 5b 93 65 79 72 e6 3f c2 4e ad b4 e5 d9 eb 3f
       0.7014739021204591 0.8703487900588345
0004b0 00 00 00 00 00 00 00 00 c2 37 15 cc b4 ca e9 3f
       0.0 0.8059944139474668
0004c0 76 82 54 c5 a6 26 e9 3f 35 53 9e 59 89 9f e1 3f
       0.7859681943992445 0.5507246733055583
0004d0 e7 47 0c 2e 10 93 c0 3f 60 c4 de 3b 41 87 ee 3f
       0.1294880127757658 0.9540105981196909
0004e0 00 00 00 00 00 00 00 00 ae 27 2b ed 56 95 d7 3f
       0.0 0.3684899631594999
0004f0 93 4f 43 d4 c6 22 e2 3f e2 a6 26 00 eb e5 7b 3f
       0.5667451997528467 0.006811063738874275
000500 5f b1 3d 6d 07 6e ea 3f f7 39 01 d7 18 19 df 3f
       0.8259312757123033 0.4859068011909637
000510 00 00 00 00 00 00 00 00 82 6b 46 19 2f f0 94 3f
       0.0 0.020447479169529277
000520 fc 2c f5 38 51 d2 d8 3f 0d ef f9 b1 b8 98 c8 3f
       0.3878367477634155 0.19216068926095212
000530 01 7c 7f b1 08 ab c7 3f ef cd 42 a3 23 b5 e6 3f
       0.18490704218763201 0.7096117199602626
000540 00 00 00 00 00 00 00 00 a3 b2 dd 9a ed f7 c4 3f
       0.0 0.16381616651360273
000550 44 30 de c5 25 75 c3 3f 90 e6 b7 9c a3 c1 d2 3f
       0.15201255952377057 0.2930687933399918
000560 fc 76 10 9b d3 46 d9 3f 60 96 03 95 dc ed e0 3f
       0.394947911672588 0.5290358457975337
000570 00 00 00 00 00 00 00 00 c1 c8 32 e3 63 db d5 3f
       0.0 0.3415155142530573
000580 38 5f 82 ba 0b 15 ea 3f 5f af 1d ab 63 15 e6 3f
       0.8150690691718188 0.6901110021694697
000590 8e 3a 82 3c fe 9c eb 3f c6 e7 f2 63 2e fc cd 3f
       0.8629141980944313 0.23425845985712906
0005a0 00 00 00 00 00 00 00 00 01 99 69 fe a3 1b e4 3f
       0.0 0.6283740967744792
0005b0 28 3c b8 87 e2 f3 da 3f be 6c ee 88 d0 f0 d7 3f
       0.4211355519664175 0.37407315609170755
0005c0 18 e2 fd bb 87 87 ec 3f bc ba dd 0d 05 55 ae 3f
       0.8915442153657436 0.059242399160998244
0005d0 00 00 00 00 00 00 00 00 f5 15 f5 f8 6a 9f e2 3f
       0.0 0.5819601881455002
0005e0 8d 8b 36 17 c8 1b c0 3f cf 8c 67 a4 5d ce d3 3f
       0.12584782727671176 0.3094705682289715
0005f0 c2 a2 ae a1 08 53 ef 3f cd 11 7d dd f0 05 e8 3f
       0.9788859517912771 0.7507252050350474
000600 00 00 00 00 00 00 00 00 c7 61 c1 53 48 2d c2 3f
       0.0 0.1420069130861192
000610 b8 4f 1c ec 55 6f e5 3f 93 24 a5 8b 11 c0 b1 3f
       0.669840775636195 0.06933698329261721
000620 6f f4 18 9f f9 4e c3 3f 04 60 e3 7d 03 b5 7d 3f
       0.15084762829238538 0.007252706184054606
000630 00 00 00 00 00 00 00 00 0a 50 91 d7 cb 5a e7 3f
       0.0 0.729833527594111
000640 3b 19 f1 f2 10 6f e6 3f 35 8e df c6 93 b9 be 3f
       0.7010578865963802 0.12001918416313447
000650 38 ae 76 61 c7 db d0 3f 05 d3 06 34 dd 23 e2 3f
       0.26341423528603825 0.5668779388566639
000660 00 00 00 00 00 00 f0 3f cb bf ae 9c 73 e2 ef 3f
       1.0 0.9963930187423043
000670 cb 9d 66 fe 34 a2 de 3f 1a 45 1f 3f 10 b5 e8 3f
       0.47865033000786344 0.7721024735311943
000680 f2 8b 0a a1 d4 5e ed 3f 61 94 ef 87 24 bb e1 3f
       0.9178259988151451 0.5540945677754615
000690 00 00 00 00 00 00 f0 3f 15 6e 75 1a 0d f9 e8 3f
       1.0 0.7804017559787463
0006a0 78 5c f6 a8 74 87 bb 3f f5 79 45 97 9e cc ee 3f
       0.10753564000184379 0.9624779657859209
0006b0 55 b6 b5 ff f9 b8 e8 3f 3d d1 9f dc a1 24 da 3f
       0.7725801462490361 0.40848585648861385
0006c0 00 00 00 00 00 00 f0 3f c2 a6 30 c0 f5 2c e1 3f
       1.0 0.5367382768356139
0006d0 8f a3 02 7d 64 8e ea 3f b7 32 ce ea 08 ba e2 3f
       0.8298819009406645 0.5852093301815192
0006e0 88 2c 99 5b ec 3a dd 3f c9 81 6f 5a a4 7c ce 3f
       0.45672139115476584 0.2381787721233322
0006f0 00 00 00 00 00 00 f0 3f 5c 37 96 b9 f0 73 b8 3f
       1.0 0.09551910906722355
000700 6b e0 21 d9 e9 36 ec 3f d9 b9 0f 34 ac 5e e4 3f
       0.8817033043733437 0.6365567223381802
000710 9e 51 de 4d e8 f1 ee 3f 9a 0c 2d 8c 6c 22 e4 3f
       0.9670297165744619 0.6292021501361831
000720 00 00 00 00 00 00 f0 3f c4 b9 31 69 b6 46 e3 3f
       1.0 0.6023819021773353
000730 b2 54 4a 22 bf ad ed 3f 8d bb a7 6c a0 97 ed 3f
       0.9274593038304799 0.924759113518904
000740 22 c4 9d 6d 86 c8 ae 3f 5a f9 e0 16 5d 1b e3 3f
       0.060123635178463766 0.5970902869083077
000750 00 00 00 00 00 00 f0 3f 5e 61 be db 3a 40 c9 3f
       1.0 0.1972726414649157
000760 35 ed 3e a1 87 74 d3 3f 51 dd d1 ee 30 4c e3 3f
       0.3039874148050388 0.6030506767701046
000770 c3 70 6c 83 0c 8d e5 3f 9a 41 ff ba f8 e6 ef 3f
       0.6734678809039213 0.9969447757994658
000780 00 00 00 00 00 00 f0 3f 6e bb b1 de 4c 35 da 3f
       1.0 0.40950319049345907
000790 0b 1c b1 0b 51 09 e1 3f 38 f3 06 0a 0a 52 db 3f
       0.5323872784000526 0.426882276336801
0007a0 0a fb b2 0a cb c9 d2 3f 1f dd fd aa 11 17 ee 3f
       0.29356647534216107 0.9403160419159667
0007b0 00 00 00 00 00 00 f0 3f 64 82 5a 99 02 49 de 3f
       1.0 0.4732061860650332
0007c0 be dc 67 62 ad 34 e4 3f a5 23 3d 2d 32 36 eb 3f
       0.6314303323732913 0.8503657229967884
0007d0 a5 a8 8f c9 02 ac e1 3f 9d 18 4c cc 08 af e5 3f
       0.5522474228612465 0.6776164999180484
0007e0 00 00 00 00 00 00 f0 3f e8 15 b7 cb bc 45 e0 3f
       1.0 0.5085128763973303
0007f0 13 8f 7b 75 57 64 cc 3f cc 5c 23 63 02 00 bc 3f
       0.22181218372781383 0.10937514229168527
